Laboratorios/Lab1/checkpoints/modelo_epoch_620.pth (torch, 7862 bytes, 10 tensors)

fc1.weight f4 [20, 24]
0	0x3ede1b92	0.4338041
1	0x3eb57010	0.3543706
2	0x3ec6c44f	0.38821647
3	0x3eb6c9b2	0.35700756
4	0x3ed074dc	0.40714157
5	0x3ecce8cc	0.4002136
6	0x3eb6196c	0.3556627
7	0x3ed8f61b	0.42375264
8	0x3ebc5e26	0.3679058
9	0x3ec74d39	0.38926104
10	0x3eb34311	0.35012105
11	0x3e702990	0.23453355
12	0x3e5e3a22	0.21701863
13	0x3e3938b2	0.18088034
14	0x3d861ed9	0.065488525
15	0x3ddc0057	0.10742252
16	0x3ead2d0b	0.33823428
17	0x3d868585	0.065684356
18	0x3e58fc79	0.2119006
19	0x3e733f7e	0.23754689
20	0x3d603eb0	0.054747283
21	0x3ecdc92a	0.40192538
22	0x3ec46b8f	0.3836331
23	0x3ee000b9	0.4375055
24	0x3ef256e1	0.47331908
25	0x3ec22780	0.3792076
26	0x3ecf5113	0.40491542
27	0x3ebccfdd	0.36877337
28	0x3ef377d0	0.47552347
29	0x3ed76158	0.42066455
30	0x3ec067a1	0.37579063
31	0x3ef7c062	0.48388964
32	0x3eb9d81d	0.36297694
33	0x3ec45f41	0.38353923
34	0x3eb0b741	0.34514812
35	0x3e83fca6	0.25778693
36	0x3e8fa584	0.28055966
37	0x3e8683e2	0.26272494
38	0x3ef44f15	0.47716585
39	0x3e8eb23a	0.2787035
40	0x3ebb5cb3	0.3659416
41	0x3e5a884b	0.21341054
42	0x3eb01989	0.34394482
43	0x3e846eb1	0.258657
44	0xbe4d82fb	-0.20069496
45	0x3ece583f	0.403017
46	0x3ef23ad3	0.47310504
47	0x3efdddfb	0.4958342
48	0x3de83c4e	0.11339627
49	0x3e5999f4	0.21250135
50	0x3e3e1415	0.18562348
51	0x3e4b12f5	0.1983145
52	0x3d8abc0b	0.067741476
53	0x3e1c6703	0.15273671
54	0x3e16d752	0.14730576
55	0x3e076511	0.13222148
56	0x3dab70b5	0.083711065
57	0x3e3f1c95	0.18663247
58	0x3d83ec18	0.06441516
59	0x3d56ca68	0.052439123
60	0x3d5498c3	0.051903497
61	0x3df4f600	0.11960983
62	0xbf3aa775	-0.7291177
63	0x3d4168b1	0.047218982
64	0x3ddb2cb4	0.10701886
65	0x3dd1b84f	0.10240232
66	0xbdb5a7ed	-0.0886992
67	0x3d9b912f	0.07596051
68	0x3f456ee4	0.7712233
69	0x3de232ce	0.110448465
70	0x3deaf837	0.114731245
71	0x3dee5cb4	0.116387755
72	0x3df4475b	0.119276725
73	0x3e6c09d5	0.23050626
74	0x3e31f25e	0.17377612
75	0x3e7f6527	0.2494093
76	0x3de0df77	0.109801225
77	0x3e2d292e	0.1691024
78	0x3e5b4ae7	0.21415292
79	0x3ddce866	0.10786514
80	0x3e761aba	0.24033633
81	0x3e86d29e	0.26332563
82	0x3e819d94	0.25315535
83	0x3e902865	0.2815582
84	0x3e69385b	0.22775404
85	0x3e001be7	0.12510644
86	0xbf3ad5b1	-0.7298232
87	0x3e3c54e6	0.18391761
88	0x3e62543d	0.22102447
89	0x3e58adf8	0.21160114
90	0xbab64dab	-0.0013908645
91	0x3bedd82e	0.0072584366
92	0x3f4b5860	0.79431725
93	0x3e2a2200	0.16614532
94	0x3ddd3d5c	0.10802719
95	0x3daec55c	0.08533737
96	0x3d492575	0.049107987
97	0x3e2c383f	0.16818331
98	0x3e03e67a	0.12880889
99	0x3e046cc1	0.12932111
100	0x3c88cd99	0.0166996
101	0x3e179306	0.14802179
102	0x3dcf204d	0.10113583
103	0x3df7abd3	0.1209332
104	0x3d1aaba2	0.037761338
105	0x3e347a1c	0.17624706
106	0x3dd527f9	0.10408015
107	0x3e206471	0.15663315
108	0x3e464873	0.19363575
109	0x3e1afe0a	0.1513597
110	0xbf4638e7	-0.77430576
111	0x3d0d00f8	0.034424752
112	0x3da7dabb	0.081960164
113	0x3e184db3	0.1487339
114	0xbd20dc06	-0.03927233
115	0x3dcf4a54	0.10121599
116	0x3f50cd84	0.8156359
117	0x3d624b62	0.055247672
118	0x3d84d6a0	0.06486249
119	0x3d9146b9	0.070935674
120	0xbb49beaa	-0.003078381
121	0xba8d023c	-0.0010758112
122	0xbc7a6047	-0.015281743
123	0x3b98670d	0.0046509565
124	0xbbe5dc66	-0.007014799
125	0xbc449089	-0.0119973505
126	0xbc4dce3b	-0.012561376
127	0xbbbb811b	-0.0057221777
128	0xbcf8e2f2	-0.030381653
129	0xbc164677	-0.009172074
130	0xbc71526e	-0.014729125
131	0xbc8a192a	-0.016857702
132	0x3b388709	0.002815666
133	0xbb863466	-0.004095602
134	0x3c1b2cbe	0.009471117
135	0x3c19c14f	0.009384467
136	0xbc657a82	-0.014006259
137	0x3c1c9762	0.009557577
138	0xbcce4216	-0.025177997
139	0xbc3c3200	-0.01148653
140	0x3c2290a5	0.009922181
141	0xbca1c7e8	-0.019748643
142	0xbc8e3e45	-0.017363677
143	0xbb068ac4	-0.0020529488
144	0x3e83242f	0.25613543
145	0x3e9c594e	0.30536884
146	0x3e8ade83	0.27122888
147	0x3ead58da	0.3385685
148	0x3e629c94	0.22130042
149	0x3e8754fb	0.26432022
150	0x3e99c900	0.30036163
151	0x3e53497b	0.206335
152	0x3e9569bb	0.29182228
153	0x3e9ba186	0.3039667
154	0x3e9af2b1	0.30263284
155	0x3ed62807	0.41827413
156	0x3e79e55c	0.244039
157	0x3e4e42bd	0.20142646
158	0xbf100d1d	-0.5627001
159	0x3e67c152	0.2263234
160	0x3e9027fc	0.28155506
161	0x3e7b716b	0.24554984
162	0x3da27040	0.07931566
163	0x3da544ec	0.080697864
164	0x3f1c69c3	0.6109888
165	0x3eadeb3d	0.33968535
166	0x3e8ae61a	0.2712868
167	0x3e6272c7	0.22114097
168	0x3d7c5070	0.06160015
169	0x3e109709	0.14120115
170	0x3e29709e	0.16546866
171	0x3df4ada2	0.1194718
172	0x3d5aab3a	0.05338595
173	0x3e0e9677	0.13924585
174	0x3db0334e	0.086035356
175	0x3e098a33	0.13431625
176	0x3cef9605	0.02924634
177	0x3e19f74b	0.15035741
178	0x3d8f9653	0.07011094
179	0x3d7270c3	0.05918957
180	0x3d03aab1	0.032145206
181	0x3d706b87	0.058696296
182	0xbf28f411	-0.65997416
183	0x3c32ba95	0.010908742
184	0x3ddcff12	0.10790838
185	0x3d73b32c	0.059497043
186	0xbdfd1ea5	-0.123593606
187	0x3d556f8e	0.05210834
188	0x3f35967a	0.70932734
189	0x3d16afe4	0.036788836
190	0x3def284b	0.11677607
191	0x3e08fe5c	0.1337828
192	0x3dbd57a4	0.09245232
193	0x3e89c347	0.26906797
194	0x3e4d3a2e	0.20041725
195	0x3e8de2e1	0.27712157
196	0x3df74f6e	0.12075697
197	0x3ddf568f	0.109051816
198	0x3e8825e0	0.26591396
199	0xbde459d4	-0.11149946
200	0x3e8e096a	0.27741557
201	0x3e683d5f	0.22679661
202	0x3e1002a8	0.14063513
203	0x3e350d71	0.17680909
204	0x3e1dc110	0.15405679
205	0x3e173601	0.14766695
206	0x3f2a7973	0.66591567
207	0x3e644727	0.22292767
208	0x3e5beaf8	0.21476352
209	0x3e2e1e8d	0.17003842
210	0x3ec24e1b	0.37950215
211	0x3e2e76df	0.17037533
212	0xbf427a66	-0.75968015
213	0x3e3cda67	0.18442689
214	0x3d440d5c	0.047864303
215	0xbd37c2e0	-0.04486358
216	0x3b24672a	0.0025085905
217	0xbbec7d4b	-0.0072170845
218	0xbb8fb5b9	-0.0043856767
219	0xbc1c53e3	-0.0095414845
220	0x3b57fbe3	0.0032956533
221	0x3ae89bd3	0.0017746635
222	0xbc671395	-0.01410379
223	0xbb28cfb4	-0.0025758566
224	0xbb4707a5	-0.0030369547
225	0xbcb1d601	-0.02170849
226	0xbc09b1c6	-0.008404201
227	0xbb664734	-0.0035137655
228	0xbb25ff10	-0.002532903
229	0xbaf9c3b9	-0.0019055522
230	0xbb53e16e	-0.0032330411
231	0xbc9e5c05	-0.019330988
232	0x3b8c21bb	0.004276482
233	0x3b418d32	0.0029533622
234	0xbbba66c0	-0.0056885183
235	0xbbe2df8f	-0.006923623
236	0xbcef1ca1	-0.029188456
237	0xbb8813fc	-0.004152773
238	0xbbc4b338	-0.00600281
239	0xbc48666f	-0.012231453
240	0x3dc1df0e	0.094663724
241	0x3e204667	0.15651856
242	0x3e2459f6	0.16049942
243	0x3dfa09bb	0.12208887
244	0x3d03f216	0.032213293
245	0x3e021151	0.12701918
246	0x3de0809a	0.10962029
247	0x3dd71428	0.105018914
248	0x3d1a61e3	0.03769101
249	0x3e280066	0.16406402
250	0x3d5acd6c	0.05341856
251	0xbd1579b4	-0.03649302
252	0x3b4df82c	0.003142844
253	0x3da76740	0.0817399
254	0xbf27a2b3	-0.65482634
255	0x3da17f8d	0.078856565

fc1.bias f4 [20]
0	0x3ebc04da	0.3672245
1	0x3eb370f7	0.35047123
2	0x3eac32fa	0.33632642
3	0x3ea8d21a	0.32972795
4	0x3eacf026	0.3377697
5	0xbc241390	-0.01001443
6	0x3eaad412	0.33364922
7	0x3e9a914e	0.30188984
8	0x3d688e8f	0.05677658
9	0xbbad99e2	-0.0052978853
10	0x3e9736b5	0.29533926
11	0xbb8dadd4	-0.0043237004
12	0x3ea744e2	0.3266974
13	0x3e95429b	0.29152378
14	0x3e3585af	0.17726777
15	0x3e9f89a6	0.31159705
16	0x00000000	0.0
17	0x3e892506	0.2678606
18	0xbbf8e9f1	-0.0075962474
19	0xbc26c097	-0.010177753

fc2.weight f4 [15, 20]
0	0x3f1499e8	0.5804734
1	0x3f23c236	0.6396822
2	0x3e96ae2f	0.29429767
3	0x3db23e02	0.08703233
4	0xbab4a92a	-0.0013783325
5	0x3e2363a1	0.15955974
6	0x3eb37ca4	0.3505603
7	0xbd8dde28	-0.069271386
8	0x3ea870e7	0.32898638
9	0xbdd95cf8	-0.106134355
10	0x3e43dddc	0.19127601
11	0x3e0e2d24	0.13884407
12	0x3e0a7951	0.13522841
13	0x3e51e89c	0.2049889
14	0x3ee18e33	0.44053802
15	0x3ee2be57	0.44285843
16	0x3e16f14a	0.14740482
17	0xbd39d36d	-0.045367647
18	0x3dd4d95b	0.1039302
19	0xbd70c6b2	-0.05878324
20	0x3dd7fb00	0.10545921
21	0xbc9c69b7	-0.019093378
22	0xbe5525ea	-0.20815244
23	0x3d8189d7	0.06325119
24	0xbdf4e035	-0.119568266
25	0x3e4a15ad	0.19734831
26	0xbe157cdd	-0.14598413
27	0x3e166913	0.1468852
28	0xbcce2a5c	-0.025166683
29	0xbe118d7d	-0.1421413
30	0x3dccf181	0.10007001
31	0xbd59e990	-0.05320126
32	0xbd0d94f5	-0.034565885
33	0x3e2a7ce9	0.16649212
34	0xbc9cbedb	-0.019133976
35	0xba8e1218	-0.0010839133
36	0xbdebfa85	-0.11522392
37	0x3cbfa27e	0.023392912
38	0x3d9af394	0.0756599
39	0x3e3c4e3b	0.18389218
40	0x3d2ce43a	0.04220984
41	0xbd64781a	-0.0557786
42	0xbdde8941	-0.10866023
43	0xbdf790bc	-0.12088153
44	0xbe529dc5	-0.20567997
45	0x3e283f9c	0.16430515
46	0x3d420d61	0.04737604
47	0xbd2bf514	-0.04198177
48	0xbe64b97d	-0.22336383
49	0x3e3bab33	0.18327026
50	0xbde2886c	-0.11061177
51	0x3d64ee72	0.05589146
52	0xbe06cf35	-0.1316498
53	0x3dbe3398	0.092871845
54	0x3d6b1211	0.057390276
55	0x3d42bcb7	0.047543254
56	0x3e09aca7	0.13444768
57	0x3e418ff3	0.18902569
58	0x3dc04a2f	0.093891494
59	0x3e2169a2	0.15762952
60	0xbdea0141	-0.114260204
61	0x3d8a8216	0.06763093
62	0xbdbdba8a	-0.09264095
63	0x3e32927d	0.17438693
64	0xbe2806d5	-0.16408856
65	0xbe29ec47	-0.16594039
66	0x3e36e368	0.17860186
67	0x3c9cc0fb	0.019134989
68	0xbd84f8a4	-0.06492737
69	0xbbbe5d89	-0.00580949
70	0xbc87db69	-0.016584115
71	0xbd61d4d7	-0.05513462
72	0xbd4e9835	-0.050438125
73	0x3ddcbd93	0.10778346
74	0xbe2079ab	-0.15671413
75	0xbcd9712e	-0.026543226
76	0xbda70279	-0.081547685
77	0xbe27b9b2	-0.16379431
78	0xbd274d41	-0.04084516
79	0xbdb5a03d	-0.08868454
80	0x3df1262f	0.11774861
81	0x3c95b961	0.018276872
82	0x3ed67b78	0.41891074
83	0x3ee94643	0.45561418
84	0x3ec67580	0.3876152
85	0x3e24bb85	0.16087158
86	0x3ea29cf7	0.3176038
87	0x3f205c6d	0.6264103
88	0xbf183426	-0.5945457
89	0xbe44d43d	-0.19221587
90	0x3f154480	0.5830765
91	0xbd60c7bc	-0.05487798
92	0x3eac956b	0.33707747
93	0x3f149b93	0.5804989
94	0xbf0185db	-0.5059487
95	0x3e093f25	0.13402994
96	0xbe2419e4	-0.16025501
97	0x3eaba7fb	0.33526596
98	0xbe3c6a04	-0.18399817
99	0xbe3b958c	-0.18318766
100	0x3e0f5cab	0.14000194
101	0xbe124c0c	-0.14286822
102	0x3e8f508a	0.27991134
103	0x3f092113	0.5356609
104	0x3efdb8a7	0.4955494
105	0x3e3dfd0f	0.18553565
106	0x3ed5c9f9	0.41755655
107	0x3f1baf3e	0.60814273
108	0xbf0cd4be	-0.5501212
109	0xbd35bf2b	-0.044371765
110	0x3f1ab0ca	0.6042601
111	0xbe038672	-0.12844256
112	0x3f2df2dc	0.679487
113	0x3eee0fda	0.4649647
114	0xbeabe6a7	-0.3357441
115	0xbe8c272c	-0.27373636
116	0x3c0aec70	0.008479223
117	0x3f1f5dcd	0.62252504
118	0xbe1c52ab	-0.1526591
119	0xbc4f74de	-0.012662141
120	0x3e5bc67c	0.21462435
121	0x3e4679a3	0.19382338
122	0x3ec26dc5	0.37974373
123	0x3e9e9d29	0.3097928
124	0x3edaf589	0.42765453
125	0xbda9c39a	-0.08289261
126	0x3ef9d094	0.48791945
127	0x3f0b20eb	0.54347104
128	0xbf1a7bfb	-0.6034543
129	0xbdbec62f	-0.09315144
130	0x3eaae4fa	0.3337782
131	0xbdb32b0d	-0.08748446
132	0x3ec8e8af	0.39240023
133	0x3e718fd3	0.23590021
134	0xbeb61135	-0.35560003
135	0xbe1afda6	-0.15135822
136	0xbc86c403	-0.016450888
137	0x3ec9d4bb	0.39420113
138	0x3d431c4f	0.04763442
139	0x3e60585d	0.21908708
140	0xbe575955	-0.21030171
141	0xbe38e72b	-0.18056934
142	0xbdcb6fde	-0.09933446
143	0xbd9cb947	-0.07652526
144	0x3d21d1c9	0.039506707
145	0xbe14e2aa	-0.1453959
146	0xbdef77f8	-0.11692804
147	0xbd51a951	-0.051186863
148	0xbbb1b100	-0.0054227114
149	0xbb551790	-0.0032515265
150	0xbe585182	-0.21124843
151	0xbe4dd6d9	-0.20101489
152	0x3e178c08	0.14799511
153	0x3e210934	0.15726167
154	0x3e53a9cf	0.20670246
155	0x3cdb5998	0.02677612
156	0xbe1f6596	-0.15566096
157	0x3e3bad8f	0.18327926
158	0xbe142f87	-0.14471255
159	0x3e0626f9	0.13100804
160	0x3eb19e33	0.3469101
161	0x3f0ccd38	0.5500064
162	0xbe792417	-0.24330173
163	0x3d897236	0.06711237
164	0xbe1bfc98	-0.15233076
165	0x3df00ff0	0.1172179
166	0x3ddbc9ef	0.10731875
167	0x3d9b7f5e	0.07592653
168	0x3f11c387	0.56938976
169	0xbe4a14e0	-0.19734526
170	0x3d6ba661	0.05753172
171	0x3e641931	0.22275235
172	0xbd92b332	-0.07163085
173	0xbed59cb6	-0.41721123
174	0x3efdff17	0.4960868
175	0x3f27fc4d	0.65619355
176	0x3be80ef5	0.007081861
177	0xbe94ca80	-0.29060745
178	0xbe2dfb41	-0.16990377
179	0xbd605954	-0.05477269
180	0x3f0f1c67	0.55902714
181	0x3f19aab7	0.60026115
182	0xbf0a35ac	-0.53988147
183	0xbe1dda1b	-0.15415232
184	0xbeafa61a	-0.34306413
185	0xbde08991	-0.10963739
186	0xbdd1c7e0	-0.10243201
187	0xbf0b7134	-0.5446961
188	0x3eaea392	0.3410917
189	0x3e4866b0	0.19570422
190	0xbee4d943	-0.44697008
191	0x3df3e509	0.11908919
192	0xbec600d9	-0.38672522
193	0xbf24c7d1	-0.64367396
194	0x3f0b90a7	0.54517597
195	0x3f35ec83	0.71064013
196	0x3dbdcb1d	0.092672564
197	0xbf0d45f8	-0.5518489
198	0xbd2161e2	-0.03939999
199	0xbe5b8b4e	-0.2143986
200	0x3ecb2a79	0.39680842
201	0x3e9fd633	0.3121811
202	0x3ef681c7	0.48145887
203	0x3f1808b2	0.5938827
204	0x3edf7e03	0.43650827
205	0xbd80ec31	-0.0629505
206	0x3eedcd59	0.4644573
207	0x3ee01753	0.43767795
208	0xbf2aeeba	-0.6677052
209	0x3de66393	0.11249461
210	0x3eb5d9ac	0.35517633
211	0x3c8495ab	0.016184648
212	0x3f1174ed	0.5681904
213	0x3ed26c54	0.41098273
214	0xbf348679	-0.7051769
215	0x3d9e336d	0.077246524
216	0x3d873ccd	0.06603394
217	0x3f0f565e	0.5599116
218	0xbd8f792e	-0.07005535
219	0xbe287daf	-0.16454194
220	0xbdb451ef	-0.0880469
221	0xbda05711	-0.078291066
222	0x3d9839ff	0.07432937
223	0xbd1f4c18	-0.038890928
224	0xbdbbf2c3	-0.091771625
225	0xbe3dbc31	-0.1852882
226	0xbe117bdf	-0.1420741
227	0xbe050786	-0.12991151
228	0xbd88ccef	-0.06679713
229	0x3d3b16ad	0.045675922
230	0xbe141b3d	-0.14463516
231	0xbe3ec983	-0.18631558
232	0x3e3a105f	0.18170308
233	0x3c131bdb	0.008978809
234	0xbe4b11cb	-0.19831006
235	0x3c21cae9	0.009875038
236	0x3ce56e93	0.028006827
237	0x3dc9cfae	0.09854065
238	0x3d7eb3a1	0.062183026
239	0xbe0db9f1	-0.13840462
240	0x3e46dac2	0.19419387
241	0x3f251dd8	0.6449866
242	0xbeea91b8	-0.458143
243	0xbf2264ec	-0.63435245
244	0xbf1d25c7	-0.6138577
245	0x3e149df8	0.14513385
246	0x3d6720c2	0.056427725
247	0xbf1424d4	-0.57868695
248	0x3ee66bf6	0.45004243
249	0xbd83751a	-0.0641882
250	0xbf203e36	-0.62594926
251	0x3e3f8ab3	0.18705253
252	0xbedf8fae	-0.43664306
253	0xbeee5bb5	-0.46554342
254	0x3f0265b0	0.5093641
255	0x3f22eca5	0.6364234

fc2.bias f4 [15]
0	0x3de43fe1	0.111449964
1	0xbe47d1e2	-0.19513658
2	0xbdb0e63f	-0.08637666
3	0xbdef1714	-0.11674324
4	0x3e8d5c1d	0.2760934
5	0x3e2f9639	0.17147149
6	0x3e43441d	0.19068952
7	0xbe0455a3	-0.12923293
8	0x3efcb7d0	0.49358988
9	0x3ebe9f27	0.372308
10	0x3ef5952b	0.4796537
11	0xbd6a7f37	-0.057250228
12	0x3ea40784	0.32036984
13	0xbddb2e2e	-0.107021675
14	0x3cfd944d	0.030954504

fc3.weight f4 [10, 15]
0	0x3f09843c	0.537174
1	0x3ce9ea95	0.02855424
2	0xbe6f84a3	-0.2339044
3	0x3df10e26	0.11770277
4	0xbedab356	-0.42714947
5	0xbedeb4db	-0.43497357
6	0xbeb0667d	-0.34453192
7	0x3df4345b	0.119240485
8	0x3e929aec	0.2863382
9	0x3eabb8fc	0.3353957
10	0xbf06553b	-0.524738
11	0xbe178538	-0.14796913
12	0x3f05ef69	0.52318436
13	0xbe35a1ad	-0.17737456
14	0x3e4cd89d	0.20004506
15	0x3ecf6c9e	0.40512556
16	0x3e16572f	0.14681695
17	0x3e427e2e	0.18993446
18	0x3cb570b0	0.02214846
19	0xbe8f55e2	-0.2799521
20	0xbefabb34	-0.4897095
21	0xbe00aac1	-0.12565137
22	0xbe00efcc	-0.12591475
23	0x3e2986dd	0.16555353
24	0x3f185d7e	0.5951766
25	0xbefe26d5	-0.49639
26	0xbdb7ff31	-0.08984221
27	0x3e8d75e5	0.2762901
28	0xbdde6f2d	-0.10861049
29	0x3e829d72	0.25510746
30	0x3e97ec6e	0.2967257
31	0x3da298ba	0.079392865
32	0x3c045acb	0.008078287
33	0x3d82f44d	0.06394253
34	0x3e2af6ce	0.16695711
35	0x3e681066	0.22662506
36	0x3ed4959b	0.4152039
37	0xbdbf0e78	-0.093289316
38	0x3edd3255	0.43202463
39	0x3f0b9e0d	0.5453804
40	0x3eadf9aa	0.3397954
41	0xbdff5bed	-0.12468705
42	0x3e0c05cc	0.13674086
43	0xbe53b977	-0.20676218
44	0xbe585dec	-0.21129578
45	0x3eebb2c7	0.46034834
46	0xbe457367	-0.19282304
47	0x3d45c6f6	0.048285447
48	0xbe1172f3	-0.14204006
49	0xbeb852f5	-0.3600079
50	0xbf1649c8	-0.5870633
51	0xbf05c9ac	-0.5226085
52	0xbe147085	-0.14496048
53	0x3ef22c96	0.4729964
54	0x3f2641b7	0.6494402
55	0xbee514cd	-0.44742432
56	0xbd6d1e2c	-0.057890102
57	0x3f2d6983	0.67739123
58	0x3e818877	0.25299427
59	0xbe25dac4	-0.16196734
60	0x3eb950f2	0.3619457
61	0xbd6b41dc	-0.057435855
62	0xbd87f0ad	-0.06637702
63	0xbd5f72bd	-0.054552782
64	0x3f0b1572	0.543296
65	0x3edc0f9c	0.4298066
66	0x3eed42e2	0.4634009
67	0xbdcd11ca	-0.100131586
68	0x3e7e06ce	0.24807283
69	0xbf025557	-0.5091147
70	0x3ec058b6	0.3756768
71	0xbe7b797b	-0.2455806
72	0xbed6cbf1	-0.4195247
73	0x3def91df	0.116977446
74	0xbe4875a5	-0.19576128
75	0x3e7113cb	0.23542707
76	0xbd05d271	-0.032671396
77	0xbd8b6951	-0.06807197
78	0x3e80ed90	0.25181246
79	0xbed8eff1	-0.4237056
80	0xbf26ac03	-0.6510622
81	0xbea6f7dc	-0.32610977
82	0xbe82505e	-0.2545194
83	0x3ec74ff8	0.389282
84	0x3f027712	0.50962937
85	0xbe75f503	-0.24019246
86	0xbdf7559d	-0.12076876
87	0x3f06af5f	0.52611345
88	0x3ba485ca	0.0050208317
89	0x3da8241c	0.08210012
90	0x3eaf4643	0.34233293
91	0x3e2e912d	0.17047568
92	0xbe78c8f1	-0.24295403
93	0xbe21a6dc	-0.15786308
94	0x3edac899	0.4273117
95	0x3eafd017	0.34338447
96	0x3ed13935	0.40863958
97	0xbe74ade1	-0.23894455
98	0xbe5dca3e	-0.2165918
99	0xbe8b5f8d	-0.27221337
100	0x3ee0147d	0.4376563
101	0xbdd98051	-0.106201775
102	0xbee8aa41	-0.45442393
103	0xbd3b90ef	-0.045792516
104	0x3e11377c	0.14181322
105	0xbdd11a15	-0.10210053
106	0xbe4afa91	-0.19822146
107	0xbe716adb	-0.23575918
108	0x3e3735d4	0.17891628
109	0xbdcb4657	-0.09925526
110	0xbe77d32c	-0.2420165
111	0xbde96d05	-0.11397747
112	0xbe51f1c1	-0.20502378
113	0xbe440f69	-0.19146504
114	0xbd00d2b6	-0.03145095
115	0x3da62fd1	0.08114589
116	0x3d41b619	0.047292802
117	0xbe74ebfc	-0.23918146
118	0x3e47b1ab	0.19501369
119	0x3d35852f	0.044316467
120	0xbe1be298	-0.15223157
121	0x3d158bd4	0.036510304
122	0x3e21351d	0.15742917
123	0xbe4b65ba	-0.19863024
124	0xbd746a91	-0.059671942
125	0xbd9235ff	-0.07139205
126	0xbe1fa39b	-0.15589754
127	0xbe81dbed	-0.25363103
128	0x3c07e6c6	0.008294767
129	0x3d833cc0	0.064080715
130	0xbe53b89b	-0.2067589
131	0xbccab81b	-0.024745991
132	0x3e0fcc8d	0.14042874
133	0x3d921379	0.0713262
134	0x3dc033f5	0.0938491
135	0x3d07f465	0.033192057
136	0x3e71f760	0.23629522
137	0xbe544d9d	-0.20732732
138	0x3c83d93e	0.0160948
139	0x3e129391	0.14314105
140	0x3b0ed8da	0.0021796734
141	0xbe79776b	-0.2436196
142	0xbe2987ce	-0.16555712
143	0xbe602386	-0.21888551
144	0xbea7073a	-0.326227
145	0x3c9d3677	0.01919101
146	0xbe8141ec	-0.25245607
147	0xbe9895bb	-0.29801735
148	0xbe2bb289	-0.16767325
149	0xbe35084b	-0.17678945

fc3.bias f4 [10]
0	0x3e9c2fc5	0.30505195
1	0x3d094108	0.033509284
2	0x3eabaaf7	0.33528873
3	0x3e9e349a	0.30899507
4	0x3ef353ff	0.4752502
5	0xbddc483e	-0.107559666
6	0x3e8b9516	0.2726218
7	0xbe35453f	-0.17702197
8	0x3e294308	0.16529477
9	0xbd270303	-0.040774357

fc4.weight f4 [5, 10]
0	0xbe915ace	-0.2838959
1	0x3e1ee776	0.15517983
2	0xbdf8a983	-0.12141707
3	0x3e88e9eb	0.26740965
4	0xbdc51540	-0.09623194
5	0xbd8ea5ec	-0.06965241
6	0x3e29c714	0.16579849
7	0xbe1b1b4f	-0.15147136
8	0x3e0f4b7d	0.1399364
9	0x3ccf9ad5	0.025342384
10	0xbf0fd930	-0.56190777
11	0xbee62cef	-0.44956157
12	0x3ece4104	0.40283978
13	0xbf477e05	-0.77926666
14	0x3ecc7a2b	0.39936957
15	0xbf57d6e3	-0.84312266
16	0x3ecc2967	0.39875337
17	0x3e39c18f	0.18140243
18	0xbe58c06e	-0.21167156
19	0x3b2e02ee	0.002655204
20	0xbf2c0198	-0.6718993
21	0xbf32da92	-0.6986476
22	0x3bf09408	0.0073418655
23	0xbec9dbcd	-0.39425507
24	0x3efc6820	0.4929819
25	0xbf48b90c	-0.7840736
26	0x3e8eb1b7	0.2786996
27	0xbe5acd0c	-0.21367282
28	0xbcf1e7ac	-0.029529415
29	0xbcd3ed02	-0.02586985
30	0x3e95a61d	0.29228297
31	0x3da51d6c	0.080622524
32	0xbe800257	-0.25001785
33	0x3d63f007	0.05564883
34	0xbdc26342	-0.09491588
35	0xbe2adadb	-0.16685049
36	0x3db916bd	0.0903754
37	0xbe60054c	-0.2187702
38	0xbdb0dd7f	-0.08635997
39	0x3d15fede	0.036620013
40	0x3f0e05f5	0.5547784
41	0x3ec2eb2a	0.3807004
42	0x3ec3d08a	0.3824504
43	0x3f18d6f5	0.59703
44	0x3d905d63	0.07049062
45	0x3e6b3e6d	0.22973032
46	0xbddfb84b	-0.10923823
47	0x3ce25a72	0.027631018
48	0xbe0fe38a	-0.14051643
49	0xbeaaa9f7	-0.33332798

fc4.bias f4 [5]
0	0xbe976b0e	-0.29573864
1	0x3ea5ba6d	0.32368794
2	0xbd6d453e	-0.057927363
3	0xbe881c6d	-0.26584187
4	0x3ec58e17	0.38584968

fc5.weight f4 [4, 5]
0	0xbe99fc53	-0.3007532
1	0x3e09e49f	0.13466118
2	0xbf215cb4	-0.6303208
3	0x3eb64e1c	0.35606468
4	0x3edb2a6e	0.4280581
5	0xbe6b1c6d	-0.22960062
6	0x3f35e940	0.71059036
7	0x3f3805eb	0.7188403
8	0xbe87e64a	-0.26542884
9	0xbec45b59	-0.38350943
10	0x3e94aad1	0.29036573
11	0xbde14c40	-0.11000872
12	0x3dc8def0	0.09808147
13	0xbdf8efba	-0.12155099
14	0xbe45cbce	-0.19316027
15	0xbe342e23	-0.17595725
16	0xbc9e4159	-0.01931827
17	0xbdbfd257	-0.09366291
18	0xbed473a5	-0.4149448
19	0xbec7eaba	-0.3904627

fc5.bias f4 [4]
0	0x3d8b764f	0.06809675
1	0x3e0dd0e5	0.13849218
2	0x3de9939a	0.11405106
3	0xbf0d59c7	-0.55215114
