Laboratorios/Lab1/checkpoints/modelo_epoch_660.pth (torch, 7862 bytes, 10 tensors)

fc1.weight f4 [20, 24]
0.4367068 0.3572301 0.39119443 0.36021832 0.41092157 0.40341875 0.35827595 0.42414528
0.37133044 0.3922561 0.35242996 0.23602216 0.21759288 0.18403547 0.07588802 0.10917771
0.34376144 0.07024088 0.21385841 0.2413311 0.039009385 0.40369332 0.38718653 0.43997264
0.475488 0.38106474 0.40745807 0.37095258 0.4786378 0.42295188 0.37713364 0.48249745
0.3652728 0.38573727 0.34611565 0.25828013 0.27966052 0.26625937 0.4893322 0.2784589
0.36979306 0.21663067 0.34445062 0.2621734 -0.22296084 0.4030418 0.4767047 0.49798667
0.11244679 0.21212426 0.18432401 0.19727395 0.06584324 0.15186796 0.14757617 0.13526393
0.082660146 0.18565716 0.064727165 0.052998748 0.055320784 0.11545668 -0.7500415 0.04951861
0.10466099 0.100166656 -0.08730296 0.07331844 0.79638284 0.11211463 0.11188802 0.11505142
0.11850245 0.23035957 0.17270541 0.24855006 0.10810027 0.16843006 0.21466179 0.111165136
0.23955241 0.2625742 0.2537152 0.2822955 0.23171039 0.121009395 -0.75830024 0.18653625
0.21888371 0.20954654 0.00022270942 0.0046684723 0.82221705 0.16821076 0.105267674 0.08404547
0.048086416 0.16773272 0.12740722 0.12819561 0.01469116 0.14705001 0.10133785 0.12401687
0.036619134 0.17520083 0.10434728 0.15716349 0.19711596 0.14701177 -0.7972904 0.036711626
0.079518884 0.14643899 -0.03791608 0.09845621 0.84211373 0.05692072 0.061847046 0.06949327
-0.003078381 -0.0010758112 -0.015281743 0.0046509565 -0.007014799 -0.0119973505 -0.012561376 -0.0057221777
-0.030381653 -0.009172074 -0.014729125 -0.016857702 0.002815666 -0.004095602 0.009471117 0.009384467
-0.014006259 0.009557577 -0.025177997 -0.01148653 0.009922181 -0.019748643 -0.017363677 -0.0020529488
0.25612044 0.3060954 0.27113116 0.33856982 0.22059628 0.26460576 0.30177674 0.21001214
0.29215744 0.30411386 0.30414712 0.41970003 0.2487261 0.19862711 -0.59379417 0.22987455
0.28034616 0.24425286 0.081671014 0.07893876 0.63775283 0.34267548 0.26959783 0.22051375
0.060689196 0.14083667 0.16420428 0.11847794 0.051554833 0.13841642 0.08629925 0.13722542
0.028251788 0.14940421 0.07039535 0.05971876 0.035201102 0.05493079 -0.67637247 0.013016381
0.105609916 0.05732829 -0.12223351 0.049623955 0.73219484 0.03830475 0.114138834 0.13256758
0.09358848 0.2697084 0.20198551 0.27831167 0.122848205 0.11015101 0.26595426 -0.11418923
0.27863985 0.22798896 0.14057882 0.17647511 0.15160011 0.1513546 0.6797248 0.22124207
0.21727405 0.17231461 0.378447 0.17295788 -0.78189003 0.18325943 0.050753154 -0.043492556
0.0025085905 -0.0072170845 -0.0043856767 -0.0095414845 0.0032956533 0.0017746635 -0.01410379 -0.0025758566
-0.0030369547 -0.02170849 -0.008404201 -0.0035137655 -0.002532903 -0.0019055522 -0.0032330411 -0.019330988
0.004276482 0.0029533622 -0.0056885183 -0.006923623 -0.029188456 -0.004152773 -0.00600281 -0.012231453
0.09382757 0.15627027 0.15933599 0.12117455 0.030457947 0.1262987 0.11002852 0.10805119
0.036802955 0.16321155 0.053818766 -0.035876073 0.006494775 0.07792506 -0.672993 0.08118748
00000000: 0998 df3e dde6 b63e a34a c83e 896e b83e
00000010: 5064 d23e e78c ce3e f26f b73e 9229 d93e
00000020: 061f be3e cbd5 c83e b371 b43e cbaf 713e
00000030: abd0 5e3e cb73 3c3e 2e6b 9b3d 9098 df3d
00000040: 8001 b03e 73da 8f3d b3fd 5a3e 801f 773e
00000050: 4ec8 1f3d e4b0 ce3e 503d c63e 1844 e13e
00000060: 2a73 f33e eb1a c33e 589e d03e 7fed bd3e
00000070: 0410 f53e 268d d83e a917 c13e e809 f73e
00000080: 0905 bb3e 5b7f c53e 1236 b13e 4b3d 843e
00000090: aa2f 8f3e 2653 883e c089 fa3e 2a92 8e3e
000000a0: 8455 bd3e 6ed4 5d3e d55b b03e 983b 863e
000000b0: d94f 64be 7f5b ce3e a312 f43e 1cf8 fe3e
000000c0: 814a e63d 1a37 593e 6fbf 3c3e 2f02 4a3e
000000d0: d2d8 863d 4683 1b3e 351e 173e a182 0a3e
000000e0: b949 a93d e91c 3e3e ad8f 843d 3715 593d
000000f0: 0c98 623d 8d74 ec3d b802 40bf 07d4 4a3d
00000100: 8058 d63d 2d24 cd3d e5cb b2bd fa27 963d
00000110: bfdf 4b3f 5b9c e53d 8c25 e53d 14a0 eb3d
00000120: 6ab1 f23d 61e3 6b3e b0d9 303e e883 7e3e
00000130: ad63 dd3d ee78 2c3e 4dd0 5b3e 8caa e33d
00000140: 3a4d 753e 2070 863e f5e6 813e 0989 903e
00000150: 7d45 6d3e c6d3 f73d f71f 42bf 5c03 3f3e
00000160: 0d23 603e 5e93 563e 1b87 6939 fcf9 983b
00000170: d17c 523f 713f 2c3e 9496 d73d 0820 ac3d
00000180: 43f6 443d 20c2 2b3e 0a77 023e b645 033e
00000190: 31b3 703c 4794 163e 388a cf3d 8ffc fd3d
000001a0: f2fd 153d d967 333e 07b4 d53d 77ef 203e
000001b0: c4d8 493e 418a 163e 391b 4cbf ee5e 163d
000001c0: ccda a23d 1af4 153e e44d 1bbd 69a3 c93d
000001d0: c494 573f b325 693d 5453 7d3d 7d52 8e3d
000001e0: aabe 49bb 3c02 8dba 4760 7abc 0d67 983b
000001f0: 66dc e5bb 8990 44bc 3bce 4dbc 1b81 bbbb
00000200: f2e2 f8bc 7746 16bc 6e52 71bc 2a19 8abc
00000210: 0987 383b 6634 86bb be2c 1b3c 4fc1 193c
00000220: 827a 65bc 6297 1c3c 1642 cebc 0032 3cbc
00000230: a590 223c e8c7 a1bc 453e 8ebc c48a 06bb
00000240: 3822 833e 89b8 9c3e b4d1 8a3e 0659 ad3e
00000250: fee3 613e 687a 873e 7b82 9a3e 6c0d 573e
00000260: a995 953e d0b4 9b3e 2cb9 9b3e ece2 d63e
00000270: 0eb2 7e3e e864 4b3e e502 18bf 3c64 6b3e
00000280: 8889 8f3e 6c1d 7a3e 2243 a73d a5aa a13d
00000290: c543 233f 2973 af3e ba08 8a3e 5bce 613e
000002a0: 3c95 783d 7d37 103e 2b25 283e 90a4 f23d
000002b0: 292b 533d 09bd 0d3e a9bd b03d d284 0c3e
000002c0: 4b70 e73c 6bfd 183e 702b 903d a99b 743d
000002d0: 082f 103d 1cff 603d bf26 2dbf a942 553c
000002e0: 034a d83d 12d1 6a3d 9055 fabd 7d42 4b3d
000002f0: 1f71 3b3f 71e5 1c3d 9fc1 e93d ccbf 073e
00000300: 51ab bf3d 3817 8a3e 4ad5 4e3e de7e 8e3e
00000310: d797 fb3d da96 e13d 282b 883e 0bdc e9bd
00000320: e2a9 8e3e f075 693e e5f3 0f3e e4b5 343e
00000330: 0f3d 1b3e b3fc 1a3e 7202 2e3f 488d 623e
00000340: 177d 5e3e 3e73 303e cec3 c13e df1b 313e
00000350: f229 48bf 5ca8 3b3e 8ae2 4f3d 4025 32bd
00000360: 2a67 243b 4b7d ecbb b9b5 8fbb e353 1cbc
00000370: e3fb 573b d39b e83a 9513 67bc b4cf 28bb
00000380: a507 47bb 01d6 b1bc c6b1 09bc 3447 66bb
00000390: 10ff 25bb b9c3 f9ba 6ee1 53bb 055c 9ebc
000003a0: bb21 8c3b 328d 413b c066 babb 8fdf e2bb
000003b0: a11c efbc fc13 88bb 38b3 c4bb 6f66 48bc
000003c0: ab28 c03d 5005 203e f928 233e 5d2a f83d
000003d0: f282 f93c 7254 013e a256 e13d f149 dd3d
000003e0: b2be 163d ee20 273e 1171 5c3d caf2 12bd
000003f0: 1fd2 d43b 2d97 9f3d 4549 2cbf 9f45 a63d

fc1.bias f4 [20]
0.37265852 0.35621947 0.33127648 0.32505235 0.3325563 -0.01001443 0.33063224 0.29692173
0.062117815 -0.0052978853 0.2904792 -0.0043237004 0.32186645 0.28610024 0.18279934 0.3175346
0.0 0.262455 -0.0075962474 -0.010177753
00000000: 19cd be3e 6662 b63e 129d a93e 436d a63e
00000010: d244 aa3e 9013 24bc a148 a93e 2006 983e
00000020: 406f 7e3d e299 adbb b1b9 943e d4ad 8dbb
00000030: aecb a43e bb7b 923e c02f 3b3e e593 a23e
00000040: 0000 0000 8060 863e f1e9 f8bb 97c0 26bc

fc2.weight f4 [15, 20]
0.5840646 0.6444397 0.28717214 0.08207809 -0.01007371 0.15955974 0.34914064 -0.07727885
0.33652118 -0.106134355 0.18227513 0.13884407 0.12930821 0.19284095 0.44753954 0.44832814
0.14740482 -0.05735819 0.1039302 -0.05878324 0.10545921 -0.019093378 -0.20815244 0.06325119
-0.119568266 0.19734831 -0.14598413 0.1468852 -0.025166683 -0.1421413 0.10007001 -0.05320126
-0.034565885 0.16649212 -0.019133976 -0.0010839133 -0.11522392 0.023392912 0.0756599 0.18389218
0.04220984 -0.0557786 -0.10866023 -0.12088153 -0.20567997 0.16430515 0.04737604 -0.04198177
-0.22336383 0.18327026 -0.11061177 0.05589146 -0.1316498 0.092871845 0.057390276 0.047543254
0.13444768 0.18902569 0.093891494 0.15762952 -0.114260204 0.06763093 -0.09264095 0.17438693
-0.16408856 -0.16594039 0.17860186 0.019134989 -0.06492737 -0.00580949 -0.016584115 -0.05513462
-0.050438125 0.10778346 -0.15671413 -0.026543226 -0.081547685 -0.16379431 -0.04084516 -0.08868454
0.11700485 0.014768501 0.42900667 0.4646537 0.39937726 0.16087158 0.32295394 0.6371544
-0.6057352 -0.19221587 0.5944532 -0.05487798 0.34671557 0.5938154 -0.515647 0.12928493
-0.16025501 0.3488473 -0.18399817 -0.18318766 0.1389319 -0.14668317 0.29126358 0.54531175
0.5087069 0.18553565 0.42300662 0.6204156 -0.56034994 -0.044371765 0.6168441 -0.12844256
0.690115 0.4795768 -0.34475234 -0.2786634 0.008479223 0.6381275 -0.1526591 -0.012662141
0.21464896 0.19124343 0.38897595 0.31843284 0.43830565 -0.08289261 0.49343604 0.55306584
-0.61495656 -0.09315144 0.34437165 -0.08748446 0.40132242 0.24820864 -0.36529553 -0.15524186
-0.016450888 0.4061384 0.04763442 0.21908708 -0.21030171 -0.18056934 -0.09933446 -0.07652526
0.039506707 -0.1453959 -0.11692804 -0.051186863 -0.0054227114 -0.0032515265 -0.21124843 -0.20101489
0.14799511 0.15726167 0.20670246 0.02677612 -0.15566096 0.18327926 -0.14471255 0.13100804
0.35046175 0.55508775 -0.25356528 0.060320325 -0.16464935 0.1172179 0.10493996 0.06393237
0.57783234 -0.19734526 0.045118034 0.22275235 -0.079983525 -0.43411782 0.5038683 0.6620152
0.007081861 -0.30908453 -0.16990377 -0.05477269 0.56153727 0.60484457 -0.5515442 -0.16288751
-0.35679975 -0.10963739 -0.106470376 -0.55770147 0.34947738 0.19570422 -0.45983484 0.11908919
-0.39701 -0.6584996 0.5528043 0.7160333 0.092672564 -0.56869614 -0.03939999 -0.2143986
0.39601478 0.3086932 0.49123505 0.6026466 0.44796392 -0.0629505 0.4696208 0.4480602
-0.6785824 0.11249461 0.36625454 0.016184648 0.5775204 0.42399183 -0.71462387 0.07253854
0.06603394 0.5730144 -0.07005535 -0.16454194 -0.0880469 -0.078291066 0.07432937 -0.038890928
-0.091771625 -0.1852882 -0.1420741 -0.12991151 -0.06679713 0.045675922 -0.14463516 -0.18631558
0.18170308 0.008978809 -0.19831006 0.009875038 0.028006827 0.09854065 0.062183026 -0.13840462
0.19595939 0.64907193 -0.470215 -0.6439076 -0.6278678 0.14513385 0.05151337 -0.59190357
0.45839256 -0.0641882 -0.6390602 0.18705253 -0.44760934 -0.48011342 0.51688874 0.6413861
00000000: 4285 153f 00fa 243f 3a08 933e 8f18 a83d
00000010: 340c 25bc a163 233e 90c2 b23e 6044 9ebd
00000020: 814c ac3e f85c d9bd 55a6 3a3e 242d 0e3e
00000030: 5f69 043e 1978 453e e723 e53e 448b e53e
00000040: 4af1 163e 6cf0 6abd 5bd9 d43d b2c6 70bd
00000050: 00fb d73d b769 9cbc ea25 55be d789 813d
00000060: 35e0 f4bd ad15 4a3e dd7c 15be 1369 163e
00000070: 5c2a cebc 7d8d 11be 81f1 cc3d 90e9 59bd
00000080: f594 0dbd e97c 2a3e dbbe 9cbc 1812 8eba
00000090: 85fa ebbd 7ea2 bf3c 94f3 9a3d 3b4e 3c3e
000000a0: 3ae4 2c3d 1a78 64bd 4189 debd bc90 f7bd
000000b0: c59d 52be 9c3f 283e 610d 423d 14f5 2bbd
000000c0: 7db9 64be 33ab 3b3e 6c88 e2bd 72ee 643d
000000d0: 35cf 06be 9833 be3d 1112 6b3d b7bc 423d
000000e0: a7ac 093e f38f 413e 2f4a c03d a269 213e
000000f0: 4101 eabd 1682 8a3d 8aba bdbd 7d92 323e
00000100: d506 28be 47ec 29be 68e3 363e fbc0 9c3c
00000110: a4f8 84bd 895d bebb 69db 87bc d7d4 61bd
00000120: 3598 4ebd 93bd dc3d ab79 20be 2e71 d9bc
00000130: 7902 a7bd b2b9 27be 414d 27bd 3da0 b5bd
00000140: 3da0 ef3d 95f7 713c c3a6 db3e 17e7 ed3e
00000150: 2d7b cc3e 85bb 243e 385a a53e 8d1c 233f
00000160: 7611 1bbf 3dd4 44be 162e 183f bcc7 60bd
00000170: b484 b13e 4904 183f 7101 04bf 4563 043e
00000180: e419 24be 1d9c b23e 046a 3cbe 8c95 3bbe
00000190: 2a44 0e3e 1d34 16be 8020 953e 8d99 0b3f
000001a0: 9e3a 023f 0ffd 3d3e 5394 d83e 8fd3 1e3f
000001b0: 1873 0fbf 2bbf 35bd 7fe9 1d3f 7286 03be
000001c0: 60ab 303f 178b f53e 6183 b0be f8ac 8ebe
000001d0: 70ec 0a3c 535c 233f ab52 1cbe de74 4fbc
000001e0: f0cc 5b3e 51d5 433e db27 c73e a109 a33e
000001f0: 9969 e03e 9ac3 a9bd a6a3 fc3e b995 0d3f
00000200: cb6d 1dbf 2fc6 bebd 7b51 b03e 0d2b b3bd
00000210: 227a cd3e 682a 7e3e 0408 bbbe b9f7 1ebe
00000220: 03c4 86bc 5ff1 cf3e 4f1c 433d 5d58 603e
00000230: 5559 57be 2be7 38be de6f cbbd 47b9 9cbd
00000240: c9d1 213d aae2 14be f877 efbd 51a9 51bd
00000250: 00b1 b1bb 9017 55bb 8251 58be d9d6 4dbe
00000260: 088c 173e 3409 213e cfa9 533e 9859 db3c
00000270: 9665 1fbe 8fad 3b3e 872f 14be f926 063e
00000280: b96f b33e 3b1a 0e3f 4fd3 81be 7212 773d
00000290: d799 28be f00f f03d c3ea d63d f9ee 823d
000002a0: d2ec 133f e014 4abe b0cd 383d 3119 643e
000002b0: 67ce a3bd b144 debe 83fd 003f d479 293f
000002c0: f50e e83b 5440 9ebe 41fb 2dbe 5459 60bd
000002d0: e8c0 0f3f 18d7 1a3f 0032 0dbf fccb 26be
000002e0: 75ae b6be 9189 e0bd 240d dabd 86c5 0ebf
000002f0: b3ee b23e b066 483e 796f ebbe 09e5 f33d
00000300: e544 cbbe 6e93 28bf 9584 0d3f f54d 373f
00000310: 1dcb bd3d 1296 11bf e261 21bd 4e8b 5bbe
00000320: 73c2 ca3e 090d 9e3e 2983 fb3e 0c47 1a3f
00000330: 875b e53e 31ec 80bd 2372 f03e 2668 e53e
00000340: 93b7 2dbf 9363 e63d b785 bb3e ab95 843c
00000350: 60d8 133f 7515 d93e 97f1 36bf 168f 943d
00000360: cd3c 873d 12b1 123f 2e79 8fbd af7d 28be
00000370: ef51 b4bd 1157 a0bd ff39 983d 184c 1fbd
00000380: c3f2 bbbd 31bc 3dbe df7b 11be 8607 05be
00000390: efcc 88bd ad16 3b3d 3d1b 14be 83c9 3ebe
000003a0: 5f10 3a3e db1b 133c cb11 4bbe e9ca 213c
000003b0: 936e e53c aecf c93d a1b3 7e3d f1b9 0dbe
000003c0: 94a9 483e 9429 263f 05c0 f0be 21d7 24bf
000003d0: f2bb 20bf f89d 143e afff 523d fe86 17bf
000003e0: 6eb2 ea3e 1a75 83bd 7399 23bf b38a 3f3e
000003f0: 0d2d e5be 6dd1 f5be d252 043f e131 243f

fc2.bias f4 [15]
0.115998186 -0.19513658 -0.08637666 -0.11674324 0.27264488 0.16717027 0.18851921 -0.12923293
0.49923867 0.37788755 0.47634155 -0.057250228 0.32541522 -0.107021675 0.030954504
00000000: 7590 ed3d e2d1 47be 3fe6 b0bd 1417 efbd
00000010: 1c98 8b3e af2e 2b3e 2e0b 413e a355 04be
00000020: 369c ff3e 7a7a c13e 0ae3 f33e 377f 6abd
00000030: d39c a63e 2e2e dbbd 4d94 fd3c

fc3.weight f4 [10, 15]
0.54036975 0.02855424 -0.2339044 0.11770277 -0.44172955 -0.45166478 -0.35798848 0.119240485
0.29307678 0.3455567 -0.53580916 -0.14796913 0.53475994 -0.17737456 0.20004506 0.40840906
0.14681695 0.18993446 0.02214846 -0.29681513 -0.51089287 -0.14127016 -0.12591475 0.1748887
0.6132985 -0.5085819 -0.08984221 0.2994741 -0.10861049 0.25510746 0.30118242 0.079392865
0.008078287 0.06394253 0.16915224 0.22844687 0.41781458 -0.093289316 0.4368415 0.5492779
0.3419675 -0.12468705 0.13992861 -0.20676218 -0.21129578 0.4626308 -0.19282304 0.048285447
-0.14204006 -0.37482482 -0.6034563 -0.5363784 -0.14496048 0.47869942 0.6584334 -0.45909473
-0.057890102 0.6877339 0.25299427 -0.16196734 0.3630712 -0.057435855 -0.06637702 -0.054552782
0.5490506 0.43652427 0.46932784 -0.100131586 0.24470778 -0.5241391 0.3801075 -0.2455806
-0.43605736 0.116977446 -0.19576128 0.23699676 -0.032671396 -0.06807197 0.25181246 -0.44023067
-0.67068857 -0.3415243 -0.2545194 0.3964126 0.5241288 -0.2528152 -0.12076876 0.54428154
0.0050208317 0.08210012 0.3425081 0.17047568 -0.24295403 -0.15786308 0.43314514 0.35032696
0.4146547 -0.23894455 -0.22152774 -0.28526214 0.44183463 -0.106201775 -0.46880126 -0.045792516
0.14181322 -0.10210053 -0.19822146 -0.23575918 0.17891628 -0.09925526 -0.2420165 -0.11397747
-0.20502378 -0.19146504 -0.03145095 0.08114589 0.047292802 -0.23918146 0.19501369 0.044316467
-0.15223274 0.036510304 0.15742917 -0.19863024 -0.059671942 -0.07139205 -0.15589754 -0.25363103
0.008293798 0.06407982 -0.2067589 -0.024745991 0.14042754 0.0713262 0.0938491 0.033192057
0.23629522 -0.20732732 0.0160948 0.14314105 0.0021796734 -0.2436196 -0.16555712 -0.21888551
-0.326227 0.01919101 -0.25245607 -0.29801735 -0.16767325 -0.17678945
00000000: ac55 0a3f 95ea e93c a384 6fbe 260e f13d
00000010: 602a e2be 9b40 e7be 444a b7be 5b34 f43d
00000020: 290e 963e cfec b03e ca2a 09bf 3885 17be
00000030: 07e6 083f ada1 35be 9dd8 4c3e fe1a d13e
00000040: 2f57 163e 2e7e 423e b070 b53c 27f8 97be
00000050: e0c9 02bf 20a9 10be ccef 00be 0616 333e
00000060: 2101 1d3f 6c32 02bf 31ff b7bd ab54 993e
00000070: 2d6f debd 729d 823e 9534 9a3e ba98 a23d
00000080: cb5a 043c 4df4 823d 3f36 2d3e faed 693e
00000090: cbeb d53e 780e bfbd b0a9 df3e 7a9d 0c3f
000000a0: 5d16 af3e ed5b ffbd 7249 0f3e 77b9 53be
000000b0: ec5d 58be f2dd ec3e 6773 45be f6c6 453d
000000c0: f372 11be 0ae9 bfbe 1d7c 1abf 1850 09bf
000000d0: 8570 14be 1718 f53e 178f 283f 770e ebbe
000000e0: 2c1e 6dbd 540f 303f 7788 813e c4da 25be
000000f0: 78e4 b93e dc41 6bbd adf0 87bd bd72 5fbd
00000100: 958e 0c3f 1c80 df3e bd4b f03e ca11 cdbd
00000110: ad94 7a3e fb2d 06bf 739d c23e 7b79 7bbe
00000120: e942 dfbe df91 ef3d a575 48be 47af 723e
00000130: 71d2 05bd 5169 8bbd 90ed 803e ea65 e1be
00000140: 3fb2 2bbf 46dc aebe 5e50 82be 98f6 ca3e
00000150: 4e2d 063f fe70 81be 9d55 f7bd 0956 0b3f
00000160: ca85 a43b 1c24 a83d 395d af3e 2d91 2e3e
00000170: f1c8 78be dca6 21be 33c5 dd3e 0e5e b33e
00000180: 9f4d d43e e1ad 74be 2bd8 62be e10d 92be
00000190: 2638 e23e 5180 d9bd b806 f0be ef90 3bbd
000001a0: 7c37 113e 151a d1bd 91fa 4abe db6a 71be
000001b0: d435 373e 5746 cbbd 2cd3 77be 056d e9bd
000001c0: c1f1 51be 690f 44be b6d2 00bd d12f a63d
000001d0: 19b6 413d fceb 74be abb1 473e 2f85 353d
000001e0: e6e2 1bbe d48b 153d 1d35 213e ba65 4bbe
000001f0: 916a 74bd ff35 92bd 9ba3 1fbe eddb 81be
00000200: b6e2 073c 483c 833d 9bb8 53be 1bb8 cabc
00000210: 3dcc 0f3e 7913 923d f533 c03d 65f4 073d
00000220: 60f7 713e 9d4d 54be 3ed9 833c 9193 123e
00000230: dad8 0e3b 6b77 79be ce87 29be 8623 60be
00000240: 3a07 a7be 7736 9d3c ec41 81be bb95 98be
00000250: 89b2 2bbe 4b08 35be

fc3.bias f4 [10]
0.30897823 0.039412145 0.33681655 0.3117483 0.4752091 -0.10363823 0.27222413 -0.17702197
0.16529477 -0.040774357
00000000: 6532 9e3e a16e 213d 3873 ac3e 799d 9f3e
00000010: 9b4e f33e 4840 d4bd f660 8b3e 3f45 35be
00000020: 0843 293e 0303 27bd

fc4.weight f4 [5, 10]
-0.28400403 0.15457004 -0.121456936 0.26733553 -0.09623194 -0.06979171 0.16579849 -0.15147136
0.13992792 0.025342384 -0.59369534 -0.49417755 0.4053842 -0.80155 0.40311825 -0.87667507
0.402222 0.18140243 -0.21167156 0.002655204 -0.6947067 -0.73491174 0.006283704 -0.4119443
0.50109184 -0.80886614 0.28748524 -0.21367282 -0.029529415 -0.02586985 0.30159423 0.0909244
-0.24158476 0.06546442 -0.09488618 -0.1569593 0.0903754 -0.2187702 -0.086219005 0.036620013
0.5638647 0.3988916 0.3861157 0.60385376 0.067494914 0.24097212 -0.114868015 0.027631018
-0.14051643 -0.33332798
00000000: fa68 91be 9c47 1e3e 6abe f8bd 34e0 883e
00000010: 4015 c5bd f5ee 8ebd 14c7 293e 4f1b 1bbe
00000020: 4449 0f3e d59a cf3c 6bfc 17bf d704 fdbe
00000030: 858e cf3e 6132 4dbf 8465 ce3e c76d 60bf
00000040: 0bf0 cd3e 8fc1 393e 6ec0 58be ee02 2e3b
00000050: 4cd8 31bf 2d23 3cbf 88e7 cd3b 5dea d2be
00000060: 8e47 003f da11 4fbf 4431 933e 0ccd 5abe
00000070: ace7 f1bc 02ed d3bc 8f6a 9a3e 9236 ba3d
00000080: ff61 77be 3612 863d af53 c2bd f0b9 20be
00000090: bd16 b93d 4c05 60be 9793 b0bd defe 153d
000000a0: 7059 103f 853b cc3e f5b0 c53e 2996 1a3f
000000b0: c63a 8a3d 65c1 763e ec3f ebbd 725a e23c
000000c0: 8ae3 0fbe f7a9 aabe

fc4.bias f4 [5]
-0.29575163 0.32399687 -0.06045592 -0.26412502 0.3874993
00000000: c26c 97be ebe2 a53e a0a0 77bd 653b 87be
00000010: 4f66 c63e

fc5.weight f4 [4, 5]
-0.300738 0.116430305 -0.65214044 0.35647893 0.4348473 -0.22960062 0.7211067 0.74013454
-0.2654338 -0.39150813 0.29034773 -0.111810766 0.087423295 -0.12198863 -0.19834925 -0.17595725
-0.01979614 -0.09660637 -0.41494638 -0.39333856
00000000: 55fa 99be 0373 ee3d adf2 26bf 6884 b63e
00000010: 4ea4 de3e 6d1c 6bbe 739a 383f 7579 3d3f
00000020: f0e6 87be c173 c8be 75a8 943e 0bfd e4bd
00000030: fc0a b33d 2dd5 f9bd 111c 4bbe 232e 34be
00000040: 842b a2bc 8fd9 c5bd da73 d4be ac63 c9be

fc5.bias f4 [4]
0.06857913 0.13849814 0.11376919 -0.5522592
00000000: 3773 8c3d 75d2 0d3e d2ff e83d dc60 0dbf
