Laboratorios/Lab1/checkpoints/modelo_epoch_160.pth (torch, 7862 bytes, 10 tensors)

fc1.weight f4 [20, 24]
000000 94 c8 87 3e 82 88 6d 3e 02 1a 78 3e 1d b4 79 3e
       0.26520216 0.23196605 0.24228671 0.24385114
000010 74 91 76 3e 2b 3c 78 3e ce ba 64 3e 0f 4c 71 3e
       0.24078923 0.24241702 0.22336885 0.2356417
000020 56 f8 66 3e 01 67 81 3e 75 1c 80 3e fc 1d 30 3e
       0.2255567 0.25273898 0.2502171 0.17198938
000030 da fe 03 3e 5d e3 97 3d 07 e3 5d be 45 9e 9e 3d
       0.12890187 0.07416413 -0.21668635 0.07745031
000040 8c 0d 50 3e 6f 9e 09 3d 8c 46 11 3d af 77 ad 3d
       0.20317668 0.03359836 0.03546767 0.084700935
000050 a3 9d 86 3e ef 76 83 3e 55 63 71 3e 40 c9 81 3e
       0.26292142 0.25676677 0.23573048 0.25348854
000060 8c 9a 7c 3e 59 29 7d 3e ef c2 72 3e b4 b2 76 3e
       0.2466833 0.24722804 0.23707174 0.24091607
000070 46 75 7f 3e 51 ca 6e 3e ab 02 79 3e 33 07 83 3e
       0.2494708 0.23319365 0.24317424 0.2559143
000080 a4 46 5e 3e c2 6c 70 3e b9 ea 6e 3e 22 85 4a 3e
       0.21706635 0.23478988 0.23331727 0.19777349
000090 90 79 48 3e 06 21 21 3e 93 76 c6 3d 76 e5 73 3e
       0.19577622 0.15735254 0.09690585 0.23818001
0000a0 c9 42 7f 3e 62 a8 51 3e fb 69 1b 3e c0 ff 03 3e
       0.2492782 0.20474389 0.15177147 0.1289053
0000b0 96 1c 7e 3e 3d df 66 3e c6 76 8b 3e a3 b5 8c 3e
       0.24815592 0.22546096 0.27239054 0.27482328
0000c0 51 5e 70 3e 32 91 63 3e fc 1d 68 3e 4d 6f 77 3e
       0.23473479 0.22223356 0.22667688 0.24163552
0000d0 37 df 7b 3e af 88 74 3e bf 4f 2c 3e 0e cf 81 3e
       0.24596868 0.23880266 0.16827296 0.25353283
0000e0 97 15 19 3e 47 60 61 3e 7f ce f5 3d 11 c0 fb 3c
       0.14949642 0.22009383 0.12002277 0.030731233
0000f0 90 d1 60 b9 a4 2d 25 3d 5b a6 84 be 46 5a 18 bd
       -0.00021440373 0.04032673 -0.2590817 -0.037195466
000100 2c 3d 6a 3d 6d 96 99 bd 9b 2a 8e bd ab 97 f8 3c
       0.057187244 -0.074993946 -0.0694172 0.030345758
000110 0c 94 74 3e 4a 11 65 3e 91 d8 77 3e b5 e5 80 3e
       0.238846 0.22369877 0.24203707 0.25175253
000120 d5 c9 52 3e 56 04 4b 3e d1 f6 4c 3e 2c 62 56 3e
       0.20584805 0.19825873 0.20016028 0.20935887
000130 2e a2 74 3e d5 1a 5e 3e 45 4f 2f 3e c2 cd 7a 3e
       0.23889992 0.21689923 0.17120083 0.24492553
000140 0f ad 53 3e a9 b1 67 3e 23 fa 57 3e b6 90 d7 3d
       0.20671485 0.22626366 0.21091513 0.10525648
000150 39 db 4a 3d 43 7f 33 3c ae f6 6b be f2 2b ee 3c
       0.049525473 0.0109556345 -0.2304332 0.02907369
000160 87 1a 0d 3e 79 1c 8a bd b2 f9 27 bd 18 04 64 37
       0.1377965 -0.06743712 -0.041009612 1.3590812e-05
000170 3a 43 84 3e 9d 08 4b 3e 5b 04 59 3e 98 4a 6e 3e
       0.2583254 0.19827504 0.21193068 0.23270643
000180 8b c0 44 3e 07 69 3c 3e 16 48 3b 3e 65 5d 3a 3e
       0.19214074 0.1839944 0.18289217 0.1819969
000190 ba 0c 6a 3e 14 4b 78 3e 45 e1 01 3e a7 af 82 3e
       0.22856417 0.2424739 0.1268359 0.25524637
0001a0 dc a1 ed 3d 26 54 5e 3e cb 31 25 3e 4d 04 06 3e
       0.11603138 0.21711788 0.16132276 0.13087578
0001b0 2b ff 07 3e 6b 63 89 3d 40 37 8e be 1c 07 81 bd
       0.13280933 0.067084156 -0.27776527 -0.06300184
0001c0 40 2a f5 3c 42 51 11 bd ce df 9f bc ed 94 80 3d
       0.029927373 -0.035477884 -0.019515898 0.06278405
0001d0 62 9f 79 3e 78 95 30 3e 34 9c 5f 3e b2 c6 6c 3e
       0.24377206 0.17244518 0.2183693 0.23122671
0001e0 aa be 49 bb 35 02 8d ba 47 60 7a bc 0d 67 98 3b
       -0.003078381 -0.0010758104 -0.015281743 0.0046509565
0001f0 66 dc e5 bb 89 90 44 bc 3b ce 4d bc 1b 81 bb bb
       -0.007014799 -0.0119973505 -0.012561376 -0.0057221777
000200 f2 e2 f8 bc 77 46 16 bc 6e 52 71 bc 2a 19 8a bc
       -0.030381653 -0.009172074 -0.014729125 -0.016857702
000210 0a 87 38 3b 66 34 86 bb be 2c 1b 3c 4f c1 19 3c
       0.0028156661 -0.004095602 0.009471117 0.009384467
000220 82 7a 65 bc 62 97 1c 3c 16 42 ce bc 00 32 3c bc
       -0.014006259 0.009557577 -0.025177997 -0.01148653
000230 a5 90 22 3c e8 c7 a1 bc 45 3e 8e bc c4 8a 06 bb
       0.009922181 -0.019748643 -0.017363677 -0.0020529488
000240 33 3c 84 3e a8 6e 74 3e f8 1f 71 3e f9 c7 84 3e
       0.25827178 0.23870337 0.23547351 0.25933817
000250 37 e6 66 3e 34 61 69 3e f8 74 5a 3e 72 c7 6e 3e
       0.22548757 0.22790986 0.21333683 0.2331827
000260 a9 c9 48 3e 35 66 68 3e cc 24 3d 3e 36 39 0a 3e
       0.19608177 0.22695239 0.18471068 0.13498387
000270 a7 b6 cc 3d eb 4a 9a 3d 81 e1 7a be fe 95 c3 3d
       0.09995776 0.07533821 -0.24500085 0.09550093
000280 90 14 47 3e 58 dc 81 3c e7 f8 58 ba 13 98 5c 3d
       0.19441438 0.015852138 -0.00082768354 0.053855967
000290 c3 96 82 3e 1f c1 76 3e 69 f9 8a 3e b5 0f 81 3e
       0.25505647 0.24097107 0.2714341 0.25207296
0002a0 1c fa 34 3e 9e fe 32 3e 22 43 53 3e 46 f6 46 3e
       0.17673534 0.17479941 0.20631078 0.19429883
0002b0 8f 88 6c 3e c1 bf 6c 3e 5e 18 14 3e af 9b 72 3e
       0.23098968 0.23120023 0.1446242 0.23692201
0002c0 6d 3c 06 3e f3 8d 64 3e 85 47 20 3e 57 fd 92 3d
       0.13108988 0.22319774 0.15652283 0.07177227
0002d0 4f 9b cd 3c 24 4c 93 3c 2c 9c 81 be 54 d4 f0 bc
       0.025098471 0.017980643 -0.25314462 -0.029398121
0002e0 2d 34 97 3d 6e 14 77 bd 79 59 82 bd 33 12 0f ba
       0.073829986 -0.060322218 -0.06364722 -0.0005457729
0002f0 61 56 58 3e f7 46 2e 3e fe 1f 67 3e dc 7b 73 3e
       0.21126701 0.17019258 0.22570798 0.23777717
000300 6d c3 ae bd 5e 1f a8 3d b8 8a ad 3d 14 70 87 3d
       -0.08533368 0.08209108 0.08473724 0.06613174
000310 28 73 12 be 0f 03 48 bd 86 26 1a 3e 5a 7a 35 be
       -0.14301741 -0.048831042 0.15053758 -0.17722455
000320 3c ef fd 3d d4 25 14 bc 54 00 bf 3c a6 c5 ff 3d
       0.12399146 -0.009042222 0.023315586 0.1248887
000330 13 86 ec 3d df 6e 09 3e 06 24 89 3e 01 7f 6a 3e
       0.1154901 0.134212 0.26785296 0.2290001
000340 f2 3c 45 3e d5 ce 69 3e bd 3f 71 3e 88 99 49 3e
       0.1926153 0.22832806 0.2355947 0.19687474
000350 84 91 3e be ec 19 99 bd c8 2a b5 bd 42 03 1a be
       -0.18610197 -0.07475647 -0.088460505 -0.15040305
000360 2a 67 24 3b 4b 7d ec bb b9 b5 8f bb e3 53 1c bc
       0.0025085905 -0.0072170845 -0.0043856767 -0.0095414845
000370 e3 fb 57 3b d3 9b e8 3a 95 13 67 bc b4 cf 28 bb
       0.0032956533 0.0017746635 -0.01410379 -0.0025758566
000380 a5 07 47 bb 01 d6 b1 bc c6 b1 09 bc 34 47 66 bb
       -0.0030369547 -0.02170849 -0.008404201 -0.0035137655
000390 10 ff 25 bb b9 c3 f9 ba 6e e1 53 bb 05 5c 9e bc
       -0.002532903 -0.0019055522 -0.0032330411 -0.019330988
0003a0 bb 21 8c 3b 32 8d 41 3b c0 66 ba bb 8f df e2 bb
       0.004276482 0.0029533622 -0.0056885183 -0.006923623
0003b0 a1 1c ef bc fc 13 88 bb 38 b3 c4 bb 6f 66 48 bc
       -0.029188456 -0.004152773 -0.00600281 -0.012231453
0003c0 a9 8f 50 3e ab 80 28 3e 27 1a 3e 3e f6 5d 36 3e
       0.20367302 0.16455333 0.18564664 0.17809281
0003d0 fd 9e 4f 3e fe d9 52 3e 49 cf 06 3e 2b de 4f 3e
       0.20275493 0.2059097 0.1316501 0.20299594
0003e0 c4 eb e1 3d 90 48 49 3e 05 cf fe 3d 2a 38 31 bd
       0.11031297 0.19656587 0.124418296 -0.043266453
0003f0 da 22 22 bd fc 42 8c 3b 9b 69 61 be f5 6e 36 3c
       -0.03958402 0.004280446 -0.22012942 0.011134853

fc1.bias f4 [20]
000000 b0 12 7c 3e 8e c5 75 3e 79 4b 6d 3e b7 0c 5f 3e
       0.24616504 0.24001142 0.23173322 0.21782194
000010 2c 3c 5b 3e 90 13 24 bc 81 ff 6d 3e 7d 1c 55 3e
       0.21409672 -0.01001443 0.23241998 0.20811649
000020 fc 9f 9c 3d e2 99 ad bb cb 3b 39 3e d4 ad 8d bb
       0.07647702 -0.0052978853 0.18089215 -0.0043237004
000030 b4 8a 64 3e 58 3c 3b 3e 5c a4 f6 3d 8a 9f 45 3e
       0.22318536 0.18284738 0.12043068 0.1929914
000040 00 00 00 00 f1 d3 33 3e f1 e9 f8 bb 97 c0 26 bc
       0.0 0.17561318 -0.0075962474 -0.010177753

fc2.weight f4 [15, 20]
000000 16 ee cf 3e 31 35 d8 3e cd 9b b2 3e ef 10 ae 3d
       0.40611333 0.42228082 0.34884492 0.084993236
000010 65 a1 b0 3d a1 63 23 3e 0a 9c 8c 3e e1 28 17 3c
       0.086245336 0.15955974 0.27462798 0.009226055
000020 74 e5 95 3d f8 5c d9 bd a3 0a 95 3e 24 2d 0e 3e
       0.07319155 -0.106134355 0.29109678 0.13884407
000030 01 d5 21 3e b9 be c6 3e ed f2 48 3e 27 73 4d 3e
       0.15803911 0.38817385 0.19623919 0.20063458
000040 4a f1 16 3e b5 53 e3 3d 5b d9 d4 3d b2 c6 70 bd
       0.14740482 0.1109995 0.1039302 -0.05878324
000050 00 fb d7 3d b7 69 9c bc ea 25 55 be d7 89 81 3d
       0.10545921 -0.019093378 -0.20815244 0.06325119
000060 35 e0 f4 bd ad 15 4a 3e dd 7c 15 be 13 69 16 3e
       -0.119568266 0.19734831 -0.14598413 0.1468852
000070 5c 2a ce bc 7d 8d 11 be 81 f1 cc 3d 90 e9 59 bd
       -0.025166683 -0.1421413 0.10007001 -0.05320126
000080 f5 94 0d bd e9 7c 2a 3e db be 9c bc 18 12 8e ba
       -0.034565885 0.16649212 -0.019133976 -0.0010839133
000090 85 fa eb bd 7e a2 bf 3c 94 f3 9a 3d 3b 4e 3c 3e
       -0.11522392 0.023392912 0.0756599 0.18389218
0000a0 3a e4 2c 3d 1a 78 64 bd 41 89 de bd bc 90 f7 bd
       0.04220984 -0.0557786 -0.10866023 -0.12088153
0000b0 c5 9d 52 be 9c 3f 28 3e 61 0d 42 3d 14 f5 2b bd
       -0.20567997 0.16430515 0.04737604 -0.04198177
0000c0 7d b9 64 be 33 ab 3b 3e 6c 88 e2 bd 72 ee 64 3d
       -0.22336383 0.18327026 -0.11061177 0.05589146
0000d0 35 cf 06 be 98 33 be 3d 11 12 6b 3d b7 bc 42 3d
       -0.1316498 0.092871845 0.057390276 0.047543254
0000e0 a7 ac 09 3e f3 8f 41 3e 2f 4a c0 3d a2 69 21 3e
       0.13444768 0.18902569 0.093891494 0.15762952
0000f0 41 01 ea bd 16 82 8a 3d 8a ba bd bd 7d 92 32 3e
       -0.114260204 0.06763093 -0.09264095 0.17438693
000100 d5 06 28 be 47 ec 29 be 68 e3 36 3e fb c0 9c 3c
       -0.16408856 -0.16594039 0.17860186 0.019134989
000110 a4 f8 84 bd 89 5d be bb 69 db 87 bc d7 d4 61 bd
       -0.06492737 -0.00580949 -0.016584115 -0.05513462
000120 35 98 4e bd 93 bd dc 3d ab 79 20 be 2e 71 d9 bc
       -0.050438125 0.10778346 -0.15671413 -0.026543226
000130 79 02 a7 bd b2 b9 27 be 41 4d 27 bd 3d a0 b5 bd
       -0.081547685 -0.16379431 -0.04084516 -0.08868454
000140 99 fc d2 3d 86 c5 2f 3e cd 06 68 3e 82 3b 80 3e
       0.103020854 0.17165193 0.22658844 0.250454
000150 93 4d 1e 3e 85 bb 24 3e 4e f0 30 3e 55 86 db 3e
       0.1545928 0.16087158 0.17279169 0.42875925
000160 78 e8 9f be 3d d4 44 be 8b e9 bf 3e bc c7 60 bd
       -0.31232047 -0.19221587 0.37482867 -0.05487798
000170 4e 9a 0e 3e 13 22 b3 3e ed ef 80 be dc e9 c5 3e
       0.1392605 0.34986934 -0.2518305 0.38654983
000180 e4 19 24 be c3 e2 e9 3d 04 6a 3c be 8c 95 3b be
       -0.16025501 0.114202045 -0.18399817 -0.18318766
000190 8a 46 4c 3e de 1c 05 3e 56 cb 0d 3d f8 98 87 3e
       0.19948784 0.12999293 0.034617744 0.26483893
0001a0 fe c5 4c 3e 0f fd 3d 3e c5 26 74 3e 47 36 b6 3e
       0.19997403 0.18553565 0.23842914 0.35588285
0001b0 1b 03 8f be 2b bf 35 bd 2f 20 b2 3e 72 86 03 be
       -0.27932057 -0.044371765 0.3479018 -0.12844256
0001c0 f4 46 d7 3e c3 90 44 3e fd 77 b2 bd 45 8d 49 3d
       0.4204632 0.19195847 -0.08714292 0.04920699
0001d0 70 ec 0a 3c f7 f0 b2 3e ab 52 1c be de 74 4f bc
       0.008479223 0.34949467 -0.1526591 -0.012662141
0001e0 3d 5b 2e 3e ce 06 7d 3e 4f 99 60 3e f1 3a 0f 3e
       0.17026992 0.24709627 0.21933483 0.13987328
0001f0 fb 96 71 3e 9a c3 a9 bd aa 90 b8 3e cd 1c c3 3e
       0.2359275 -0.08289261 0.3604787 0.3810791
000200 3d 1a a0 be 2f c6 be bd 06 8d 20 3e 0d 2b b3 bd
       -0.31270018 -0.09315144 0.15678796 -0.08748446
000210 7d 8b 6a 3e cb 93 1c 3d 0c 29 d0 bd 39 c5 e9 bc
       0.22904773 0.038226884 -0.10164079 -0.028536426
000220 03 c4 86 bc f0 ad 58 3e 4f 1c 43 3d 5d 58 60 3e
       -0.016450888 0.21160102 0.04763442 0.21908708
000230 55 59 57 be 2b e7 38 be de 6f cb bd 47 b9 9c bd
       -0.21030171 -0.18056934 -0.09933446 -0.07652526
000240 c9 d1 21 3d aa e2 14 be f8 77 ef bd 51 a9 51 bd
       0.039506707 -0.1453959 -0.11692804 -0.051186863
000250 00 b1 b1 bb 90 17 55 bb 82 51 58 be d9 d6 4d be
       -0.0054227114 -0.0032515265 -0.21124843 -0.20101489
000260 08 8c 17 3e 34 09 21 3e cf a9 53 3e 98 59 db 3c
       0.14799511 0.15726167 0.20670246 0.02677612
000270 96 65 1f be 8f ad 3b 3e 87 2f 14 be f9 26 06 3e
       -0.15566096 0.18327926 -0.14471255 0.13100804
000280 b2 62 f8 3d 7f 3c 96 3e 40 f8 b1 bd 1a 16 c2 3d
       0.121282 0.2934303 -0.08689928 0.09476872
000290 8e c0 66 3d f0 0f f0 3d 5a 3b 3f 3c 64 b1 8c 3e
       0.05633598 0.1172179 0.011671865 0.27479088
0002a0 96 c6 9e 3e e0 14 4a be b8 29 94 3e 31 19 64 3e
       0.31010884 -0.19734526 0.2893808 0.22275235
0002b0 62 d5 f3 3b 37 c5 ef bd bc 34 7f 3e 87 e8 c3 3e
       0.0074412087 -0.117075376 0.2492246 0.38263342
0002c0 f5 0e e8 3b dc ca 45 3c 41 fb 2d be 54 59 60 bd
       0.007081861 0.012072291 -0.16990377 -0.05477269
0002d0 27 df 97 3e 79 38 a5 3e e3 9b 0d be e6 69 68 3e
       0.2966244 0.32269648 -0.13828997 0.22696647
0002e0 9a c4 d7 3d 91 89 e0 bd b4 07 b4 bd a4 18 2d be
       0.10535546 -0.10963739 -0.08790532 -0.16903931
0002f0 f0 bc b5 3d b0 66 48 3e b3 84 a6 bd 09 e5 f3 3d
       0.088739276 0.19570422 -0.08130779 0.11908919
000300 c2 ba 77 3d 90 36 9a be 9b 9e 9d 3e 96 15 d8 3e
       0.06048084 -0.30119753 0.3078507 0.4220397
000310 1d cb bd 3d fa a6 3b be e2 61 21 bd 4e 8b 5b be
       0.092672564 -0.18325415 -0.03939999 -0.2143986
000320 91 00 c9 3e 4b 95 ed 3e 34 16 9a 3e 38 14 cf 3e
       0.39258245 0.46402964 0.30095065 0.40445113
000330 dc da 5d 3e 31 ec 80 bd 16 4f ab 3e 7a ee 80 3e
       0.2166552 -0.0629505 0.33458775 0.25181943
000340 e7 0f c7 be 93 63 e6 3d 9b af 20 3e ab 95 84 3c
       -0.3887932 0.11249461 0.15691988 0.016184648
000350 71 d0 c4 3e 3e 7c 41 3e b4 6b e7 be c8 83 a4 3e
       0.38440278 0.18895051 -0.45199358 0.3213179
000360 cd 3c 87 3d e0 bc b2 3e 2e 79 8f bd af 7d 28 be
       0.06603394 0.34909725 -0.07005535 -0.16454194
000370 ef 51 b4 bd 11 57 a0 bd ff 39 98 3d 18 4c 1f bd
       -0.0880469 -0.078291066 0.07432937 -0.038890928
000380 c3 f2 bb bd 31 bc 3d be df 7b 11 be 86 07 05 be
       -0.091771625 -0.1852882 -0.1420741 -0.12991151
000390 ef cc 88 bd ad 16 3b 3d 3d 1b 14 be 83 c9 3e be
       -0.06679713 0.045675922 -0.14463516 -0.18631558
0003a0 5f 10 3a 3e db 1b 13 3c cb 11 4b be e9 ca 21 3c
       0.18170308 0.008978809 -0.19831006 0.009875038
0003b0 93 6e e5 3c ae cf c9 3d a1 b3 7e 3d f1 b9 0d be
       0.028006827 0.09854065 0.062183026 -0.13840462
0003c0 66 8f 9f bd 2c 97 b9 3e 03 b8 92 bd 93 2f c1 bd
       -0.07791023 0.36248147 -0.07164004 -0.09432902
0003d0 e7 b4 2c be f8 9d 14 3e 6b e4 7c 3e 2f 8c 4f be
       -0.16865884 0.14513385 0.2469651 -0.2026832
0003e0 ef 98 4d 3e 1a 75 83 bd e2 1f 8c be b3 8a 3f 3e
       0.20077871 -0.0641882 -0.27368075 0.18705253
0003f0 22 46 fa 3c 14 be 0a be 15 69 8d 3e 3d 45 b0 3e
       0.03055102 -0.13549072 0.27619234 0.34427825

fc2.bias f4 [15]
000000 ce c8 b7 3b e2 d1 47 be 3f e6 b0 bd 14 17 ef bd
       0.0056086546 -0.19513658 -0.08637666 -0.11674324
000010 27 1c 56 3e 40 8e e5 3d dd 69 02 3e a3 55 04 be
       0.20909177 0.11208773 0.12735696 -0.12923293
000020 00 26 b5 3e 8e c8 84 3e 75 b6 dc 3e 37 7f 6a bd
       0.35380554 0.2593426 0.43107954 -0.057250228
000030 e7 d2 79 3e 1b 7d c2 bd d7 95 fd 3c
       0.24396859 -0.09496518 0.030955238

fc3.weight f4 [10, 15]
000000 44 a3 9b 3e 95 ea e9 3c a3 84 6f be 26 0e f1 3d
       0.30398 0.02855424 -0.2339044 0.11770277
000010 49 69 90 bd 5e 63 62 bd 6f 62 82 3c 5b 34 f4 3d
       -0.070513315 -0.055270545 0.015916077 0.119240485
000020 10 71 17 3d 2c 05 57 3d 46 db 3a be 38 85 17 be
       0.03697306 0.052495167 -0.18247709 -0.14796913
000030 7a 01 6a 3e 50 46 3d be 85 d8 4c 3e 62 a9 47 3e
       0.22852126 -0.18483853 0.2000447 0.19498208
000040 2f 57 16 3e 2e 7e 42 3e b0 70 b5 3c 2b 6c ff 3c
       0.14681695 0.18993446 0.02214846 0.031179508
000050 e8 f1 03 be ae cd 45 3e cc ef 00 be ce 12 0c be
       -0.12885249 0.19316742 -0.12591475 -0.13679048
000060 c8 10 68 3e c8 97 6d be 31 ff b7 bd f0 a1 f4 bd
       0.22662652 -0.23202431 -0.08984221 -0.119449496
000070 64 a3 e3 bd 72 9d 82 3e 5d a7 24 3e ba 98 a2 3d
       -0.11115149 0.25510746 0.16079469 0.079392865
000080 cb 5a 04 3c 4d f4 82 3d bd 07 c9 3d 96 87 31 3e
       0.008078287 0.06394253 0.09815929 0.17336878
000090 4a 10 af 3e 78 0e bf bd dc 0a 81 3e 8f 3a b1 3e
       0.34192115 -0.093289316 0.25203598 0.3461499
0000a0 3b c9 8a 3e ed 5b ff bd 90 0b 9f bd 82 37 5a be
       0.27106652 -0.12468705 -0.07765877 -0.21310237
0000b0 e3 5d 58 be 75 ef 7a 3e 67 73 45 be f6 c6 45 3d
       -0.21129565 0.24505408 -0.19282304 0.048285447
0000c0 f3 72 11 be 41 2e 29 bb f2 e0 59 be e1 70 27 be
       -0.14204006 -0.0025814923 -0.21277216 -0.16351654
0000d0 85 70 14 be 5d 32 73 3e e9 fb c1 3e e4 d2 f0 bd
       -0.14496048 0.23749681 0.37887505 -0.11758974
0000e0 2c 1e 6d bd 48 5d ca 3e 42 dd 7a 3e ea da 25 be
       -0.057890102 0.39524293 0.24498466 -0.1619679
0000f0 cb 88 88 3e dc 41 6b bd ad f0 87 bd bd 72 5f bd
       0.26666865 -0.057435855 -0.06637702 -0.054552782
000100 9c 12 ca 3e 72 17 88 3e 87 1d 9e 3e ca 11 cd bd
       0.39467323 0.26580387 0.30881903 -0.100131586
000110 dc ed 55 3e 38 7f 57 be 04 09 81 3e 7b 79 7b be
       0.20891517 -0.21044624 0.2520219 -0.2455806
000120 d5 37 d8 bd 02 7f ed 3d 7f 75 48 be be 04 ec 3c
       -0.10557524 0.115964904 -0.19576071 0.028810855
000130 71 d2 05 bd 51 69 8b bd 90 ed 80 3e 0c 32 59 bd
       -0.032671396 -0.06807197 0.25181246 -0.053026244
000140 4c bd 7a be 5e 8a 3b 3d 5e 50 82 be d8 eb db 3d
       -0.24486274 0.045786254 -0.2545194 0.10738343
000150 fc 00 29 3e fd 82 ba 3d 9d 55 f7 bd 0f b4 25 3e
       0.16504282 0.09107015 -0.12076876 0.16181968
000160 28 61 ca 3b 8f 23 a8 3d ca 3d a1 3e 2d 91 2e 3e
       0.0061761327 0.08209907 0.31492454 0.17047568
000170 f1 c8 78 be dc a6 21 be 00 0b a1 3e 74 cc 57 3e
       -0.24295403 -0.15786308 0.31453705 0.21074086
000180 9d 31 94 3e e1 ad 74 be 49 6f f1 bd a0 ee 8b 3c
       0.28944102 -0.23894455 -0.11788804 0.017081559
000190 fa 77 b4 3e 51 80 d9 bd 1e 0c 1f be 63 2e 28 bd
       0.35247785 -0.106201775 -0.15531966 -0.041059863
0001a0 a0 37 11 3e 15 1a d1 bd 91 fa 4a be db 6a 71 be
       0.14181376 -0.10210053 -0.19822146 -0.23575918
0001b0 d4 35 37 3e 57 46 cb bd 2c d3 77 be 05 6d e9 bd
       0.17891628 -0.09925526 -0.2420165 -0.11397747
0001c0 c1 f1 51 be 69 0f 44 be b6 d2 00 bd d1 2f a6 3d
       -0.20502378 -0.19146504 -0.03145095 0.08114589
0001d0 19 b6 41 3d fc eb 74 be ab b1 47 3e 2f 85 35 3d
       0.047292802 -0.23918146 0.19501369 0.044316467
0001e0 72 44 9b bd d4 8b 15 3d 1d 35 21 3e ba 65 4b be
       -0.07581414 0.036510304 0.15742917 -0.19863024
0001f0 5a 4d b3 bc 52 dd 19 bd c5 8b ca bd ed db 81 be
       -0.02188747 -0.037564583 -0.0988994 -0.25363103
000200 f9 43 b0 3d 46 52 12 3e ef eb 3f be 1b b8 ca bc
       0.08606715 0.14289197 -0.18742345 -0.024745991
000210 df b7 5e 3e b9 50 98 3d 24 34 c0 3d f7 51 08 3d
       0.21749829 0.074372716 0.09384945 0.033281293
000220 60 f7 71 3e 9d 4d 54 be 3e d9 83 3c dc a7 12 3e
       0.23629522 -0.20732732 0.0160948 0.14321846
000230 6c da 13 3b ae 60 79 be ce 87 29 be 0a 17 60 be
       0.002256061 -0.24353287 -0.16555712 -0.21883789
000240 e1 04 a7 be cd af 9d 3c ec 41 81 be fb 94 98 be
       -0.3262091 0.019248867 -0.25245607 -0.29801163
000250 89 b2 2b be 4b 08 35 be
       -0.16767325 -0.17678945

fc3.bias f4 [10]
000000 d1 ca 50 3e 91 d4 09 bd 5f b1 8b 3e 54 9e 5e 3e
       0.20389868 -0.033649985 0.2728376 0.21740085
000010 4c a1 d5 3e 5d 4b c5 bd ac 95 81 3e 3f 45 35 be
       0.41724622 -0.09633515 0.25309503 -0.17702197
000020 f1 5e 30 3e 34 e3 26 bd
       0.17223717 -0.04074402

fc4.weight f4 [5, 10]
000000 50 44 85 be 8f ce 3d 3e 73 86 d0 bd 3a ab 94 3e
       -0.2602868 0.18535827 -0.10181894 0.29036885
000010 5e fa a6 bd be 50 3a bd c1 ae 37 3e 4f 1b 1b be
       -0.081532225 -0.045487158 0.17937757 -0.15147136
000020 5a cf 22 3e df f8 cf 3c b0 16 07 be b4 83 c6 3d
       0.15899411 0.025387226 -0.13192248 0.09693089
000030 a8 1f ac 3e 1d f4 eb be 97 83 a4 3e e1 d0 c5 be
       0.33617902 -0.4608468 0.32131645 -0.38635924
000040 ce f3 a5 3e 8f c1 39 3e 07 65 5a be 87 18 2b 3b
       0.3241257 0.18140243 -0.21327601 0.0026107149
000050 84 31 8a be 22 54 24 be 47 8e 07 be 38 64 4c bd
       -0.26990902 -0.16047719 -0.13237868 -0.049900264
000060 7e a7 6b 3e 54 6b b9 be 72 ac 80 3c 0c cd 5a be
       0.23013112 -0.36214697 0.015707228 -0.21367282
000070 ac e7 f1 bc e2 d0 d4 bc 1d a6 9e 3e 83 d1 c3 3d
       -0.029529415 -0.02597851 0.3098611 0.095614456
000080 71 fc 6d be 84 08 9a 3d 53 ef b4 bd 95 5e 19 be
       -0.2324083 0.075211555 -0.0883471 -0.14977486
000090 bd 16 b9 3d 4c 05 60 be 37 c1 ae bd de fe 15 3d
       0.0903754 -0.2187702 -0.085329466 0.036620013
0000a0 67 03 8f 3e 1a 48 bc 3c fb ba 42 3e d6 61 b2 3e
       0.27932283 0.0229836 0.1901664 0.34840268
0000b0 57 f4 d4 bb c4 c5 90 bd fc 98 07 be 72 5a e2 3c
       -0.006498854 -0.07068971 -0.13241953 0.027631018
0000c0 2c 2c 1a be 9b a9 aa be
       -0.15055913 -0.33332524

fc4.bias f4 [5]
000000 00 d7 8e be d7 1c 9d 3e 5c ae 18 be d2 5d 85 be
       -0.27898407 0.30686066 -0.14910263 -0.26048142
000010 25 7f 91 3e
       0.28417316

fc5.weight f4 [4, 5]
000000 62 a4 99 be fe 7b 9f 3e 69 15 6e be bf 4a b6 3e
       -0.30008227 0.31149286 -0.23250355 0.35603902
000010 97 4e 44 3e 26 95 69 be b7 9c 0f 3f ca 70 b0 3e
       0.19170605 -0.22810802 0.560985 0.3446105
000020 a4 e6 87 be f2 e5 0f be eb f5 93 3e 3f 08 50 bd
       -0.26543152 -0.14052561 0.28898558 -0.050789114
000030 4e d2 84 3e 5d df f8 bd e6 6c 3b 3c 19 df 35 be
       0.259417 -0.12151978 0.011439538 -0.17760886
000040 f5 c4 86 3c 89 b7 d1 bc 03 74 d4 be 52 95 7b be
       0.016451338 -0.025600212 -0.4149476 -0.2456868

fc5.bias f4 [4]
000000 c4 e3 b7 3c f8 d1 1c 3e 57 cb 04 3e 9b 1d 0a bf
       0.022447474 0.15314472 0.12968193 -0.53951424
