Laboratorios/Lab1/checkpoints/modelo_epoch_520.pth (torch, 7862 bytes, 10 tensors)

fc1.weight f4 [20, 24]
0.39182416 0.34303492 0.36174408 0.35419342 0.37993565 0.37900633 0.34683114 0.4078287
0.36440533 0.37702876 0.3384603 0.2824373 0.21273984 0.19425437 0.030833317 0.11345178
0.3165714 0.10847451 0.18019085 0.20112379 0.124598995 0.42832208 0.36374998 0.422759
0.40805408 0.36772153 0.36243343 0.37138993 0.43604016 0.3933749 0.36834702 0.46542743
0.3656426 0.36974624 0.33535948 0.3217918 0.27864364 0.2891148 0.43744025 0.29169598
0.35571903 0.27182168 0.30070904 0.20566674 -0.102995895 0.4404044 0.44298428 0.4748127
0.18672511 0.22612993 0.24622966 0.18848419 0.12057413 0.1859283 0.17250934 0.14932366
0.062143162 0.2030258 0.07471706 -0.041987114 0.049051184 0.06259419 -0.662638 0.026026078
0.102661446 0.026595257 -0.03318326 0.13218574 0.6671221 0.0544331 0.14938617 0.13650493
0.19391903 0.242541 0.23325826 0.23824675 0.16546781 0.20650391 0.23843454 0.124935165
0.21468669 0.27932212 0.26435792 0.18004712 0.22233696 0.062121183 -0.6366237 0.16188797
0.2127178 0.1332552 0.05342525 0.06901569 0.6750877 0.090872996 0.14558332 0.10786979
0.12656137 0.18488948 0.19811396 0.1194452 0.0765332 0.18549442 0.13231075 0.13890508
0.013228528 0.19375531 0.11504714 0.060287926 0.19055146 0.089906216 -0.7012135 0.013341657
0.07424461 0.07225598 0.017572101 0.1608943 0.7050677 -0.0051606838 0.10414107 0.09347487
-0.003078381 -0.0010758112 -0.015281743 0.0046509565 -0.007014799 -0.0119973505 -0.012561376 -0.0057221777
-0.030381653 -0.009172074 -0.014729125 -0.016857702 0.002815666 -0.004095602 0.009471117 0.009384467
-0.014006259 0.009557577 -0.025177997 -0.01148653 0.009922181 -0.019748643 -0.017363677 -0.0020529488
0.30976683 0.3076053 0.30286235 0.32630172 0.25068986 0.28358993 0.30255622 0.21645583
0.2750392 0.3125471 0.31154123 0.31991112 0.23791657 0.15879826 -0.46302748 0.20001224
0.28536734 0.1676098 0.12190244 0.12916818 0.5040862 0.26874968 0.2908326 0.23211454
0.1313899 0.15413825 0.2236161 0.11011647 0.10190421 0.16962917 0.10451742 0.1506741
0.012064502 0.16636494 0.07927332 -0.029481092 0.0302267 0.010346561 -0.60769373 -0.009283311
0.10649278 -0.014365951 -0.069538966 0.10412603 0.6150031 -0.0117734615 0.14686017 0.15099147
0.015482653 0.25306597 0.12657772 0.28525048 0.06605145 0.077116854 0.25182915 -0.12905852
0.2901014 0.20986223 0.1320691 0.25806966 0.15487948 0.1917528 0.62126076 0.24119426
0.21594037 0.2402984 0.32570255 0.11786473 -0.6659998 0.22752611 0.013281595 -0.06435866
0.0025085905 -0.0072170845 -0.0043856767 -0.0095414845 0.0032956533 0.0017746635 -0.01410379 -0.0025758566
-0.0030369547 -0.02170849 -0.008404201 -0.0035137655 -0.002532903 -0.0019055522 -0.0032330411 -0.019330988
0.004276482 0.0029533622 -0.0056885183 -0.006923623 -0.029188456 -0.004152773 -0.00600281 -0.012231453
0.16461754 0.16905442 0.21723987 0.11219898 0.08143145 0.15737161 0.1312755 0.12123183
0.017340742 0.17958885 0.06271464 -0.12838516 0.00050300057 0.03103521 -0.59720445 0.057814553
00000000: 2d9d c83e 46a2 af3e 8536 b93e d758 b53e
00000010: ed86 c23e 1e0d c23e da93 b13e ecce d03e
00000020: 5693 ba3e ea09 c13e ab4a ad3e 9f9b 903e
00000030: 79d8 593e 9eea 463e 2796 fc3c 6859 e83d
00000040: a615 a23e e227 de3d f383 383e 65f3 4d3e
00000050: c22d ff3d 084d db3e 703d ba3e de73 d83e
00000060: 77ec d03e ff45 bc3e e090 b93e d226 be3e
00000070: a840 df3e 6f68 c93e fb97 bc3e 814c ee3e
00000080: 8235 bb3e 614f bd3e 3db4 ab3e e5c1 a43e
00000090: 61aa 8e3e db06 943e 2bf8 df3e 2d59 953e
000000a0: ce20 b63e 362c 8b3e 89f6 993e 4d9a 523e
000000b0: 83ef d2bd af7c e13e d6ce e23e a61a f33e
000000c0: de34 3f3e 9b8e 673e a123 7c3e 0002 413e
000000d0: 92ef f63d fd63 3e3e 4aa6 303e 4de8 183e
000000e0: d489 7e3d ffe5 4f3e 4205 993d aefa 2bbd
000000f0: e5e9 483d 6231 803d a5a2 29bf a434 d53c
00000100: 2a40 d23d 4cde d93c 2ceb 07bd b35b 073e
00000110: 84c8 2a3f 3ef5 5e3d b0f8 183e f3c7 0b3e
00000120: b692 463e ab5c 783e 41db 6e3e f5f6 733e
00000130: 6570 293e c375 533e 2f28 743e 02de ff3d
00000140: d4d6 5b3e 4f03 8f3e ec59 873e 465e 383e
00000150: 4dac 633e c872 7e3d c5f9 22bf f6c5 253e
00000160: b2d2 593e 0d74 083e 6fd4 5a3d 1958 8d3d
00000170: 8cd2 2c3f 9f1b ba3d cb13 153e d6ea dc3d
00000180: 4e99 013e ab53 3d3e 63de 4a3e af9f f43d
00000190: 70bd 9c3d 40f2 3d3e 787c 073e 223d 0e3e
000001a0: 78bc 583c cb67 463e d69d eb3d 79f0 763d
000001b0: ec1f 433e c020 b83d ba82 33bf f796 5a3c
000001c0: 8f0d 983d f1fa 933d 5ef3 8f3c 7ac1 243e
000001d0: 517f 343f f41a a9bb ea47 d53d c16f bf3d
000001e0: aabe 49bb 3c02 8dba 4760 7abc 0d67 983b
000001f0: 66dc e5bb 8990 44bc 3bce 4dbc 1b81 bbbb
00000200: f2e2 f8bc 7746 16bc 6e52 71bc 2a19 8abc
00000210: 0987 383b 6634 86bb be2c 1b3c 4fc1 193c
00000220: 827a 65bc 6297 1c3c 1642 cebc 0032 3cbc
00000230: a590 223c e8c7 a1bc 453e 8ebc c48a 06bb
00000240: c299 9e3e 717e 9d3e c610 9b3e 0511 a73e
00000250: 6c5a 803e b332 913e a6e8 9a3e 99a6 5d3e
00000260: f0d1 8c3e 2c06 a03e 5582 9f3e 64cb a33e
00000270: 67a0 733e 039c 223e f011 edbe 02d0 4c3e
00000280: ab1b 923e e7a1 2b3e fda7 f93d aa44 043e
00000290: cb0b 013f 8f99 893e 03e8 943e 6faf 6d3e
000002a0: 138b 063e 6bd6 1d3e 9efb 643e be84 e13d
000002b0: 28b3 d03d 45b3 2d3e 3b0d d63d 504a 1a3e
000002c0: 30aa 453c 925b 2a3e 0d5a a23d 5582 f1bc
000002d0: fc9d f73c 9f84 293c d191 1bbf 0719 18bc
000002e0: e318 da3d 2a5f 6bbc 726a 8ebd 0740 d53d
000002f0: d870 1d3f 7ae5 40bc 8362 163e 829d 1a3e
00000300: f4aa 7d3c dd91 813e 979d 013e 5a0c 923e
00000310: fc45 873d 71ef 9d3d c0ef 803e eb27 04be
00000320: 2c88 943e 20e6 563e 1f3d 073e b521 843e
00000330: ba98 1e3e d95a 443e f20a 1f3f a1fb 763e
00000340: 791f 5d3e c910 763e 7cc2 a63e 1063 f13d
00000350: f77e 2abf 9bfc 683e 0c9b 593c 79ce 83bd
00000360: 2a67 243b 4b7d ecbb b9b5 8fbb e353 1cbc
00000370: e3fb 573b d39b e83a 9513 67bc b4cf 28bb
00000380: a507 47bb 01d6 b1bc c6b1 09bc 3447 66bb
00000390: 10ff 25bb b9c3 f9ba 6ee1 53bb 055c 9ebc
000003a0: bb21 8c3b 328d 413b c066 babb 8fdf e2bb
000003b0: a11c efbc fc13 88bb 38b3 c4bb 6f66 48bc
000003c0: 8091 283e 9a1c 2d3e 2174 5e3e 94c8 e53d
000003d0: 88c5 a63d 0626 213e 166d 063e 6548 f83d
000003e0: 2c0e 8e3c 24e6 373e 8870 803d 6677 03be
000003f0: ccdb 033a 8d3d fe3c 64e2 18bf f4ce 6c3d

fc1.bias f4 [20]
0.35720864 0.34232676 0.3383162 0.33040136 0.34004095 -0.01001443 0.33177543 0.30400524
0.05208655 -0.0052978853 0.29689035 -0.0043237004 0.32816392 0.29507184 0.17174318 0.30413878
0.0 0.2714517 -0.0075962474 -0.010177753
00000000: 0de4 b63e 7445 af3e c837 ad3e 5e2a a93e
00000010: d919 ae3e 9013 24bc 78de a93e 93a6 9b3e
00000020: b558 553d e299 adbb 0302 983e d4ad 8dbb
00000030: 1a05 a83e a813 973e 72dd 2f3e 14b8 9b3e
00000040: 0000 0000 b8fb 8a3e f1e9 f8bb 97c0 26bc

fc2.weight f4 [15, 20]
0.5700861 0.62490606 0.31756777 0.11108587 0.03154956 0.15955974 0.3626878 -0.04528651
0.31042165 -0.106134355 0.2148427 0.13884407 0.15783872 0.23648912 0.4247268 0.42495188
0.14740482 -0.010448635 0.1039302 -0.05878324 0.10545921 -0.019093378 -0.20815244 0.06325119
-0.119568266 0.19734831 -0.14598413 0.1468852 -0.025166683 -0.1421413 0.10007001 -0.05320126
-0.034565885 0.16649212 -0.019133976 -0.0010839133 -0.11522392 0.023392912 0.0756599 0.18389218
0.04220984 -0.0557786 -0.10866023 -0.12088153 -0.20567997 0.16430515 0.04737604 -0.04198177
-0.22336383 0.18327026 -0.11061177 0.05589146 -0.1316498 0.092871845 0.057390276 0.047543254
0.13444768 0.18902569 0.093891494 0.15762952 -0.114260204 0.06763093 -0.09264095 0.17438693
-0.16408856 -0.16594039 0.17860186 0.019134989 -0.06492737 -0.00580949 -0.016584115 -0.05513462
-0.050438125 0.10778346 -0.15671413 -0.026543226 -0.081547685 -0.16379431 -0.04084516 -0.08868454
0.11820657 0.032854322 0.38791865 0.4167457 0.3471176 0.16087158 0.28833818 0.5955986
-0.5670459 -0.19221587 0.5535888 -0.05487798 0.3031605 0.54694664 -0.48613077 0.1570593
-0.16025501 0.2975576 -0.18399817 -0.18318766 0.14097689 -0.12628785 0.24297285 0.48668757
0.44732195 0.18553565 0.37768698 0.5714888 -0.52544993 -0.044371765 0.5708607 -0.12844256
0.63787615 0.4279496 -0.3171234 -0.2512841 0.008479223 0.57852376 -0.1526591 -0.012662141
0.21301405 0.20326716 0.35239926 0.2764818 0.39265183 -0.08289261 0.4629753 0.5166418
-0.574711 -0.09315144 0.3066491 -0.08748446 0.36301696 0.20499481 -0.33698115 -0.13382852
-0.016450888 0.36144364 0.04763442 0.21908708 -0.21030171 -0.18056934 -0.09933446 -0.07652526
0.039506707 -0.1453959 -0.11692804 -0.051186863 -0.0054227114 -0.0032515265 -0.21124843 -0.20101489
0.14799511 0.15726167 0.20670246 0.02677612 -0.15566096 0.18327926 -0.14471255 0.13100804
0.33617747 0.53376234 -0.2034024 0.10657056 -0.097785465 0.1172179 0.12844773 0.11668471
0.54892427 -0.19734526 0.093149684 0.22275235 -0.033376038 -0.37308413 0.47889885 0.6366569
0.007081861 -0.23480162 -0.16990377 -0.05477269 0.5514632 0.5844779 -0.4940613 -0.08387395
-0.28260335 -0.10963739 -0.05059742 -0.5012662 0.32108635 0.19570422 -0.41096026 0.11908919
-0.3288318 -0.60557944 0.52890515 0.6912338 0.092672564 -0.502674 -0.03939999 -0.2143986
0.39748907 0.32628518 0.4511311 0.5559976 0.39662448 -0.0629505 0.4361661 0.4075819
-0.6408706 0.11249461 0.32611278 0.016184648 0.5350974 0.3777937 -0.68568957 0.099497184
0.06603394 0.523115 -0.07005535 -0.16454194 -0.0880469 -0.078291066 0.07432937 -0.038890928
-0.091771625 -0.1852882 -0.1420741 -0.12991151 -0.06679713 0.045675922 -0.14463516 -0.18631558
0.18170308 0.008978809 -0.19831006 0.009875038 0.028006827 0.09854065 0.062183026 -0.13840462
0.18998896 0.6303139 -0.4137094 -0.56335896 -0.55622166 0.14513385 0.12779455 -0.5361734
0.4303442 -0.0641882 -0.58981675 0.18705253 -0.3811001 -0.42833436 0.49371296 0.61782205
00000000: 2af1 113f d8f9 1f3f 3e98 a23e fd80 e33d
00000010: 1d3a 013d a163 233e 37b2 b93e 597e 39bd
00000020: 96ef 9e3e f85c d9bd baff 5b3e 242d 0e3e
00000030: 79a0 213e 342a 723e cb75 d93e 4b93 d93e
00000040: 4af1 163e c030 2bbc 5bd9 d43d b2c6 70bd
00000050: 00fb d73d b769 9cbc ea25 55be d789 813d
00000060: 35e0 f4bd ad15 4a3e dd7c 15be 1369 163e
00000070: 5c2a cebc 7d8d 11be 81f1 cc3d 90e9 59bd
00000080: f594 0dbd e97c 2a3e dbbe 9cbc 1812 8eba
00000090: 85fa ebbd 7ea2 bf3c 94f3 9a3d 3b4e 3c3e
000000a0: 3ae4 2c3d 1a78 64bd 4189 debd bc90 f7bd
000000b0: c59d 52be 9c3f 283e 610d 423d 14f5 2bbd
000000c0: 7db9 64be 33ab 3b3e 6c88 e2bd 72ee 643d
000000d0: 35cf 06be 9833 be3d 1112 6b3d b7bc 423d
000000e0: a7ac 093e f38f 413e 2f4a c03d a269 213e
000000f0: 4101 eabd 1682 8a3d 8aba bdbd 7d92 323e
00000100: d506 28be 47ec 29be 68e3 363e fbc0 9c3c
00000110: a4f8 84bd 895d bebb 69db 87bc d7d4 61bd
00000120: 3598 4ebd 93bd dc3d ab79 20be 2e71 d9bc
00000130: 7902 a7bd b2b9 27be 414d 27bd 3da0 b5bd
00000140: 4916 f23d 4192 063d 469d c63e b15f d53e
00000150: 66b9 b13e 85bb 243e 10a1 933e 2679 183f
00000160: ec29 11bf 3dd4 44be ffb7 0d3f bcc7 60bd
00000170: da37 9b3e b204 0c3f 22e6 f8be 27d4 203e
00000180: e419 24be 7859 983e 046a 3cbe 8c95 3bbe
00000190: 3f5c 103e 9a51 01be e0cd 783e 1d2f f93e
000001a0: 6207 e53e 0ffd 3d3e 3060 c13e 174d 123f
000001b0: e383 06bf 2bbf 35bd ed23 123f 7286 03be
000001c0: da4b 233f 361c db3e 005e a2be 4fa8 80be
000001d0: 70ec 0a3c 221a 143f ab52 1cbe de74 4fbc
000001e0: 5b20 5a3e 4425 503e ad6d b43e 068f 8d3e
000001f0: a909 c93e 9ac3 a9bd 190b ed3e a342 043f
00000200: 4320 13bf 2fc6 bebd 1c01 9d3e 0d2b b3bd
00000210: 5cdd b93e 29ea 513e cb88 acbe 580a 09be
00000220: 03c4 86bc 240f b93e 4f1c 433d 5d58 603e
00000230: 5559 57be 2be7 38be de6f cbbd 47b9 9cbd
00000240: c9d1 213d aae2 14be f877 efbd 51a9 51bd
00000250: 00b1 b1bb 9017 55bb 8251 58be d9d6 4dbe
00000260: 088c 173e 3409 213e cfa9 533e 9859 db3c
00000270: 9665 1fbe 8fad 3b3e 872f 14be f926 063e
00000280: 741f ac3e a6a4 083f b848 50be aa41 da3d
00000290: bf43 c8bd f00f f03d cd87 033e 65f8 ee3d
000002a0: 4d86 0c3f e014 4abe 43c5 be3d 3119 643e
000002b0: 50b5 08bd e204 bfbe 3b32 f53e f2fb 223f
000002c0: f50e e83b d66f 70be 41fb 2dbe 5459 60bd
000002d0: b12c 0d3f 58a0 153f 9af5 fcbe 1bc6 abbd
000002e0: 63b1 90be 9189 e0bd 3e3f 4fbd fb52 00bf
000002f0: 6e65 a43e b066 483e 6269 d2be 09e5 f33d
00000300: a45c a8be 4107 1bbf 5466 073f b3f4 303f
00000310: 1dcb bd3d 3eaf 00bf e261 21bd 4e8b 5bbe
00000320: b083 cb3e da0e a73e a8fa e63e dc55 0e3f
00000330: 5d12 cb3e 31ec 80bd 2a51 df3e 93ae d03e
00000340: 1810 24bf 9363 e63d 41f8 a63e ab95 843c
00000350: 25fc 083f 2d6e c13e 5a89 2fbf 2ec5 cb3d
00000360: cd3c 873d ddea 053f 2e79 8fbd af7d 28be
00000370: ef51 b4bd 1157 a0bd ff39 983d 184c 1fbd
00000380: c3f2 bbbd 31bc 3dbe df7b 11be 8607 05be
00000390: efcc 88bd ad16 3b3d 3d1b 14be 83c9 3ebe
000003a0: 5f10 3a3e db1b 133c cb11 4bbe e9ca 213c
000003b0: 936e e53c aecf c93d a1b3 7e3d f1b9 0dbe
000003c0: 778c 423e 405c 213f b8d1 d3be 4b38 10bf
000003d0: 8b64 0ebf f89d 143e 93dc 023e a942 09bf
000003e0: 1356 dc3e 1a75 83bd 3bfe 16bf b38a 3f3e
000003f0: 8d1f c3be a44e dbbe f2c7 fc3e 9629 1e3f

fc2.bias f4 [15]
0.10389372 -0.19513658 -0.08637666 -0.11674324 0.2769551 0.17322813 0.18983006 -0.12923293
0.48468485 0.36540392 0.48055536 -0.057250228 0.31602976 -0.107021675 0.030954504
00000000: 3bc6 d43d e2d1 47be 3fe6 b0bd 1417 efbd
00000010: 0fcd 8d3e b762 313e d062 423e a355 04be
00000020: 9d28 f83e 3916 bb3e 5a0b f63e 377f 6abd
00000030: a7ce a13e 2e2e dbbd 4d94 fd3c

fc3.weight f4 [10, 15]
0.529992 0.02855424 -0.2339044 0.11770277 -0.3788465 -0.38184527 -0.29671532 0.119240485
0.26860738 0.30739355 -0.47839653 -0.14796913 0.49088252 -0.17737456 0.20004506 0.39787042
0.14681695 0.18993446 0.02214846 -0.22444902 -0.42187762 -0.06981332 -0.12591475 0.13797203
0.54369223 -0.449585 -0.08984221 0.21221486 -0.10861049 0.25510746 0.28509048 0.079392865
0.008078287 0.06394253 0.16150886 0.22240001 0.40879163 -0.093289316 0.41924033 0.53468364
0.33432782 -0.12468705 0.12756155 -0.20676218 -0.21129578 0.45670316 -0.19282304 0.048285447
-0.14204006 -0.31080005 -0.5347198 -0.47385654 -0.14496048 0.45861042 0.62479 -0.39961648
-0.057890102 0.6484526 0.25299427 -0.16196734 0.35692355 -0.057435855 -0.06637702 -0.054552782
0.5270099 0.41015482 0.44613323 -0.100131586 0.25513342 -0.462016 0.3628129 -0.2455806
-0.37165472 0.116977446 -0.19576128 0.2332489 -0.032671396 -0.06807197 0.25181246 -0.37078187
-0.5892923 -0.27344555 -0.2545194 0.3673827 0.46708396 -0.19400106 -0.12076876 0.47433907
0.0050208317 0.08210012 0.33959147 0.17047568 -0.24295403 -0.15786308 0.41079888 0.3231018
0.39103186 -0.23894455 -0.20518991 -0.23518775 0.4254464 -0.106201775 -0.4139773 -0.045792516
0.14181322 -0.10210053 -0.19822146 -0.23575918 0.17891628 -0.09925526 -0.2420165 -0.11397747
-0.20502378 -0.19146504 -0.03145095 0.08114589 0.047292802 -0.23918146 0.19501369 0.044316467
-0.15222448 0.036510304 0.15742917 -0.19863024 -0.05967189 -0.07139205 -0.15589698 -0.25363103
0.008301813 0.064087875 -0.20675842 -0.024745991 0.14043644 0.0713262 0.0938491 0.033192057
0.23629522 -0.20732732 0.0160948 0.14314105 0.0021796734 -0.2436196 -0.16555712 -0.21888551
-0.326227 0.01919101 -0.25245607 -0.29801735 -0.16767325 -0.17678945
00000000: 8ead 073f 95ea e93c a384 6fbe 260e f13d
00000010: 2bf8 c1be 3981 c3be 12eb 97be 5b34 f43d
00000020: e886 893e b062 9d3e 64f0 f4be 3885 17be
00000030: f454 fb3e ada1 35be 9dd8 4c3e acb5 cb3e
00000040: 2f57 163e 2e7e 423e b070 b53c f7d5 65be
00000050: 5800 d8be 49fa 8ebd ccef 00be 8a48 0d3e
00000060: 6a2f 0b3f 0130 e6be 31ff b7bd da4e 593e
00000070: 2d6f debd 729d 823e 61f7 913e ba98 a23d
00000080: cb5a 043c 4df4 823d 9462 253e d4bc 633e
00000090: 234d d13e 780e bfbd aba6 d63e 07e1 083f
000000a0: 042d ab3e ed5b ffbd 7f9f 023e 77b9 53be
000000b0: ec5d 58be ffd4 e93e 6773 45be f6c6 453d
000000c0: f372 11be 2f21 9fbe 66e3 08bf 539d f2be
000000d0: 8570 14be fcce ea3e 3df2 1f3f 889a ccbe
000000e0: 2c1e 6dbd fd00 263f 7788 813e c4da 25be
000000f0: afbe b63e dc41 6bbd adf0 87bd bd72 5fbd
00000100: 1fea 063f d0ff d13e 936b e43e ca11 cdbd
00000110: d9a0 823e 5c8d ecbe 9dc2 b93e 7b79 7bbe
00000120: 8749 bebe df91 ef3d a575 48be cdd8 6e3e
00000130: 71d2 05bd 5169 8bbd 90ed 803e 1fd7 bdbe
00000140: dcdb 16bf 0e01 8cbe 5e50 82be 9619 bc3e
00000150: a125 ef3e 37a8 46be 9d55 f7bd 92dc f23e
00000160: ca85 a43b 1c24 a83d efde ad3e 2d91 2e3e
00000170: f1c8 78be dca6 21be 3b54 d23e 996d a53e
00000180: 5435 c83e e1ad 74be 4e1d 52be 0fd5 70be
00000190: 1cd4 d93e 5180 d9bd d5f4 d3be ef90 3bbd
000001a0: 7c37 113e 151a d1bd 91fa 4abe db6a 71be
000001b0: d435 373e 5746 cbbd 2cd3 77be 056d e9bd
000001c0: c1f1 51be 690f 44be b6d2 00bd d12f a63d
000001d0: 19b6 413d fceb 74be abb1 473e 2f85 353d
000001e0: bce0 1bbe d48b 153d 1d35 213e ba65 4bbe
000001f0: 836a 74bd ff35 92bd 75a3 1fbe eddb 81be
00000200: 5404 083c 8140 833d 7bb8 53be 1bb8 cabc
00000210: 92ce 0f3e 7913 923d f533 c03d 65f4 073d
00000220: 60f7 713e 9d4d 54be 3ed9 833c 9193 123e
00000230: dad8 0e3b 6b77 79be ce87 29be 8623 60be
00000240: 3a07 a7be 7736 9d3c ec41 81be bb95 98be
00000250: 89b2 2bbe 4b08 35be

fc3.bias f4 [10]
0.29982466 0.025478972 0.33134052 0.30653816 0.47336933 -0.11172719 0.27172843 -0.17702197
0.16529503 -0.040774357
00000000: 9e82 993e 47b9 d03c 77a5 a93e 92f2 9c3e
00000010: 775d f23e 3ad1 e4bd fd1f 8b3e 3f45 35be
00000020: 1a43 293e 0303 27bd

fc4.weight f4 [5, 10]
-0.28368086 0.15637486 -0.121336594 0.26755863 -0.09623194 -0.06937704 0.16579849 -0.15147136
0.13995418 0.025342384 -0.47384545 -0.32064924 0.39542812 -0.7182744 0.3888303 -0.74975705
0.38909495 0.18140243 -0.21167156 0.002655204 -0.6080749 -0.59477025 0.007634296 -0.3444529
0.46837747 -0.7144007 0.2528905 -0.21367282 -0.029529415 -0.02586985 0.2913686 0.07961973
-0.2508031 0.054684993 -0.09491588 -0.16781761 0.0903754 -0.2187702 -0.08640703 0.036620013
0.52929217 0.33054435 0.37354058 0.57771075 0.08132475 0.19812097 -0.091076486 0.027631018
-0.14051665 -0.33332798
00000000: 9e3e 91be bb20 203e 527f f8bd 72fd 883e
00000010: 4015 c5bd 8d15 8ebd 14c7 293e 4f1b 1bbe
00000020: 2650 0f3e d59a cf3c df9b f2be 232c a4be
00000030: 8e75 ca3e d5e0 37bf c414 c73e 14f0 3fbf
00000040: 7437 c73e 8fc1 393e 6ec0 58be ee02 2e3b
00000050: ccaa 1bbf dd42 18bf 1e29 fa3b 215c b0be
00000060: 2ccf ef3e f7e2 36bf dd7a 813e 0ccd 5abe
00000070: ace7 f1bc 02ed d3bc 442e 953e ab0f a33d
00000080: 4469 80be 5ffd 5f3d 4263 c2bd 61d8 2bbe
00000090: bd16 b93d 4c05 60be 2bf6 b0bd defe 153d
000000a0: b17f 073f 1c3d a93e b640 bf3e dae4 133f
000000b0: 978d a63d 39e0 4a3e 4f86 babd 725a e23c
000000c0: 99e3 0fbe f7a9 aabe

fc4.bias f4 [5]
-0.29571092 0.322553 -0.055523306 -0.26600868 0.3822189
00000000: 6c67 97be ab25 a53e 686c 63bd 4a32 88be
00000010: 32b2 c33e

fc5.weight f4 [4, 5]
-0.30077067 0.18560359 -0.5694069 0.35605517 0.40962356 -0.22960062 0.68175054 0.65939033
-0.26542884 -0.36146593 0.29038456 -0.10509393 0.12828276 -0.12154167 -0.17930911 -0.17595725
-0.018162407 -0.086178586 -0.4149448 -0.38361186
00000000: 9dfe 99be de0e 3e3e a7c4 11bf dd4c b63e
00000010: 2eba d13e 6d1c 6bbe 3487 2e3f cecd 283f
00000020: 4ae6 87be 1012 b9be 49ad 943e 7d3b d7bd
00000030: 8e5c 033e d7ea f8bd cf9c 37be 232e 34be
00000040: 54c9 94bc 667e b0bd a573 d4be c668 c4be

fc5.bias f4 [4]
0.066956095 0.13833636 0.11480906 -0.551891
00000000: 4720 893d 0ca8 0d3e 0321 eb3d bb48 0dbf
