Laboratorios/Lab1/checkpoints/modelo_epoch_460.pth (torch, 7862 bytes, 10 tensors)

fc1.weight f4 [20, 24]
0	0x3ec7e75e	0.39043707
1	0x3eac97ab	0.33709463
2	0x3eb2c272	0.34913975
3	0x3eb72e3e	0.35777467
4	0x3ebaf7db	0.36517224
5	0x3ebf708d	0.37390557
6	0x3ead98eb	0.3390573
7	0x3eb9d3b5	0.36294332
8	0x3eb98f48	0.36242127
9	0x3ec20269	0.37892464
10	0x3eafbd82	0.3432427
11	0x3ea57cfd	0.3232192
12	0x3e57d790	0.21078324
13	0x3e465e59	0.19371928
14	0x3c06f0e1	0.008236141
15	0x3de6edd1	0.11275829
16	0x3ea553a8	0.32290387
17	0x3e01958c	0.12654704
18	0x3e35a0cb	0.17737119
19	0x3e3102f9	0.1728629
20	0x3e3fde0a	0.18737045
21	0x3ee2f8ad	0.4433035
22	0x3eb0add2	0.34507614
23	0x3ec25dc9	0.37962177
24	0x3ed1a635	0.40947118
25	0x3eb92499	0.36160734
26	0x3eaec8fb	0.3413771
27	0x3ec30ae3	0.38094243
28	0x3ed35bd0	0.41280985
29	0x3ec73ef9	0.38915232
30	0x3eb87c9c	0.3603257
31	0x3ec76cce	0.389502
32	0x3ebbc18c	0.36671102
33	0x3ec0f60a	0.37687713
34	0x3eafbad3	0.34322223
35	0x3ec181bb	0.3779429
36	0x3e8e2a41	0.27766612
37	0x3e949416	0.2901923
38	0x3ed370c4	0.4129697
39	0x3e96971c	0.29412162
40	0x3ebf59df	0.37373254
41	0x3e9a3c83	0.30124292
42	0x3e9a3aa8	0.30122876
43	0x3e20871e	0.15676543
44	0xbc4d29ea	-0.0125222
45	0x3eec17ca	0.461119
46	0x3ed1f231	0.4100509
47	0x3ece71ef	0.403213
48	0x3e3787c4	0.17922884
49	0x3e6d5c2b	0.2317969
50	0x3e8f6dc4	0.28013432
51	0x3e24dadc	0.16099113
52	0x3e1e31ae	0.15448639
53	0x3e3f056c	0.18654412
54	0x3e429c0d	0.19004841
55	0x3e78bd02	0.24290851
56	0x3d3f0a46	0.046640657
57	0x3e32e9a6	0.17471942
58	0x3d65d0b3	0.056107234
59	0xbe24a799	-0.16079558
60	0x3d44ed75	0.04807802
61	0x3d676e8c	0.05650191
62	0xbf1f74cb	-0.62287587
63	0x3c863519	0.01638274
64	0x3d8bbbf7	0.06822961
65	0xbd3553e3	-0.044269454
66	0xbd43b454	-0.047779396
67	0x3e402c8d	0.18766995
68	0x3f134929	0.5753351
69	0x3cae688b	0.021290084
70	0x3e4391a1	0.19098522
71	0x3e59b33f	0.21259783
72	0x3e3dff39	0.18554391
73	0x3e7cc749	0.24685396
74	0x3e86c691	0.2632337
75	0x3e50da2d	0.20395727
76	0x3e4c299b	0.19937746
77	0x3e536e96	0.20647654
78	0x3e8169fb	0.2527617
79	0x3e65cb89	0.22440924
80	0x3e486ffa	0.19573966
81	0x3e8151f7	0.25257847
82	0x3e72d737	0.2371491
83	0x3d04eebc	0.032454237
84	0x3e6200cc	0.22070616
85	0x3d60c4de	0.054875247
86	0xbf153345	-0.58281356
87	0x3e18a52d	0.1490676
88	0x3e342183	0.17590909
89	0x3d5283b9	0.05139515
90	0x3d1f81bb	0.03894208
91	0x3e06f3b2	0.131789
92	0x3f11ec25	0.5700095
93	0x3d2a847b	0.04163025
94	0x3e41ab5d	0.18913026
95	0x3e42bfe6	0.19018516
96	0x3df15a44	0.11784795
97	0x3e44ffa1	0.1923814
98	0x3e761c52	0.24034241
99	0x3db30f6a	0.087431744
100	0x3defe57e	0.11713694
101	0x3e3f0484	0.18654066
102	0x3e1eb11b	0.15497248
103	0x3e76e203	0.24109654
104	0xbba396ec	-0.0049923565
105	0x3e23e7eb	0.16006438
106	0x3dc226d0	0.09480059
107	0xbd871be1	-0.06597114
108	0x3e42355f	0.18965672
109	0x3daa72f2	0.08322705
110	0xbf286f45	-0.65794784
111	0x3b44952e	0.0029996145
112	0x3d0e5ec3	0.03475834
113	0xbb515e50	-0.0031947084
114	0x3af52098	0.001870173
115	0x3e63a700	0.22231674
116	0x3f1b1dd9	0.6059242
117	0xbd2a44ef	-0.041569646
118	0x3e1cf778	0.15328777
119	0x3e35f705	0.17770012
120	0xbb49beaa	-0.003078381
121	0xba8d023c	-0.0010758112
122	0xbc7a6047	-0.015281743
123	0x3b98670d	0.0046509565
124	0xbbe5dc66	-0.007014799
125	0xbc449089	-0.0119973505
126	0xbc4dce3b	-0.012561376
127	0xbbbb811b	-0.0057221777
128	0xbcf8e2f2	-0.030381653
129	0xbc164677	-0.009172074
130	0xbc71526e	-0.014729125
131	0xbc8a192a	-0.016857702
132	0x3b388709	0.002815666
133	0xbb863466	-0.004095602
134	0x3c1b2cbe	0.009471117
135	0x3c19c14f	0.009384467
136	0xbc657a82	-0.014006259
137	0x3c1c9762	0.009557577
138	0xbcce4216	-0.025177997
139	0xbc3c3200	-0.01148653
140	0x3c2290a5	0.009922181
141	0xbca1c7e8	-0.019748643
142	0xbc8e3e45	-0.017363677
143	0xbb068ac4	-0.0020529488
144	0x3e9bdb75	0.3044087
145	0x3e9d2353	0.30691013
146	0x3e9fb60c	0.31193578
147	0x3e9ec3f5	0.31008878
148	0x3e862c59	0.2620571
149	0x3e901277	0.28139088
150	0x3e9ba179	0.3039663
151	0x3e8a53cf	0.27017066
152	0x3e87bc63	0.26510915
153	0x3e99d7d0	0.30047464
154	0x3e9262d1	0.28591016
155	0x3e5b1ce7	0.21397744
156	0x3e7162f1	0.235729
157	0x3e1d985c	0.15390152
158	0xbed43f55	-0.41454569
159	0x3e415615	0.18880494
160	0x3e88f5dc	0.26750076
161	0x3df08492	0.11744036
162	0x3de6664f	0.112499826
163	0x3e26da29	0.16294159
164	0x3edd484b	0.43219218
165	0x3e69f80a	0.22848526
166	0x3e9dba10	0.30806017
167	0x3e8e2c34	0.277681
168	0x3dffdba9	0.12493069
169	0x3e2367bf	0.15957545
170	0x3e832f38	0.25621963
171	0x3db1e4a5	0.086861886
172	0x3e07cceb	0.13261764
173	0x3e2e4e39	0.17022027
174	0x3df1e1c1	0.11810637
175	0x3e7309ba	0.23734179
176	0x3a0dbdf2	0.0005407027
177	0x3e0e78c1	0.13913251
178	0x3d83e717	0.06440561
179	0xbe04f08f	-0.12982391
180	0x3cf10f8b	0.029426357
181	0x3bb51948	0.0055266954
182	0xbf13737c	-0.5759809
183	0xbc899485	-0.016794452
184	0x3d9aa82f	0.0755161
185	0xbd9941c3	-0.07483246
186	0xbda8017e	-0.082034096
187	0x3e1d1f5e	0.15343997
188	0x3f088075	0.5332101
189	0xbd22b3c2	-0.03972221
190	0x3e3aaff1	0.18231179
191	0x3e5e8a71	0.21732499
192	0x3cbe2ef1	0.023215743
193	0x3e7af795	0.24508508
194	0x3d99b577	0.07505315
195	0x3e9c9614	0.3058325
196	0x3ce6c4a6	0.028169941
197	0x3d9ab816	0.07554643
198	0x3e75883b	0.23977749
199	0xbe6418ea	-0.22275129
200	0x3e9882c0	0.29787254
201	0x3e732c79	0.23747434
202	0x3e13a148	0.14416993
203	0x3eaf2607	0.342087
204	0x3e1ef9dc	0.15525001
205	0x3e486758	0.19570673
206	0x3f17e6d1	0.5933657
207	0x3e7d17de	0.24716136
208	0x3e7dcfb0	0.24786258
209	0x3e946caf	0.2898917
210	0x3eab9a19	0.33516005
211	0x3d881f2a	0.06646569
212	0xbf14e26d	-0.58158
213	0x3e81187d	0.25213996
214	0xbcf75878	-0.030193552
215	0xbe0dfbd5	-0.13865598
216	0x3b24672a	0.0025085905
217	0xbbec7d4b	-0.0072170845
218	0xbb8fb5b9	-0.0043856767
219	0xbc1c53e3	-0.0095414845
220	0x3b57fbe3	0.0032956533
221	0x3ae89bd3	0.0017746635
222	0xbc671395	-0.01410379
223	0xbb28cfb4	-0.0025758566
224	0xbb4707a5	-0.0030369547
225	0xbcb1d601	-0.02170849
226	0xbc09b1c6	-0.008404201
227	0xbb664734	-0.0035137655
228	0xbb25ff10	-0.002532903
229	0xbaf9c3b9	-0.0019055522
230	0xbb53e16e	-0.0032330411
231	0xbc9e5c05	-0.019330988
232	0x3b8c21bb	0.004276482
233	0x3b418d32	0.0029533622
234	0xbbba66c0	-0.0056885183
235	0xbbe2df8f	-0.006923623
236	0xbcef1ca1	-0.029188456
237	0xbb8813fc	-0.004152773
238	0xbbc4b338	-0.00600281
239	0xbc48666f	-0.012231453
240	0x3e217bef	0.15769933
241	0x3e321ca1	0.17393734
242	0x3e7e7177	0.24847971
243	0x3db1e81a	0.08686848
244	0x3de6edd3	0.1127583
245	0x3e2159d1	0.15756918
246	0x3e160975	0.14652045
247	0x3e558186	0.2085019
248	0x3b34a019	0.0027561246
249	0x3e1ba1cb	0.15198438
250	0x3d3c712e	0.046006374
251	0xbe74f720	-0.23922396
252	0xba22d79e	-0.0006211939
253	0x3cd278a4	0.025692292
254	0xbf0fdf21	-0.5619984
255	0x3d48d76b	0.049033564

fc1.bias f4 [20]
0	0x3eb2d9e0	0.3493185
1	0x3ea9bebe	0.33153337
2	0x3eb6b074	0.35681498
3	0x3eb01118	0.34388041
4	0x3eba989d	0.3644456
5	0xbc241390	-0.01001443
6	0x3eab0f8c	0.334103
7	0x3ea567f3	0.3230587
8	0x3c407c0b	0.011748324
9	0xbbad99e2	-0.0052978853
10	0x3ea09bc6	0.31368846
11	0xbb8dadd4	-0.0043237004
12	0x3eaffdff	0.3437347
13	0x3ea5c38f	0.32375762
14	0x3e0dbaa6	0.13840732
15	0x3e938dc0	0.28819084
16	0x00000000	0.0
17	0x3e9a2f37	0.30114147
18	0xbbf8e9f1	-0.0075962474
19	0xbc26c097	-0.010177753

fc2.weight f4 [15, 20]
0	0x3f10068e	0.5626
1	0x3f1d4390	0.6143122
2	0x3ea84c03	0.32870492
3	0x3e0174c8	0.12642205
4	0x3d4884ac	0.04895465
5	0x3e2363a1	0.15955974
6	0x3ebd248b	0.36941943
7	0xbd0e8735	-0.034796912
8	0x3e9bb12c	0.3040861
9	0xbdd95cf8	-0.106134355
10	0x3e66abd7	0.22526489
11	0x3e0e2d24	0.13884407
12	0x3e2ec5cb	0.1706764
13	0x3e7da6b8	0.2477063
14	0x3ed6afeb	0.4193109
15	0x3ed37a66	0.4130432
16	0x3e16f14a	0.14740482
17	0x3b6f17b4	0.0036482634
18	0x3dd4d95b	0.1039302
19	0xbd70c6b2	-0.05878324
20	0x3dd7fb00	0.10545921
21	0xbc9c69b7	-0.019093378
22	0xbe5525ea	-0.20815244
23	0x3d8189d7	0.06325119
24	0xbdf4e035	-0.119568266
25	0x3e4a15ad	0.19734831
26	0xbe157cdd	-0.14598413
27	0x3e166913	0.1468852
28	0xbcce2a5c	-0.025166683
29	0xbe118d7d	-0.1421413
30	0x3dccf181	0.10007001
31	0xbd59e990	-0.05320126
32	0xbd0d94f5	-0.034565885
33	0x3e2a7ce9	0.16649212
34	0xbc9cbedb	-0.019133976
35	0xba8e1218	-0.0010839133
36	0xbdebfa85	-0.11522392
37	0x3cbfa27e	0.023392912
38	0x3d9af394	0.0756599
39	0x3e3c4e3b	0.18389218
40	0x3d2ce43a	0.04220984
41	0xbd64781a	-0.0557786
42	0xbdde8941	-0.10866023
43	0xbdf790bc	-0.12088153
44	0xbe529dc5	-0.20567997
45	0x3e283f9c	0.16430515
46	0x3d420d61	0.04737604
47	0xbd2bf514	-0.04198177
48	0xbe64b97d	-0.22336383
49	0x3e3bab33	0.18327026
50	0xbde2886c	-0.11061177
51	0x3d64ee72	0.05589146
52	0xbe06cf35	-0.1316498
53	0x3dbe3398	0.092871845
54	0x3d6b1211	0.057390276
55	0x3d42bcb7	0.047543254
56	0x3e09aca7	0.13444768
57	0x3e418ff3	0.18902569
58	0x3dc04a2f	0.093891494
59	0x3e2169a2	0.15762952
60	0xbdea0141	-0.114260204
61	0x3d8a8216	0.06763093
62	0xbdbdba8a	-0.09264095
63	0x3e32927d	0.17438693
64	0xbe2806d5	-0.16408856
65	0xbe29ec47	-0.16594039
66	0x3e36e368	0.17860186
67	0x3c9cc0fb	0.019134989
68	0xbd84f8a4	-0.06492737
69	0xbbbe5d89	-0.00580949
70	0xbc87db69	-0.016584115
71	0xbd61d4d7	-0.05513462
72	0xbd4e9835	-0.050438125
73	0x3ddcbd93	0.10778346
74	0xbe2079ab	-0.15671413
75	0xbcd9712e	-0.026543226
76	0xbda70279	-0.081547685
77	0xbe27b9b2	-0.16379431
78	0xbd274d41	-0.04084516
79	0xbdb5a03d	-0.08868454
80	0x3df69c34	0.12041512
81	0x3d54bca3	0.05193771
82	0x3ebed6db	0.37273297
83	0x3ec806d0	0.39067698
84	0x3ea6ef29	0.3260434
85	0x3e24bb85	0.16087158
86	0x3e89964b	0.26872477
87	0x3f14f024	0.58178926
88	0xbf0eb1d2	-0.5574008
89	0xbe44d43d	-0.19221587
90	0x3f0a57ae	0.5404004
91	0xbd60c7bc	-0.05487798
92	0x3e910d68	0.2833054
93	0x3f08f506	0.53498876
94	0xbef55f28	-0.4792416
95	0x3e3bb33e	0.18330094
96	0xbe2419e4	-0.16025501
97	0x3e90b60b	0.28263888
98	0xbe3c6a04	-0.18399817
99	0xbe3b958c	-0.18318766
100	0x3e169b78	0.14707744
101	0xbdd4c331	-0.10388792
102	0x3e640659	0.22268046
103	0x3ee54b24	0.4478389
104	0x3ed6f92c	0.41986978
105	0x3e3dfd0f	0.18553565
106	0x3eb11f01	0.34593967
107	0x3f0db3ea	0.5535265
108	0xbf047aa4	-0.51749635
109	0xbd35bf2b	-0.044371765
110	0x3f0dfa99	0.55460507
111	0xbe038672	-0.12844256
112	0x3f1c0aa4	0.60953736
113	0x3ed43d17	0.41452858
114	0xbe9f6324	-0.31130326
115	0xbe68fed2	-0.22753456
116	0x3c0aec70	0.008479223
117	0x3f0f8105	0.56056243
118	0xbe1c52ab	-0.1526591
119	0xbc4f74de	-0.012662141
120	0x3e59f8f2	0.21286371
121	0x3e5b7da9	0.21434654
122	0x3eae1cf7	0.34006473
123	0x3e837eee	0.25682777
124	0x3ec065c6	0.37577647
125	0xbda9c39a	-0.08289261
126	0x3ee58e3a	0.44835073
127	0x3f0162c0	0.50541306
128	0xbf103b37	-0.56340355
129	0xbdbec62f	-0.09315144
130	0x3e97310c	0.29529607
131	0xbdb32b0d	-0.08748446
132	0x3eb1fca0	0.3476305
133	0x3e46e3d4	0.19422847
134	0xbea8b239	-0.32948473
135	0xbdec3292	-0.11533083
136	0xbc86c403	-0.016450888
137	0x3eb2a28f	0.34889647
138	0x3d431c4f	0.04763442
139	0x3e60585d	0.21908708
140	0xbe575955	-0.21030171
141	0xbe38e72b	-0.18056934
142	0xbdcb6fde	-0.09933446
143	0xbd9cb947	-0.07652526
144	0x3d21d1c9	0.039506707
145	0xbe14e2aa	-0.1453959
146	0xbdef77f8	-0.11692804
147	0xbd51a951	-0.051186863
148	0xbbb1b100	-0.0054227114
149	0xbb551790	-0.0032515265
150	0xbe585182	-0.21124843
151	0xbe4dd6d9	-0.20101489
152	0x3e178c08	0.14799511
153	0x3e210934	0.15726167
154	0x3e53a9cf	0.20670246
155	0x3cdb5998	0.02677612
156	0xbe1f6596	-0.15566096
157	0x3e3bad8f	0.18327926
158	0xbe142f87	-0.14471255
159	0x3e0626f9	0.13100804
160	0x3ea7547b	0.3268164
161	0x3f057139	0.5212589
162	0xbe343422	-0.17598012
163	0x3e0cae2b	0.13738315
164	0xbd7ac299	-0.06122074
165	0x3df00ff0	0.1172179
166	0x3e11418d	0.14185162
167	0x3e104212	0.14087704
168	0x3f0acb46	0.5421642
169	0xbe4a14e0	-0.19734526
170	0x3dece9da	0.11568041
171	0x3e641931	0.22275235
172	0xbb9dd4c3	-0.004816623
173	0xbeb68050	-0.3564477
174	0x3ef2499e	0.4732179
175	0x3f1f80eb	0.6230609
176	0x3be80ef5	0.007081861
177	0xbe56f211	-0.20990779
178	0xbe2dfb41	-0.16990377
179	0xbd605954	-0.05477269
180	0x3f0a6c78	0.5407176
181	0x3f11f2b2	0.5701095
182	0xbeebc631	-0.46049646
183	0xbb3788a8	-0.0028005037
184	0xbe75de40	-0.24010563
185	0xbde08991	-0.10963739
186	0xbaee52fc	-0.001818269
187	0xbef369c9	-0.47541645
188	0x3ea135e5	0.3148643
189	0x3e4866b0	0.19570422
190	0xbec7e33f	-0.39040563
191	0x3df3e509	0.11908919
192	0xbe8ace32	-0.2711044
193	0xbf176e12	-0.5915233
194	0x3f062341	0.52397543
195	0x3f2d1908	0.6761632
196	0x3dbdcb1d	0.092672564
197	0xbef69702	-0.48162085
198	0xbd2161e2	-0.03939999
199	0xbe5b8b4e	-0.2143986
200	0x3eccc84e	0.3999657
201	0x3eb0330d	0.3441395
202	0x3edf86ad	0.43657437
203	0x3f07fab8	0.5311694
204	0x3ec0991c	0.37616813
205	0xbd80ec31	-0.0629505
206	0x3ed5e61e	0.41777128
207	0x3ec9e7c6	0.39434642
208	0xbf21abf0	-0.6315298
209	0x3de66393	0.11249461
210	0x3ea06f06	0.31334704
211	0x3c8495ab	0.016184648
212	0x3f0422ff	0.516159
213	0x3ebb6f88	0.3660853
214	0xbf2dcfbc	-0.678951
215	0x3dfe4dd7	0.124171905
216	0x3d873ccd	0.06603394
217	0x3f023b10	0.5087137
218	0xbd8f792e	-0.07005535
219	0xbe287daf	-0.16454194
220	0xbdb451ef	-0.0880469
221	0xbda05711	-0.078291066
222	0x3d9839ff	0.07432937
223	0xbd1f4c18	-0.038890928
224	0xbdbbf2c3	-0.091771625
225	0xbe3dbc31	-0.1852882
226	0xbe117bdf	-0.1420741
227	0xbe050786	-0.12991151
228	0xbd88ccef	-0.06679713
229	0x3d3b16ad	0.045675922
230	0xbe141b3d	-0.14463516
231	0xbe3ec983	-0.18631558
232	0x3e3a105f	0.18170308
233	0x3c131bdb	0.008978809
234	0xbe4b11cb	-0.19831006
235	0x3c21cae9	0.009875038
236	0x3ce56e93	0.028006827
237	0x3dc9cfae	0.09854065
238	0x3d7eb3a1	0.062183026
239	0xbe0db9f1	-0.13840462
240	0x3e37ca75	0.17948325
241	0x3f1d85c2	0.61532223
242	0xbec48912	-0.38385826
243	0xbef79dab	-0.4836248
244	0xbf04af4e	-0.51829994
245	0x3e149df8	0.14513385
246	0x3e59ac2b	0.21257083
247	0xbf0324ec	-0.51228213
248	0x3ed941c1	0.4243298
249	0xbd83751a	-0.0641882
250	0xbf11faad	-0.57023126
251	0x3e3f8ab3	0.18705253
252	0xbea9224f	-0.33033988
253	0xbed448c4	-0.41461766
254	0x3efa6e9b	0.4891251
255	0x3f1a2def	0.6022634

fc2.bias f4 [15]
0	0x3dc61386	0.096716926
1	0xbe47d1e2	-0.19513658
2	0xbdb0e63f	-0.08637666
3	0xbdef1714	-0.11674324
4	0x3e90ef31	0.2830749
5	0x3e3e13ad	0.18562193
6	0x3e455bcc	0.19273299
7	0xbe0455a3	-0.12923293
8	0x3ef2e8d1	0.4744325
9	0x3eb39642	0.35075575
10	0x3ef8faef	0.48628947
11	0xbd6a7f37	-0.057250228
12	0x3e9943cf	0.29934546
13	0xbddb2e2e	-0.107021675
14	0x3cfd944d	0.030954504

fc3.weight f4 [10, 15]
0	0x3f05fa87	0.523354
1	0x3ce9ea95	0.02855424
2	0xbe6f84a3	-0.2339044
3	0x3df10e26	0.11770277
4	0xbeb560f2	-0.35425526
5	0xbeb655e5	-0.35612407
6	0xbe8a8958	-0.2705791
7	0x3df4345b	0.119240485
8	0x3e849b28	0.25899625
9	0x3e96cbe4	0.2945243
10	0xbee5d34b	-0.44887766
11	0xbe178538	-0.14796913
12	0x3ef4051b	0.47660145
13	0xbe35a1ad	-0.17737456
14	0x3e4cd89d	0.20004506
15	0x3ec5aa1d	0.3860635
16	0x3e16572f	0.14681695
17	0x3e427e2e	0.18993446
18	0x3cb570b0	0.02214846
19	0xbe46da07	-0.19419108
20	0xbec5d2a9	-0.38637283
21	0xbd160b0a	-0.03663162
22	0xbe00efcc	-0.12591475
23	0x3df03722	0.11729266
24	0x3f047a59	0.5174919
25	0xbed785cb	-0.42094263
26	0xbdb7ff31	-0.08984221
27	0x3e3c471f	0.18386506
28	0xbdde6f2d	-0.10861049
29	0x3e829d72	0.25510746
30	0x3e8f4b0a	0.27986938
31	0x3da298ba	0.079392865
32	0x3c045acb	0.008078287
33	0x3d82f44d	0.06394253
34	0x3e22d62f	0.15902017
35	0x3e61f172	0.2206476
36	0x3ecfd887	0.40594885
37	0xbdbf0e78	-0.093289316
38	0x3ed3a86d	0.41339436
39	0x3f078ee8	0.5295243
40	0x3ea9e7ea	0.3318475
41	0xbdff5bed	-0.12468705
42	0x3dfb9825	0.12284879
43	0xbe53b977	-0.20676218
44	0xbe585dec	-0.21129578
45	0x3ee7736f	0.45205256
46	0xbe457367	-0.19282304
47	0x3d45c6f6	0.048285447
48	0xbe1172f3	-0.14204006
49	0xbe92b190	-0.28651094
50	0xbf028968	-0.50990915
51	0xbee576c1	-0.44817165
52	0xbe147085	-0.14496048
53	0x3ee6af94	0.4505583
54	0x3f1cff88	0.6132741
55	0xbebdd74d	-0.37078324
56	0xbd6d1e2c	-0.057890102
57	0x3f22aee3	0.63548106
58	0x3e818877	0.25299427
59	0xbe25dac4	-0.16196734
60	0x3eb52e36	0.3538682
61	0xbd6b41dc	-0.057435855
62	0xbd87f0ad	-0.06637702
63	0xbd5f72bd	-0.054552782
64	0x3f0539a2	0.52041066
65	0x3ecda766	0.40166777
66	0x3ee0ae63	0.43883047
67	0xbdcd11ca	-0.100131586
68	0x3e841133	0.25794372
69	0xbeded6d8	-0.43523288
70	0x3eb71181	0.35755542
71	0xbe7b797b	-0.2455806
72	0xbeb36721	-0.3503962
73	0x3def91df	0.116977446
74	0xbe4875a5	-0.19576128
75	0x3e697b85	0.22801025
76	0xbd05d271	-0.032671396
77	0xbd8b6951	-0.06807197
78	0x3e80ed90	0.25181246
79	0xbeaef2a2	-0.3416949
80	0xbf0e9d06	-0.5570835
81	0xbe78422d	-0.24243994
82	0xbe82505e	-0.2545194
83	0x3eb495f8	0.35270667
84	0x3ee47a90	0.44624758
85	0xbe28e442	-0.16493323
86	0xbdf7559d	-0.12076876
87	0x3ee713b9	0.45132235
88	0x3ba485ca	0.0050208317
89	0x3da8241c	0.08210012
90	0x3ead2f93	0.3382536
91	0x3e2e912d	0.17047568
92	0xbe78c8f1	-0.24295403
93	0xbe21a6dc	-0.15786308
94	0x3ecf159c	0.40446174
95	0x3ea11836	0.31463784
96	0x3ec49483	0.38394555
97	0xbe74ade1	-0.23894455
98	0xbe4b3f3b	-0.1984834
99	0xbe5e26ad	-0.21694441
100	0x3ed77284	0.42079556
101	0xbdd98051	-0.106201775
102	0xbecad5b7	-0.39616176
103	0xbd3b90ef	-0.045792516
104	0x3e11377c	0.14181322
105	0xbdd11a15	-0.10210053
106	0xbe4afa91	-0.19822146
107	0xbe716adb	-0.23575918
108	0x3e3735d4	0.17891628
109	0xbdcb4657	-0.09925526
110	0xbe77d32c	-0.2420165
111	0xbde96d05	-0.11397747
112	0xbe51f1c1	-0.20502378
113	0xbe440f69	-0.19146504
114	0xbd00d2b6	-0.03145095
115	0x3da62fd1	0.08114589
116	0x3d41b619	0.047292802
117	0xbe74ebfc	-0.23918146
118	0x3e47b1ab	0.19501369
119	0x3d35852f	0.044316467
120	0xbe1bd84e	-0.15219232
121	0x3d158bd4	0.036510304
122	0x3e21351d	0.15742917
123	0xbe4b65ba	-0.19863024
124	0xbd746a3c	-0.059671625
125	0xbd9235ff	-0.07139205
126	0xbe1fa2ba	-0.15589419
127	0xbe81dbed	-0.25363103
128	0x3c088de5	0.008334612
129	0x3d835281	0.06412221
130	0xbe53b7c7	-0.20675574
131	0xbccab81b	-0.024745991
132	0x3e0fd840	0.14047337
133	0x3d921379	0.0713262
134	0x3dc033f5	0.0938491
135	0x3d07f465	0.033192057
136	0x3e71f760	0.23629522
137	0xbe544d9d	-0.20732732
138	0x3c83d93e	0.0160948
139	0x3e129391	0.14314105
140	0x3b0ed8da	0.0021796734
141	0xbe79776b	-0.2436196
142	0xbe2987ce	-0.16555712
143	0xbe602386	-0.21888551
144	0xbea7073a	-0.326227
145	0x3c9d3677	0.01919101
146	0xbe8141ec	-0.25245607
147	0xbe9895bb	-0.29801735
148	0xbe2bb289	-0.16767325
149	0xbe35084b	-0.17678945

fc3.bias f4 [10]
0	0x3e960970	0.29304075
1	0x3bbba000	0.0057258606
2	0x3ea8b0d0	0.32947397
3	0x3e9a818c	0.3017696
4	0x3ef24d7d	0.47324744
5	0xbdfc283d	-0.12312362
6	0x3e8b5d02	0.27219397
7	0xbe35453f	-0.17702197
8	0x3e29438e	0.16529676
9	0xbd270303	-0.040774357

fc4.weight f4 [5, 10]
0	0xbe913867	-0.28363344
1	0x3e205d51	0.15660597
2	0xbdf874fa	-0.121316865
3	0x3e8901fd	0.2675933
4	0xbdc51535	-0.096231855
5	0xbd8df6f3	-0.069318675
6	0x3e29c714	0.16579849
7	0xbe1b1b4f	-0.15147136
8	0x3e0f517e	0.1399593
9	0x3ccf9ad5	0.025342384
10	0xbee056fd	-0.43816367
11	0xbe88412e	-0.26612228
12	0x3ec9180e	0.39276165
13	0xbf3173f8	-0.6931758
14	0x3ec503e5	0.38479534
15	0xbf366066	-0.7124084
16	0x3ec55078	0.38537955
17	0x3e39c18f	0.18140243
18	0xbe58c06e	-0.21167156
19	0x3b2e02ee	0.002655204
20	0xbf15187c	-0.58240485
21	0xbf0d6a5b	-0.5524041
22	0x3bebc1f0	0.00719475
23	0xbea5e114	-0.32398283
24	0x3eea29a0	0.45734882
25	0xbf2fb9c8	-0.68642855
26	0x3e778f9d	0.24175878
27	0xbe5acd0c	-0.21367282
28	0xbcf1e7ac	-0.029529415
29	0xbcd3ed02	-0.02586985
30	0x3e9555c8	0.29167008
31	0x3da3b0f4	0.079927355
32	0xbe804713	-0.25054225
33	0x3d614eff	0.055006977
34	0xbdc2631b	-0.09491559
35	0xbe2b86b7	-0.16750608
36	0x3db916bd	0.0903754
37	0xbe60054c	-0.2187702
38	0xbdb0ea45	-0.08638433
39	0x3d15fede	0.036620013
40	0x3f04af25	0.5182975
41	0x3e9e947a	0.30972654
42	0x3ebcb97d	0.36860266
43	0x3f11aecf	0.5690736
44	0x3dad5513	0.08463492
45	0x3e3d0bec	0.18461579
46	0xbdacdae5	-0.08440188
47	0x3ce25a72	0.027631018
48	0xbe0fe454	-0.14051944
49	0xbeaaa9f7	-0.33332798

fc4.bias f4 [5]
0	0xbe9765f6	-0.29569978
1	0x3ea500db	0.32227215
2	0xbd578e90	-0.052626193
3	0xbe882aab	-0.26595053
4	0x3ec2822d	0.3798994

fc5.weight f4 [4, 5]
0	0xbe99f52b	-0.3006986
1	0x3e5264de	0.2054629
2	0xbf0b86e9	-0.5450273
3	0x3eb64cdd	0.35605517
4	0x3ecd82ce	0.4013886
5	0xbe6b1cbb	-0.22960179
6	0x3f2bb31a	0.6707016
7	0x3f22c3a4	0.63579774
8	0xbe87e64a	-0.26542884
9	0xbeb42688	-0.35185647
10	0x3e94a329	0.2903073
11	0xbdd32efb	-0.10311695
12	0x3e0e3405	0.13887031
13	0xbdf8ead7	-0.12154167
14	0xbe30c4ed	-0.17262621
15	0xbe342eae	-0.17595932
16	0xbc91e253	-0.017808115
17	0xbdac8983	-0.08424666
18	0xbed473a5	-0.4149448
19	0xbec31647	-0.38102934

fc5.bias f4 [4]
0	0x3d87b454	0.06626192
1	0x3e0dc5f1	0.1384504
2	0x3debd31d	0.11514876
3	0xbf0d42c8	-0.55180025
