Laboratorios/Lab1/checkpoints/modelo_epoch_680.pth (torch, 7862 bytes, 10 tensors)

fc1.weight f4 [20, 24]
00000000: 132a e03e 1a94 b73e 89fa c83e 5c34 b93e
00000010: bf40 d33e c03d cf3e 8d04 b83e 7067 d93e
00000020: b511 bf3e db74 c93e 4eff b43e 5fab 723e
00000030: 6646 5f3e 17d1 3d3e 030d a53d 44d1 e13d
00000040: 9b3e b13e bf20 943d bd2b 5c3e 57c2 783e
00000050: e372 043d 2f4d cf3e befc c63e e2f4 e13e
00000060: d4c6 f33e fe89 c33e d22e d13e 3276 be3e
00000070: 4ac1 f53e 4002 d93e 765b c13e e0ea f63e
00000080: 8cc2 bb3e 3ce0 c53e d171 b13e 5587 843e
00000090: 6f19 8f3e 7e0c 893e 175d fd3e e0a8 8e3e
000000a0: 9125 be3e 864d 5f3e 86a8 b03e 41ed 863e
000000b0: 2013 6ebe 6595 ce3e afc1 f43e e8a1 ff3e
000000c0: 5d49 e63d 530d 593e fb39 3c3e 7275 493e
000000d0: b138 853d fc45 1b3e 7664 173e 507c 0b3e
000000e0: 2214 a73d 2c08 3e3e d7d6 843d 8643 583d
000000f0: f867 673d e93c e93d 9f76 42bf 7bbb 4d3d
00000100: 1f91 d43d 5129 cb3d 6f6e b2bd d053 943d
00000110: c2ad 4e3f 6a14 e63d da4c e33d 33a6 e93d
00000120: 28dc f23d 97d6 6b3e af71 303e c40d 7e3e
00000130: 0ff6 db3d f754 2c3e af33 5c3e bcd3 e53d
00000140: a254 743e 7173 863e 0c08 823e b276 903e
00000150: cab0 6e3e abb5 f43d 696d 45bf b2e0 3f3e
00000160: 625b 5f3e e7ad 553e 1d7a 063a 6997 7a3b
00000170: 3194 553f e79b 2c3e 83dd d53d 9329 aa3d
00000180: acdb 443d 888f 2b3e dde5 013e 87ae 023e
00000190: 9be3 623c 494c 163e 8207 d03d 4ff3 ff3d
000001a0: 615d 113d d04b 333e 1ff0 d53d 57b4 203e
000001b0: 9d10 4b3e d3d9 143e 69cc 4ebf 0235 193d
000001c0: b0ff a03d 62ef 143e 95aa 1abd 25b7 c73d
000001d0: 0788 5a3f dfff 693d 485f 793d fa34 8c3d
000001e0: aabe 49bb 3c02 8dba 4760 7abc 0d67 983b
000001f0: 66dc e5bb 8990 44bc 3bce 4dbc 1b81 bbbb
00000200: f2e2 f8bc 7746 16bc 6e52 71bc 2a19 8abc
00000210: 0987 383b 6634 86bb be2c 1b3c 4fc1 193c
00000220: 827a 65bc 6297 1c3c 1642 cebc 0032 3cbc
00000230: a590 223c e8c7 a1bc 453e 8ebc c48a 06bb
00000240: 3b55 833e 29e7 9c3e d0d6 8a3e 8752 ad3e
00000250: 47a2 613e ca9d 873e dee8 9a3e 5d5b 583e
00000260: d763 953e cde9 9b3e 9514 9c3e c6f8 d63e
00000270: ed3e 803e 4c65 4a3e cd9d 1bbf 87b8 6c3e
00000280: 865e 8f3e e795 793e e2aa a83d e8b2 a03d
00000290: eb3e 263f 7cda af3e 94d3 893e 0331 613e
000002a0: 9e95 783d d10f 103e 9ea4 273e be98 f13d
000002b0: 1f0d 503d 6783 0d3e 8946 b13d ed72 0d3e
000002c0: 5313 df3c 48ea 183e ed6c 903d 53da 733d
000002d0: e97a 143d 8331 5b3d 4212 2fbf 7ae8 5f3c
000002e0: 8090 d63d 36fe 663d 5ff8 f9bd b7d7 473d
000002f0: 52fc 3d3f f5c1 1d3d d20d e83d f4da 063e
00000300: 69df bf3d b13b 8a3e 4479 4f3e 19cd 8e3e
00000310: 2263 fd3d d448 e23d 201c 883e b482 ebbd
00000320: e037 8f3e 60a7 693e a1ee 0f3e f6f4 343e
00000330: 8067 1a3e dd6a 1c3e c29e 2f3f a010 623e
00000340: 5274 5f3e 3375 313e dabc c13e a204 323e
00000350: 0e9f 4abf 9290 3b3e 5bbc 533d 9e46 2ebd
00000360: 2a67 243b 4b7d ecbb b9b5 8fbb e353 1cbc
00000370: e3fb 573b d39b e83a 9513 67bc b4cf 28bb
00000380: a507 47bb 01d6 b1bc c6b1 09bc 3447 66bb
00000390: 10ff 25bb b9c3 f9ba 6ee1 53bb 055c 9ebc
000003a0: bb21 8c3b 328d 413b c066 babb 8fdf e2bb
000003b0: a11c efbc fc13 88bb 38b3 c4bb 6f66 48bc
000003c0: 8c3f c03d aaeb 1f3e 40b4 223e 6330 f73d
000003d0: 958b f33c b027 013e 1a04 e23d fc42 df3d
000003e0: 0eaa 123d e11a 273e 802b 5d3d 1498 13bd
000003f0: 920e fb3b 22a7 9c3d a56b 2ebf 0bca a73d
0.437821 0.3585518 0.39253643 0.3617276 0.41260335 0.404768 0.35940972 0.4246173
0.37318197 0.39346966 0.35351032 0.23698185 0.21804199 0.18536793 0.080591224 0.110262424
0.34618077 0.07232808 0.2150106 0.24292885 0.032336127 0.40488574 0.38864702 0.44132143
0.4761263 0.38191217 0.40856034 0.3719955 0.4799903 0.4238453 0.37765092 0.4822607
0.36671865 0.3864764 0.34657148 0.258845 0.27949092 0.26767343 0.49485084 0.27863216
0.37138036 0.21806917 0.34503573 0.26352885 -0.23249483 0.40348354 0.4780402 0.49928212
0.11244462 0.21196489 0.18381493 0.19673708 0.06504954 0.15163416 0.14784417 0.1362164
0.08158137 0.18557805 0.0648629 0.05279877 0.056495637 0.11388571 -0.7596225 0.050227623
0.10379242 0.0991999 -0.0871247 0.072425485 0.80733883 0.112343624 0.11098643 0.11408653
0.11858398 0.23031078 0.17230867 0.24809939 0.10740291 0.16829287 0.2150409 0.11222026
0.2386041 0.2625995 0.25396764 0.28215557 0.23309627 0.11948713 -0.7712007 0.18738058
0.21812204 0.2086712 0.00051298906 0.003823722 0.8342925 0.16856347 0.10442641 0.08308711
0.048061058 0.16753972 0.12685342 0.1276189 0.013848211 0.14677538 0.10157682 0.12497579
0.035489444 0.17509389 0.1044619 0.15693794 0.19830556 0.14536218 -0.80780655 0.037404068
0.078612685 0.14544442 -0.037760336 0.09751729 0.8536381 0.057128783 0.060881883 0.06846042
-0.003078381 -0.0010758112 -0.015281743 0.0046509565 -0.007014799 -0.0119973505 -0.012561376 -0.0057221777
-0.030381653 -0.009172074 -0.014729125 -0.016857702 0.002815666 -0.004095602 0.009471117 0.009384467
-0.014006259 0.009557577 -0.025177997 -0.01148653 0.009922181 -0.019748643 -0.017363677 -0.0020529488
0.25650963 0.3064511 0.27117014 0.33852026 0.2203456 0.2648757 0.3025579 0.21128602
0.29177734 0.30451813 0.30484453 0.41986674 0.2504801 0.19765204 -0.6078766 0.23117267
0.28001803 0.2437359 0.08235718 0.07846624 0.64939755 0.34346378 0.26919234 0.21991353
0.06068956 0.14068533 0.1637139 0.117967114 0.050793763 0.13819657 0.08656032 0.13813372
0.027230894 0.14933121 0.07052026 0.059534382 0.03625003 0.053514015 -0.68387234 0.013666267
0.1047678 0.05639478 -0.12205576 0.048789706 0.74213135 0.03851505 0.11330761 0.13169461
0.09368784 0.26998666 0.20261103 0.27890852 0.12372424 0.11049047 0.26583958 -0.11499539
0.27972317 0.22817755 0.14055873 0.1767157 0.15078545 0.1527514 0.6860162 0.22076654
0.21821716 0.17329864 0.37839395 0.1738458 -0.7914895 0.18316868 0.0516933 -0.042547815
0.0025085905 -0.0072170845 -0.0043856767 -0.0095414845 0.0032956533 0.0017746635 -0.01410379 -0.0025758566
-0.0030369547 -0.02170849 -0.008404201 -0.0035137655 -0.002532903 -0.0019055522 -0.0032330411 -0.019330988
0.004276482 0.0029533622 -0.0056885183 -0.006923623 -0.029188456 -0.004152773 -0.00600281 -0.012231453
0.093871206 0.15617242 0.15889072 0.12069776 0.029729644 0.12612796 0.110359386 0.10901448
0.035806708 0.16318847 0.053996563 -0.036033705 0.007661649 0.076490656 -0.68133 0.081928335

fc1.bias f4 [20]
00000000: 7cf2 bf3e bf84 b73e 21b3 a83e d699 a53e
00000010: 1152 a93e 9013 24bc 20cf a83e 3621 973e
00000020: a31e 833d e299 adbb cada 933e d4ad 8dbb
00000030: d6ee a33e df7b 913e bf3b 3d3e 32b8 a33e
00000040: 0000 0000 d561 853e f1e9 f8bb 97c0 26bc
0.37489688 0.35843465 0.32949165 0.3234393 0.33070424 -0.01001443 0.32970524 0.29517525
0.06402328 -0.0052978853 0.2887786 -0.0043237004 0.32018155 0.2841482 0.18479823 0.31976467
0.0 0.26051202 -0.0075962474 -0.010177753

fc2.weight f4 [15, 20]
00000000: f0f3 153f 9e89 253f 0b5b 913e 1584 a33d
00000010: ee23 66bc a163 233e 5770 b23e b2cb a5bd
00000020: 4d0c ae3e f85c d9bd 4b65 363e 242d 0e3e
00000030: 84a5 013e f7bb 3f3e 0fc3 e63e 14d3 e63e
00000040: 4af1 163e 93ab 80bd 5bd9 d43d b2c6 70bd
00000050: 00fb d73d b769 9cbc ea25 55be d789 813d
00000060: 35e0 f4bd ad15 4a3e dd7c 15be 1369 163e
00000070: 5c2a cebc 7d8d 11be 81f1 cc3d 90e9 59bd
00000080: f594 0dbd e97c 2a3e dbbe 9cbc 1812 8eba
00000090: 85fa ebbd 7ea2 bf3c 94f3 9a3d 3b4e 3c3e
000000a0: 3ae4 2c3d 1a78 64bd 4189 debd bc90 f7bd
000000b0: c59d 52be 9c3f 283e 610d 423d 14f5 2bbd
000000c0: 7db9 64be 33ab 3b3e 6c88 e2bd 72ee 643d
000000d0: 35cf 06be 9833 be3d 1112 6b3d b7bc 423d
000000e0: a7ac 093e f38f 413e 2f4a c03d a269 213e
000000f0: 4101 eabd 1682 8a3d 8aba bdbd 7d92 323e
00000100: d506 28be 47ec 29be 68e3 363e fbc0 9c3c
00000110: a4f8 84bd 895d bebb 69db 87bc d7d4 61bd
00000120: 3598 4ebd 93bd dc3d ab79 20be 2e71 d9bc
00000130: 7902 a7bd b2b9 27be 414d 27bd 3da0 b5bd
00000140: 22de ee3d 3e63 573c b810 de3e c70a f03e
00000150: 8a47 cf3e 85bb 243e bc9f a63e 0265 243f
00000160: 3d60 1cbf 3dd4 44be 638b 193f bcc7 60bd
00000170: d2cf b33e 7f9c 193f 5422 05bf 6c29 023e
00000180: e419 24be d7d4 b53e 046a 3cbe 8c95 3bbe
00000190: 36bc 0d3e 5601 18be 41d7 973e e9bd 0c3f
000001a0: 11cb 033f 0ffd 3d3e 3ce0 d93e 934a 203f
000001b0: efa4 10bf 2bbf 35bd c36b 1f3f 7286 03be
000001c0: 0fef 313f 420a f93e 9d9b b2be 4ed4 8fbe
000001d0: 70ec 0a3c 7335 253f ab52 1cbe de74 4fbc
000001e0: 5cc8 5b3e e89a 423e 795c c93e b814 a53e
000001f0: 25f2 e23e 9ac3 a9bd 96f2 fd3e e5ba 0e3f
00000200: 20c6 1ebf 2fc6 bebd 80db b23e 0d2b b3bd
00000210: 3099 cf3e d407 823e c649 bdbe 31cb 20be
00000220: 03c4 86bc 91c6 d23e 4f1c 433d 5d58 603e
00000230: 5559 57be 2be7 38be de6f cbbd 47b9 9cbd
00000240: c9d1 213d aae2 14be f877 efbd 51a9 51bd
00000250: 00b1 b1bb 9017 55bb 8251 58be d9d6 4dbe
00000260: 088c 173e 3409 213e cfa9 533e 9859 db3c
00000270: 9665 1fbe 8fad 3b3e 872f 14be f926 063e
00000280: 924c b43e afb4 0e3f 7e43 84be 915b 6a3d
00000290: bf6a 2ebe f00f f03d b6b4 d43d 6b1c 6f3d
000002a0: 8fe9 143f e014 4abe 8020 213d 3119 643e
000002b0: 40b1 abbd bb49 e2be dae5 013f 7229 2a3f
000002c0: f50e e83b 1798 a2be 41fb 2dbe 5459 60bd
000002d0: 290f 103f e861 1b3f 3195 0ebf fde7 2abe
000002e0: 35ee b9be 9189 e0bd 97dc ddbd f950 10bf
000002f0: f0e3 b43e b066 483e b681 eebe 09e5 f33d
00000300: 1eb4 cdbe 9e57 2abf c467 0e3f 00f0 373f
00000310: 1dcb bd3d 4d92 13bf e261 21bd 4e8b 5bbe
00000320: 8d8e ca3e 123a 9d3e ecd5 fd3e e94e 1b3f
00000330: 2f11 e83e 31ec 80bd 0eaa f13e 29df e73e
00000340: 95fb 2ebf 9363 e63d ed29 be3e ab95 843c
00000350: d3f2 143f 7a2e dc3e c909 38bf 5c27 903d
00000360: cd3c 873d ad3c 143f 2e79 8fbd af7d 28be
00000370: ef51 b4bd 1157 a0bd ff39 983d 184c 1fbd
00000380: c3f2 bbbd 31bc 3dbe df7b 11be 8607 05be
00000390: efcc 88bd ad16 3b3d 3d1b 14be 83c9 3ebe
000003a0: 5f10 3a3e db1b 133c cb11 4bbe e9ca 213c
000003b0: 936e e53c aecf c93d a1b3 7e3d f1b9 0dbe
000003c0: 9d88 493e 8ba5 263f 96a0 f3be 87f7 25bf
000003d0: 0465 22bf f89d 143e a5b2 493d 9e19 19bf
000003e0: 4ea6 ec3e 1a75 83bd c72a 25bf b38a 3f3e
000003f0: d9c6 e7be 234c f9be 2a33 053f 29c7 243f
0.58575344 0.6466311 0.28389773 0.07984177 -0.014046652 0.15955974 0.34851333 -0.080954924
0.3399376 -0.106134355 0.17812078 0.13884407 0.12660795 0.18724047 0.45070693 0.45082915
0.14740482 -0.06282725 0.1039302 -0.05878324 0.10545921 -0.019093378 -0.20815244 0.06325119
-0.119568266 0.19734831 -0.14598413 0.1468852 -0.025166683 -0.1421413 0.10007001 -0.05320126
-0.034565885 0.16649212 -0.019133976 -0.0010839133 -0.11522392 0.023392912 0.0756599 0.18389218
0.04220984 -0.0557786 -0.10866023 -0.12088153 -0.20567997 0.16430515 0.04737604 -0.04198177
-0.22336383 0.18327026 -0.11061177 0.05589146 -0.1316498 0.092871845 0.057390276 0.047543254
0.13444768 0.18902569 0.093891494 0.15762952 -0.114260204 0.06763093 -0.09264095 0.17438693
-0.16408856 -0.16594039 0.17860186 0.019134989 -0.06492737 -0.00580949 -0.016584115 -0.05513462
-0.050438125 0.10778346 -0.15671413 -0.026543226 -0.081547685 -0.16379431 -0.04084516 -0.08868454
0.11663462 0.01314622 0.4337213 0.46883222 0.40484267 0.16087158 0.32543743 0.64216626
-0.6108435 -0.19221587 0.5997831 -0.05487798 0.35119492 0.6000442 -0.52005506 0.12711114
-0.16025501 0.35513946 -0.18399817 -0.18318766 0.13841328 -0.1484426 0.29656413 0.5497728
0.5148173 0.18553565 0.4255389 0.6261379 -0.5650167 -0.044371765 0.62273806 -0.12844256
0.695054 0.4864064 -0.3488435 -0.28091663 0.008479223 0.6453468 -0.1526591 -0.012662141
0.2146315 0.19004405 0.39328364 0.3224237 0.44325367 -0.08289261 0.4959914 0.5575393
-0.62021065 -0.09315144 0.3493309 -0.08748446 0.4054656 0.25396597 -0.36970347 -0.15702511
-0.016450888 0.4116712 0.04763442 0.21908708 -0.21030171 -0.18056934 -0.09933446 -0.07652526
0.039506707 -0.1453959 -0.11692804 -0.051186863 -0.0054227114 -0.0032515265 -0.21124843 -0.20101489
0.14799511 0.15726167 0.20670246 0.02677612 -0.15566096 0.18327926 -0.14471255 0.13100804
0.3521467 0.5574445 -0.25832742 0.05721623 -0.17032908 0.1172179 0.103860304 0.05837671
0.5816888 -0.19734526 0.039337635 0.22275235 -0.08383417 -0.44196877 0.5074135 0.6646949
0.007081861 -0.3175666 -0.16990377 -0.05477269 0.5627313 0.6069627 -0.556964 -0.16690059
-0.3631455 -0.10963739 -0.1083309 -0.56373554 0.35330153 0.19570422 -0.46583337 0.11908919
-0.4017648 -0.66539943 0.55627084 0.71850586 0.092672564 -0.5764511 -0.03939999 -0.2143986
0.39561883 0.30708367 0.49577272 0.6066728 0.4532561 -0.0629505 0.47200054 0.45287445
-0.68352634 0.11249461 0.37141362 0.016184648 0.5818302 0.4300421 -0.7188993 0.07038757
0.06603394 0.57905084 -0.07005535 -0.16454194 -0.0880469 -0.078291066 0.07432937 -0.038890928
-0.091771625 -0.1852882 -0.1420741 -0.12991151 -0.06679713 0.045675922 -0.14463516 -0.18631558
0.18170308 0.008978809 -0.19831006 0.009875038 0.028006827 0.09854065 0.062183026 -0.13840462
0.1968102 0.6509635 -0.47583455 -0.6483082 -0.6343539 0.14513385 0.049242634 -0.59804714
0.4622063 -0.0641882 -0.645184 0.18705253 -0.45268896 -0.486909 0.52031195 0.64366394

fc2.bias f4 [15]
00000000: 5a3e f13d e2d1 47be 3fe6 b0bd 1417 efbd
00000010: fd02 8b3e bdb1 293e 1962 403e a355 04be
00000020: c35e 003f 1e8a c23e 2553 f33e 377f 6abd
00000030: e888 a73e 2e2e dbbd 4d94 fd3c
0.11779471 -0.19513658 -0.08637666 -0.11674324 0.27150717 0.16571708 0.18787421 -0.12923293
0.50144595 0.37996 0.47524372 -0.057250228 0.3272164 -0.107021675 0.030954504

fc3.weight f4 [10, 15]
00000000: dcb7 0a3f 95ea e93c a384 6fbe 260e f13d
00000010: e399 e5be 272a ebbe dc74 babe 5b34 f43d
00000020: 0fa3 973e 824d b33e 9c78 0abf 3885 17be
00000030: e63f 0a3f ada1 35be 9dd8 4c3e 47e5 d13e
00000040: 2f57 163e 2e7e 423e b070 b53c 4706 9cbe
00000050: ca50 05bf c42a 18be ccef 00be b784 373e
00000060: 8826 1f3f 8baa 03bf 31ff b7bd 96cc 9e3e
00000070: 2d6f debd 729d 823e cf45 9b3e ba98 a23d
00000080: cb5a 043c 4df4 823d f947 2e3e cfd3 6a3e
00000090: a08e d63e 780e bfbd 42cf e03e 5413 0d3f
000000a0: fa9c af3e ed5b ffbd d5c5 103e 77b9 53be
000000b0: ec5d 58be a170 ed3e 6773 45be f6c6 453d
000000c0: f372 11be 415e c3be 6e64 1cbf 9cea 0abf
000000d0: 8570 14be 0b72 f63e fa9c 293f 4ec5 edbe
000000e0: 2c1e 6dbd 3644 313f 7788 813e c4da 25be
000000f0: 8028 ba3e dc41 6bbd adf0 87bd bd72 5fbd
00000100: c43b 0d3f ba12 e13e 41b0 f13e ca11 cdbd
00000110: e50c 793e a6e8 07bf 22a8 c33e 7b79 7bbe
00000120: 1c12 e3be df91 ef3d a575 48be 9d5d 733e
00000130: 71d2 05bd 5169 8bbd 90ed 803e 3658 e5be
00000140: f704 2ebf 888a b2be 5e50 82be ee99 cc3e
00000150: ebdc 073f 2578 84be 9d55 f7bd 6173 0d3f
00000160: ca85 a43b 1c24 a83d 0d62 af3e 2d91 2e3e
00000170: f1c8 78be dca6 21be 3f23 df3e aefd b43e
00000180: f5b5 d53e e1ad 74be 7430 65be 1f1b 95be
00000190: 1332 e33e 5180 d9bd 895f f3be ef90 3bbd
000001a0: 7c37 113e 151a d1bd 91fa 4abe db6a 71be
000001b0: d435 373e 5746 cbbd 2cd3 77be 056d e9bd
000001c0: c1f1 51be 690f 44be b6d2 00bd d12f a63d
000001d0: 19b6 413d fceb 74be abb1 473e 2f85 353d
000001e0: fae2 1bbe d48b 153d 1d35 213e ba65 4bbe
000001f0: 916a 74bd ff35 92bd 9ba3 1fbe eddb 81be
00000200: 4be1 073c 1a3c 833d 9bb8 53be 1bb8 cabc
00000210: 28cc 0f3e 7913 923d f533 c03d 65f4 073d
00000220: 60f7 713e 9d4d 54be 3ed9 833c 9193 123e
00000230: dad8 0e3b 6b77 79be ce87 29be 8623 60be
00000240: 3a07 a7be 7736 9d3c ec41 81be bb95 98be
00000250: 89b2 2bbe 4b08 35be
0.541868 0.02855424 -0.2339044 0.11770277 -0.4484397 -0.45930597 -0.36417282 0.119240485
0.2961659 0.3502007 -0.54090285 -0.14796913 0.5400375 -0.17737456 0.20004506 0.40995237
0.14681695 0.18993446 0.02214846 -0.3047354 -0.520764 -0.14860064 -0.12591475 0.1792172
0.6216817 -0.514321 -0.08984221 0.31015462 -0.10861049 0.25510746 0.30326697 0.079392865
0.008078287 0.06394253 0.17019643 0.22932361 0.4190569 -0.093289316 0.43908125 0.5510762
0.3429945 -0.12468705 0.14137967 -0.20676218 -0.21129578 0.46374992 -0.19282304 0.048285447
-0.14204006 -0.38157848 -0.61090744 -0.54264235 -0.14496048 0.48133883 0.6625515 -0.46439594
-0.057890102 0.69244707 0.25299427 -0.16196734 0.36359024 -0.057435855 -0.06637702 -0.054552782
0.5516932 0.439596 0.47204784 -0.100131586 0.24321325 -0.5308937 0.38214213 -0.2455806
-0.44349754 0.116977446 -0.19576128 0.2376618 -0.032671396 -0.06807197 0.25181246 -0.44793862
-0.67976326 -0.34871316 -0.2545194 0.3996119 0.5307147 -0.25872913 -0.12076876 0.5525418
0.0050208317 0.08210012 0.34254494 0.17047568 -0.24295403 -0.15786308 0.43581578 0.35349792
0.41740385 -0.23894455 -0.22381765 -0.29122254 0.4437414 -0.106201775 -0.47533825 -0.045792516
0.14181322 -0.10210053 -0.19822146 -0.23575918 0.17891628 -0.09925526 -0.2420165 -0.11397747
-0.20502378 -0.19146504 -0.03145095 0.08114589 0.047292802 -0.23918146 0.19501369 0.044316467
-0.15223303 0.036510304 0.15742917 -0.19863024 -0.059671942 -0.07139205 -0.15589754 -0.25363103
0.00829346 0.06407948 -0.2067589 -0.024745991 0.14042723 0.0713262 0.0938491 0.033192057
0.23629522 -0.20732732 0.0160948 0.14314105 0.0021796734 -0.2436196 -0.16555712 -0.21888551
-0.326227 0.01919101 -0.25245607 -0.29801735 -0.16767325 -0.17678945

fc3.bias f4 [10]
00000000: 6bf3 9e3e 095d 2a3d 96cf ac3e 0922 a03e
00000010: cb5a f33e 21be d1bd 1855 8b3e 3f45 35be
00000020: 0843 293e 0303 27bd
0.31045088 0.04159263 0.33752126 0.31275967 0.47530207 -0.10241342 0.2721336 -0.17702197
0.16529477 -0.040774357

fc4.weight f4 [5, 10]
00000000: cb6b 91be 9927 1e3e 89c2 f8bd 4ade 883e
00000010: 4015 c5bd 82fd 8ebd 14c7 293e 4f1b 1bbe
00000020: cf48 0f3e d59a cf3c 62b3 1bbf fdb4 03bf
00000030: 5627 d03e 8acf 4fbf 9946 cf3e 835c 64bf
00000040: 57c0 ce3e 8fc1 393e 6ec0 58be ee02 2e3b
00000050: 7f7d 34bf 5d58 40bf 6ade bf3b d001 d7be
00000060: 6d3b 013f 6af4 51bf e73f 953e 0ccd 5abe
00000070: ace7 f1bc 02ed d3bc cc3d a33e e6ee e03d
00000080: a0f9 65be 259e ab3d 4bca bfbd abfa 0dbe
00000090: d416 b93d 4c05 60be d670 b0bd defe 153d
000000a0: 8267 113f c17f d03e e594 c63e 7460 1b3f
000000b0: 97a1 873d 20fd 7b3e 654d f0bd 725a e23c
000000c0: 8ae3 0fbe f7a9 aabe
-0.28402552 0.15444793 -0.1214648 0.26732093 -0.09623194 -0.069819465 0.16579849 -0.15147136
0.13992618 0.025342384 -0.6082059 -0.5144804 0.4065501 -0.81176054 0.4048355 -0.8920366
0.4038112 0.18140243 -0.21167156 0.002655204 -0.7050399 -0.7513483 0.0058553712 -0.4199357
0.504813 -0.8201357 0.29150316 -0.21367282 -0.029529415 -0.02586985 0.31883085 0.10983066
-0.22458506 0.08379773 -0.09364756 -0.13865153 0.09037557 -0.2187702 -0.08615272 0.036620013
0.56798565 0.40722468 0.38785473 0.6069405 0.06622618 0.24608278 -0.11733512 0.027631018
-0.14051643 -0.33332798

fc4.bias f4 [5]
00000000: 176d 97be 59f7 a53e ff3b 7bbd c086 85be
00000010: 31c5 c63e
-0.29575416 0.32415274 -0.061336514 -0.2607937 0.3882232

fc5.weight f4 [4, 5]
00000000: f4f9 99be 3057 dd3d 807f 29bf 7ee8 b73e
00000010: 8f3c e03e 6d1c 6bbe 44d7 393f eaf5 3f3f
00000020: dbea 87be 9b4f cabe c1a7 943e 8ead e6bd
00000030: f64c a93d 92c4 ffbd f697 4dbe 232e 34be
00000040: 5506 a4bc 589b c8bd 7175 d4be 0c1a cabe
-0.30073512 0.10807645 -0.66210175 0.35919565 0.43796203 -0.22960062 0.72594094 0.7498461
-0.26546368 -0.3951386 0.29034236 -0.11263572 0.08266632 -0.12488665 -0.200775 -0.17595725
-0.02002255 -0.097952545 -0.4149585 -0.39472997

fc5.bias f4 [4]
00000000: 5ae2 8c3d 32d6 0d3e 61bb e83d 4264 0dbf
0.06879111 0.1385124 0.11363865 -0.55231106
