Laboratorios/Lab1/checkpoints/modelo_epoch_480.pth (torch, 7862 bytes, 10 tensors)

fc1.weight f4 [20, 24]
00000000: 633b c83e 4763 ad3e 7eab b43e 2108 b73e
00000010: e997 bd3e 0eb9 bf3e a9c9 ae3e 66d0 be3e
00000020: 77de b93e 687e c23e 3cf6 af3e 32f0 a13e
00000030: 2196 573e 0130 473e ddda 7b3c 9801 e03d
00000040: 5b10 a33e f026 023e a242 363e bc9a 383e
00000050: 097e 2d3e 32ba e13e 9764 b53e 0559 c63e
00000060: e098 d13e aec5 b93e dbdd b13e 9226 c23e
00000070: c183 d73e c8ed c63e a6a2 b93e 7af8 cf3e
00000080: 9986 bb3e 2639 c13e eaa0 af3e ab6e bc3e
00000090: e5ae 8d3e c0e8 943e 7c5c d73e 79fc 933e
000000a0: 5b22 ba3e 0607 9a3e aed7 993e 86a0 2d3e
000000b0: 5b1b 21bd 0829 ea3e b67f da3e a421 d53e
000000c0: cc90 393e ab9f 6d3e bab2 8a3e 0d0c 2b3e
000000d0: 3811 123e f75b 423e 6462 3e3e eea5 633e
000000e0: 24e1 553d a54b 343e b0f7 6b3d 2743 0bbe
000000f0: c6ba 523d 2980 663d 859d 22bf 95f7 e43c
00000100: a65b b03d 3d00 27bd 173b 28bd bf93 313e
00000110: e135 1a3f 3b6c e33c 9382 2d3e 05eb 4b3e
00000120: 0433 403e 0585 7d3e 55bb 823e 3793 583e
00000130: 7b62 403e 598d 573e 679f 7f3e 59c7 4f3e
00000140: 9f4d 4f3e 801b 823e a93b 753e 8066 873d
00000150: a4e0 663e 4dbf 603d 4668 19bf 860a 283e
00000160: 60a2 473e 9c15 653d 325e 393d 2272 ed3d
00000170: 3bd9 193f 9ee8 513d 75c3 2a3e 4424 343e
00000180: 8709 f63d b32d 453e 2c3c 6a3e 2f65 c13d
00000190: 59e1 d23d 71c9 423e b826 193e 4770 5f3e
000001a0: 4efa cb3a 9076 253e ae6c c53d 07e1 1fbd
000001b0: 7eea 453e 86d8 a93d cfdd 2bbf 261c 803c
000001c0: b725 633d ac09 013a 4dcd 153c c36a 533e
000001d0: dba8 223f fb42 0dbd 47e7 023e b674 263e
000001e0: aabe 49bb 3c02 8dba 4760 7abc 0d67 983b
000001f0: 66dc e5bb 8990 44bc 3bce 4dbc 1b81 bbbb
00000200: f2e2 f8bc 7746 16bc 6e52 71bc 2a19 8abc
00000210: 0987 383b 6634 86bb be2c 1b3c 4fc1 193c
00000220: 827a 65bc 6297 1c3c 1642 cebc 0032 3cbc
00000230: a590 223c e8c7 a1bc 453e 8ebc c48a 06bb
00000240: 2d94 9c3e 91b7 9d3e 9ba4 9e3e 5ea9 a03e
00000250: 3057 843e 2d55 913e 23b0 9b3e dc59 853e
00000260: 157b 893e 7278 9a3e d9d8 933e 636d 6f3e
00000270: 86f1 743e a81f 1e3e 7a6b dbbe 2c64 4c3e
00000280: 7164 8d3e 664e f73d 75d5 ed3d 8beb 1e3e
00000290: 7d24 e73e 2fdb 713e bb3b 993e 14bd 8a3e
000002a0: a1b2 013e 0c8e 233e f630 7d3e 2b68 bc3d
000002b0: e76c f93d d349 313e 2144 eb3d a294 5f3e
000002c0: 700a 9a3b 6cc5 0f3e 4e5a 863d eb09 e1bd
000002d0: 6a94 033d a024 ae3b 48fc 15bf ee45 00bc
000002e0: 5d82 bb3d 4e6e 93bd db26 9cbd 731b 103e
000002f0: 11a3 0e3f 5b38 0cbd 33d6 273e 2b9f 523e
00000300: e334 ad3c 3a73 7b3e a7cb b73d ab4c 9a3e
00000310: 97bc 2a3d 5929 953d d19d 783e 176e 4ebe
00000320: c60f 973e a843 723e 3cb9 123e 88e9 a63e
00000330: 08d5 1c3e eac6 483e d925 1a3f 9c65 753e
00000340: 8eae 6c3e aa67 933e 863d a93e b19d a33d
00000350: 1b4a 1bbf 3441 7d3e d799 f7bb 6431 00be
00000360: 2a67 243b 4b7d ecbb b9b5 8fbb e353 1cbc
00000370: e3fb 573b d39b e83a 9513 67bc b4cf 28bb
00000380: a507 47bb 01d6 b1bc c6b1 09bc 3447 66bb
00000390: 10ff 25bb b9c3 f9ba 6ee1 53bb 055c 9ebc
000003a0: bb21 8c3b 328d 413b c066 babb 8fdf e2bb
000003b0: a11c efbc fc13 88bb 38b3 c4bb 6f66 48bc
000003c0: be67 233e 9d7c 323e 8db4 753e ae73 bd3d
000003d0: ad52 d03d 2d8a 243e 6669 123e cdf3 413e
000003e0: 1538 033c e31a 1d3e 9c2a 423d 5bac 5dbe
000003f0: 0350 223b 3c3d d13c 4baf 12bf 3dbe 723d
0.39107808 0.33864805 0.35287088 0.3574839 0.3702996 0.37445873 0.3413823 0.3726837
0.3630254 0.37987065 0.3436755 0.31628567 0.21053363 0.19451906 0.015372005 0.10937804
0.31848416 0.12710166 0.17798856 0.18027776 0.1694261 0.44087368 0.35428306 0.38739792
0.40936947 0.3628363 0.34739575 0.37920052 0.42092708 0.38853288 0.36256903 0.4061926
0.36626127 0.37738913 0.34302455 0.36803183 0.27672496 0.29083824 0.42062747 0.2890356
0.36354336 0.30083483 0.30047363 0.16955766 -0.03933273 0.4573443 0.4267556 0.41627228
0.18121642 0.2320544 0.27089483 0.16703816 0.14264381 0.18980394 0.1859222 0.22231266
0.052216664 0.17606981 0.05760926 -0.13599835 0.051447652 0.056274567 -0.63521606 0.027950088
0.086112306 -0.04077171 -0.041071977 0.17341517 0.6023846 0.02776157 0.16944341 0.19913872
0.18769461 0.24757774 0.25533548 0.21149908 0.18787567 0.21050014 0.24963151 0.20290889
0.20244454 0.25411606 0.2394854 0.06611347 0.22546631 0.05486994 -0.59924734 0.16410264
0.19495535 0.05592881 0.045255847 0.11594035 0.6009709 0.05124723 0.16676123 0.17591959
0.12013536 0.19255714 0.22874516 0.09443127 0.10296888 0.19022156 0.14956176 0.21820174
0.0015562268 0.16158509 0.0963987 -0.039032962 0.19327733 0.08293252 -0.6713533 0.015638422
0.05545589 0.00049224007 0.009143186 0.20646195 0.63538903 -0.034487706 0.12783538 0.16255459
-0.003078381 -0.0010758112 -0.015281743 0.0046509565 -0.007014799 -0.0119973505 -0.012561376 -0.0057221777
-0.030381653 -0.009172074 -0.014729125 -0.016857702 0.002815666 -0.004095602 0.009471117 0.009384467
-0.014006259 0.009557577 -0.025177997 -0.01148653 0.009922181 -0.019748643 -0.017363677 -0.0020529488
0.305818 0.30804113 0.3098496 0.31379217 0.2584777 0.28385296 0.3040782 0.2604512
0.26851717 0.30170017 0.2887638 0.23381571 0.23920259 0.15441763 -0.42855436 0.19960088
0.27615693 0.120755 0.11612979 0.1551954 0.45145026 0.23618768 0.29928383 0.2709738
0.12665798 0.15972155 0.24725708 0.09199556 0.121789746 0.17313318 0.11487604 0.21834043
0.0047009513 0.14040154 0.06560193 -0.1098822 0.03212396 0.0053144246 -0.58588076 -0.007829173
0.09155724 -0.07198773 -0.076245986 0.14072971 0.5571757 -0.034233432 0.16390304 0.2056853
0.021143382 0.24555674 0.089743905 0.30136618 0.04168376 0.07283277 0.24278952 -0.20159183
0.29504222 0.23658621 0.14328474 0.32600045 0.1531564 0.1960713 0.60214 0.23964542
0.23113462 0.28790027 0.3305475 0.079890616 -0.6065995 0.24731904 -0.007556181 -0.12518841
0.0025085905 -0.0072170845 -0.0043856767 -0.0095414845 0.0032956533 0.0017746635 -0.01410379 -0.0025758566
-0.0030369547 -0.02170849 -0.008404201 -0.0035137655 -0.002532903 -0.0019055522 -0.0032330411 -0.019330988
0.004276482 0.0029533622 -0.0056885183 -0.006923623 -0.029188456 -0.004152773 -0.00600281 -0.012231453
0.15957543 0.17430349 0.23994656 0.0925058 0.10172019 0.16068335 0.14298019 0.18940659
0.0080089765 0.15342288 0.047403917 -0.2164778 0.002476693 0.025541894 -0.57298726 0.059263457

fc1.bias f4 [20]
00000000: 22fa b33e be20 ab3e c5df b43e 45e6 ae3e
00000010: 6429 b83e 9013 24bc 431b ab3e 287d a33e
00000020: 79d1 a73c e299 adbb faf9 9e3e d4ad 8dbb
00000030: b985 ae3e 90bb a23e a44e 153e bc7f 953e
00000040: 0000 0000 f707 973e f1e9 f8bb 97c0 26bc
0.35151774 0.33423418 0.35326973 0.34160057 0.3596908 -0.01001443 0.33419237 0.31931424
0.020485627 -0.0052978853 0.31050092 -0.0043237004 0.34086397 0.31783724 0.1458078 0.29199016
0.0 0.29498264 -0.0075962474 -0.010177753

fc2.weight f4 [15, 20]
00000000: 82ab 103f 1322 1e3f ff76 a63e 6f46 fb3d
00000010: b79f 333d a163 233e 3096 bc3e c92f 1dbd
00000020: 9f16 9d3e f85c d9bd 8b8d 623e 242d 0e3e
00000030: 2a0d 2b3e b2ff 783e dbea d73e 766e d53e
00000040: 4af1 163e a30b a2ba 5bd9 d43d b2c6 70bd
00000050: 00fb d73d b769 9cbc ea25 55be d789 813d
00000060: 35e0 f4bd ad15 4a3e dd7c 15be 1369 163e
00000070: 5c2a cebc 7d8d 11be 81f1 cc3d 90e9 59bd
00000080: f594 0dbd e97c 2a3e dbbe 9cbc 1812 8eba
00000090: 85fa ebbd 7ea2 bf3c 94f3 9a3d 3b4e 3c3e
000000a0: 3ae4 2c3d 1a78 64bd 4189 debd bc90 f7bd
000000b0: c59d 52be 9c3f 283e 610d 423d 14f5 2bbd
000000c0: 7db9 64be 33ab 3b3e 6c88 e2bd 72ee 643d
000000d0: 35cf 06be 9833 be3d 1112 6b3d b7bc 423d
000000e0: a7ac 093e f38f 413e 2f4a c03d a269 213e
000000f0: 4101 eabd 1682 8a3d 8aba bdbd 7d92 323e
00000100: d506 28be 47ec 29be 68e3 363e fbc0 9c3c
00000110: a4f8 84bd 895d bebb 69db 87bc d7d4 61bd
00000120: 3598 4ebd 93bd dc3d ab79 20be 2e71 d9bc
00000130: 7902 a7bd b2b9 27be 414d 27bd 3da0 b5bd
00000140: fa37 f53d c42b 3d3d e75a c13e 279e cb3e
00000150: 8c2d aa3e 85bb 243e 8312 8c3e 3021 163f
00000160: c9e9 0fbf 3dd4 44be b493 0b3f bcc7 60bd
00000170: 2813 943e b225 0a3f 9d5f f7be 327e 333e
00000180: e419 24be f652 933e 046a 3cbe 8c95 3bbe
00000190: 1c91 143e c2d4 e2bd f9c0 6a3e 42a6 ea3e
000001a0: e033 db3e 0ffd 3d3e e016 b53e 7a41 0f3f
000001b0: 8977 05bf 2bbf 35bd d881 0f3f 7286 03be
000001c0: c832 1e3f 12ec d63e 5c03 a1be ba82 70be
000001d0: 70ec 0a3c c114 113f ab52 1cbe de74 4fbc
000001e0: bc07 5a3e eb1d 583e 1025 b03e 5735 863e
000001f0: 8bfc c23e 9ac3 a9bd 6e70 e73e e658 023f
00000200: 3fbc 11bf 2fc6 bebd 624a 993e 0d2b b3bd
00000210: f552 b43e cd21 4b3e 5625 abbe f7a2 f7bd
00000220: 03c4 86bc a5d1 b43e 4f1c 433d 5d58 603e
00000230: 5559 57be 2be7 38be de6f cbbd 47b9 9cbd
00000240: c9d1 213d aae2 14be f877 efbd 51a9 51bd
00000250: 00b1 b1bb 9017 55bb 8251 58be d9d6 4dbe
00000260: 088c 173e 3409 213e cfa9 533e 9859 db3c
00000270: 9665 1fbe 8fad 3b3e 872f 14be f926 063e
00000280: 00f2 a83e 4f76 063f bb35 3dbe 17da 043e
00000290: 3d78 93bd f00f f03d 5fc0 0e3e a4dc 073e
000002a0: d68c 0b3f e014 4abe b167 db3d 3119 643e
000002b0: 6869 54bc 16e9 b9be cb9b f33e b79c 203f
000002c0: f50e e83b 14bc 5fbe 41fb 2dbe 5459 60bd
000002d0: 1155 0b3f 0d19 133f 3b62 f1be c155 cebc
000002e0: 4383 81be 9189 e0bd 7203 55bc d7ed f7be
000002f0: b6a9 a23e b066 483e 5cd5 cbbe 09e5 f33d
00000300: 9db2 93be 75db 18bf 4cc0 063f d14e 2e3f
00000310: 1dcb bd3d b250 fabe e261 21bd 4e8b 5bbe
00000320: 5b61 cc3e e16e ad3e 60ee e13e 0aae 093f
00000330: 8bbc c33e 31ec 80bd b834 d83e 352f cc3e
00000340: 53d7 22bf 9363 e63d 05d2 a23e ab95 843c
00000350: 8192 053f 7cc3 bd3e c3c5 2ebf b7d6 ee3d
00000360: cd3c 873d 5a7d 033f 2e79 8fbd af7d 28be
00000370: ef51 b4bd 1157 a0bd ff39 983d 184c 1fbd
00000380: c3f2 bbbd 31bc 3dbe df7b 11be 8607 05be
00000390: efcc 88bd ad16 3b3d 3d1b 14be 83c9 3ebe
000003a0: 5f10 3a3e db1b 133c cb11 4bbe e9ca 213c
000003b0: 936e e53c aecf c93d a1b3 7e3d f1b9 0dbe
000003c0: b465 3b3e 84b8 1e3f d483 c9be d380 01bf
000003d0: 4e9f 07bf f89d 143e c2d3 433e 5639 05bf
000003e0: adb4 da3e 1a75 83bd 4cd7 13bf b38a 3f3e
000003f0: 3bf3 b0be 590d d7be c1a2 fb3e 936d 1b3f
0.565117 0.61770743 0.32512662 0.122692935 0.043853488 0.15955974 0.36833334 -0.03837565
0.3068132 -0.106134355 0.22124307 0.13884407 0.1670424 0.2431629 0.42171368 0.41685838
0.14740482 -0.0012363087 0.1039302 -0.05878324 0.10545921 -0.019093378 -0.20815244 0.06325119
-0.119568266 0.19734831 -0.14598413 0.1468852 -0.025166683 -0.1421413 0.10007001 -0.05320126
-0.034565885 0.16649212 -0.019133976 -0.0010839133 -0.11522392 0.023392912 0.0756599 0.18389218
0.04220984 -0.0557786 -0.10866023 -0.12088153 -0.20567997 0.16430515 0.04737604 -0.04198177
-0.22336383 0.18327026 -0.11061177 0.05589146 -0.1316498 0.092871845 0.057390276 0.047543254
0.13444768 0.18902569 0.093891494 0.15762952 -0.114260204 0.06763093 -0.09264095 0.17438693
-0.16408856 -0.16594039 0.17860186 0.019134989 -0.06492737 -0.00580949 -0.016584115 -0.05513462
-0.050438125 0.10778346 -0.15671413 -0.026543226 -0.081547685 -0.16379431 -0.04084516 -0.08868454
0.11973567 0.046184316 0.37764665 0.39769098 0.33237875 0.16087158 0.27357873 0.5864439
-0.562161 -0.19221587 0.5452225 -0.05487798 0.28920865 0.5396377 -0.48315135 0.17528608
-0.16025501 0.28774232 -0.18399817 -0.18318766 0.1450848 -0.110757366 0.22925176 0.4582997
0.42813015 0.18553565 0.35369015 0.55959284 -0.5213552 -0.044371765 0.560575 -0.12844256
0.61796236 0.41976982 -0.31447875 -0.23487368 0.008479223 0.5667229 -0.1526591 -0.012662141
0.21292013 0.21105163 0.34403276 0.2621257 0.380833 -0.08289261 0.45202965 0.509169
-0.56927866 -0.09315144 0.29939562 -0.08748446 0.3521954 0.19837113 -0.33426923 -0.1209163
-0.016450888 0.35316196 0.04763442 0.21908708 -0.21030171 -0.18056934 -0.09933446 -0.07652526
0.039506707 -0.1453959 -0.11692804 -0.051186863 -0.0054227114 -0.0032515265 -0.21124843 -0.20101489
0.14799511 0.15726167 0.20670246 0.02677612 -0.15566096 0.18327926 -0.14471255 0.13100804
0.3299713 0.52524275 -0.18477528 0.1297382 -0.07200668 0.1172179 0.13940571 0.13267761
0.54511774 -0.19734526 0.10713137 0.22275235 -0.012964584 -0.36310643 0.47579798 0.6273913
0.007081861 -0.2184909 -0.16990377 -0.05477269 0.54426676 0.574601 -0.47145256 -0.025187375
-0.25295457 -0.10963739 -0.01300131 -0.48423645 0.31770104 0.19570422 -0.39811218 0.11908919
-0.2884721 -0.59709865 0.5263717 0.68089014 0.092672564 -0.4888969 -0.03939999 -0.2143986
0.39918026 0.33873656 0.44127178 0.5378119 0.38229784 -0.0629505 0.4222772 0.39879766
-0.6360981 0.11249461 0.31800857 0.016184648 0.5217667 0.37063205 -0.6827051 0.11662047
0.06603394 0.51363146 -0.07005535 -0.16454194 -0.0880469 -0.078291066 0.07432937 -0.038890928
-0.091771625 -0.1852882 -0.1420741 -0.12991151 -0.06679713 0.045675922 -0.14463516 -0.18631558
0.18170308 0.008978809 -0.19831006 0.009875038 0.028006827 0.09854065 0.062183026 -0.13840462
0.18300515 0.620003 -0.3935839 -0.50587195 -0.52977455 0.14513385 0.19123748 -0.5204061
0.4271597 -0.0641882 -0.5775039 0.18705253 -0.3456057 -0.4200237 0.4914761 0.6071407

fc2.bias f4 [15]
00000000: f305 ca3d e2d1 47be 3fe6 b0bd 1417 efbd
00000010: 0562 903e 5594 3b3e baf5 443e a355 04be
00000020: 4f48 f43e 945a b53e 6571 f83e 377f 6abd
00000030: d72a 9b3e 2e2e dbbd 4d94 fd3c
0.09864416 -0.19513658 -0.08637666 -0.11674324 0.28199783 0.18318303 0.19234362 -0.12923293
0.47711417 0.35420668 0.48524013 -0.057250228 0.30306122 -0.107021675 0.030954504

fc3.weight f4 [10, 15]
00000000: df9b 063f 95ea e93c a384 6fbe 260e f13d
00000010: 6fc3 b9be e4a8 babe 4501 8fbe 5b34 f43d
00000020: d251 863e f701 993e 5e09 ebbe 3885 17be
00000030: 6c70 f63e ada1 35be 9dd8 4c3e e4d7 c73e
00000040: 2f57 163e 2e7e 423e b070 b53c 8290 51be
00000050: 22c0 cbbe 8035 43bd ccef 00be bf9d fe3d
00000060: 43b0 063f af8c dcbe 31ff b7bd 89bc 453e
00000070: 2d6f debd 729d 823e f32c 903e ba98 a23d
00000080: cb5a 043c 4df4 823d fda6 233e b783 623e
00000090: fc50 d03e 780e bfbd 7ca7 d43e 1b01 083f
000000a0: 3151 aa3e ed5b ffbd 54e5 fe3d 77b9 53be
000000b0: ec5d 58be 3e71 e83e 6773 45be f6c6 453d
000000c0: f372 11be 14f5 96be df9b 04bf 3ccb e9be
000000d0: 8570 14be ed2b e83e 3900 1e3f 55cf c2be
000000e0: 2c1e 6dbd 4aca 233f 7788 813e c4da 25be
000000f0: 87b1 b53e dc41 6bbd adf0 87bd bd72 5fbd
00000100: 53d0 053f fd18 cf3e 7ef2 e13e ca11 cdbd
00000110: 9390 833e d05c e3be 0400 b83e 7b79 7bbe
00000120: 55f6 b6be df91 ef3d a575 48be 02d9 6b3e
00000130: 71d2 05bd 5169 8bbd 90ed 803e 3418 b4be
00000140: f150 11bf 1a6a 81be 5e50 82be 8639 b73e
00000150: da0a e83e 530e 33be 9d55 f7bd 6ef4 ea3e
00000160: ca85 a43b 1c24 a83d 935c ad3e 2d91 2e3e
00000170: f1c8 78be dca6 21be 2833 d03e 2684 a23e
00000180: acc9 c53e e1ad 74be bec1 4dbe f86a 64be
00000190: a441 d83e 5180 d9bd a3d7 cdbe ef90 3bbd
000001a0: 7c37 113e 151a d1bd 91fa 4abe db6a 71be
000001b0: d435 373e 5746 cbbd 2cd3 77be 056d e9bd
000001c0: c1f1 51be 690f 44be b6d2 00bd d12f a63d
000001d0: 19b6 413d fceb 74be abb1 473e 2f85 353d
000001e0: 09dc 1bbe d48b 153d 1d35 213e ba65 4bbe
000001f0: 5b6a 74bd ff35 92bd 0fa3 1fbe eddb 81be
00000200: ee50 083c 7e4a 833d 18b8 53be 1bb8 cabc
00000210: ead3 0f3e 7913 923d f533 c03d 65f4 073d
00000220: 60f7 713e 9d4d 54be 3ed9 833c 9193 123e
00000230: dad8 0e3b 6b77 79be ce87 29be 8623 60be
00000240: 3a07 a7be 7736 9d3c ec41 81be bb95 98be
00000250: 89b2 2bbe 4b08 35be
0.5258159 0.02855424 -0.2339044 0.11770277 -0.36281916 -0.36456978 -0.27930656 0.119240485
0.262343 0.29884312 -0.45905584 -0.14796913 0.48132646 -0.17737456 0.20004506 0.390319
0.14681695 0.18993446 0.02214846 -0.20465282 -0.39795023 -0.047658443 -0.12591475 0.124324314
0.52612704 -0.43076083 -0.08984221 0.19310202 -0.10861049 0.25510746 0.28159294 0.079392865
0.008078287 0.06394253 0.1598167 0.22120558 0.40686786 -0.093289316 0.4153403 0.53126687
0.3326507 -0.12468705 0.124460846 -0.20676218 -0.21129578 0.45398897 -0.19282304 0.048285447
-0.14204006 -0.29483855 -0.5180034 -0.45662868 -0.14496048 0.45346013 0.6171909 -0.38048807
-0.057890102 0.63980544 0.25299427 -0.16196734 0.35487005 -0.057435855 -0.06637702 -0.054552782
0.52271 0.40448752 0.4413032 -0.100131586 0.2569624 -0.44406748 0.35937512 -0.2455806
-0.3573481 0.116977446 -0.19576128 0.23032 -0.032671396 -0.06807197 0.25181246 -0.35174716
-0.5676413 -0.25276262 -0.2545194 0.35786074 0.4532078 -0.17485933 -0.12076876 0.4588961
0.0050208317 0.08210012 0.3385969 0.17047568 -0.24295403 -0.15786308 0.4066403 0.31741446
0.38630426 -0.23894455 -0.20093438 -0.2230643 0.4223758 -0.106201775 -0.4020358 -0.045792516
0.14181322 -0.10210053 -0.19822146 -0.23575918 0.17891628 -0.09925526 -0.2420165 -0.11397747
-0.20502378 -0.19146504 -0.03145095 0.08114589 0.047292802 -0.23918146 0.19501369 0.044316467
-0.15220656 0.036510304 0.15742917 -0.19863024 -0.05967174 -0.07139205 -0.15589546 -0.25363103
0.008320076 0.06410693 -0.20675695 -0.024745991 0.14045683 0.0713262 0.0938491 0.033192057
0.23629522 -0.20732732 0.0160948 0.14314105 0.0021796734 -0.2436196 -0.16555712 -0.21888551
-0.326227 0.01919101 -0.25245607 -0.29801735 -0.16767325 -0.17678945

fc3.bias f4 [10]
00000000: a6e6 963e d004 283c e5ff a83e c61f 9b3e
00000010: 3a6b f23e 2938 f7bd a15b 8b3e 3f45 35be
00000020: 5a43 293e 0303 27bd
0.29472846 0.010255054 0.33007732 0.3029768 0.47347432 -0.120712586 0.27218345 -0.17702197
0.16529599 -0.040774357

fc4.weight f4 [5, 10]
00000000: be43 91be d8e8 1f3e bb86 f8bd e1f9 883e
00000010: 4015 c5bd 6a2f 8ebd 14c7 293e 4f1b 1bbe
00000020: 354f 0f3e d59a cf3c 9a87 e6be fcb2 91be
00000030: 4381 c93e 02a3 33bf 08ae c53e 4a95 39bf
00000040: d1ee c53e 8fc1 393e 6ec0 58be ee02 2e3b
00000050: 5f4a 17bf 3104 11bf 6ee3 fa3b 445e a9be
00000060: 741c ec3e f01a 32bf 427a 7b3e 0ccd 5abe
00000070: ace7 f1bc 02ed d3bc 673a 953e 7d41 a33d
00000080: c75e 80be 1565 603d 4163 c2bd 41bf 2bbe
00000090: bd16 b93d 4c05 60be 94f2 b0bd defe 153d
000000a0: 3fa5 053f b32d a23e 3599 bd3e 7070 123f
000000b0: e523 ab3d 9cbd 413e d36c b1bd 725a e23c
000000c0: fae3 0fbe f7a9 aabe
-0.28371996 0.15616167 -0.12135073 0.26753142 -0.09623194 -0.06942637 0.16579849 -0.15147136
0.13995059 0.025342384 -0.4502533 -0.28456867 0.3935643 -0.70170605 0.38609338 -0.7249342
0.38658765 0.18140243 -0.21167156 0.002655204 -0.59097856 -0.5664702 0.0076565063 -0.3307973
0.46115458 -0.69572353 0.24558356 -0.21367282 -0.029529415 -0.02586985 0.2914612 0.07971475
-0.2507231 0.0547839 -0.094915874 -0.16772176 0.0903754 -0.2187702 -0.08640018 0.036620013
0.5220527 0.3167549 0.3703095 0.57202816 0.08356456 0.18919986 -0.08663335 0.027631018
-0.1405181 -0.33332798

fc4.bias f4 [5]
00000000: d767 97be 620e a53e 3103 59bd fa2f 88be
00000010: 0de1 c23e
-0.2957141 0.32237536 -0.05298156 -0.26599103 0.38062325

fc5.weight f4 [4, 5]
00000000: 34fa 99be 5c96 4b3e 069e 0dbf dd4c b63e
00000010: d0f1 ce3e 8e1c 6bbe 2da3 2c3f b3c7 243f
00000020: 4ae6 87be 1cd7 b5be 92a8 943e 0f79 d4bd
00000030: 0fd2 0a3e d7ea f8bd e90d 33be 632e 34be
00000040: a6cc 92bc 87c5 adbd a573 d4be 9a84 c3be
-0.30073702 0.19881576 -0.5531925 0.35605517 0.40418863 -0.22960111 0.67436486 0.64367217
-0.26542884 -0.35515678 0.2903486 -0.103746526 0.13556693 -0.12154167 -0.17485775 -0.1759582
-0.01791985 -0.08484941 -0.4149448 -0.38187104

fc5.bias f4 [4]
00000000: d027 883d 07be 0d3e 9b98 eb3d b244 0dbf
0.06648219 0.13842021 0.115037166 -0.55182946
