Laboratorios/Lab1/checkpoints/modelo_epoch_700.pth (torch, 7862 bytes, 10 tensors)

fc1.weight f4 [20, 24]
00000000: a4bb e03e d745 b83e 0f9c c93e 6df5 b93e
00000010: e40c d43e f6ec cf3e faa1 b83e 43b4 d93e
00000020: f6ec bf3e ba16 ca3e fa96 b53e 129f 733e
00000030: daf6 5f3e 6505 3f3e e111 ae3d fe2a e43d
00000040: 8480 b23e 40af 973d a78a 5d3e 891f 7a3e
00000050: c109 d83c 96fc cf3e a69e c73e d496 e23e
00000060: 4920 f43e 1b07 c43e 0eae d13e 4301 bf3e
00000070: 2d63 f63e 137e d93e 92b4 c13e 10e8 f63e
00000080: 4167 bc3e 9a4c c63e 7dc0 b13e 32d1 843e
00000090: fd31 8f3e ffa8 893e 6c01 003f abcf 8e3e
000000a0: 0106 bf3e b76a 603e b421 b13e ab70 873e
000000b0: 58d5 76be 69ee ce3e a245 f53e db1c 003f
000000c0: f211 e63d 02ad 583e 99cf 3b3e 79d0 483e
000000d0: cebf 833d 55e5 1a3e 7b58 173e 7528 0c3e
000000e0: 494e a53d d4c3 3d3e d68f 843d f34b 573d
000000f0: f778 693d 78af e63d 68c5 44bf 7dc3 4f3d
00000100: 9559 d23d 99ea c93d 0427 b3bd 3f40 933d
00000110: e737 513f 9acc e53d 6e33 e23d b8eb e73d
00000120: 9cce f23d f991 6b3e 9e22 303e de7d 7d3e
00000130: caac da3d 6e0b 2c3e e643 5c3e 515a e73d
00000140: 7191 733e 7e5e 863e bb01 823e 0c5f 903e
00000150: 4f5b 6f3e eb45 f23d fa82 48bf d981 403e
00000160: 025b 5e3e da24 553e 70eb 8f39 d2da 5b3b
00000170: 055d 583f 528c 2c3e 5fe7 d43d 7876 a83d
00000180: 1053 443d ed25 2b3e 0d71 013e 96ff 013e
00000190: 4a63 563c b2e0 153e 45df cf3d 4aa5 003e
000001a0: 8aa2 0d3d ffff 323e f399 d53d de6f 203e
000001b0: f092 4b3e b882 133e 6454 51bf 5b26 1b3d
000001c0: 7fb4 9e3d c949 143e 5c36 1cbd 1690 c63d
000001d0: e832 5d3f ee4c 693d d0fa 763d 5a5b 8a3d
000001e0: aabe 49bb 3c02 8dba 4760 7abc 0d67 983b
000001f0: 66dc e5bb 8990 44bc 3bce 4dbc 1b81 bbbb
00000200: f2e2 f8bc 7746 16bc 6e52 71bc 2a19 8abc
00000210: 0987 383b 6634 86bb be2c 1b3c 4fc1 193c
00000220: 827a 65bc 6297 1c3c 1642 cebc 0032 3cbc
00000230: a590 223c e8c7 a1bc 453e 8ebc c48a 06bb
00000240: 1879 833e 0bf9 9c3e b3e2 8a3e 413b ad3e
00000250: 3d67 613e 13ac 873e 3925 9b3e e159 593e
00000260: 5e44 953e 3405 9c3e 7a43 9c3e 5106 d73e
00000270: bec4 803e c3a6 493e eafa 1ebf a4c9 6d3e
00000280: 4e13 8f3e de62 793e e403 a93d f36a a03d
00000290: 81f1 283f ba06 b03e 62c5 893e 1fac 603e
000002a0: bf2f 783d 68b3 0f3e ee3e 273e 2d5f f03d
000002b0: b63b 4d3d 3928 0d3e 6e32 b13d 7d17 0e3e
000002c0: 1461 d83c 13a9 183e 512f 903d bbf6 723d
000002d0: b653 163d 9c95 563d a1e0 30bf 1160 673c
000002e0: 236b d43d 829a 643d a6a7 fabd 2cdb 453d
000002f0: 3f4a 403f 0a43 1d3d ec0b e73d ff12 063e
00000300: 4d42 c03d 7b78 8a3e 4bfe 4f3e 7424 8f3e
00000310: a500 ff3d a935 e33d 5130 883e d19b ecbd
00000320: 6bab 8f3e 7802 6a3e 761f 103e 163a 353e
00000330: 5718 1a3e c38f 1d3e db21 313f e0c0 613e
00000340: 619c 603e 871c 323e aaf4 c13e 0693 323e
00000350: 52d7 4cbf 4dc5 3b3e 5f25 563d dfe4 2abd
00000360: 2a67 243b 4b7d ecbb b9b5 8fbb e353 1cbc
00000370: e3fb 573b d39b e83a 9513 67bc b4cf 28bb
00000380: a507 47bb 01d6 b1bc c6b1 09bc 3447 66bb
00000390: 10ff 25bb b9c3 f9ba 6ee1 53bb 055c 9ebc
000003a0: bb21 8c3b 328d 413b c066 babb 8fdf e2bb
000003b0: a11c efbc fc13 88bb 38b3 c4bb 6f66 48bc
000003c0: 9a20 c03d 119b 1f3e 8c59 223e 9704 f63d
000003d0: 8626 ee3c 59d7 003e 8f0c e23d 67a5 e03d
000003e0: c76c 0f3d b4e4 263e efd4 5c3d e163 14bd
000003f0: a62c 063c e453 9a3d 8b6e 30bf 68e2 a83d
0.43893158 0.35990784 0.39376876 0.36320058 0.41416085 0.40610474 0.36061078 0.4252034
0.37485474 0.39470464 0.35466748 0.2379115 0.2187151 0.18654402 0.08499504 0.111410126
0.34863675 0.07406473 0.21634923 0.24426092 0.026371839 0.40622395 0.38988227 0.44255698
0.47680882 0.3828667 0.40953106 0.3730565 0.4812254 0.42479 0.37833077 0.48223925
0.36797526 0.38730317 0.3471717 0.25940853 0.27967826 0.26886746 0.5000217 0.27892813
0.37309268 0.21915708 0.34596026 0.26453146 -0.24104822 0.40416268 0.47904688 0.5004403
0.112338915 0.21159747 0.18340911 0.19610776 0.06433068 0.15126546 0.14779846 0.13687308
0.08071572 0.18531734 0.06472747 0.052562665 0.057000127 0.11263937 -0.7686372 0.05072354
0.10270993 0.09859199 -0.08747676 0.07189988 0.81725925 0.11220665 0.11044966 0.11324257
0.11855814 0.23004903 0.17200705 0.24755046 0.10677488 0.16801235 0.21510276 0.11296523
0.2378595 0.26243967 0.25391945 0.28197515 0.23374675 0.11829742 -0.78324854 0.18799533
0.21714404 0.20814839 0.000274505 0.0033547175 0.84516937 0.16850403 0.10395693 0.08225721
0.047930777 0.16713686 0.12640782 0.12695155 0.013085196 0.14636496 0.10150007 0.12563053
0.034578837 0.17480467 0.10429754 0.15667674 0.19880271 0.14405334 -0.81769395 0.037878376
0.07749271 0.14481272 -0.03813778 0.09695451 0.864058 0.05695813 0.060297787 0.06755705
-0.003078381 -0.0010758112 -0.015281743 0.0046509565 -0.007014799 -0.0119973505 -0.012561376 -0.0057221777
-0.030381653 -0.009172074 -0.014729125 -0.016857702 0.002815666 -0.004095602 0.009471117 0.009384467
-0.014006259 0.009557577 -0.025177997 -0.01148653 0.009922181 -0.019748643 -0.017363677 -0.0020529488
0.25678325 0.30658755 0.27126083 0.3383427 0.22012039 0.2649847 0.30301836 0.21225692
0.29153723 0.3047272 0.3052023 0.41997007 0.25150102 0.19692521 -0.62101614 0.23221451
0.27944416 0.24354121 0.08252695 0.07832899 0.65993506 0.34380132 0.26908404 0.21940659
0.06059241 0.14033282 0.163326 0.11736903 0.050105773 0.13784875 0.08652197 0.13876148
0.026413478 0.14908247 0.07040275 0.05931733 0.036700927 0.052388772 -0.69092757 0.014122025
0.10371997 0.055811413 -0.12239008 0.04830472 0.7511329 0.03839401 0.11281571 0.13093184
0.09387646 0.27045044 0.20311849 0.279575 0.12451295 0.11094219 0.26599362 -0.11553157
0.2806047 0.22852504 0.14074501 0.1769794 0.15048347 0.15386872 0.69192284 0.22046232
0.21934654 0.17393695 0.37881976 0.17438897 -0.8001605 0.18336983 0.052281734 -0.041722175
0.0025085905 -0.0072170845 -0.0043856767 -0.0095414845 0.0032956533 0.0017746635 -0.01410379 -0.0025758566
-0.0030369547 -0.02170849 -0.008404201 -0.0035137655 -0.002532903 -0.0019055522 -0.0032330411 -0.019330988
0.004276482 0.0029533622 -0.0056885183 -0.006923623 -0.029188456 -0.004152773 -0.00600281 -0.012231453
0.09381218 0.15586497 0.15854472 0.12012594 0.029071104 0.12582149 0.110375516 0.10969048
0.035015848 0.16298181 0.053914007 -0.036228064 0.008189356 0.07535532 -0.68918675 0.082463086

fc1.bias f4 [20]
00000000: b2d8 c03e c349 b83e 6f39 a83e 9932 a53e
00000010: e2d1 a83e 9013 24bc 26ad a83e c1aa 963e
00000020: 6741 853d e299 adbb ab6a 933e d4ad 8dbb
00000030: 417f a33e 60f0 903e 4566 3e3e d771 a43e
00000040: 0000 0000 a2d6 843e f1e9 f8bb 97c0 26bc
0.37665325 0.35993776 0.32856318 0.32265165 0.32972628 -0.01001443 0.32944602 0.2942715
0.06506615 -0.0052978853 0.2879232 -0.0043237004 0.31933025 0.28308392 0.185937 0.32118103
0.0 0.25945002 -0.0075962474 -0.010177753

fc2.weight f4 [15, 20]
00000000: 975d 163f 1111 263f 88ce 8f3e 2662 9f3d
00000010: b81b 91bc a163 233e c02a b23e 3bcc acbd
00000020: 08b1 af3e f85c d9bd e274 323e 242d 0e3e
00000030: 9a3e fe3d db4f 3a3e 2547 e83e 0907 e83e
00000040: 4af1 163e d333 8bbd 5bd9 d43d b2c6 70bd
00000050: 00fb d73d b769 9cbc ea25 55be d789 813d
00000060: 35e0 f4bd ad15 4a3e dd7c 15be 1369 163e
00000070: 5c2a cebc 7d8d 11be 81f1 cc3d 90e9 59bd
00000080: f594 0dbd e97c 2a3e dbbe 9cbc 1812 8eba
00000090: 85fa ebbd 7ea2 bf3c 94f3 9a3d 3b4e 3c3e
000000a0: 3ae4 2c3d 1a78 64bd 4189 debd bc90 f7bd
000000b0: c59d 52be 9c3f 283e 610d 423d 14f5 2bbd
000000c0: 7db9 64be 33ab 3b3e 6c88 e2bd 72ee 643d
000000d0: 35cf 06be 9833 be3d 1112 6b3d b7bc 423d
000000e0: a7ac 093e f38f 413e 2f4a c03d a269 213e
000000f0: 4101 eabd 1682 8a3d 8aba bdbd 7d92 323e
00000100: d506 28be 47ec 29be 68e3 363e fbc0 9c3c
00000110: a4f8 84bd 895d bebb 69db 87bc d7d4 61bd
00000120: 3598 4ebd 93bd dc3d ab79 20be 2e71 d9bc
00000130: 7902 a7bd b2b9 27be 414d 27bd 3da0 b5bd
00000140: 3c1c ee3d ffd0 3e3c 7f52 e03e 7d01 f23e
00000150: 11e4 d13e 85bb 243e 27c8 a73e c999 253f
00000160: f094 1dbf 3dd4 44be f0d2 1a3f bcc7 60bd
00000170: 11ef b53e 2222 1b3f 392a 06bf 7f1d 003e
00000180: e419 24be dbe3 b83e 046a 3cbe 8c95 3bbe
00000190: fc36 0d3e cbab 19be d25c 9a3e bcc8 0d3f
000001a0: a83e 053f 0ffd 3d3e cb0c db3e 14a9 213f
000001b0: 81c0 11bf 2bbf 35bd 28d4 203f 7286 03be
000001c0: a418 333f e75e fc3e 3688 b4be 55e4 90be
000001d0: 70ec 0a3c 40f5 263f ab52 1cbe de74 4fbc
000001e0: 3eba 5b3e cc73 413e fe6d cb3e 9ff6 a63e
000001f0: 6b51 e53e 9ac3 a9bd 6324 ff3e 48cf 0f3f
00000200: be02 20bf 2fc6 bebd 673e b53e 0d2b b3bd
00000210: 9a91 d13e 85d8 843e 4958 bfbe c37c 22be
00000220: 03c4 86bc 0378 d53e 4f1c 433d 5d58 603e
00000230: 5559 57be 2be7 38be de6f cbbd 47b9 9cbd
00000240: c9d1 213d aae2 14be f877 efbd 51a9 51bd
00000250: 00b1 b1bb 9017 55bb 8251 58be d9d6 4dbe
00000260: 088c 173e 3409 213e cfa9 533e 9859 db3c
00000270: 9665 1fbe 8fad 3b3e 872f 14be f926 063e
00000280: b21f b53e 4b46 0f3f f17f 86be ebe7 5e3d
00000290: e8bf 33be f00f f03d 3dc9 d23d 991d 5a3d
000002a0: 6dd7 153f e014 4abe a157 0b3d 3119 643e
000002b0: 28db b2bd a715 e6be 44bf 023f 68ce 2a3f
000002c0: f50e e83b b2a9 a6be 41fb 2dbe 5459 60bd
000002d0: 2559 103f dae2 1b3f 78dc 0fbf e2a1 2ebe
000002e0: baeb bcbe 9189 e0bd 5648 e1bd 9dbf 11bf
000002f0: eeb8 b63e b066 483e 695a f1be 09e5 f33d
00000300: a9ec cfbe 2005 2cbf bd3a 0f3f 4586 383f
00000310: 1dcb bd3d 2a71 15bf e261 21bd 4e8b 5bbe
00000320: 825a ca3e a076 9c3e 4b00 003f 8340 1c3f
00000330: d996 ea3e 31ec 80bd 27c5 f23e d62e ea3e
00000340: 5926 30bf 9363 e63d 53a2 c03e ab95 843c
00000350: 89f7 153f 0d21 df3e d409 39bf 2519 8c3d
00000360: cd3c 873d 2eb3 153f 2e79 8fbd af7d 28be
00000370: ef51 b4bd 1157 a0bd ff39 983d 184c 1fbd
00000380: c3f2 bbbd 31bc 3dbe df7b 11be 8607 05be
00000390: efcc 88bd ad16 3b3d 3d1b 14be 83c9 3ebe
000003a0: 5f10 3a3e db1b 133c cb11 4bbe e9ca 213c
000003b0: 936e e53c aecf c93d a1b3 7e3d f1b9 0dbe
000003c0: 4a5f 4a3e fa18 273f 4148 f6be 2afd 26bf
000003d0: fbec 23bf f89d 143e 4d56 413d 8c8f 1abf
000003e0: 467a ee3e 1a75 83bd 5a9f 26bf b38a 3f3e
000003f0: c026 eabe 579b fcbe 7f03 063f c651 253f
0.58736557 0.6486979 0.28087258 0.07782392 -0.017713413 0.15955974 0.3479824 -0.08437391
0.34314752 -0.106134355 0.174274 0.13884407 0.12414284 0.18194525 0.4536678 0.45317867
0.14740482 -0.06796994 0.1039302 -0.05878324 0.10545921 -0.019093378 -0.20815244 0.06325119
-0.119568266 0.19734831 -0.14598413 0.1468852 -0.025166683 -0.1421413 0.10007001 -0.05320126
-0.034565885 0.16649212 -0.019133976 -0.0010839133 -0.11522392 0.023392912 0.0756599 0.18389218
0.04220984 -0.0557786 -0.10866023 -0.12088153 -0.20567997 0.16430515 0.04737604 -0.04198177
-0.22336383 0.18327026 -0.11061177 0.05589146 -0.1316498 0.092871845 0.057390276 0.047543254
0.13444768 0.18902569 0.093891494 0.15762952 -0.114260204 0.06763093 -0.09264095 0.17438693
-0.16408856 -0.16594039 0.17860186 0.019134989 -0.06492737 -0.00580949 -0.016584115 -0.05513462
-0.050438125 0.10778346 -0.15671413 -0.026543226 -0.081547685 -0.16379431 -0.04084516 -0.08868454
0.11626479 0.011646508 0.4381294 0.4726676 0.40994313 0.16087158 0.32769892 0.6468778
-0.61555386 -0.19221587 0.60478115 -0.05487798 0.35533956 0.6059896 -0.52408177 0.12511252
-0.16025501 0.3611134 -0.18399817 -0.18318766 0.13790506 -0.1500694 0.3014894 0.5538442
0.5204873 0.18553565 0.42783198 0.6314862 -0.5693436 -0.044371765 0.62823725 -0.12844256
0.69959474 0.49291155 -0.3526017 -0.28299204 0.008479223 0.6521797 -0.1526591 -0.012662141
0.21457765 0.18891829 0.39732355 0.32610032 0.4478868 -0.08289261 0.49832448 0.5617566
-0.62504184 -0.09315144 0.35399172 -0.08748446 0.40931398 0.2594644 -0.37372044 -0.15867905
-0.016450888 0.41693124 0.04763442 0.21908708 -0.21030171 -0.18056934 -0.09933446 -0.07652526
0.039506707 -0.1453959 -0.11692804 -0.051186863 -0.0054227114 -0.0032515265 -0.21124843 -0.20101489
0.14799511 0.15726167 0.20670246 0.02677612 -0.15566096 0.18327926 -0.14471255 0.13100804
0.35375744 0.55966634 -0.26269487 0.054420393 -0.17553675 0.1172179 0.102922894 0.053250883
0.5853184 -0.19734526 0.034019116 0.22275235 -0.08733207 -0.44938394 0.510731 0.667212
0.007081861 -0.32551342 -0.16990377 -0.05477269 0.56386024 0.60893023 -0.56195784 -0.17053941
-0.36898595 -0.10963739 -0.11000125 -0.56933004 0.35687965 0.19570422 -0.4713929 0.11908919
-0.40610245 -0.6719532 0.55949 0.7207988 0.092672564 -0.583758 -0.03939999 -0.2143986
0.39522177 0.30559254 0.5000045 0.6103594 0.45818213 -0.0629505 0.4741604 0.45738858
-0.68808514 0.11249461 0.37623844 0.016184648 0.58580834 0.43579903 -0.7228062 0.068407334
0.06603394 0.5847653 -0.07005535 -0.16454194 -0.0880469 -0.078291066 0.07432937 -0.038890928
-0.091771625 -0.1852882 -0.1420741 -0.12991151 -0.06679713 0.045675922 -0.14463516 -0.18631558
0.18170308 0.008978809 -0.19831006 0.009875038 0.028006827 0.09854065 0.062183026 -0.13840462
0.19762912 0.65272486 -0.48102 -0.6523005 -0.6403348 0.14513385 0.047201443 -0.60375285
0.46577662 -0.0641882 -0.650869 0.18705253 -0.4573269 -0.49337265 0.52349085 0.645779

fc2.bias f4 [15]
00000000: 4ffb f33d e2d1 47be 3fe6 b0bd 1417 efbd
00000010: 00c2 8a3e 61fa 283e fb37 403e a355 04be
00000020: 88c6 003f 0f35 c33e 5212 f33e 377f 6abd
00000030: ff0e a83e 2e2e dbbd 4d94 fd3c
0.11913168 -0.19513658 -0.08637666 -0.11674324 0.27101135 0.16501762 0.18771355 -0.12923293
0.50302935 0.38126418 0.47474915 -0.057250228 0.3282394 -0.107021675 0.030954504

fc3.weight f4 [10, 15]
00000000: 3a14 0b3f 95ea e93c a384 6fbe 260e f13d
00000010: 12cb e8be eecf eebe 6e63 bdbe 5b34 f43d
00000020: 741b 993e 1688 b53e 26ad 0bbf 3885 17be
00000030: e884 0b3f ada1 35be 9dd8 4c3e bd9e d23e
00000040: 2f57 163e 2e7e 423e b070 b53c 55d2 9fbe
00000050: 61ae 07bf 7c2c 1fbe ccef 00be 3092 3b3e
00000060: bc24 213f 7d0a 05bf 31ff b7bd 87ee a33e
00000070: 2d6f debd 729d 823e e54b 9c3e ba98 a23d
00000080: cb5a 043c 4df4 823d e450 2f3e a2b3 6b3e
00000090: 4b2c d73e 780e bfbd e0e7 e13e 8083 0d3f
000000a0: d31e b03e ed5b ffbd 122d 123e 77b9 53be
000000b0: ec5d 58be 2f04 ee3e 6773 45be f6c6 453d
000000c0: f372 11be 998c c6be b528 1ebf a262 0cbf
000000d0: 8570 14be 61ba f73e da9b 2a3f f43d f0be
000000e0: 2c1e 6dbd 4567 323f 7788 813e c4da 25be
000000f0: c96c ba3e dc41 6bbd adf0 87bd bd72 5fbd
00000100: 98e0 0d3f 1690 e23e 1e03 f33e ca11 cdbd
00000110: deb9 773e a979 09bf afa6 c43e 7b79 7bbe
00000120: bd98 e6be df91 ef3d a575 48be 0bfa 733e
00000130: 71d2 05bd 5169 8bbd 90ed 803e b507 e9be
00000140: 9730 30bf 2cf8 b5be 5e50 82be c616 ce3e
00000150: ab6c 093f 184b 87be 9d55 f7bd 886d 0f3f
00000160: ca85 a43b 1c24 a83d 7462 af3e 2d91 2e3e
00000170: f1c8 78be dca6 21be 546d e03e 0285 b63e
00000180: cf08 d73e e1ad 74be 5d5e 67be b2f1 97be
00000190: 741d e43e 5180 d9bd 1882 f6be ef90 3bbd
000001a0: 7c37 113e 151a d1bd 91fa 4abe db6a 71be
000001b0: d435 373e 5746 cbbd 2cd3 77be 056d e9bd
000001c0: c1f1 51be 690f 44be b6d2 00bd d12f a63d
000001d0: 19b6 413d fceb 74be abb1 473e 2f85 353d
000001e0: 07e3 1bbe d48b 153d 1d35 213e ba65 4bbe
000001f0: 916a 74bd ff35 92bd 9ba3 1fbe eddb 81be
00000200: 90e0 073c 023c 833d 9bb8 53be 1bb8 cabc
00000210: 1acc 0f3e 7913 923d f533 c03d 65f4 073d
00000220: 60f7 713e 9d4d 54be 3ed9 833c 9193 123e
00000230: dad8 0e3b 6b77 79be ce87 29be 8623 60be
00000240: 3a07 a7be 7736 9d3c ec41 81be bb95 98be
00000250: 89b2 2bbe 4b08 35be
0.5432774 0.02855424 -0.2339044 0.11770277 -0.4546743 -0.46643013 -0.3698992 0.119240485
0.29903758 0.35455388 -0.5456108 -0.14796913 0.54499674 -0.17737456 0.20004506 0.41136733
0.14681695 0.18993446 0.02214846 -0.31215158 -0.53000456 -0.15544313 -0.12591475 0.18317485
0.6294668 -0.5196913 -0.08984221 0.3201792 -0.10861049 0.25510746 0.30526653 0.079392865
0.008078287 0.06394253 0.17120701 0.23017743 0.4202598 -0.093289316 0.4412222 0.5527878
0.34398517 -0.12468705 0.14275005 -0.20676218 -0.21129578 0.46487567 -0.19282304 0.048285447
-0.14204006 -0.38779142 -0.61780864 -0.54838 -0.14496048 0.48384383 0.6664406 -0.46922266
-0.057890102 0.69688827 0.25299427 -0.16196734 0.3641112 -0.057435855 -0.06637702 -0.054552782
0.5542083 0.44250554 0.47463316 -0.100131586 0.24191996 -0.53701264 0.3840842 -0.2455806
-0.45038405 0.116977446 -0.19576128 0.23825853 -0.032671396 -0.06807197 0.25181246 -0.45513692
-0.6882414 -0.35540903 -0.2545194 0.4025175 0.5368144 -0.2642448 -0.12076876 0.56026506
0.0050208317 0.08210012 0.342548 0.17047568 -0.24295403 -0.15786308 0.4383341 0.35648352
0.41998908 -0.23894455 -0.2259459 -0.29676586 0.4455372 -0.106201775 -0.4814613 -0.045792516
0.14181322 -0.10210053 -0.19822146 -0.23575918 0.17891628 -0.09925526 -0.2420165 -0.11397747
-0.20502378 -0.19146504 -0.03145095 0.08114589 0.047292802 -0.23918146 0.19501369 0.044316467
-0.15223323 0.036510304 0.15742917 -0.19863024 -0.059671942 -0.07139205 -0.15589754 -0.25363103
0.008293286 0.0640793 -0.2067589 -0.024745991 0.14042702 0.0713262 0.0938491 0.033192057
0.23629522 -0.20732732 0.0160948 0.14314105 0.0021796734 -0.2436196 -0.16555712 -0.21888551
-0.326227 0.01919101 -0.25245607 -0.29801735 -0.16767325 -0.17678945

fc3.bias f4 [10]
00000000: 2675 9f3e 59da 2f3d 2b27 ad3e ac79 a03e
00000010: a779 f33e 63aa d0bd 0859 8b3e 3f45 35be
00000020: 0843 293e 0303 27bd
0.31144065 0.042932842 0.33818945 0.31342828 0.4755375 -0.10188749 0.27216363 -0.17702197
0.16529477 -0.040774357

fc4.weight f4 [5, 10]
00000000: 206d 91be 6618 1e3e 7ac4 f8bd 5fdd 883e
00000010: 4015 c5bd 6904 8fbd 14c7 293e 4f1b 1bbe
00000020: 9948 0f3e d59a cf3c c635 1fbf 9e9b 08bf
00000030: 65b3 d03e 7e49 52bf 2119 d03e e815 68bf
00000040: 9983 cf3e 8fc1 393e 6ec0 58be ee02 2e3b
00000050: e4f6 36bf 6f48 44bf 1591 b73b d1d1 dabe
00000060: 8b24 023f b4a9 54bf be34 973e 0ccd 5abe
00000070: ace7 f1bc 02ed d3bc e3c4 ab3e 1112 033e
00000080: 57e2 52be c96a d03d 8b0b b7bd 09cb f7bd
00000090: a401 ba3d 4c05 60be dc5d b0bd defe 153d
000000a0: d665 123f c48a d43e 4175 c73e e01e 1c3f
000000b0: c764 853d 1f76 803e 4edb f4bd 725a e23c
000000c0: 8ae3 0fbe f7a9 aabe
-0.28403568 0.15438995 -0.1214685 0.26731393 -0.09623194 -0.06983263 0.16579849 -0.15147136
0.13992538 0.025342384 -0.62191427 -0.53362453 0.40761867 -0.8214339 0.40644172 -0.90658426
0.4053009 0.18140243 -0.21167156 0.002655204 -0.71470475 -0.76673025 0.005602012 -0.42738202
0.5083701 -0.83071446 0.29532427 -0.21367282 -0.029529415 -0.02586985 0.3354865 0.1279986
-0.20594154 0.10176618 -0.089377485 -0.12099273 0.09082344 -0.2187702 -0.08611652 0.036620013
0.5718664 0.4151212 0.38956645 0.6098461 0.065133624 0.2509012 -0.119558915 0.027631018
-0.14051643 -0.33332798

fc4.bias f4 [5]
00000000: 406d 97be 320c a63e 8815 7dbd 3abc 83be
00000010: 551b c73e
-0.2957554 0.3243118 -0.061788112 -0.25729543 0.3888804

fc5.weight f4 [4, 5]
00000000: c9f9 99be 2234 cd3d 20e7 2bbf 6b6c ba3e
00000010: 62c0 e13e 6d1c 6bbe c102 3b3f bc4d 423f
00000020: 50f3 87be cc11 ccbe 63a7 943e 5645 e8bd
00000030: f23c a03d 8de6 05be 94f7 4fbe 232e 34be
00000040: 6fcd a5bc a233 cbbd 0079 d4be 81cb cabe
-0.30073383 0.10019709 -0.67149544 0.3641084 0.4409209 -0.22960062 0.7305108 0.75899863
-0.2655282 -0.39857328 0.29033956 -0.1134135 0.078241244 -0.1307623 -0.20309287 -0.17595725
-0.02023956 -0.099219576 -0.41498566 -0.39608386

fc5.bias f4 [4]
00000000: b147 8d3d dbdb 0d3e 617a e83d 8c67 0dbf
0.0689844 0.138534 0.11351467 -0.55236125
