Laboratorios/Lab1/checkpoints/modelo_epoch_380.pth (torch, 7862 bytes, 10 tensors)

fc1.weight f4 [20, 24]
0.36738813 0.32808566 0.3335953 0.35055593 0.35142863 0.36139548 0.3309127 0.3236349
0.35199434 0.3786057 0.3480966 0.34061673 0.21401307 0.18434593 -0.030615631 0.11929953
0.3161701 0.11670173 0.17740633 0.15119186 0.23979805 0.44581458 0.3325205 0.34337106
0.3674091 0.3521275 0.31733078 0.37539983 0.39376044 0.37446836 0.35377142 0.32186
0.35688162 0.38122472 0.35144615 0.40345934 0.284478 0.2781403 0.3721404 0.30632395
0.36900476 0.29250678 0.3092519 0.1215855 0.07087137 0.46759257 0.38972372 0.3421934
0.23153795 0.24063042 0.31352544 0.16202736 0.17685181 0.20016243 0.194413 0.3236641
0.06306364 0.15090288 0.037084054 -0.22842728 0.02778664 0.07697368 -0.5588627 -0.014370697
0.06473515 -0.034722317 -0.091371164 0.22312175 0.49278167 0.007964451 0.21369083 0.27260488
0.23023298 0.25251946 0.28923738 0.20234789 0.21920082 0.21862419 0.2532164 0.30353686
0.2085696 0.23131363 0.21279506 -0.061958868 0.19391781 0.073538624 -0.5008683 0.10943675
0.17054912 0.060361665 0.0005004799 0.16912201 0.4768607 0.02197683 0.21153602 0.24977207
0.18097523 0.20415919 0.2824388 0.088994294 0.1442252 0.20262569 0.16129488 0.33180735
0.015242173 0.1318122 0.07457489 -0.14002346 0.16793731 0.10591583 -0.5885081 -0.030458417
0.031244183 0.0077862763 -0.045694705 0.26195 0.5146518 -0.056009687 0.18068247 0.24527913
-0.003078381 -0.0010758112 -0.015281743 0.0046509565 -0.007014799 -0.0119973505 -0.012561376 -0.0057221777
-0.030381653 -0.009172074 -0.014729125 -0.016857702 0.002815666 -0.004095602 0.009471117 0.009384467
-0.014006259 0.009557577 -0.025177997 -0.01148653 0.009922181 -0.019748643 -0.017363677 -0.0020529488
0.31627133 0.3048554 0.3164566 0.30497563 0.2655095 0.2813469 0.29876316 0.29914436
0.26296562 0.29090875 0.26685575 0.1668775 0.21886118 0.15852296 -0.354829 0.16030039
0.26153004 0.11596815 0.093526185 0.17766799 0.38313365 0.2118209 0.31473082 0.30126595
0.17327763 0.16849492 0.28979257 0.08833594 0.15361898 0.18338594 0.12213349 0.3133772
0.013973302 0.11554184 0.048259288 -0.1839544 0.012713327 0.022876067 -0.5237357 -0.040822692
0.07267125 -0.06658021 -0.12032309 0.18567821 0.46007466 -0.051170327 0.20187588 0.2704105
-0.05190299 0.23142363 0.016262075 0.30276218 0.0001737905 0.059430905 0.23429108 -0.31111702
0.28529057 0.26127142 0.1578804 0.3855407 0.16871093 0.17833248 0.5461681 0.26716512
0.24889201 0.281587 0.36716488 0.031181796 -0.50334793 0.2620416 -0.05559946 -0.202195
0.0025085905 -0.0072170845 -0.0043856767 -0.0095414845 0.0032956533 0.0017746635 -0.01410379 -0.0025758566
-0.0030369547 -0.02170849 -0.008404201 -0.0035137655 -0.002532903 -0.0019055522 -0.0032330411 -0.019330988
0.004276482 0.0029533622 -0.0056885183 -0.006923623 -0.029188456 -0.004152773 -0.00600281 -0.012231453
0.20617893 0.18196902 0.27996752 0.08774588 0.1337038 0.1702472 0.14997339 0.2843289
0.017711276 0.12790638 0.027996777 -0.30170667 -0.019588675 0.043625105 -0.50412446 0.021471351
00000000: 4c1a bc3e d8fa a73e 01cd aa3e 117c b33e
00000010: 74ee b33e d408 b93e 646d a93e 79b3 a53e
00000020: 9a38 b43e 9bd8 c13e b839 b23e 5165 ae3e
00000030: 3e26 5b3e 2ec5 3c3e a2cd fabc 5053 f43d
00000040: 0ce1 a13e 5101 ef3d 01aa 353e 0ad2 1a3e
00000050: 9f8d 753e cf41 e43e 2140 aa3e 55ce af3e
00000060: 0c1d bc3e 0e4a b43e 2e79 a23e 6834 c03e
00000070: f89a c93e 51ba bf3e 8721 b53e d5ca a43e
00000080: 30b9 b63e e32f c33e c0f0 b33e 3992 ce3e
00000090: 1aa7 913e 6868 8e3e 3089 be3e 7ed6 9c3e
000000a0: 31ee bc3e 73c3 953e 4456 9e3e d201 f93d
000000b0: 0225 913d 4b68 ef3e de89 c73e f933 af3e
000000c0: 4918 6d3e d267 763e 6886 a03e 80ea 253e
000000d0: a418 353e 61f7 4c3e 3414 473e 4db7 a53e
000000e0: 8227 813d 4986 1a3e 73e5 173d d7e8 69be
000000f0: cfa0 e33c 60a4 9d3d a011 0fbf 1273 6bbc
00000100: dd93 843d fd38 0ebd ce20 bbbd 077a 643e
00000110: e14d fc3e 547d 023c c5d1 5a3e de92 8b3e
00000120: 32c2 6b3e 3b4a 813e ec16 943e 4934 4f3e
00000130: 2e76 603e 05df 5f3e 94a5 813e 2f69 9b3e
00000140: 4593 553e 7bdd 6c3e f3e6 593e 95c8 7dbd
00000150: 6492 463e 6b9b 963d e838 00bf 6020 e03d
00000160: 6ea4 2e3e cb3d 773d a332 033a 522e 2d3e
00000170: 1627 f43e c108 b43c e69c 583e 40c4 7f3e
00000180: 9251 393e 1b0f 513e d29b 903e a442 b63d
00000190: c5af 133e 1c7d 4f3e 7c2a 253e a7e2 a93e
000001a0: 4fba 793c c7f9 063e b8ba 983d 4f62 0fbe
000001b0: c2f7 2b3e 66ea d83d 78a8 16bf ee83 f9bc
000001c0: cdf3 ff3c 0524 ff3b 5f2a 3bbd 4f1e 863e
000001d0: 38c0 033f 6a6a 65bd d304 393e 742a 7b3e
000001e0: aabe 49bb 3c02 8dba 4760 7abc 0d67 983b
000001f0: 66dc e5bb 8990 44bc 3bce 4dbc 1b81 bbbb
00000200: f2e2 f8bc 7746 16bc 6e52 71bc 2a19 8abc
00000210: 0987 383b 6634 86bb be2c 1b3c 4fc1 193c
00000220: 827a 65bc 6297 1c3c 1642 cebc 0032 3cbc
00000230: a590 223c e8c7 a1bc 453e 8ebc c48a 06bb
00000240: 51ee a13e 0216 9c3e 9906 a23e c425 9c3e
00000250: dcf0 873e b30c 903e 7cf7 983e 7329 993e
00000260: 6ea3 863e fef1 943e 51a1 883e efe1 2a3e
00000270: 251d 603e d853 223e 26ac b5be c925 243e
00000280: 44e7 853e b680 ed3d a88a bf3d 99ee 353e
00000290: 182a c43e 94e7 583e 6624 a13e 883f 9a3e
000002a0: b16f 313e ef89 2c3e b15f 943e 79e9 b43d
000002b0: 4b4e 1d3e 86c9 3b3e 2021 fa3d fa72 a03e
000002c0: 47f0 643c 33a1 ec3d 88ab 453d 8b5e 3cbe
000002d0: 8f4b 503c 9766 bb3c 8b13 06bf b235 27bd
000002e0: aad4 943d 355b 88bd f46b f6bd 6e22 3e3e
000002f0: e88e eb3e fa97 51bd 8db8 4e3e 3f73 8a3e
00000300: 3b98 54bd 51fa 6c3e 0b38 853c a503 9b3e
00000310: 883b 3639 d26d 733d 00ea 6f3e bb4a 9fbe
00000320: 9b11 923e 5ec5 853e 66ab 213e 9765 c53e
00000330: 8fc2 2c3e ca9c 363e acd1 0b3f dec9 883e
00000340: 8cdd 7e3e 2c2c 903e 09fd bb3e f770 ff3c
00000350: 69db 00bf 512a 863e 42bc 63bd 350c 4fbe
00000360: 2a67 243b 4b7d ecbb b9b5 8fbb e353 1cbc
00000370: e3fb 573b d39b e83a 9513 67bc b4cf 28bb
00000380: a507 47bb 01d6 b1bc c6b1 09bc 3447 66bb
00000390: 10ff 25bb b9c3 f9ba 6ee1 53bb 055c 9ebc
000003a0: bb21 8c3b 328d 413b c066 babb 8fdf e2bb
000003b0: a11c efbc fc13 88bb 38b3 c4bb 6f66 48bc
000003c0: 9220 533e 1656 3a3e e757 8f3e 1db4 b33d
000003d0: a6e9 083e 4855 2e3e a092 193e 8f93 913e
000003e0: 3d17 913c e4f9 023e 7f59 e53c 4c79 9abe
000003f0: 6e78 a0bc 3db0 323d 4d0e 01bf b0e4 af3c

fc1.bias f4 [20]
0.34380233 0.3278715 0.34982213 0.33690253 0.35637712 -0.01001443 0.32824606 0.31608045
0.019784868 -0.0052978853 0.30625814 -0.0043237004 0.33710575 0.31593433 0.14209937 0.28527725
0.0 0.293567 -0.0075962474 -0.010177753
00000000: dc06 b03e c6de a73e e31b b33e 7d7e ac3e
00000010: 1077 b63e 9013 24bc de0f a83e 4cd5 a13e
00000020: e013 a23c e299 adbb decd 9c3e d4ad 8dbb
00000030: 2099 ac3e 25c2 a13e 7f82 113e dc0f 923e
00000040: 0000 0000 6a4e 963e f1e9 f8bb 97c0 26bc

fc2.weight f4 [15, 20]
0.5508238 0.59772533 0.34595582 0.14110826 0.07304571 0.15955974 0.37211773 -0.015847553
0.28911614 -0.106134355 0.24606647 0.13884407 0.18657754 0.27163315 0.40565747 0.39443254
0.14740482 0.028702809 0.1039302 -0.05878324 0.10545921 -0.019093378 -0.20815244 0.06325119
-0.119568266 0.19734831 -0.14598413 0.1468852 -0.025166683 -0.1421413 0.10007001 -0.05320126
-0.034565885 0.16649212 -0.019133976 -0.0010839133 -0.11522392 0.023392912 0.0756599 0.18389218
0.04220984 -0.0557786 -0.10866023 -0.12088153 -0.20567997 0.16430515 0.04737604 -0.04198177
-0.22336383 0.18327026 -0.11061177 0.05589146 -0.1316498 0.092871845 0.057390276 0.047543254
0.13444768 0.18902569 0.093891494 0.15762952 -0.114260204 0.06763093 -0.09264095 0.17438693
-0.16408856 -0.16594039 0.17860186 0.019134989 -0.06492737 -0.00580949 -0.016584115 -0.05513462
-0.050438125 0.10778346 -0.15671413 -0.026543226 -0.081547685 -0.16379431 -0.04084516 -0.08868454
0.12452118 0.080808215 0.3504942 0.36277795 0.2975724 0.16087158 0.25101978 0.55919653
-0.5298767 -0.19221587 0.5174537 -0.05487798 0.25826156 0.5119897 -0.45452574 0.22322443
-0.16025501 0.25792593 -0.18399817 -0.18318766 0.15817891 -0.06896614 0.19250937 0.4055897
0.38212872 0.18553565 0.317793 0.52358115 -0.4951353 -0.044371765 0.52576005 -0.12844256
0.573265 0.3882248 -0.2913507 -0.19065334 0.008479223 0.5302678 -0.1526591 -0.012662141
0.21339756 0.23096967 0.3223888 0.23596704 0.3534166 -0.08289261 0.43486658 0.48753068
-0.52894247 -0.09315144 0.27614406 -0.08748446 0.32851845 0.17406803 -0.29818764 -0.087610744
-0.016450888 0.32857382 0.04763442 0.21908708 -0.21030171 -0.18056934 -0.09933446 -0.07652526
0.039506707 -0.1453959 -0.11692804 -0.051186863 -0.0054227114 -0.0032515265 -0.21124843 -0.20101489
0.14799511 0.15726167 0.20670246 0.02677612 -0.15566096 0.18327926 -0.14471255 0.13100804
0.31206703 0.50191635 -0.13400386 0.16743563 -0.010363748 0.1172179 0.14887534 0.18364869
0.5260048 -0.19734526 0.15926646 0.22275235 0.030561669 -0.32191494 0.45852965 0.6020917
0.007081861 -0.16624781 -0.16990377 -0.05477269 0.5232515 0.5476861 -0.4080253 0.09528077
-0.17884828 -0.10963739 0.03732129 -0.42998928 0.29876563 0.19570422 -0.35176402 0.11908919
-0.19143015 -0.5627992 0.50958717 0.6527072 0.092672564 -0.44484895 -0.03939999 -0.2143986
0.40446675 0.37101796 0.41543794 0.50495774 0.34879303 -0.0629505 0.40152812 0.37285668
-0.60539776 0.11249461 0.29128325 0.016184648 0.49252868 0.34371588 -0.65556806 0.16145802
0.06603394 0.48504126 -0.07005535 -0.16454194 -0.0880469 -0.078291066 0.07432937 -0.038890928
-0.091771625 -0.1852882 -0.1420741 -0.12991151 -0.06679713 0.045675922 -0.14463516 -0.18631558
0.18170308 0.008978809 -0.19831006 0.009875038 0.028006827 0.09854065 0.062183026 -0.13840462
0.16118321 0.59150887 -0.3376879 -0.38557073 -0.46403337 0.14513385 0.2940977 -0.47082272
0.4079403 -0.0641882 -0.5340419 0.18705253 -0.26122335 -0.38684002 0.4745667 0.5776808
00000000: ca02 0d3f 8704 193f 1f21 b13e af7e 103e
00000010: fd98 953d a163 233e 3786 be3e bad2 81bc
00000020: 0807 943e f85c d9bd d9f8 7b3e 242d 0e3e
00000030: 2f0e 3f3e 8013 8b3e 56b2 cf3e 10f3 c93e
00000040: 4af1 163e 2722 eb3c 5bd9 d43d b2c6 70bd
00000050: 00fb d73d b769 9cbc ea25 55be d789 813d
00000060: 35e0 f4bd ad15 4a3e dd7c 15be 1369 163e
00000070: 5c2a cebc 7d8d 11be 81f1 cc3d 90e9 59bd
00000080: f594 0dbd e97c 2a3e dbbe 9cbc 1812 8eba
00000090: 85fa ebbd 7ea2 bf3c 94f3 9a3d 3b4e 3c3e
000000a0: 3ae4 2c3d 1a78 64bd 4189 debd bc90 f7bd
000000b0: c59d 52be 9c3f 283e 610d 423d 14f5 2bbd
000000c0: 7db9 64be 33ab 3b3e 6c88 e2bd 72ee 643d
000000d0: 35cf 06be 9833 be3d 1112 6b3d b7bc 423d
000000e0: a7ac 093e f38f 413e 2f4a c03d a269 213e
000000f0: 4101 eabd 1682 8a3d 8aba bdbd 7d92 323e
00000100: d506 28be 47ec 29be 68e3 363e fbc0 9c3c
00000110: a4f8 84bd 895d bebb 69db 87bc d7d4 61bd
00000120: 3598 4ebd 93bd dc3d ab79 20be 2e71 d9bc
00000130: 7902 a7bd b2b9 27be 414d 27bd 3da0 b5bd
00000140: f604 ff3d c77e a53d fa73 b33e 08be b93e
00000150: 695b 983e 85bb 243e aa85 803e 8127 0f3f
00000160: 00a6 07bf 3dd4 44be d877 043f bcc7 60bd
00000170: dc3a 843e c211 033f 99b7 e8be f294 643e
00000180: e419 24be de0e 843e 046a 3cbe 8c95 3bbe
00000190: a7f9 213e 1f3e 8dbd 2d21 453e 74a9 cf3e
000001a0: 60a6 c33e 0ffd 3d3e c4b5 a23e 6a09 063f
000001b0: 6082 fdbe 2bbf 35bd 3698 063f 7286 03be
000001c0: 7fc1 123f 67c5 c63e eb2b 95be a13a 43be
000001d0: 70ec 0a3c a1bf 073f ab52 1cbe de74 4fbc
000001e0: e484 5a3e 5083 6c3e 2510 a53e 58a1 713e
000001f0: 05f3 b43e 9ac3 a9bd d5a6 de3e 9f9d f93e
00000200: c668 07bf 2fc6 bebd c162 8d3e 0d2b b3bd
00000210: 9233 a83e e43e 323e 0dac 98be 436d b3bd
00000220: 03c4 86bc d43a a83e 4f1c 433d 5d58 603e
00000230: 5559 57be 2be7 38be de6f cbbd 47b9 9cbd
00000240: c9d1 213d aae2 14be f877 efbd 51a9 51bd
00000250: 00b1 b1bb 9017 55bb 8251 58be d9d6 4dbe
00000260: 088c 173e 3409 213e cfa9 533e 9859 db3c
00000270: 9665 1fbe 8fad 3b3e 872f 14be f926 063e
00000280: 40c7 9f3e 977d 003f 4f38 09be 3f74 2b3e
00000290: b6cc 29bc f00f f03d c772 183e 670e 3c3e
000002a0: 40a8 063f e014 4abe bf16 233e 3119 643e
000002b0: 775c fa3c 09d2 a4be 66c4 ea3e af22 1a3f
000002c0: f50e e83b de3c 2abe 41fb 2dbe 5459 60bd
000002d0: cff3 053f 2835 0c3f b1e8 d0be 9022 c33d
000002e0: 0124 37be 9189 e0bd 35de 183d 8e27 dcbe
000002f0: cff7 983e b066 483e 6a1a b4be 09e5 f33d
00000300: 4406 44be 9c13 10bf 4e74 023f d217 273f
00000310: 1dcb bd3d 3ec3 e3be e261 21bd 4e8b 5bbe
00000320: 4416 cf3e 11f6 bd3e 48b4 d43e e944 013f
00000330: 0095 b23e 31ec 80bd 1895 cd3e 12e7 be3e
00000340: 59fb 1abf 9363 e63d 1423 953e ab95 843c
00000350: b82c fc3e 87fb af3e 4fd3 27bf 4055 253e
00000360: cd3c 873d 5457 f83e 2e79 8fbd af7d 28be
00000370: ef51 b4bd 1157 a0bd ff39 983d 184c 1fbd
00000380: c3f2 bbbd 31bc 3dbe df7b 11be 8607 05be
00000390: efcc 88bd ad16 3b3d 3d1b 14be 83c9 3ebe
000003a0: 5f10 3a3e db1b 133c cb11 4bbe e9ca 213c
000003b0: 936e e53c aecf c93d a1b3 7e3d f1b9 0dbe
000003c0: 360d 253e 206d 173f 6ee5 acbe 8769 c5be
000003d0: c895 edbe f89d 143e f993 963e ad0f f1be
000003e0: 8ddd d03e 1a75 83bd f8b6 08bf b38a 3f3e
000003f0: 11bf 85be e50f c6be 68fa f23e e4e2 133f

fc2.bias f4 [15]
0.09305117 -0.19513658 -0.08637666 -0.11674324 0.27887818 0.18020415 0.18910022 -0.12923293
0.4701436 0.3496253 0.48292148 -0.057250228 0.30143344 -0.107021675 0.030954504
00000000: 9d91 be3d e2d1 47be 3fe6 b0bd 1417 efbd
00000010: 1fc9 8e3e 7087 383e 7da3 413e a355 04be
00000020: a9b6 f03e 1602 b33e 7c41 f73e 377f 6abd
00000030: 7c55 9a3e 2e2e dbbd 4d94 fd3c

fc3.weight f4 [10, 15]
0.5103472 0.02855424 -0.2339044 0.11770277 -0.31080925 -0.31440556 -0.2270782 0.119240485
0.24249423 0.27328593 -0.39650908 -0.14796913 0.45338935 -0.17737456 0.20004506 0.36350575
0.14681695 0.18993446 0.02214846 -0.1437905 -0.33161536 0.015662074 -0.12591475 0.08373853
0.47658104 -0.37365624 -0.08984221 0.14019787 -0.10861049 0.25510746 0.27249718 0.079392865
0.008078287 0.06394253 0.15602353 0.21885936 0.40246046 -0.093289316 0.40480086 0.52130574
0.32869473 -0.12468705 0.11475654 -0.20676218 -0.21129578 0.4412883 -0.19282304 0.048285447
-0.14204006 -0.24443474 -0.46994177 -0.406178 -0.14496048 0.4359815 0.593826 -0.32135198
-0.057890102 0.6140866 0.25299427 -0.16196734 0.35010424 -0.057435855 -0.06637702 -0.054552782
0.50917774 0.3880706 0.42692438 -0.100131586 0.264407 -0.3898577 0.34873757 -0.2455806
-0.3157763 0.116977446 -0.19576128 0.21272501 -0.032671396 -0.06807197 0.25181246 -0.29189092
-0.505685 -0.19213745 -0.2545194 0.3266472 0.41195795 -0.11589379 -0.12076876 0.41426155
0.0050208317 0.08210012 0.33748806 0.17047568 -0.24295403 -0.15786308 0.3938382 0.30130872
0.37261763 -0.23894455 -0.1854219 -0.18644466 0.41313118 -0.106201775 -0.3673016 -0.045792516
0.14181322 -0.10210053 -0.19822146 -0.23575918 0.17891628 -0.09925526 -0.2420165 -0.11397747
-0.20502378 -0.19146504 -0.03145095 0.08114589 0.047292802 -0.23918146 0.19501369 0.044316467
-0.15205215 0.036510304 0.15742917 -0.19863024 -0.059667572 -0.07139205 -0.15587617 -0.25363103
0.008478526 0.06427528 -0.20674273 -0.024745991 0.14064021 0.0713262 0.0938491 0.033192057
0.23629522 -0.20732732 0.0160948 0.14314105 0.0021796734 -0.2436196 -0.16555712 -0.21888551
-0.326227 0.01919101 -0.25245607 -0.29801735 -0.16767325 -0.17678945
00000000: 1da6 023f 95ea e93c a384 6fbe 260e f13d
00000010: 6422 9fbe c4f9 a0be 3087 68be 5b34 f43d
00000020: 6850 783e 22ec 8b3e 3d03 cbbe 3885 17be
00000030: a622 e83e ada1 35be 9dd8 4c3e 6d1d ba3e
00000040: 2f57 163e 2e7e 423e b070 b53c d13d 13be
00000050: 7dc9 a9be c04d 803c ccef 00be 1b7f ab3d
00000060: 6e02 f43e df4f bfbe 31ff b7bd 0890 0f3e
00000070: 2d6f debd 729d 823e c084 8b3e ba98 a23d
00000080: cb5a 043c 4df4 823d a2c4 1f3e ab1c 603e
00000090: 4c0f ce3e 780e bfbd 0f42 cf3e 4b74 053f
000000a0: ad4a a83e ed5b ffbd 7a05 eb3d 77b9 53be
000000b0: ec5d 58be 8af0 e13e 6773 45be f6c6 453d
000000c0: f372 11be 1a4d 7abe 359c f0be 90f6 cfbe
000000d0: 8570 14be f838 df3e fb04 183f 3f88 a4be
000000e0: 2c1e 6dbd c834 1d3f 7788 813e c4da 25be
000000f0: dd40 b33e dc41 6bbd adf0 87bd bd72 5fbd
00000100: 7959 023f 31b1 c63e d595 da3e ca11 cdbd
00000110: 5b60 873e 6e9b c7be bb8d b23e 7b79 7bbe
00000120: 6ead a1be df91 ef3d a575 48be 96d4 593e
00000130: 71d2 05bd 5169 8bbd 90ed 803e ba72 95be
00000140: 9274 01bf aebf 44be 5e50 82be 4d3e a73e
00000150: 27ec d23e b959 edbd 9d55 f7bd 171a d43e
00000160: ca85 a43b 1c24 a83d 3ccb ac3e 2d91 2e3e
00000170: f1c8 78be dca6 21be 29a5 c93e 2345 9a3e
00000180: bdc7 be3e e1ad 74be 3ddf 3dbe 59eb 3ebe
00000190: ee85 d33e 5180 d9bd f50e bcbe ef90 3bbd
000001a0: 7c37 113e 151a d1bd 91fa 4abe db6a 71be
000001b0: d435 373e 5746 cbbd 2cd3 77be 056d e9bd
000001c0: c1f1 51be 690f 44be b6d2 00bd d12f a63d
000001d0: 19b6 413d fceb 74be abb1 473e 2f85 353d
000001e0: 8fb3 1bbe d48b 153d 1d35 213e ba65 4bbe
000001f0: fc65 74bd ff35 92bd 019e 1fbe eddb 81be
00000200: 84e9 0a3c c2a2 833d 5eb4 53be 1bb8 cabc
00000210: fd03 103e 7913 923d f533 c03d 65f4 073d
00000220: 60f7 713e 9d4d 54be 3ed9 833c 9193 123e
00000230: dad8 0e3b 6b77 79be ce87 29be 8623 60be
00000240: 3a07 a7be 7736 9d3c ec41 81be bb95 98be
00000250: 89b2 2bbe 4b08 35be

fc3.bias f4 [10]
0.2916845 0.0049658325 0.32707244 0.30109763 0.47046483 -0.11949326 0.27067754 -0.17702197
0.1653046 -0.040774357
00000000: ac57 953e 6cb8 a23b 0a76 a73e 7829 9a3e
00000010: c4e0 f03e e2b8 f4bd 3f96 8a3e 3f45 35be
00000020: 9c45 293e 0303 27bd

fc4.weight f4 [5, 10]
-0.2817373 0.1660748 -0.12056131 0.26896065 -0.096194364 -0.06699112 0.16579849 -0.15147136
0.14014868 0.025342384 -0.37892133 -0.1756353 0.38952252 -0.6509161 0.37888667 -0.65184265
0.3797952 0.18140243 -0.21167156 0.002655204 -0.54038453 -0.48449367 0.004257493 -0.29027262
0.4382581 -0.64119965 0.22257526 -0.21367282 -0.029529415 -0.02586985 0.29537198 0.08354326
-0.24721363 0.05898937 -0.09468964 -0.16372357 0.0903754 -0.2187702 -0.08612042 0.036620013
0.49966052 0.27605572 0.36108387 0.55432045 0.091525696 0.16201244 -0.071751006 0.027631018
-0.14053091 -0.33332798
00000000: df3f 90be 830f 2a3e d9e8 f6bd 36b5 893e
00000010: 8d01 c5bd a432 89bd 14c7 293e 4f1b 1bbe
00000020: 2383 0f3e d59a cf3c fa01 c2be bdd9 33be
00000030: 7f6f c73e 70a2 26bf 6ffd c13e 29df 26bf
00000040: 8474 c23e 8fc1 393e 6ec0 58be ee02 2e3b
00000050: a456 0abf 8e0f f8be 7182 8b3b 9d9e 94be
00000060: 5e63 e03e a925 24bf c5ea 633e 0ccd 5abe
00000070: ace7 f1bc 02ed d3bc ff3a 973e bb18 ab3d
00000080: 9225 7dbe d69e 713d a4ec c1bd 27a7 27be
00000090: bd16 b93d 4c05 60be e75f b0bd defe 153d
000000a0: 81d3 ff3e 2d57 8d3e fcdf b83e f2e7 0d3f
000000b0: d371 bb3d 97e6 253e 31f2 92bd 725a e23c
000000c0: 56e7 0fbe f7a9 aabe

fc4.bias f4 [5]
-0.29539317 0.32161695 -0.056732398 -0.2651421 0.37752795
00000000: c63d 97be faaa a43e 3b60 68bd b5c0 87be
00000010: 584b c13e

fc5.weight f4 [4, 5]
-0.3001796 0.23846687 -0.50515914 0.35599494 0.38796234 -0.22961497 0.6531254 0.59769785
-0.26542705 -0.3356598 0.28975633 -0.100550845 0.15205915 -0.12148344 -0.16237615 -0.1759838
-0.017362637 -0.08197734 -0.4149448 -0.37744185
00000000: 24b1 99be a930 743e 1c52 01bf f844 b63e
00000010: 00a3 c63e 3020 6bbe 3a33 273f ba02 193f
00000020: 0ee6 87be 9adb abbe f15a 943e 9aed cdbd
00000030: 65b5 1b3e 4fcc f8bd ef45 26be 1935 34be
00000040: 173c 8ebc bce3 a7bd a573 d4be 0f40 c1be

fc5.bias f4 [4]
0.06547968 0.13840854 0.11563875 -0.55168
00000000: 361a 863d f8ba 0d3e 02d4 ec3d e73a 0dbf
