Laboratorios/Lab1/checkpoints/modelo_epoch_260.pth (torch, 7862 bytes, 10 tensors)

fc1.weight f4 [20, 24]
00000000: 2a41 ac3e aff8 9e3e f46b a03e 742a ad3e
00000010: f690 a13e ab1c a43e 5b31 a33e ee6a 913e
00000020: 801e a63e 98c0 af3e c811 c03e f590 9d3e
00000030: 2839 793e 268d 283e 3db0 e2bd 45f6 223e
00000040: bc8d 8f3e ca2e 123e 3fab 163e c6a2 203e
00000050: 803d 943e 38d8 bf3e 18d6 9a3e 3e6d 953e
00000060: a58d a13e f863 ac3e cfc5 963e aaf0 bb3e
00000070: 7a30 ae3e c939 a23e 10fe b23e c519 853e
00000080: 1936 a93e 804d a93e 47db c63e f334 bb3e
00000090: 1dd5 a93e 4b7f 833e 0e26 953e 520d b93e
000000a0: 0125 a23e 9be3 ad3e 9468 8b3e b3fb 173e
000000b0: 24a1 283e 8861 c73e 8cef ad3e 1424 803e
000000c0: a1cf 8f3e ce5b 753e aa28 a53e d259 1f3e
000000d0: c89b 753e d9eb 853e cd31 223e b95e c43e
000000e0: 33c2 d83d 2b8e 833e 4703 43bd aec4 19be
000000f0: 6346 cdbd 3553 d13d 2e0a e0be 84c0 0cbe
00000100: 7bdb e63d 4c04 3bbe bec7 0cbd d881 3b3e
00000110: ea64 cf3e 1aa6 c83d 893e 863e 0702 b43e
00000120: 3037 863e 8147 7c3e 4785 943e 13c7 3f3e
00000130: d4ef 863e c3da 843e d573 5e3e 9bf2 b43e
00000140: f9fd 743e 581d 963e ebd6 c53d b05e ee3c
00000150: 1809 6a3d 9795 bd3d ec9f babe 082a cdbc
00000160: 956e 4d3e 6bbb a8bd 0132 df3c e588 0b3e
00000170: a5bc ca3e 0545 ec3d c242 7c3e 2a8f a23e
00000180: f457 773e e585 513e 5d1c 973e 3e70 a73d
00000190: ae31 613e acbd 8a3e e9c4 f23d 3faf cd3e
000001a0: f218 8c3d 8fe9 873e 9f47 92bc d2ea 5ebd
000001b0: c845 053d 77b8 093e ed22 eabe ea2b 28be
000001c0: e1fe af3d ead9 1bbe 9779 913c 09d0 613e
000001d0: 54b0 d63e 9251 1f3d ac6f 733e acd7 ac3e
000001e0: aabe 49bb 3c02 8dba 4760 7abc 0d67 983b
000001f0: 66dc e5bb 8990 44bc 3bce 4dbc 1b81 bbbb
00000200: f2e2 f8bc 7746 16bc 6e52 71bc 2a19 8abc
00000210: 0987 383b 6634 86bb be2c 1b3c 4fc1 193c
00000220: 827a 65bc 6297 1c3c 1642 cebc 0032 3cbc
00000230: a590 223c e8c7 a1bc 453e 8ebc c48a 06bb
00000240: c45f a23e 20f7 953e e92e 9d3e 911d 953e
00000250: 719c 893e 9abe 8f3e 049b 8d3e 420e 9d3e
00000260: c5d1 823e 423e 973e bbc2 493e 4c3d 3b3e
00000270: 7458 2b3e 1ba9 1f3e ce47 97be 27ee c53d
00000280: 1bfd 843e 302d 853d 983d b03d ac82 243e
00000290: d2a4 b33e 6b9f 773e 3922 a33e 4023 a33e
000002a0: f53f 633e 5212 2d3e bf0d 9a3e 1068 ac3d
000002b0: ccf3 5d3e 5899 7d3e 08d1 c13d 623d be3e
000002c0: 05de 4b3d ee98 6e3e 5628 afbc 5dcf f3bd
000002d0: 0ab8 c2bd 4c27 383d 07c5 d8be 60e5 0dbe
000002e0: 43dd f93d 8561 44be b0f0 82bd d6c4 153e
000002f0: fac9 c13e 8633 0b3d f192 7d3e f8a3 ae3e
00000300: 4f70 14be c836 643e 1530 74bc 1de5 9a3e
00000310: 7a24 bebd 202a b1bc c253 803e dca5 c6be
00000320: 673a 803e 3d2b d43d b3ff 5d3e af74 a83e
00000330: f4ca 843e 6835 1d3e 622c e73e 3eb7 b43e
00000340: 317d 3d3e 9a58 c33e 129a 9b3e e06f 983d
00000350: 9ec3 d1be 165f 353e e26e f9bd 9067 98be
00000360: 2a67 243b 4b7d ecbb b9b5 8fbb e353 1cbc
00000370: e3fb 573b d39b e83a 9513 67bc b4cf 28bb
00000380: a507 47bb 01d6 b1bc c6b1 09bc 3447 66bb
00000390: 10ff 25bb b9c3 f9ba 6ee1 53bb 055c 9ebc
000003a0: bb21 8c3b 328d 413b c066 babb 8fdf e2bb
000003b0: a11c efbc fc13 88bb 38b3 c4bb 6f66 48bc
000003c0: 2faa 813e 271d 383e a589 933e 2f59 a73d
000003d0: 6292 483e 639c 6d3e 3013 ea3d 6572 ae3e
000003e0: 2294 683d 5b31 733e d836 50bd 8bc0 69be
000003f0: e8ce 12be 905b 853d 091c c9be 7d08 babd
0.33643466 0.31049106 0.31332362 0.33821452 0.3155591 0.32053122 0.31873593 0.28401893
0.32445145 0.34326625 0.37513566 0.30774656 0.2433821 0.16460094 -0.11068771 0.15914257
0.28037822 0.14275661 0.14713763 0.15687093 0.2895317 0.3746965 0.30241466 0.29184908
0.3155338 0.3367002 0.2944779 0.3670705 0.3402136 0.31684712 0.3495946 0.25996223
0.33049086 0.3306694 0.3883917 0.36563835 0.33170405 0.25683054 0.29130596 0.36142975
0.31668857 0.33962712 0.27228224 0.1484211 0.1646772 0.38941598 0.33971822 0.25027525
0.28088096 0.23960802 0.32257587 0.15561607 0.23985207 0.261565 0.1583931 0.38353518
0.105839156 0.25694403 -0.047610547 -0.15016434 -0.10023191 0.102209486 -0.43757766 -0.13745314
0.11272331 -0.18263358 -0.034370176 0.1831125 0.4050668 0.09797306 0.26219586 0.35157797
0.2621398 0.24636652 0.29007933 0.18728285 0.2635485 0.25948152 0.21723874 0.35341343
0.23925008 0.29319263 0.09660133 0.029097885 0.05713758 0.092570476 -0.36450136 -0.025044456
0.20061715 -0.08238872 0.027245523 0.1362644 0.3959705 0.11536602 0.24634841 0.3174985
0.24154645 0.20461233 0.29513827 0.081757054 0.21991608 0.27097833 0.11853964 0.40172765
0.068406954 0.2654538 -0.017856417 -0.05442316 0.03253725 0.13449274 -0.4572977 -0.16423002
0.08593536 -0.15219846 0.017758174 0.22052015 0.41931403 0.03889615 0.23773068 0.33758295
-0.003078381 -0.0010758112 -0.015281743 0.0046509565 -0.007014799 -0.0119973505 -0.012561376 -0.0057221777
-0.030381653 -0.009172074 -0.014729125 -0.016857702 0.002815666 -0.004095602 0.009471117 0.009384467
-0.014006259 0.009557577 -0.025177997 -0.01148653 0.009922181 -0.019748643 -0.017363677 -0.0020529488
0.31713688 0.29290104 0.30699852 0.2912412 0.26877168 0.28075105 0.2765733 0.3067494
0.25550666 0.29539686 0.1970319 0.18285102 0.16732961 0.15591852 -0.2954697 0.096645646
0.25974354 0.065027595 0.08605498 0.16065472 0.35086685 0.24181907 0.31862047 0.3186283
0.22192366 0.1690152 0.30088612 0.08418286 0.21675032 0.24765527 0.09463698 0.37156206
0.04977228 0.23300526 -0.021381538 -0.11904786 -0.09507759 0.04495935 -0.4233782 -0.13857031
0.122004054 -0.19177826 -0.06393564 0.14625868 0.37849408 0.033984683 0.24763085 0.34109473
-0.14495967 0.22286522 -0.014904042 0.30252925 -0.09284301 -0.021626532 0.25063902 -0.38798416
0.25044557 0.103598095 0.21679573 0.32901523 0.2593609 0.15352404 0.4515105 0.35296053
0.18504788 0.38153535 0.30390984 0.074432135 -0.40969557 0.17712054 -0.12179352 -0.29766512
0.0025085905 -0.0072170845 -0.0043856767 -0.0095414845 0.0032956533 0.0017746635 -0.01410379 -0.0025758566
-0.0030369547 -0.02170849 -0.008404201 -0.0035137655 -0.002532903 -0.0019055522 -0.0032330411 -0.019330988
0.004276482 0.0029533622 -0.0056885183 -0.006923623 -0.029188456 -0.004152773 -0.00600281 -0.012231453
0.25325152 0.1797987 0.28815952 0.08171307 0.1958709 0.23204188 0.11429441 0.3407165
0.056781895 0.23749296 -0.050833553 -0.22827356 -0.14336741 0.06511605 -0.39279202 -0.0908365

fc1.bias f4 [20]
00000000: 1f95 ac3e 9eb0 a93e c313 993e 76f9 983e
00000010: 7a55 963e 9013 24bc d42f 9e3e dbe3 853e
00000020: dc0b 003e e299 adbb 152a 823e d4ad 8dbb
00000030: 7e79 963e 04df 743e 9d4d 5b3e 0c06 993e
00000040: 0000 0000 9f7e 5c3e f1e9 f8bb 97c0 26bc
0.3370752 0.3314256 0.2989789 0.29877824 0.29362088 -0.01001443 0.30895865 0.26150402
0.12504524 -0.0052978853 0.2542273 -0.0043237004 0.29389566 0.23913199 0.21416326 0.29887426
0.0 0.21532677 -0.0075962474 -0.010177753

fc2.weight f4 [15, 20]
00000000: 4c48 053f 595b 0f3f 7be6 bc3e 7cff 1c3e
00000010: f744 e03d a163 233e 4f26 ba3e 07db 6c3c
00000020: db15 823e f85c d9bd 7986 8f3e 242d 0e3e
00000030: 00f8 523e 702e a43e 3b60 bf3e a968 b43e
00000040: 4af1 163e f716 943d 5bd9 d43d b2c6 70bd
00000050: 00fb d73d b769 9cbc ea25 55be d789 813d
00000060: 35e0 f4bd ad15 4a3e dd7c 15be 1369 163e
00000070: 5c2a cebc 7d8d 11be 81f1 cc3d 90e9 59bd
00000080: f594 0dbd e97c 2a3e dbbe 9cbc 1812 8eba
00000090: 85fa ebbd 7ea2 bf3c 94f3 9a3d 3b4e 3c3e
000000a0: 3ae4 2c3d 1a78 64bd 4189 debd bc90 f7bd
000000b0: c59d 52be 9c3f 283e 610d 423d 14f5 2bbd
000000c0: 7db9 64be 33ab 3b3e 6c88 e2bd 72ee 643d
000000d0: 35cf 06be 9833 be3d 1112 6b3d b7bc 423d
000000e0: a7ac 093e f38f 413e 2f4a c03d a269 213e
000000f0: 4101 eabd 1682 8a3d 8aba bdbd 7d92 323e
00000100: d506 28be 47ec 29be 68e3 363e fbc0 9c3c
00000110: a4f8 84bd 895d bebb 69db 87bc d7d4 61bd
00000120: 3598 4ebd 93bd dc3d ab79 20be 2e71 d9bc
00000130: 7902 a7bd b2b9 27be 414d 27bd 3da0 b5bd
00000140: 1739 0b3e d78f 0b3e ed7b a13e 84e3 a53e
00000150: 386f 803e 85bb 243e f240 6c3e 725f 053f
00000160: e76d f2be 3dd4 44be c589 f43e bcc7 60bd
00000170: 5a8a 603e 2d63 ef3e 9444 cfbe 16f5 9a3e
00000180: e419 24be 3d20 5d3e 046a 3cbe 8c95 3bbe
00000190: dde5 423e a652 923b 541e 143e d1a8 b13e
000001a0: 3534 a33e 0ffd 3d3e 0a17 943e 03b6 f13e
000001b0: 4607 e5be 2bbf 35bd ef2f f33e 7286 03be
000001c0: 842e 043f c707 ac3e 1520 7fbe ae0f e7bd
000001d0: 70ec 0a3c a177 f43e ab52 1cbe de74 4fbc
000001e0: 968b 5d3e 5583 853e 0d04 973e fa17 543e
000001f0: 04a8 a23e 9ac3 a9bd 1644 d63e d882 ea3e
00000200: 368f ebbe 2fc6 bebd 598e 793e 0d2b b3bd
00000210: 1f36 993e eaad 0b3e 55bf 72be 7099 15bd
00000220: 03c4 86bc 6512 973e 4f1c 433d 5d58 603e
00000230: 5559 57be 2be7 38be de6f cbbd 47b9 9cbd
00000240: c9d1 213d aae2 14be f877 efbd 51a9 51bd
00000250: 00b1 b1bb 9017 55bb 8251 58be d9d6 4dbe
00000260: 088c 173e 3409 213e cfa9 533e 9859 db3c
00000270: 9665 1fbe 8fad 3b3e 872f 14be f926 063e
00000280: d842 8c3e c7cc ea3e 38fb 99bd 5b32 483e
00000290: 1cc4 903d f00f f03d 1e3b 0f3e e14e 823e
000002a0: fb5a fa3e e014 4abe 6154 6f3e 3119 643e
000002b0: a80b 9c3d b3a4 80be c790 d93e 5735 0e3f
000002c0: f50e e83b 7481 b5bd 41fb 2dbe 5459 60bd
000002d0: 2891 f33e aaff fe3e b968 a4be 41c8 823e
000002e0: 6136 89bd 9189 e0bd 947a 6a3d 24f2 b1be
000002f0: 4d2a 863e b066 483e 6ce3 8fbe 09e5 f33d
00000300: 4a74 3fbd b4bd 00bf 402c f43e ddd8 193f
00000310: 1dcb bd3d a74f c1be e261 21bd 4e8b 5bbe
00000320: e637 d53e ec1a d83e 14f6 c33e 0c64 f03e
00000330: 560f 9c3e 31ec 80bd c578 c43e d59f ac3e
00000340: bd70 0dbf 9363 e63d ebdb 813e ab95 843c
00000350: e8c1 e93e b835 9a3e 5de6 1bbf fced 6f3e
00000360: cd3c 873d 6c14 e43e 2e79 8fbd af7d 28be
00000370: ef51 b4bd 1157 a0bd ff39 983d 184c 1fbd
00000380: c3f2 bbbd 31bc 3dbe df7b 11be 8607 05be
00000390: efcc 88bd ad16 3b3d 3d1b 14be 83c9 3ebe
000003a0: 5f10 3a3e db1b 133c cb11 4bbe e9ca 213c
000003b0: 936e e53c aecf c93d a1b3 7e3d f1b9 0dbe
000003c0: 6d64 da3d 98b8 093f a993 85be cfe9 5bbe
000003d0: a95d bbbe f89d 143e 4a44 b93e cf7c cabe
000003e0: 968f bd3e 1a75 83bd 7c53 efbe b38a 3f3e
000003f0: 8b06 0fbe 1c4d a8be 9be1 e13e 30cf 053f
0.5206344 0.5599876 0.36894593 0.15331835 0.10950654 0.15955974 0.36357352 0.014456517
0.254073 -0.106134355 0.28032282 0.13884407 0.20602417 0.3206668 0.37378106 0.352361
0.14740482 0.07230943 0.1039302 -0.05878324 0.10545921 -0.019093378 -0.20815244 0.06325119
-0.119568266 0.19734831 -0.14598413 0.1468852 -0.025166683 -0.1421413 0.10007001 -0.05320126
-0.034565885 0.16649212 -0.019133976 -0.0010839133 -0.11522392 0.023392912 0.0756599 0.18389218
0.04220984 -0.0557786 -0.10866023 -0.12088153 -0.20567997 0.16430515 0.04737604 -0.04198177
-0.22336383 0.18327026 -0.11061177 0.05589146 -0.1316498 0.092871845 0.057390276 0.047543254
0.13444768 0.18902569 0.093891494 0.15762952 -0.114260204 0.06763093 -0.09264095 0.17438693
-0.16408856 -0.16594039 0.17860186 0.019134989 -0.06492737 -0.00580949 -0.016584115 -0.05513462
-0.050438125 0.10778346 -0.15671413 -0.026543226 -0.081547685 -0.16379431 -0.04084516 -0.08868454
0.13595997 0.1362909 0.3153986 0.32400143 0.25084853 0.16087158 0.2307165 0.52098763
-0.47349474 -0.19221587 0.4776136 -0.05487798 0.21927777 0.46755353 -0.40482008 0.3026511
-0.16025501 0.21594329 -0.18399817 -0.18318766 0.19032998 0.004465419 0.14464694 0.3469911
0.31875768 0.18553565 0.28923827 0.47209176 -0.44732112 -0.044371765 0.47497508 -0.12844256
0.5163348 0.33599684 -0.24914582 -0.112822875 0.008479223 0.4774752 -0.1526591 -0.012662141
0.21635279 0.2607676 0.29495278 0.20712271 0.3176881 -0.08289261 0.4184882 0.4580295
-0.460077 -0.09315144 0.24370708 -0.08748446 0.29924104 0.13640562 -0.237058 -0.036523283
-0.016450888 0.2950622 0.04763442 0.21908708 -0.21030171 -0.18056934 -0.09933446 -0.07652526
0.039506707 -0.1453959 -0.11692804 -0.051186863 -0.0054227114 -0.0032515265 -0.21124843 -0.20101489
0.14799511 0.15726167 0.20670246 0.02677612 -0.15566096 0.18327926 -0.14471255 0.13100804
0.27394748 0.45859358 -0.07518619 0.19550459 0.07068655 0.1172179 0.13987395 0.25450805
0.48897538 -0.19734526 0.23372032 0.22275235 0.07619411 -0.25125656 0.4249327 0.5555014
0.007081861 -0.08862582 -0.16990377 -0.05477269 0.47571683 0.4980443 -0.32111147 0.25543407
-0.06699825 -0.10963739 0.057245806 -0.3475505 0.26204148 0.19570422 -0.28103197 0.11908919
-0.04674176 -0.50289464 0.4769001 0.6009653 0.092672564 -0.37756082 -0.03939999 -0.2143986
0.4164421 0.4220804 0.3827368 0.4695133 0.3048045 -0.0629505 0.3837339 0.33715692
-0.5525015 0.11249461 0.25363097 0.016184648 0.4565575 0.3011911 -0.6089838 0.23430628
0.06603394 0.4454683 -0.07005535 -0.16454194 -0.0880469 -0.078291066 0.07432937 -0.038890928
-0.091771625 -0.1852882 -0.1420741 -0.12991151 -0.06679713 0.045675922 -0.14463516 -0.18631558
0.18170308 0.008978809 -0.19831006 0.009875038 0.028006827 0.09854065 0.062183026 -0.13840462
0.10663686 0.5379729 -0.26089218 -0.2147591 -0.36594895 0.14513385 0.36184913 -0.39548346
0.3702361 -0.0641882 -0.4674338 0.18705253 -0.1396734 -0.3287133 0.44117436 0.5226927

fc2.bias f4 [15]
00000000: 4c5f be3d e2d1 47be 3fe6 b0bd 1417 efbd
00000010: ea9b 813e 7261 0d3e 0fe3 2f3e a355 04be
00000020: de25 f23e 66c1 be3e 5d23 ec3e 377f 6abd
00000030: a70c ae3e 412d dbbd 4d94 fd3c
0.0929552 -0.19513658 -0.08637666 -0.11674324 0.25314265 0.13806704 0.1717646 -0.12923293
0.47294515 0.37256926 0.4612073 -0.057250228 0.33994028 -0.10701991 0.030954504

fc3.weight f4 [10, 15]
00000000: 3793 f33e 95ea e93c a384 6fbe 260e f13d
00000010: 81b7 70be 4a13 74be 3f94 1cbe 5b34 f43d
00000020: 1353 533e f508 6b3e 10c0 9dbe 3885 17be
00000030: d342 d03e eda1 35be 9dd8 4c3e 2153 a13e
00000040: 2f57 163e 2e7e 423e b070 b53c 1e22 7ebd
00000050: 232d 75be e47e cb3d ccef 00be 43d6 b73c
00000060: 9c90 ce3e 8167 99be 31ff b7bd 4fbc 803d
00000070: 536f debd 729d 823e ae28 833e ba98 a23d
00000080: cb5a 043c 4df4 823d fab6 193e e25d 5d3e
00000090: 6388 ca3e 780e bfbd 1cf9 c43e e40f 003f
000000a0: fbfd a43e ed5b ffbd 9ac3 bd3d adb9 53be
000000b0: ec5d 58be a86f d13e 6773 45be f6c6 453d
000000c0: f372 11be a1d1 2fbe ff5b cbbe c5b8 abbe
000000d0: 8570 14be ace5 cd3e 3368 0d3f 57ec 75be
000000e0: 2c1e 6dbd 5eeb 113f 5588 813e c4da 25be
000000f0: 4283 ae3e dc41 6bbd adf0 87bd bd72 5fbd
00000100: 4332 f93e 4e1d b93e 2784 ce3e ca11 cdbd
00000110: 5b35 8a3e bf0f 9ebe 0a68 a93e 7b79 7bbe
00000120: f50e 81be d291 ef3d a575 48be 8d23 2c3e
00000130: 71d2 05bd 5169 8bbd 90ed 803e eb19 53be
00000140: 93c7 d3be 32e3 dabd 5e50 82be 12be 8b3e
00000150: 67c9 b03e 799d 0dbd 9d55 f7bd 17ec af3e
00000160: f386 a43b 1c24 a83d 5244 ac3e 2d91 2e3e
00000170: f1c8 78be dca6 21be 149a bf3e 2cc3 8d3e
00000180: 0836 b43e e1ad 74be 90d9 25be 5867 04be
00000190: 5d47 cc3e 5180 d9bd 695d a0be 5190 3bbd
000001a0: 7c37 113e 151a d1bd 91fa 4abe db6a 71be
000001b0: d435 373e 5746 cbbd 2cd3 77be 056d e9bd
000001c0: c1f1 51be 690f 44be b6d2 00bd d12f a63d
000001d0: 19b6 413d fceb 74be abb1 473e 2f85 353d
000001e0: 4a70 1bbe d48b 153d 1d35 213e ba65 4bbe
000001f0: 0848 74bd 4a33 92bd 738d 1fbe eddb 81be
00000200: d543 0f3c f637 843d 25ac 53be 1bb8 cabc
00000210: 1b55 103e a913 923d f533 c03d 65f4 073d
00000220: 60f7 713e 9d4d 54be 3ed9 833c 9193 123e
00000230: e2d8 0e3b 6b77 79be ce87 29be 8623 60be
00000240: 3a07 a7be 7736 9d3c ec41 81be bb95 98be
00000250: 89b2 2bbe 4b08 35be
0.47573254 0.02855424 -0.2339044 0.11770277 -0.23507501 -0.23835483 -0.15290926 0.119240485
0.20637159 0.22952636 -0.30810595 -0.14796913 0.40675983 -0.17737551 0.20004506 0.31508735
0.14681695 0.18993446 0.02214846 -0.062044255 -0.23943 0.09936312 -0.12591475 0.022441035
0.40344703 -0.2996178 -0.08984221 0.06285917 -0.10861077 0.25510746 0.25616974 0.079392865
0.008078287 0.06394253 0.15011206 0.21617845 0.3955718 -0.093289316 0.38471305 0.5002425
0.32225022 -0.12468705 0.09265824 -0.20676298 -0.21129578 0.409055 -0.19282304 0.048285447
-0.14204006 -0.17169811 -0.39718625 -0.33539405 -0.14496048 0.40214288 0.5523712 -0.24015938
-0.057890102 0.56999767 0.25299326 -0.16196734 0.34084517 -0.057435855 -0.06637702 -0.054552782
0.4867116 0.3615517 0.403352 -0.100131586 0.26993832 -0.30871388 0.33087188 -0.2455806
-0.25206724 0.11697735 -0.19576128 0.16810437 -0.032671396 -0.06807197 0.25181246 -0.20615356
-0.413632 -0.10687865 -0.2545194 0.2729345 0.34528658 -0.034574006 -0.12076876 0.3435981
0.00502097 0.08210012 0.33645874 0.17047568 -0.24295403 -0.15786308 0.3742224 0.27687967
0.35197473 -0.23894455 -0.16196275 -0.12930048 0.39898196 -0.106201775 -0.31321266 -0.045791928
0.14181322 -0.10210053 -0.19822146 -0.23575918 0.17891628 -0.09925526 -0.2420165 -0.11397747
-0.20502378 -0.19146504 -0.03145095 0.08114589 0.047292802 -0.23918146 0.19501369 0.044316467
-0.15179554 0.036510304 0.15742917 -0.19863024 -0.059639007 -0.07138689 -0.15581302 -0.25363103
0.0087442 0.06455986 -0.20671137 -0.024745991 0.14094965 0.07132656 0.0938491 0.033192057
0.23629522 -0.20732732 0.0160948 0.14314105 0.0021796753 -0.2436196 -0.16555712 -0.21888551
-0.326227 0.01919101 -0.25245607 -0.29801735 -0.16767325 -0.17678945

fc3.bias f4 [10]
00000000: 9716 9a3e 9a3d 2c3d fdf6 a43e d4b6 9d3e
00000010: b235 eb3e 3d04 a6bd 2901 873e 3f45 35be
00000020: ee49 293e 0303 27bd
0.3009536 0.042050935 0.32219687 0.3080355 0.45939404 -0.08106277 0.26368073 -0.17702197
0.16532108 -0.040774357

fc4.weight f4 [5, 10]
00000000: cbce 8fbe 0a2c 2e3e 3921 f6bd fc07 8a3e
00000010: 5ce3 c4bd 7b09 87bd 4ac7 293e 4f1b 1bbe
00000020: c38a 0f3e d59a cf3c db4c 8cbe f827 1fbc
00000030: aea4 c43e 133a 13bf f7bb bc3e 25fd 0bbf
00000040: b76e bd3e 8fc1 393e 86c0 58be eb02 2e3b
00000050: a6c2 edbe f571 bbbe 8d22 0fbc ddb0 68be
00000060: 5b46 cc3e a57f 0fbf 55ed 3b3e 0ccd 5abe
00000070: ace7 f1bc 02ed d3bc f3dd 993e 7abc b43d
00000080: 4c28 78be 164f 843d 1abf bfbd c065 22be
00000090: bd16 b93d 4c05 60be 20a9 afbd defe 153d
000000a0: 5686 eb3e 13cc 573e 370e af3e 3782 053f
000000b0: 7dd2 cc3d df79 ec3d cdf9 4ebd 725a e23c
000000c0: 89e9 0fbe f7a9 aabe
-0.28087458 0.17008987 -0.120180555 0.26959217 -0.09613678 -0.06593605 0.16579929 -0.15147136
0.14017777 0.025342384 -0.27402386 -0.009714119 0.3840689 -0.5751049 0.36862156 -0.5468314
0.3699853 0.18140243 -0.21167192 0.0026552032 -0.46437567 -0.3661038 -0.008736265 -0.22723718
0.39897427 -0.56054145 0.18352254 -0.21367282 -0.029529415 -0.02586985 0.30052146 0.088250116
-0.24234122 0.06460397 -0.093626216 -0.15859127 0.0903754 -0.2187702 -0.0857718 0.036620013
0.46000928 0.21073942 0.34190533 0.5215182 0.10001085 0.115466826 -0.050531197 0.027631018
-0.1405393 -0.33332798

fc4.bias f4 [5]
00000000: 8b25 97be b7b5 a33e bfe4 aabd b115 87be
00000010: 4d43 bf3e
-0.2952083 0.31974575 -0.08344411 -0.26383737 0.37356034

fc5.weight f4 [4, 5]
00000000: fe30 99be bbfa 973e 7c7b ddbe cb45 b63e
00000010: 6798 b73e 4328 6bbe 4f5e 1f3f 5d6f 073f
00000020: 14e6 87be 8007 9bbe e0d2 933e fd68 c4bd
00000030: 9e05 303e 40cf f8bd 25a6 0bbe 4c41 34be
00000040: 385b 87bc 0b65 a1bd a573 d4be 0bec bcbe
-0.2992019 0.2968348 -0.43258274 0.35600123 0.3585846 -0.22964577 0.6225328 0.529043
-0.26542723 -0.3027916 0.28871822 -0.095903374 0.17189643 -0.12148905 -0.13637598 -0.17603034
-0.016522989 -0.078806005 -0.4149448 -0.36898836

fc5.bias f4 [4]
00000000: ffeb 823d 164b 0d3e 6443 ef3d c628 0dbf
0.06392669 0.13798174 0.116827756 -0.5514034
