Laboratorios/Lab1/checkpoints/modelo_epoch_760.pth (torch, 7862 bytes, 10 tensors)

fc1.weight f4 [20, 24]
0	0x3ee2129b	0.4415482
1	0x3eba01eb	0.36329588
2	0x3ecb74a2	0.3973742
3	0x3ebbe3c3	0.36697206
4	0x3ed60014	0.41796935
5	0x3ed186cb	0.4092315
6	0x3eba2e6e	0.36363548
7	0x3eda6a6d	0.4265932
8	0x3ec247dc	0.3794545
9	0x3ecbb1a9	0.3978398
10	0x3eb7180c	0.35760534
11	0x3e764025	0.24047907
12	0x3e6153db	0.22004645
13	0x3e423756	0.18966421
14	0x3dc5d5a6	0.09659891
15	0x3de9ad1d	0.11409972
16	0x3eb5b237	0.3548753
17	0x3da03a04	0.078235656
18	0x3e619fb1	0.22033574
19	0x3e7e6529	0.24843277
20	0x3c3ab27c	0.011395093
21	0x3ed1cfaf	0.40978763
22	0x3ec93225	0.3929607
23	0x3ee43221	0.44569495
24	0x3ef4ce53	0.47813663
25	0x3ec5255f	0.38505074
26	0x3ed32549	0.41239384
27	0x3ec05da2	0.37571436
28	0x3ef7ca0b	0.48396334
29	0x3eda77ec	0.42669618
30	0x3ec287c3	0.37994203
31	0x3ef6d377	0.4820821
32	0x3ebe2e5e	0.3714475
33	0x3ec74af7	0.3892438
34	0x3eb28011	0.34863332
35	0x3e85a058	0.26098895
36	0x3e8f2416	0.2795722
37	0x3e8b2fc7	0.2718489
38	0x3f037dfc	0.5136411
39	0x3e8f28cc	0.27960813
40	0x3ec147ab	0.3774999
41	0x3e630696	0.22170481
42	0x3eb2a807	0.3489382
43	0x3e892224	0.2678386
44	0xbe8619d9	-0.26191595
45	0x3ecfefc1	0.40612605
46	0x3ef66829	0.48126343
47	0x3f00cee2	0.5031568
48	0x3de61753	0.112349175
49	0x3e57c5cf	0.21071552
50	0x3e3a1959	0.18173732
51	0x3e471d80	0.19444847
52	0x3d80b9a4	0.06285408
53	0x3e1a677f	0.15078543
54	0x3e172e72	0.14763811
55	0x3e0dc3a1	0.13844158
56	0x3da0350b	0.07822617
57	0x3e3d18eb	0.18466537
58	0x3d83f5b2	0.06443347
59	0x3d543c2b	0.051815193
60	0x3d714dcc	0.058912084
61	0x3de110d4	0.10989538
62	0xbf4ad484	-0.79230523
63	0x3d537bab	0.05163161
64	0x3dcc143b	0.09964796
65	0x3dc6fb60	0.09715915
66	0xbdb6e253	-0.08929887
67	0x3d8e6a59	0.06953878
68	0x3f576353	0.8413593
69	0x3de42c52	0.11141266
70	0x3de00b0e	0.109396085
71	0x3de405dc	0.1113393
72	0x3df32e10	0.1187402
73	0x3e6adfaa	0.22936884
74	0x3e2ea364	0.17054516
75	0x3e7bf79d	0.24606176
76	0x3dd80d34	0.10549393
77	0x3e2bc1fb	0.16773216
78	0x3e5c542b	0.21516483
79	0x3deaee17	0.11471193
80	0x3e714333	0.2356079
81	0x3e862380	0.2619896
82	0x3e81f446	0.25381678
83	0x3e900f74	0.2813679
84	0x3e719c8f	0.23594879
85	0x3decf743	0.11570599
86	0xbf506dc7	-0.81417507
87	0x3e41a591	0.18910815
88	0x3e5b7125	0.2142988
89	0x3e53dc74	0.20689565
90	0xbaaaa3de	-0.0013018807
91	0x3a91a7a5	0.0011112584
92	0x3f5efb55	0.8710225
93	0x3e2be161	0.16785194
94	0x3dd3146b	0.10306629
95	0x3da4b935	0.08043138
96	0x3d442b5f	0.047892924
97	0x3e2a2df9	0.166191
98	0x3dff4d15	0.12465874
99	0x3e003a7a	0.12522307
100	0x3c3cd911	0.011526362
101	0x3e154e55	0.14580663
102	0x3dcf69d0	0.10127604
103	0x3e023b87	0.1271802
104	0x3d031b2b	0.03200833
105	0x3e324699	0.17409743
106	0x3dd4dee3	0.10394075
107	0x3e1f9af0	0.15586448
108	0x3e4d831d	0.20069547
109	0x3e109b56	0.14121756
110	0xbf57f335	-0.8435548
111	0x3d1ea29f	0.038729306
112	0x3d9848fd	0.074357964
113	0x3e12c61f	0.1433339
114	0xbd23e62d	-0.040014435
115	0x3dc19593	0.09452357
116	0x3f639e1e	0.8891314
117	0x3d65b9fe	0.05608558
118	0x3d72590d	0.059166957
119	0x3d863dbb	0.06554743
120	0xbb49beaa	-0.003078381
121	0xba8d023c	-0.0010758112
122	0xbc7a6047	-0.015281743
123	0x3b98670d	0.0046509565
124	0xbbe5dc66	-0.007014799
125	0xbc449089	-0.0119973505
126	0xbc4dce3b	-0.012561376
127	0xbbbb811b	-0.0057221777
128	0xbcf8e2f2	-0.030381653
129	0xbc164677	-0.009172074
130	0xbc71526e	-0.014729125
131	0xbc8a192a	-0.016857702
132	0x3b388709	0.002815666
133	0xbb863466	-0.004095602
134	0x3c1b2cbe	0.009471117
135	0x3c19c14f	0.009384467
136	0xbc657a82	-0.014006259
137	0x3c1c9762	0.009557577
138	0xbcce4216	-0.025177997
139	0xbc3c3200	-0.01148653
140	0x3c2290a5	0.009922181
141	0xbca1c7e8	-0.019748643
142	0xbc8e3e45	-0.017363677
143	0xbb068ac4	-0.0020529488
144	0x3e83e63e	0.25761598
145	0x3e9d0713	0.3066946
146	0x3e8a92d5	0.2706515
147	0x3eacd8a5	0.33759037
148	0x3e60eef7	0.21966158
149	0x3e87f297	0.2655227
150	0x3e9b9d20	0.30393314
151	0x3e5bb37e	0.2145519
152	0x3e949b54	0.29024756
153	0x3e9c2ded	0.3050379
154	0x3e9ca42f	0.30594012
155	0x3ed70fbd	0.42004195
156	0x3e824d53	0.2544962
157	0x3e47dedf	0.19518612
158	0xbf278d9e	-0.65450466
159	0x3e6fc5f7	0.23415361
160	0x3e8e07b5	0.27740255
161	0x3e78cabb	0.24296086
162	0x3da7a04f	0.08184873
163	0x3d9d1e63	0.076718114
164	0x3f2f70bf	0.6853141
165	0x3eb0192c	0.34394205
166	0x3e89b0ed	0.26892796
167	0x3e5f80c3	0.21826462
168	0x3d784857	0.060615864
169	0x3e0ed3b3	0.13947944
170	0x3e25941f	0.16169785
171	0x3ded16f5	0.11576644
172	0x3d47638b	0.048678916
173	0x3e0cb20f	0.13739799
174	0x3db0e959	0.086382575
175	0x3e0fa78b	0.14028756
176	0x3cc4a517	0.024004502
177	0x3e1804dc	0.14845604
178	0x3d8fa717	0.07014292
179	0x3d701d91	0.058621947
180	0x3d1da9b2	0.038491912
181	0x3d4c0d52	0.04981739
182	0xbf35a591	-0.7095576
183	0x3c75cf91	0.015003101
184	0x3dce47ac	0.10072264
185	0x3d5ee94a	0.0544217
186	0xbdfe4520	-0.12415528
187	0x3d3c8688	0.046026736
188	0x3f45f86e	0.773322
189	0x3d1a4447	0.03766277
190	0x3de5054f	0.11182653
191	0x3e044639	0.12917413
192	0x3dc09a95	0.09404484
193	0x3e8b037e	0.27151102
194	0x3e51e2b0	0.2049663
195	0x3e9008ab	0.28131613
196	0x3e012d96	0.12615046
197	0x3de49c63	0.11162641
198	0x3e886145	0.2663671
199	0xbdef52d2	-0.116857186
200	0x3e90f98e	0.28315395
201	0x3e6ad98d	0.22934552
202	0x3e108fa6	0.14117298
203	0x3e360dd1	0.17778708
204	0x3e18a3d7	0.1490625
205	0x3e203861	0.15646507
206	0x3f351f15	0.7075055
207	0x3e6120d2	0.21985176
208	0x3e63d8c1	0.22250654
209	0x3e33a944	0.17545038
210	0x3ec2f0a6	0.38074225
211	0x3e35036c	0.17677087
212	0xbf525037	-0.8215365
213	0x3e3caaf9	0.18424596
214	0x3d5afde7	0.053464796
215	0xbd23255f	-0.03983056
216	0x3b24672a	0.0025085905
217	0xbbec7d4b	-0.0072170845
218	0xbb8fb5b9	-0.0043856767
219	0xbc1c53e3	-0.0095414845
220	0x3b57fbe3	0.0032956533
221	0x3ae89bd3	0.0017746635
222	0xbc671395	-0.01410379
223	0xbb28cfb4	-0.0025758566
224	0xbb4707a5	-0.0030369547
225	0xbcb1d601	-0.02170849
226	0xbc09b1c6	-0.008404201
227	0xbb664734	-0.0035137655
228	0xbb25ff10	-0.002532903
229	0xbaf9c3b9	-0.0019055522
230	0xbb53e16e	-0.0032330411
231	0xbc9e5c05	-0.019330988
232	0x3b8c21bb	0.004276482
233	0x3b418d32	0.0029533622
234	0xbbba66c0	-0.0056885183
235	0xbbe2df8f	-0.006923623
236	0xbcef1ca1	-0.029188456
237	0xbb8813fc	-0.004152773
238	0xbbc4b338	-0.00600281
239	0xbc48666f	-0.012231453
240	0x3dc05b9a	0.093924716
241	0x3e1ed2a2	0.15510038
242	0x3e20c35a	0.1569952
243	0x3df2d9f8	0.118579805
244	0x3ce30fda	0.02771752
245	0x3e007b36	0.12547001
246	0x3de1fc8d	0.11034498
247	0x3de3fc56	0.11132114
248	0x3d05cd55	0.032666523
249	0x3e2656fb	0.16244118
250	0x3d5c1b78	0.053737134
251	0xbd17038b	-0.036868613
252	0x3c2677b3	0.010160374
253	0x3d95129c	0.0727894
254	0xbf35bed7	-0.70994323
255	0x3daaf5a7	0.08347636

fc1.bias f4 [20]
0	0x3ec29f19	0.38012007
1	0x3eb954c4	0.36197484
2	0x3ea8083e	0.32818788
3	0x3ea51ffd	0.32250968
4	0x3ea89776	0.32928056
5	0xbc241390	-0.01001443
6	0x3ea90e70	0.33018827
7	0x3e967c56	0.29391736
8	0x3d868568	0.06568414
9	0xbbad99e2	-0.0052978853
10	0x3e934b34	0.28768313
11	0xbb8dadd4	-0.0043237004
12	0x3ea35d1f	0.31906983
13	0x3e90a28b	0.2824901
14	0x3e3f4040	0.18676853
15	0x3ea53dc9	0.322737
16	0x00000000	0.0
17	0x3e8486df	0.25884148
18	0xbbf8e9f1	-0.0075962474
19	0xbc26c097	-0.010177753

fc2.weight f4 [15, 20]
0	0x3f174f35	0.59105235
1	0x3f275047	0.6535687
2	0x3e8c3fa6	0.2739231
3	0x3d963c86	0.07335763
4	0xbcd750df	-0.02628368
5	0x3e2363a1	0.15955974
6	0x3eb19946	0.3468725
7	0xbdbd6a31	-0.0924877
8	0x3eb3d19b	0.35120854
9	0xbdd95cf8	-0.106134355
10	0x3e296b84	0.1654492
11	0x3e0e2d24	0.13884407
12	0x3df2d0b6	0.11856215
13	0x3e2c6ac4	0.16837603
14	0x3eec078d	0.4609951
15	0x3eeadce0	0.4587164
16	0x3e16f14a	0.14740482
17	0xbda63955	-0.08116404
18	0x3dd4d95b	0.1039302
19	0xbd70c6b2	-0.05878324
20	0x3dd7fb00	0.10545921
21	0xbc9c69b7	-0.019093378
22	0xbe5525ea	-0.20815244
23	0x3d8189d7	0.06325119
24	0xbdf4e035	-0.119568266
25	0x3e4a15ad	0.19734831
26	0xbe157cdd	-0.14598413
27	0x3e166913	0.1468852
28	0xbcce2a5c	-0.025166683
29	0xbe118d7d	-0.1421413
30	0x3dccf181	0.10007001
31	0xbd59e990	-0.05320126
32	0xbd0d94f5	-0.034565885
33	0x3e2a7ce9	0.16649212
34	0xbc9cbedb	-0.019133976
35	0xba8e1218	-0.0010839133
36	0xbdebfa85	-0.11522392
37	0x3cbfa27e	0.023392912
38	0x3d9af394	0.0756599
39	0x3e3c4e3b	0.18389218
40	0x3d2ce43a	0.04220984
41	0xbd64781a	-0.0557786
42	0xbdde8941	-0.10866023
43	0xbdf790bc	-0.12088153
44	0xbe529dc5	-0.20567997
45	0x3e283f9c	0.16430515
46	0x3d420d61	0.04737604
47	0xbd2bf514	-0.04198177
48	0xbe64b97d	-0.22336383
49	0x3e3bab33	0.18327026
50	0xbde2886c	-0.11061177
51	0x3d64ee72	0.05589146
52	0xbe06cf35	-0.1316498
53	0x3dbe3398	0.092871845
54	0x3d6b1211	0.057390276
55	0x3d42bcb7	0.047543254
56	0x3e09aca7	0.13444768
57	0x3e418ff3	0.18902569
58	0x3dc04a2f	0.093891494
59	0x3e2169a2	0.15762952
60	0xbdea0141	-0.114260204
61	0x3d8a8216	0.06763093
62	0xbdbdba8a	-0.09264095
63	0x3e32927d	0.17438693
64	0xbe2806d5	-0.16408856
65	0xbe29ec47	-0.16594039
66	0x3e36e368	0.17860186
67	0x3c9cc0fb	0.019134989
68	0xbd84f8a4	-0.06492737
69	0xbbbe5d89	-0.00580949
70	0xbc87db69	-0.016584115
71	0xbd61d4d7	-0.05513462
72	0xbd4e9835	-0.050438125
73	0x3ddcbd93	0.10778346
74	0xbe2079ab	-0.15671413
75	0xbcd9712e	-0.026543226
76	0xbda70279	-0.081547685
77	0xbe27b9b2	-0.16379431
78	0xbd274d41	-0.04084516
79	0xbdb5a03d	-0.08868454
80	0x3dec92ca	0.11551435
81	0x3c0e68b5	0.008691956
82	0x3ee58691	0.4482923
83	0x3ef63e13	0.48094234
84	0x3ed7fcf9	0.4218519
85	0x3e24bb85	0.16087158
86	0x3eaa33cb	0.3324264
87	0x3f287955	0.6581014
88	0xbf201f6c	-0.62547946
89	0xbe44d43d	-0.19221587
90	0x3f1dcf93	0.6164486
91	0xbd60c7bc	-0.05487798
92	0x3ebaa97d	0.36457434
93	0x3f1f174a	0.6214491
94	0xbf084607	-0.53231853
95	0x3df82903	0.12117197
96	0xbe2419e4	-0.16025501
97	0x3ec0d3d6	0.37661618
98	0xbe3c6a04	-0.18399817
99	0xbe3b958c	-0.18318766
100	0x3e0c2cf6	0.13689026
101	0xbe1cf459	-0.15327586
102	0x3e9fef37	0.31237194
103	0x3f0ff43f	0.56232065
104	0x3f0881d4	0.533231
105	0x3e3dfd0f	0.18553565
106	0x3edd6f22	0.4324885
107	0x3f24cb1b	0.64372414
108	0xbf142f67	-0.5788483
109	0xbd35bf2b	-0.044371765
110	0x3f240191	0.6406489
111	0xbe038672	-0.12844256
112	0x3f359402	0.70928967
113	0x3f0276e1	0.50962645
114	0xbeb8a197	-0.36060783
115	0xbe9302d3	-0.28713092
116	0x3c0aec70	0.008479223
117	0x3f2b6984	0.6695788
118	0xbe1c52ab	-0.1526591
119	0xbc4f74de	-0.012662141
120	0x3e5b9105	0.2144204
121	0x3e3f1888	0.18661702
122	0x3ed05c7a	0.40695554
123	0x3eab2bbb	0.334318
124	0x3eeb0a8d	0.45906487
125	0xbda9c39a	-0.08289261
126	0x3f00db1b	0.5033433
127	0x3f1276a7	0.572123
128	0xbf22880f	-0.6348886
129	0xbdbec62f	-0.09315144
130	0x3ebaf606	0.36515826
131	0xbdb32b0d	-0.08748446
132	0x3ed620f8	0.41822028
133	0x3e8c3aca	0.27388602
134	0xbec36e1d	-0.38169947
135	0xbe25e3bf	-0.1620016
136	0xbc86c403	-0.016450888
137	0x3edc8ddd	0.43076983
138	0x3d431c4f	0.04763442
139	0x3e60585d	0.21908708
140	0xbe575955	-0.21030171
141	0xbe38e72b	-0.18056934
142	0xbdcb6fde	-0.09933446
143	0xbd9cb947	-0.07652526
144	0x3d21d1c9	0.039506707
145	0xbe14e2aa	-0.1453959
146	0xbdef77f8	-0.11692804
147	0xbd51a951	-0.051186863
148	0xbbb1b100	-0.0054227114
149	0xbb551790	-0.0032515265
150	0xbe585182	-0.21124843
151	0xbe4dd6d9	-0.20101489
152	0x3e178c08	0.14799511
153	0x3e210934	0.15726167
154	0x3e53a9cf	0.20670246
155	0x3cdb5998	0.02677612
156	0xbe1f6596	-0.15566096
157	0x3e3bad8f	0.18327926
158	0xbe142f87	-0.14471255
159	0x3e0626f9	0.13100804
160	0x3eb6e7ba	0.35723668
161	0x3f108d2b	0.56465405
162	0xbe8b2fe1	-0.27184966
163	0x3d47303b	0.04862998
164	0xbe3f2fd2	-0.18670586
165	0x3df00ff0	0.1172179
166	0x3dcee7a9	0.101027794
167	0x3d2cd6c1	0.042196993
168	0x3f181ec5	0.5942195
169	0xbe4a14e0	-0.19734526
170	0x3cba8e78	0.022773013
171	0x3e641931	0.22275235
172	0xbdc1ceef	-0.094632976
173	0xbeef7473	-0.4676853
174	0x3f04ca83	0.5187151
175	0x3f2c4379	0.67290455
176	0x3be80ef5	0.007081861
177	0xbeb085a2	-0.34476954
178	0xbe2dfb41	-0.16990377
179	0xbd605954	-0.05477269
180	0x3f10ef07	0.56614727
181	0x3f1cf255	0.6130727
182	0xbf128c81	-0.5724564
183	0xbe3635e9	-0.17794003
184	0xbec35612	-0.38151604
185	0xbde08991	-0.10963739
186	0xbde8309f	-0.11337399
187	0xbf14ded5	-0.58152515
188	0x3ebb1bb6	0.3654458
189	0x3e4866b0	0.19570422
190	0xbef789a4	-0.483472
191	0x3df3e509	0.11908919
192	0xbed47c3c	-0.41501033
193	0xbf3049e1	-0.6886273
194	0x3f1127e3	0.5670149
195	0x3f39c7ea	0.7257067
196	0x3dbdcb1d	0.092672564
197	0xbf1a1b32	-0.60197747
198	0xbd2161e2	-0.03939999
199	0xbe5b8b4e	-0.2143986
200	0x3ec9ec02	0.39437872
201	0x3e9aed3a	0.30259115
202	0x3f0281f8	0.50979567
203	0x3f1e4c2b	0.61834973
204	0x3ef07d8e	0.4697079
205	0xbd80ec31	-0.0629505
206	0x3ef51697	0.47868797
207	0x3eefb460	0.46817303
208	0xbf32a56e	-0.69783676
209	0x3de66393	0.11249461
210	0x3ec6699d	0.38752452
211	0x3c8495ab	0.016184648
212	0x3f183f1e	0.5947131
213	0x3ee6c5ea	0.4507287
214	0xbf3b1e59	-0.7309318
215	0x3d83f5d1	0.0644337
216	0x3d873ccd	0.06603394
217	0x3f197dd8	0.5995765
218	0xbd8f792e	-0.07005535
219	0xbe287daf	-0.16454194
220	0xbdb451ef	-0.0880469
221	0xbda05711	-0.078291066
222	0x3d9839ff	0.07432937
223	0xbd1f4c18	-0.038890928
224	0xbdbbf2c3	-0.091771625
225	0xbe3dbc31	-0.1852882
226	0xbe117bdf	-0.1420741
227	0xbe050786	-0.12991151
228	0xbd88ccef	-0.06679713
229	0x3d3b16ad	0.045675922
230	0xbe141b3d	-0.14463516
231	0xbe3ec983	-0.18631558
232	0x3e3a105f	0.18170308
233	0x3c131bdb	0.008978809
234	0xbe4b11cb	-0.19831006
235	0x3c21cae9	0.009875038
236	0x3ce56e93	0.028006827
237	0x3dc9cfae	0.09854065
238	0x3d7eb3a1	0.062183026
239	0xbe0db9f1	-0.13840462
240	0x3e4c12a3	0.19928984
241	0x3f280848	0.65637636
242	0xbefbeaa9	-0.4920247
243	0xbf290fea	-0.6603991
244	0xbf273eff	-0.653305
245	0x3e149df8	0.14513385
246	0x3d30a3ba	0.04312489
247	0xbf1dc815	-0.61633426
248	0x3ef2d082	0.47424704
249	0xbd83751a	-0.0641882
250	0xbf29d1aa	-0.66335547
251	0x3e3f8ab3	0.18705253
252	0xbeef0a4e	-0.4668755
253	0xbf028b32	-0.50993645
254	0x3f07e4f4	0.5308373
255	0x3f267645	0.65024215

fc2.bias f4 [15]
0	0x3df9011b	0.12158414
1	0xbe47d1e2	-0.19513658
2	0xbdb0e63f	-0.08637666
3	0xbdef1714	-0.11674324
4	0x3e8ad7cd	0.27117768
5	0x3e28e38c	0.16493052
6	0x3e40e3b7	0.18836866
7	0xbe0455a3	-0.12923293
8	0x3f016c35	0.50555736
9	0x3ec3f0ec	0.38269746
10	0x3ef31b05	0.47481552
11	0xbd6a7f37	-0.057250228
12	0x3ea8742c	0.32901132
13	0xbddb2e2e	-0.107021675
14	0x3cfd944d	0.030954504

fc3.weight f4 [10, 15]
0	0x3f0be15f	0.54640764
1	0x3ce9ea95	0.02855424
2	0xbe6f84a3	-0.2339044
3	0x3df10e26	0.11770277
4	0xbef00ad2	-0.46883255
5	0xbef791d5	-0.4835345
6	0xbec3f6bd	-0.38274184
7	0x3df4345b	0.119240485
8	0x3e9c8fc5	0.30578437
9	0x3ebb34d3	0.3656374
10	0xbf0e4ad7	-0.55582947
11	0xbe178538	-0.14796913
12	0x3f0ee055	0.55811054
13	0xbe35a1ad	-0.17737456
14	0x3e4cd89d	0.20004506
15	0x3ed4108e	0.4141888
16	0x3e16572f	0.14681695
17	0x3e427e2e	0.18993446
18	0x3cb570b0	0.02214846
19	0xbea83390	-0.3285184
20	0xbf0d1c51	-0.5512133
21	0xbe2e6b5c	-0.17033142
22	0xbe00efcc	-0.12591475
23	0x3e43ea4a	0.19132343
24	0x3f25b115	0.6472333
25	0xbf07ff6c	-0.5312412
26	0xbdb7ff31	-0.08984221
27	0x3eb0e836	0.34552163
28	0xbdde6f2d	-0.10861049
29	0x3e829d72	0.25510746
30	0x3e9f1d50	0.3107705
31	0x3da298ba	0.079392865
32	0x3c045acb	0.008078287
33	0x3d82f44d	0.06394253
34	0x3e32359a	0.1740326
35	0x3e6e2b36	0.23258671
36	0x3ed8e545	0.4236242
37	0xbdbf0e78	-0.093289316
38	0x3ee4e87c	0.44708622
39	0x3f0eb4a5	0.5574439
40	0x3eb187c2	0.34673887
41	0xbdff5bed	-0.12468705
42	0x3e15f249	0.14643206
43	0xbe53b977	-0.20676218
44	0xbe585dec	-0.21129578
45	0x3eef734f	0.4676766
46	0xbe457367	-0.19282304
47	0x3d45c6f6	0.048285447
48	0xbe1172f3	-0.14204006
49	0xbecdb937	-0.4018037
50	0xbf2264ce	-0.63435066
51	0xbf0fa6a5	-0.56113654
52	0xbe147085	-0.14496048
53	0x3efae52e	0.49002975
54	0x3f2d322e	0.67654693
55	0xbef583d4	-0.4795214
56	0xbd6d1e2c	-0.057890102
57	0x3f356ec8	0.70872164
58	0x3e818877	0.25299427
59	0xbe25dac4	-0.16196734
60	0x3ebb2aec	0.36556184
61	0xbd6b41dc	-0.057435855
62	0xbd87f0ad	-0.06637702
63	0xbd5f72bd	-0.054552782
64	0x3f0f9c00	0.5609741
65	0x3ee68f22	0.45031077
66	0x3ef68f0a	0.48156005
67	0xbdcd11ca	-0.100131586
68	0x3e7514b9	0.23933686
69	0xbf0ce42a	-0.5503565
70	0x3ec75683	0.3893319
71	0xbe7b797b	-0.2455806
72	0xbeef7fd6	-0.4677722
73	0x3def91df	0.116977446
74	0xbe4875a5	-0.19576128
75	0x3e750c23	0.23930411
76	0xbd05d271	-0.032671396
77	0xbd8b6951	-0.06807197
78	0x3e80ed90	0.25181246
79	0xbef172a3	-0.47157773
80	0xbf3558cc	-0.7083862
81	0xbebdb79e	-0.3705415
82	0xbe82505e	-0.2545194
83	0x3ed12b0f	0.40853164
84	0x3f0d14a4	0.5510962
85	0xbe8d94a0	-0.27652454
86	0xbdf7559d	-0.12076876
87	0x3f147c0e	0.5800179
88	0x3ba485ca	0.0050208317
89	0x3da8241c	0.08210012
90	0x3eaf54b3	0.34244308
91	0x3e2e912d	0.17047568
92	0xbe78c8f1	-0.24295403
93	0xbe21a6dc	-0.15786308
94	0x3ee3d4f7	0.44498417
95	0x3eba918f	0.36439177
96	0x3eda80ac	0.42676294
97	0xbe74ade1	-0.23894455
98	0xbe6c4c6f	-0.23076032
99	0xbe9eb88d	-0.31000176
100	0x3ee68a67	0.45027468
101	0xbdd98051	-0.106201775
102	0xbefeaab5	-0.49739614
103	0xbd3b90ef	-0.045792516
104	0x3e11377c	0.14181322
105	0xbdd11a15	-0.10210053
106	0xbe4afa91	-0.19822146
107	0xbe716adb	-0.23575918
108	0x3e3735d4	0.17891628
109	0xbdcb4657	-0.09925526
110	0xbe77d32c	-0.2420165
111	0xbde96d05	-0.11397747
112	0xbe51f1c1	-0.20502378
113	0xbe440f69	-0.19146504
114	0xbd00d2b6	-0.03145095
115	0x3da62fd1	0.08114589
116	0x3d41b619	0.047292802
117	0xbe74ebfc	-0.23918146
118	0x3e47b1ab	0.19501369
119	0x3d35852f	0.044316467
120	0xbe1be307	-0.15223323
121	0x3d158bd4	0.036510304
122	0x3e21351d	0.15742917
123	0xbe4b65ba	-0.19863024
124	0xbd746a91	-0.059671942
125	0xbd9235ff	-0.07139205
126	0xbe1fa39b	-0.15589754
127	0xbe81dbed	-0.25363103
128	0x3c07e02c	0.008293193
129	0x3d833bfe	0.06407927
130	0xbe53b89b	-0.2067589
131	0xbccab81b	-0.024745991
132	0x3e0fcc1a	0.14042702
133	0x3d921379	0.0713262
134	0x3dc033f5	0.0938491
135	0x3d07f465	0.033192057
136	0x3e71f760	0.23629522
137	0xbe544d9d	-0.20732732
138	0x3c83d93e	0.0160948
139	0x3e129391	0.14314105
140	0x3b0ed8da	0.0021796734
141	0xbe79776b	-0.2436196
142	0xbe2987ce	-0.16555712
143	0xbe602386	-0.21888551
144	0xbea7073a	-0.326227
145	0x3c9d3677	0.01919101
146	0xbe8141ec	-0.25245607
147	0xbe9895bb	-0.29801735
148	0xbe2bb289	-0.16767325
149	0xbe35084b	-0.17678945

fc3.bias f4 [10]
0	0x3ea03810	0.31292772
1	0x3d3566e7	0.04428759
2	0x3eae15e8	0.34001088
3	0x3ea108dc	0.31452072
4	0x3ef402a5	0.47658268
5	0xbdd15ba4	-0.10222557
6	0x3e8b886c	0.2725252
7	0xbe35453f	-0.17702197
8	0x3e294308	0.16529477
9	0xbd270303	-0.040774357

fc4.weight f4 [5, 10]
0	0xbe916f33	-0.2840515
1	0x3e1e007b	0.15429871
2	0xbdf8c788	-0.121474326
3	0x3e88dbf1	0.26730302
4	0xbdc51540	-0.09623194
5	0xbd8f0f37	-0.06985324
6	0x3e29c714	0.16579849
7	0xbe1b1b4f	-0.15147136
8	0x3e0f4857	0.13992439
9	0x3ccf9ad5	0.025342384
10	0xbf289d28	-0.658648
11	0xbf158b4f	-0.58415693
12	0x3ed21183	0.41028985
13	0xbf58e936	-0.8473085
14	0x3ed244a7	0.41068003
15	0xbf72255e	-0.9458827
16	0x3ed18a79	0.4092596
17	0x3e39c18f	0.18140243
18	0xbe58c06e	-0.21167156
19	0x3b2e02ee	0.002655204
20	0xbf3d837f	-0.7402877
21	0xbf4e9f4d	-0.80711824
22	0x3bb7ae49	0.005605493
23	0xbee4cf3d	-0.4468936
24	0x3f049050	0.51782703
25	0xbf5be1cf	-0.8589143
26	0x3e9c7311	0.3055654
27	0xbe5acd0c	-0.21367282
28	0xbcf1e7ac	-0.029529415
29	0xbcd3ed02	-0.02586985
30	0x3eaaec4f	0.33383414
31	0x3e015003	0.12628178
32	0xbe5e59ba	-0.21713915
33	0x3dcb457e	0.09925364
34	0xbdd55bd2	-0.10417904
35	0xbdf9f42b	-0.122047745
36	0x3da5d949	0.080980845
37	0xbe60054c	-0.2187702
38	0xbdb05467	-0.086098485
39	0x3d15fede	0.036620013
40	0x3f151159	0.58229595
41	0x3edf79a7	0.436475
42	0x3ec9f0e4	0.39441597
43	0x3f1e1e32	0.61764824
44	0x3d8071cd	0.06271706
45	0x3e8717ef	0.26385447
46	0xbdfffc9c	-0.12499353
47	0x3ce25a72	0.027631018
48	0xbe0fe38a	-0.14051643
49	0xbeaaa9f7	-0.33332798

fc4.bias f4 [5]
0	0xbe976d7c	-0.29575717
1	0x3ea645aa	0.32475024
2	0xbd7d4ae5	-0.061839003
3	0xbe84f2df	-0.25966546
4	0x3ec8012e	0.390634

fc5.weight f4 [4, 5]
0	0xbe99f9c7	-0.30073377
1	0x3da1eb00	0.07906151
2	0xbf325ff2	-0.6967765
3	0x3ebdfaed	0.37105504
4	0x3ee5e02b	0.4489759
5	0xbe6b1c6d	-0.22960062
6	0x3f3e2ba9	0.7428537
7	0x3f489ad0	0.78361225
8	0xbe88099c	-0.2656983
9	0xbed0cea4	-0.40782654
10	0x3e94a6e0	0.29033566
11	0xbdec89ab	-0.115496956
12	0x3d8853ec	0.06656632
13	0xbe1171f4	-0.14203626
14	0xbe567f8f	-0.20947097
15	0xbe342e23	-0.17595725
16	0xbcaaa885	-0.02083231
17	0xbdd2254a	-0.102610186
18	0xbed4819a	-0.41505128
19	0xbeccc0a6	-0.3999073

fc5.bias f4 [4]
0	0x3d8e549c	0.06949732
1	0x3e0deea6	0.13860568
2	0x3de7c9bb	0.11317774
3	0xbf0d70b8	-0.5525012
