Laboratorios/Lab1/checkpoints/modelo_epoch_320.pth (torch, 7862 bytes, 10 tensors)

fc1.weight f4 [20, 24]
00000000: 726b b33e 6259 a43e abf7 a63e ebe2 b13e
00000010: db57 a83e 6496 b43e c3e7 a73e bdbb 953e
00000020: 94e5 aa3e 1408 b83e aeae c53e 2904 a63e
00000030: bdc0 5e3e e38a 313e cb3e 92bd 1547 163e
00000040: 3761 9d3e 5253 043e c3d9 2a3e 8e74 0e3e
00000050: 8d1e 803e 9a09 dc3e f5c8 a53e 686a 9a3e
00000060: 51d7 ac3e 7af7 b03e 3d66 9e3e 7033 c03e
00000070: d95c b73e 1256 bb3e 42a3 b53e fcf1 883e
00000080: 7ad9 ab3e 6e4e b43e 5478 cb3e 5ba5 c43e
00000090: b03f 953e 5837 873e ef61 a93e be89 ae3e
000000a0: c6e3 b73e 85bb a03e c05a 983e 4df5 d63d
000000b0: 3268 ba3d 7c73 e73e c6ed c03e 88f7 873e
000000c0: feb8 873e 6b8d 773e f0a9 a13e b5f6 1c3e
000000d0: 759d 663e d39e 503e 37b0 2f3e 0c38 c53e
000000e0: cda1 ef3d 35f9 5e3e a294 6abd 0930 3ebe
000000f0: a1d5 fd3b 14d9 cc3d 9090 fdbe 48ca adbd
00000100: 1eca 8e3d 9478 c5bd dd77 9cbd 08fc 703e
00000110: c55a f13e 444d c83c 549f 663e 1707 b03e
00000120: dcb1 823e e310 803e c8f6 933e 971d 453e
00000130: 16f5 833e 2587 603e 2393 6d3e 4e56 b63e
00000140: fa7b 813e e7f8 8c3e 92ef b63d ba21 0fbc
00000150: d558 2f3e 9fac bd3d 7f5e d9be 80d5 fb3c
00000160: 700d 313e 023a 62bb cd57 053c 83d4 373e
00000170: a490 e83e b385 243d 5296 613e 924b a03e
00000180: 08ae 633e b337 533e 6f58 923e 28a7 a23d
00000190: 453f 4f3e 6def 533e 26ba 083e 3f31 ce3e
000001a0: 383c a53d 95b2 5a3e c0b7 e9bc 8caf bebd
000001b0: 3a72 163e e372 063e 18ef 04bf b92e dbbd
000001c0: af44 193d 2a29 70bd 028c e7bc 7a29 8d3e
000001d0: 1068 fb3e 4a8f 1cbd d529 473e 64fd a73e
000001e0: aabe 49bb 3c02 8dba 4760 7abc 0d67 983b
000001f0: 66dc e5bb 8990 44bc 3bce 4dbc 1b81 bbbb
00000200: f2e2 f8bc 7746 16bc 6e52 71bc 2a19 8abc
00000210: 0987 383b 6634 86bb be2c 1b3c 4fc1 193c
00000220: 827a 65bc 6297 1c3c 1642 cebc 0032 3cbc
00000230: a590 223c e8c7 a1bc 453e 8ebc c48a 06bb
00000240: 3af2 a33e 8b97 993e 7222 a03e 09f9 983e
00000250: b26d 8b3e 0dea 8d3e eba7 933e a3bd 9f3e
00000260: 6eda 883e b476 983e f2bb 503e 037b 383e
00000270: ea16 543e f4b2 253e 6930 a1be 394c fa3d
00000280: 3c5e 843e 9f33 ba3d 5c7e b83d 0492 363e
00000290: 9da9 be3e fcb1 5d3e 7061 a13e 3fe3 a33e
000002a0: 9b24 523e 86b2 2e3e a7cf 953e 5dd0 a43d
000002b0: f191 4d3e 55f6 3f3e 20b8 d53d b1f5 be3e
000002c0: 57c5 6c3d 74ba 3f3e a802 f4bc 0174 18be
000002d0: 7d3a 96bb 9cc2 2f3d 0e56 f1be 2ef9 c7bd
000002e0: 0183 9f3d a787 f4bd 1ed0 d8bd 7624 4a3e
000002f0: c7b1 e13e 04a9 12bd 68b4 593e 02d7 aa3e
00000300: 6b14 debd 1330 663e 2dc0 f03b 1d53 9e3e
00000310: 55c2 84bd 1028 583d cc8b 7c3e 1e52 c6be
00000320: e369 7d3e 31d5 313e c6e7 663e cd0f b63e
00000330: aca5 3b3e 517b 213e 69b8 fe3e a89c a23e
00000340: 11b0 763e ea1d a63e c650 b33e dc2e 8a3c
00000350: f9ea f6be 7883 7c3e 6578 91bd 331b 92be
00000360: 2a67 243b 4b7d ecbb b9b5 8fbb e353 1cbc
00000370: e3fb 573b d39b e83a 9513 67bc b4cf 28bb
00000380: a507 47bb 01d6 b1bc c6b1 09bc 3447 66bb
00000390: 10ff 25bb b9c3 f9ba 6ee1 53bb 055c 9ebc
000003a0: bb21 8c3b 328d 413b c066 babb 8fdf e2bb
000003b0: a11c efbc fc13 88bb 38b3 c4bb 6f66 48bc
000003c0: ef68 733e 8c5a 3b3e 7947 903e d3aa a13d
000003d0: bd42 393e aac9 313e d2f5 023e ca85 af3e
000003e0: 7903 8d3d 2c33 493e 5e4c 74bd b8ff 85be
000003f0: 4cff 1fbd ce44 833d 0d5c e4be 368d 2fbd
0.35042912 0.32099444 0.3261083 0.34743437 0.32879528 0.3527099 0.32794008 0.29244795
0.3337828 0.35943663 0.38609833 0.3242505 0.21753211 0.17338137 -0.07140883 0.14675553
0.30738232 0.12922409 0.16684632 0.1391165 0.25023308 0.42976075 0.3237988 0.30159307
0.33758023 0.3456381 0.30937377 0.37539244 0.35813025 0.36589104 0.35476118 0.2674712
0.3356436 0.35216087 0.3974024 0.38407406 0.29150152 0.2640941 0.3308253 0.34089464
0.35915965 0.31393066 0.29756737 0.10496006 0.09101905 0.45205295 0.37681407 0.2655604
0.26508325 0.2417504 0.31574965 0.15328486 0.22521003 0.20373087 0.17157064 0.38519323
0.11700783 0.21774752 -0.057270654 -0.18573011 0.007746414 0.10002342 -0.49524355 -0.08485848
0.069721445 -0.09642139 -0.076400496 0.23533642 0.47139564 0.024450906 0.22521716 0.3438041
0.2552632 0.25012884 0.28899217 0.19249569 0.25772923 0.21926554 0.2320066 0.3561272
0.252899 0.27533647 0.08932413 -0.008736068 0.1712373 0.092614405 -0.42454907 0.030741453
0.17290282 -0.0034519439 0.008138609 0.1795216 0.45422852 0.040166568 0.22029999 0.31307656
0.22234356 0.20626716 0.28583094 0.07942039 0.20238979 0.20696802 0.1335226 0.40271947
0.080681264 0.21357186 -0.028530002 -0.09310827 0.14692011 0.13129763 -0.5192733 -0.10702271
0.037419017 -0.058633007 -0.028265003 0.27570707 0.4910283 -0.03822259 0.19449551 0.3281051
-0.003078381 -0.0010758112 -0.015281743 0.0046509565 -0.007014799 -0.0119973505 -0.012561376 -0.0057221777
-0.030381653 -0.009172074 -0.014729125 -0.016857702 0.002815666 -0.004095602 0.009471117 0.009384467
-0.014006259 0.009557577 -0.025177997 -0.01148653 0.009922181 -0.019748643 -0.017363677 -0.0020529488
0.32020742 0.2999843 0.3127628 0.298775 0.27232128 0.2771763 0.2883905 0.3119937
0.2672915 0.29778063 0.20384195 0.18015675 0.20711866 0.16181546 -0.31482247 0.122215696
0.25853145 0.09091877 0.09008476 0.17829138 0.3723878 0.21649927 0.3151965 0.32009313
0.20521776 0.17060289 0.2925999 0.08047555 0.20075203 0.18746312 0.1043551 0.37296823
0.057805385 0.1872347 -0.029786423 -0.14888002 -0.004584609 0.042910203 -0.47135967 -0.09764324
0.07788659 -0.11939936 -0.1058657 0.19740471 0.44080946 -0.035805717 0.21260226 0.33367163
-0.10843738 0.22479276 0.007347128 0.30922785 -0.064823784 0.05277258 0.24662703 -0.38734525
0.24747424 0.17366482 0.22549352 0.3555893 0.18324918 0.15769698 0.4975007 0.31760144
0.24090602 0.32444698 0.35022563 0.016868047 -0.48226145 0.24659526 -0.071030416 -0.28536376
0.0025085905 -0.0072170845 -0.0043856767 -0.0095414845 0.0032956533 0.0017746635 -0.01410379 -0.0025758566
-0.0030369547 -0.02170849 -0.008404201 -0.0035137655 -0.002532903 -0.0019055522 -0.0032330411 -0.019330988
0.004276482 0.0029533622 -0.0056885183 -0.006923623 -0.029188456 -0.004152773 -0.00600281 -0.012231453
0.23770498 0.1829626 0.2817953 0.0789391 0.18091865 0.17362085 0.12789086 0.3428176
0.06885428 0.19648427 -0.059643142 -0.2617166 -0.03906183 0.06409608 -0.4460148 -0.04285928

fc1.bias f4 [20]
00000000: db02 b03e da1d ab3e 89b5 a23e 9ea9 a03e
00000010: 1cf3 a13e 9013 24bc 7026 a33e 0f24 903e
00000020: 861f b73d e299 adbb e652 8c3e d4ad 8dbb
00000030: 8ad1 9e3e 8b86 883e 273d 453e 4805 993e
00000040: 0000 0000 3315 793e f1e9 f8bb 97c0 26bc
0.3437718 0.33421212 0.31779125 0.31379408 0.3163079 -0.01001443 0.31865263 0.2815251
0.089415595 -0.0052978853 0.27406996 -0.0043237004 0.3101924 0.26665148 0.19261609 0.29886842
0.0 0.24324493 -0.0075962474 -0.010177753

fc2.weight f4 [15, 20]
00000000: a4f0 093f 15c5 143f 9c91 b73e cd38 193e
00000010: d60e ba3d a163 233e 82c7 bd3e f4de 96b9
00000020: 64ee 8c3e f85c d9bd b34a 873e 242d 0e3e
00000030: eb62 4b3e 3aef 953e d37f c93e e8d0 c03e
00000040: 4af1 163e 9b74 483d 5bd9 d43d b2c6 70bd
00000050: 00fb d73d b769 9cbc ea25 55be d789 813d
00000060: 35e0 f4bd ad15 4a3e dd7c 15be 1369 163e
00000070: 5c2a cebc 7d8d 11be 81f1 cc3d 90e9 59bd
00000080: f594 0dbd e97c 2a3e dbbe 9cbc 1812 8eba
00000090: 85fa ebbd 7ea2 bf3c 94f3 9a3d 3b4e 3c3e
000000a0: 3ae4 2c3d 1a78 64bd 4189 debd bc90 f7bd
000000b0: c59d 52be 9c3f 283e 610d 423d 14f5 2bbd
000000c0: 7db9 64be 33ab 3b3e 6c88 e2bd 72ee 643d
000000d0: 35cf 06be 9833 be3d 1112 6b3d b7bc 423d
000000e0: a7ac 093e f38f 413e 2f4a c03d a269 213e
000000f0: 4101 eabd 1682 8a3d 8aba bdbd 7d92 323e
00000100: d506 28be 47ec 29be 68e3 363e fbc0 9c3c
00000110: a4f8 84bd 895d bebb 69db 87bc d7d4 61bd
00000120: 3598 4ebd 93bd dc3d ab79 20be 2e71 d9bc
00000130: 7902 a7bd b2b9 27be 414d 27bd 3da0 b5bd
00000140: 2f8f 043e cb54 de3d 72c1 aa3e e3c0 af3e
00000150: 374f 8d3e 85bb 243e 5d20 763e 6b74 0a3f
00000160: d1aa 01bf 3dd4 44be d7f3 fe3e bcc7 60bd
00000170: bb31 743e 7d2f fc3e 4bc2 debe 34e8 843e
00000180: e419 24be 3a4b 743e 046a 3cbe 8c95 3bbe
00000190: a358 2f3e 0474 0bbd 834e 2d3e 8864 c03e
000001a0: d5c1 b43e 0ffd 3d3e 157b 9a3e e36b ff3e
000001b0: bc86 f3be 2bbf 35bd eb38 003f 7286 03be
000001c0: 284d 0b3f eb2f bb3e e7d6 8cbe 41d5 1fbe
000001d0: 70ec 0a3c 9090 013f ab52 1cbe de74 4fbc
000001e0: d2ec 5b3e a393 7c3e db41 9e3e 0edb 623e
000001f0: a36f ac3e 9ac3 a9bd 5664 da3e c053 f23e
00000200: 3405 00bf 2fc6 bebd 7b3c 853e 0d2b b3bd
00000210: 599e a03e 232b 213e 1453 8cbe 646e 81bd
00000220: 03c4 86bc c53d a03e 4f1c 433d 5d58 603e
00000230: 5559 57be 2be7 38be de6f cbbd 47b9 9cbd
00000240: c9d1 213d aae2 14be f877 efbd 51a9 51bd
00000250: 00b1 b1bb 9017 55bb 8251 58be d9d6 4dbe
00000260: 088c 173e 3409 213e cfa9 533e 9859 db3c
00000270: 9665 1fbe 8fad 3b3e 872f 14be f926 063e
00000280: 0402 983e 1620 f73e c792 d2bd 82e4 3d3e
00000290: 3937 e73c f00f f03d 2011 183e a777 603e
000002a0: 5ce1 023f e014 4abe f378 4a3e 3119 643e
000002b0: c8dd 6b3d 4842 95be df32 e43e 2009 153f
000002c0: f50e e83b bbd7 05be 41fb 2dbe 5459 60bd
000002d0: 7b26 013f 4771 063f 3c52 bbbe b7d6 323e
000002e0: 940c 04be 9189 e0bd 2e69 603d 7b18 c8be
000002f0: 5f7e 913e b066 483e d959 a2be 09e5 f33d
00000300: d4d8 f4bd 968c 09bf f393 fe3e 4f61 213f
00000310: 1dcb bd3d ff40 d4be e261 21bd 4e8b 5bbe
00000320: 14ba d13e 1807 cb3e 5889 cc3e 8a4d f93e
00000330: b017 a83e 31ec 80bd 45b4 c83e e30e b63e
00000340: de57 15bf 9363 e63d b2a2 8b3e ab95 843c
00000350: 5bbc f23e 5265 a63e d721 23bf b6a9 473e
00000360: cd3c 873d 58f1 ee3e 2e79 8fbd af7d 28be
00000370: ef51 b4bd 1157 a0bd ff39 983d 184c 1fbd
00000380: c3f2 bbbd 31bc 3dbe df7b 11be 8607 05be
00000390: efcc 88bd ad16 3b3d 3d1b 14be 83c9 3ebe
000003a0: 5f10 3a3e db1b 133c cb11 4bbe e9ca 213c
000003b0: 936e e53c aecf c93d a1b3 7e3d f1b9 0dbe
000003c0: e469 0f3e 7d2f 113f 3cf7 99be 8ee1 9bbe
000003d0: de22 d7be f89d 143e a0ca ad3e b6d3 debe
000003e0: 7236 c93e 1a75 83bd be6d 00bf b38a 3f3e
000003f0: 6089 4dbe b46c b9be b58c ec3e 0ed2 0d3f
0.53882813 0.58113223 0.3585328 0.14963074 0.09084861 0.15955974 0.37066275 -0.00028776343
0.27525628 -0.106134355 0.26424178 0.13884407 0.19861953 0.29284078 0.39355335 0.37659383
0.14740482 0.04893933 0.1039302 -0.05878324 0.10545921 -0.019093378 -0.20815244 0.06325119
-0.119568266 0.19734831 -0.14598413 0.1468852 -0.025166683 -0.1421413 0.10007001 -0.05320126
-0.034565885 0.16649212 -0.019133976 -0.0010839133 -0.11522392 0.023392912 0.0756599 0.18389218
0.04220984 -0.0557786 -0.10866023 -0.12088153 -0.20567997 0.16430515 0.04737604 -0.04198177
-0.22336383 0.18327026 -0.11061177 0.05589146 -0.1316498 0.092871845 0.057390276 0.047543254
0.13444768 0.18902569 0.093891494 0.15762952 -0.114260204 0.06763093 -0.09264095 0.17438693
-0.16408856 -0.16594039 0.17860186 0.019134989 -0.06492737 -0.00580949 -0.016584115 -0.05513462
-0.050438125 0.10778346 -0.15671413 -0.026543226 -0.081547685 -0.16379431 -0.04084516 -0.08868454
0.12945245 0.10856017 0.33350712 0.34326848 0.275995 0.16087158 0.24035783 0.5408389
-0.5065127 -0.19221587 0.4979541 -0.05487798 0.23847096 0.4925498 -0.4350761 0.25958407
-0.16025501 0.23856822 -0.18399817 -0.18318766 0.17123656 -0.034046188 0.16924481 0.375767
0.35304132 0.18553565 0.3017203 0.49887 -0.47563732 -0.044371765 0.5008685 -0.12844256
0.54414606 0.36559996 -0.27507707 -0.15608694 0.008479223 0.5061121 -0.1526591 -0.012662141
0.21477059 0.24665694 0.3090962 0.22153875 0.33678922 -0.08289261 0.42654675 0.4732952
-0.5000794 -0.09315144 0.26022705 -0.08748446 0.3137081 0.15739112 -0.27407134 -0.063198835
-0.016450888 0.31297126 0.04763442 0.21908708 -0.21030171 -0.18056934 -0.09933446 -0.07652526
0.039506707 -0.1453959 -0.11692804 -0.051186863 -0.0054227114 -0.0032515265 -0.21124843 -0.20101489
0.14799511 0.15726167 0.20670246 0.02677612 -0.15566096 0.18327926 -0.14471255 0.13100804
0.29689038 0.48266667 -0.10281902 0.185442 0.028224574 0.1172179 0.14850283 0.21920644
0.5112512 -0.19734526 0.19772701 0.22275235 0.057584554 -0.2915213 0.44570062 0.5821705
0.007081861 -0.13070576 -0.16990377 -0.05477269 0.5044934 0.525166 -0.36586177 0.1746472
-0.12895423 -0.10963739 0.054787807 -0.39081177 0.28416726 0.19570422 -0.31709173 0.11908919
-0.11955419 -0.5373014 0.4972225 0.63039106 0.092672564 -0.41455838 -0.03939999 -0.2143986
0.4096228 0.3965385 0.39948535 0.4869197 0.32830572 -0.0629505 0.39200035 0.35558233
-0.583372 0.11249461 0.27272564 0.016184648 0.4740933 0.32499176 -0.6372351 0.19498333
0.06603394 0.46668506 -0.07005535 -0.16454194 -0.0880469 -0.078291066 0.07432937 -0.038890928
-0.091771625 -0.1852882 -0.1420741 -0.12991151 -0.06679713 0.045675922 -0.14463516 -0.18631558
0.18170308 0.008978809 -0.19831006 0.009875038 0.028006827 0.09854065 0.062183026 -0.13840462
0.14005238 0.56713086 -0.30071437 -0.30445522 -0.4201879 0.14513385 0.33943653 -0.43520898
0.3929935 -0.0641882 -0.50167453 0.18705253 -0.20071936 -0.36215746 0.462011 0.55398643

fc2.bias f4 [15]
00000000: 9706 c53d e2d1 47be 3fe6 b0bd 1417 efbd
00000010: c0f7 863e 339c 1d3e 3579 373e a355 04be
00000020: 1dbb f33e 4b2d bc3e 3683 f03e 377f 6abd
00000030: 3c28 a83e 2e2e dbbd 4d94 fd3c
0.096203975 -0.19513658 -0.08637666 -0.11674324 0.26360893 0.15391617 0.1791733 -0.12923293
0.47603694 0.36753306 0.46975106 -0.057250228 0.32843196 -0.107021675 0.030954504

fc3.weight f4 [10, 15]
00000000: 7172 fe3e 95ea e93c a384 6fbe 260e f13d
00000010: e6f0 8cbe 78f0 8ebe 79c7 44be 5b34 f43d
00000020: 5965 693e 7b5a 823e 5784 b5be 3885 17be
00000030: 1dc4 dd3e ada1 35be 9dd8 4c3e d2a6 af3e
00000040: 2f57 163e 2e7e 423e b070 b53c cd01 d6bd
00000050: ef3b 93be 2afe 643d ccef 00be 5b29 6a3d
00000060: c104 e33e 2fef acbe 31ff b7bd 0582 d63d
00000070: 2d6f debd 729d 823e 9723 883e ba98 a23d
00000080: cb5a 043c 4df4 823d 8448 1d3e 04f1 5e3e
00000090: 539a cc3e 780e bfbd 4732 cb3e e15e 033f
000000a0: 0ff0 a63e ed5b ffbd f6c1 d93d 77b9 53be
000000b0: ec5d 58be 1ab1 db3e 6773 45be f6c6 453d
000000c0: f372 11be 1770 57be 0e6b dfbe b6ec bebe
000000d0: 8570 14be b554 d83e df88 133f 1dba 90be
000000e0: 2c1e 6dbd 4a59 183f 7788 813e c4da 25be
000000f0: 676d b13e dc41 6bbd adf0 87bd bd72 5fbd
00000100: bdb5 ff3e 9cad c03e fd59 d53e ca11 cdbd
00000110: 8010 893e 5576 b4be cba2 ae3e 7b79 7bbe
00000120: 71db 92be df91 ef3d a575 48be 8624 483e
00000130: 71d2 05bd 5169 8bbd 90ed 803e b8df 80be
00000140: 7cfa ecbe d8cf 1bbe 5e50 82be 56d8 9b3e
00000150: aee6 c33e 999e 9ebd 9d55 f7bd 19f8 c33e
00000160: ca85 a43b 1c24 a83d 7c9a ac3e 2d91 2e3e
00000170: f1c8 78be dca6 21be 4824 c53e 0194 943e
00000180: 260a ba3e e1ad 74be af5c 33be aea3 24be
00000190: 984d d03e 5180 d9bd a69a afbe ef90 3bbd
000001a0: 7c37 113e 151a d1bd 91fa 4abe db6a 71be
000001b0: d435 373e 5746 cbbd 2cd3 77be 056d e9bd
000001c0: c1f1 51be 690f 44be b6d2 00bd d12f a63d
000001d0: 19b6 413d fceb 74be abb1 473e 2f85 353d
000001e0: 8989 1bbe d48b 153d 1d35 213e ba65 4bbe
000001f0: f659 74bd ff35 92bd d695 1fbe eddb 81be
00000200: a69e 0d3c 6eff 833d dcaf 53be 1bb8 cabc
00000210: 9036 103e 7913 923d f533 c03d 65f4 073d
00000220: 60f7 713e 9d4d 54be 3ed9 833c 9193 123e
00000230: dad8 0e3b 6b77 79be ce87 29be 8623 60be
00000240: 3a07 a7be 7736 9d3c ec41 81be bb95 98be
00000250: 89b2 2bbe 4b08 35be
0.49696687 0.02855424 -0.2339044 0.11770277 -0.2752754 -0.27917838 -0.19216718 0.119240485
0.22792567 0.25459656 -0.3545253 -0.14796913 0.43313685 -0.17737456 0.20004506 0.3430696
0.14681695 0.18993446 0.02214846 -0.10449562 -0.28756663 0.055906452 -0.12591475 0.057168346
0.44339564 -0.33776233 -0.08984221 0.10474018 -0.10861049 0.25510746 0.26589653 0.079392865
0.008078287 0.06394253 0.15359694 0.21771628 0.3996149 -0.093289316 0.39686796 0.5131665
0.32605025 -0.12468705 0.10632698 -0.20676218 -0.21129578 0.42908555 -0.19282304 0.048285447
-0.14204006 -0.21038853 -0.43636364 -0.3728997 -0.14496048 0.42252126 0.57630724 -0.28266993
-0.057890102 0.59511244 0.25299427 -0.16196734 0.3465378 -0.057435855 -0.06637702 -0.054552782
0.49943343 0.37632453 0.41670218 -0.100131586 0.267704 -0.3524653 0.34108576 -0.2455806
-0.28683046 0.116977446 -0.19576128 0.19545183 -0.032671396 -0.06807197 0.25181246 -0.25170684
-0.46284854 -0.15216005 -0.2545194 0.3043849 0.38261932 -0.07745094 -0.12076876 0.3827522
0.0050208317 0.08210012 0.33711612 0.17047568 -0.24295403 -0.15786308 0.38504243 0.29019168
0.36335868 -0.23894455 -0.17515825 -0.16078064 0.406842 -0.106201775 -0.34297675 -0.045792516
0.14181322 -0.10210053 -0.19822146 -0.23575918 0.17891628 -0.09925526 -0.2420165 -0.11397747
-0.20502378 -0.19146504 -0.03145095 0.08114589 0.047292802 -0.23918146 0.19501369 0.044316467
-0.15189184 0.036510304 0.15742917 -0.19863024 -0.059656106 -0.07139205 -0.15584502 -0.25363103
0.008643782 0.06445204 -0.20672554 -0.024745991 0.14083314 0.0713262 0.0938491 0.033192057
0.23629522 -0.20732732 0.0160948 0.14314105 0.0021796734 -0.2436196 -0.16555712 -0.21888551
-0.326227 0.01919101 -0.25245607 -0.29801735 -0.16767325 -0.17678945

fc3.bias f4 [10]
00000000: 2458 993e 6500 003d d889 a63e 8f53 9d3e
00000010: f025 ee3e 4bd2 c2bd 6eb0 883e 3f45 35be
00000020: 1c48 293e 0303 27bd
0.29950058 0.031250376 0.3252704 0.30727813 0.4651332 -0.095127665 0.26697105 -0.17702197
0.16531414 -0.040774357

fc4.weight f4 [5, 10]
00000000: f1ce 8fbe c72b 2e3e d021 f6bd d507 8a3e
00000010: d5e3 c4bd 210a 87bd 14c7 293e 4f1b 1bbe
00000020: 768a 0f3e d59a cf3c 5674 a9be 6a35 cdbd
00000030: ac33 c63e a0c8 1dbf c498 bf3e f657 1abf
00000040: cb2e c03e 8fc1 393e 6ec0 58be ee02 2e3b
00000050: 7a94 01bf 4f0b dcbe 3451 3eba a24a 86be
00000060: cb91 d73e 2eaf 1abf 077e 523e 0ccd 5abe
00000070: ace7 f1bc 02ed d3bc 0954 993e c0e2 b23d
00000080: a23b 79be 52ea 813d 2484 c0bd 7072 23be
00000090: bd16 b93d 4c05 60be 00c9 afbd defe 153d
000000a0: f148 f73e 0342 7d3e c31d b53e 8b6f 0a3f
000000b0: e502 c63d 8261 113e f573 7bbd 725a e23c
000000c0: 1ce9 0fbe f7a9 aabe
-0.2808757 0.17008887 -0.12018168 0.269591 -0.09613768 -0.06593729 0.16579849 -0.15147136
0.14017662 0.025342384 -0.3309657 -0.100199535 0.38711298 -0.61634254 0.37421238 -0.6029047
0.375357 0.18140243 -0.21167156 0.002655204 -0.5061718 -0.42977378 -0.0007260025 -0.26228815
0.4210342 -0.60423553 0.20555888 -0.21367282 -0.029529415 -0.02586985 0.29946926 0.087346554
-0.24339154 0.06343521 -0.09400204 -0.15961623 0.0903754 -0.2187702 -0.085832596 0.036620013
0.48297837 0.24732213 0.3537427 0.5407645 0.09668521 0.14197353 -0.061389882 0.027631018
-0.14053768 -0.33332798

fc4.bias f4 [5]
00000000: ab25 97be 6b33 a43e 0d55 8fbd 4d3e 87be
00000010: 4ed4 c03e
-0.29520926 0.3207048 -0.06998644 -0.2641472 0.37661976

fc5.weight f4 [4, 5]
00000000: fe30 99be a7f4 873e cbca f1be 7145 b63e
00000010: e46f c03e 4328 6bbe 0f96 233f 6d07 113f
00000020: 0ee6 87be 63b7 a4be e0d2 933e 1de5 c9bd
00000030: 8cf4 243e 07ce f8bd e5d7 1bbe 4c41 34be
00000040: ca7e 8bbc 1f12 a5bd a573 d4be f398 bfbe
-0.2992019 0.26553842 -0.4722503 0.35599855 0.37585366 -0.22964577 0.63900846 0.56651956
-0.26542705 -0.32171163 0.28871822 -0.09858153 0.16108912 -0.121486716 -0.15219076 -0.17603034
-0.017028231 -0.08060097 -0.4149448 -0.37421378

fc5.bias f4 [4]
00000000: 8340 853d 5c62 0d3e fbc3 ed3d 2834 0dbf
0.06506445 0.13807052 0.11609646 -0.5515771
