Laboratorios/Lab1/checkpoints/modelo_epoch_820.pth (torch, 7862 bytes, 10 tensors)

fc1.weight f4 [20, 24]
0.44408178 0.3664063 0.40042594 0.37050867 0.42105192 0.41182494 0.3664644 0.42825067
0.38404298 0.40045628 0.36016753 0.24341473 0.2211477 0.19262396 0.106596954 0.11689091
0.36051187 0.081817225 0.2242567 0.25160939 -0.0011009596 0.41373998 0.39547193 0.44892418
0.47949475 0.38705996 0.41464636 0.37829146 0.4859998 0.4281795 0.38155055 0.48245627
0.3751483 0.39065605 0.34982452 0.2631874 0.27934825 0.27470934 0.52538687 0.28063852
0.38146365 0.22375669 0.35195914 0.27000314 -0.27942923 0.40876272 0.48284277 0.5061221
0.11220853 0.20986542 0.1805964 0.192695 0.06196012 0.15055487 0.14725149 0.13928545
0.07521143 0.18449707 0.06435065 0.050079223 0.060821142 0.10718558 -0.81290996 0.051931966
0.096864596 0.096148916 -0.09130564 0.06831507 0.86192006 0.109611064 0.10893036 0.10903181
0.11876232 0.22870585 0.16959713 0.24447115 0.1047749 0.16767736 0.2149817 0.11570597
0.232827 0.2620003 0.2539143 0.27973875 0.23810978 0.11315111 -0.8407691 0.18958624
0.21172696 0.20605476 -0.0030662806 1.6549535e-05 0.892908 0.16613501 0.102757856 0.078193
0.04770366 0.16528264 0.123454735 0.12340516 0.010566426 0.14551264 0.100831814 0.12799558
0.028913097 0.17388088 0.10380336 0.15404677 0.20259382 0.13841812 -0.8660589 0.03897486
0.07150633 0.14228278 -0.042079043 0.093248956 0.9105183 0.054189157 0.058645092 0.06312141
-0.003078381 -0.0010758112 -0.015281743 0.0046509565 -0.007014799 -0.0119973505 -0.012561376 -0.0057221777
-0.030381653 -0.009172074 -0.014729125 -0.016857702 0.002815666 -0.004095602 0.009471117 0.009384467
-0.014006259 0.009557577 -0.025177997 -0.01148653 0.009922181 -0.019748643 -0.017363677 -0.0020529488
0.25824842 0.3067376 0.2704284 0.33665577 0.21963042 0.2661538 0.30451047 0.21607345
0.28834108 0.30571747 0.3067955 0.41898915 0.25735503 0.19341552 -0.6832483 0.23536326
0.27555242 0.24273245 0.080928005 0.07617533 0.7068758 0.34291494 0.26923332 0.21669728
0.060490113 0.13865532 0.16059093 0.11407265 0.047818683 0.13718514 0.086020015 0.14110924
0.021085951 0.14830244 0.0700761 0.05699509 0.040275205 0.047278043 -0.72577614 0.015299295
0.09800252 0.05344546 -0.1261009 0.044849195 0.7922348 0.03598385 0.1113938 0.12704162
0.09436118 0.27253038 0.20627293 0.28312624 0.12720394 0.112052694 0.2669351 -0.11748814
0.28616408 0.22969852 0.1414208 0.17943849 0.14764287 0.15901788 0.72100216 0.21978149
0.22537164 0.17655565 0.3828354 0.17806962 -0.8396314 0.18598443 0.054079 -0.03757977
0.0025085905 -0.0072170845 -0.0043856767 -0.0095414845 0.0032956533 0.0017746635 -0.01410379 -0.0025758566
-0.0030369547 -0.02170849 -0.008404201 -0.0035137655 -0.002532903 -0.0019055522 -0.0032330411 -0.019330988
0.004276482 0.0029533622 -0.0056885183 -0.006923623 -0.029188456 -0.004152773 -0.00600281 -0.012231453
0.09387621 0.15435036 0.15595573 0.1169215 0.026923219 0.12534326 0.11006873 0.112230875
0.029770268 0.16236994 0.05375249 -0.03848858 0.012116713 0.07023798 -0.72807723 0.08387325
00000000: b05e e33e 9b99 bb3e a104 cd3e 50b3 bd3e
00000010: 1e94 d73e b8da d23e 39a1 bb3e ac43 db3e
00000020: 48a1 c43e 9b08 cd3e e167 b83e b641 793e
00000030: 8b74 623e 373f 453e 814f da3d 8064 ef3d
00000040: 0395 b83e ca8f a73d 8ca3 653e f2d2 803e
00000050: 134e 90ba bad5 d33e 4c7b ca3e 64d9 e53e
00000060: 5680 f53e b92c c63e 874c d43e 6baf c13e
00000070: f7d4 f83e 583a db3e 985a c33e 8204 f73e
00000080: 7013 c03e 1204 c83e 331c b33e 80c0 863e
00000090: bc06 8f3e b4a6 8c3e c17f 063f daaf 8f3e
000000a0: 344f c33e 7920 653e fd33 b43e da3d 8a3e
000000b0: 5911 8fbe 5949 d13e 2b37 f73e 3891 013f
000000c0: 96cd e53d f6e6 563e 43ee 383e d751 453e
000000d0: e5c9 7d3d 0e2b 1a3e 18c9 163e d8a0 0e3e
000000e0: 7308 9a3d cdec 3c3e 46ca 833d df1f 4d3d
000000f0: 971f 793d 1d84 db3d de1a 50bf 9db6 543d
00000100: f260 c63d b9e9 c43d 74fe babd c5e8 8b3d
00000110: cba6 5c3f c47b e03d e116 df3d 124c df3d
00000120: a939 f33d de31 6a3e dfaa 2d3e a556 7a3e
00000130: 3994 d63d 9db3 2b3e 2a24 5c3e 40f7 ec3d
00000140: 336a 6e3e e724 863e 0e01 823e eb39 8f3e
00000150: 0dd3 733e c5bb e73d a53c 57bf e522 423e
00000160: f4ce 583e 0500 533e a7f3 48bb dbd3 8a37
00000170: 9e95 643f 4c1f 2a3e b672 d23d a723 a03d
00000180: ea64 433d da3f 293e d6d5 fc3d d8bb fc3d
00000190: ce1e 2d3c 4401 153e e980 ce3d 4611 033e
000001a0: 29db ec3c d40d 323e db96 d43d 70be 1d3e
000001b0: c174 4f3e 7bbd 0d3e 09b6 5dbf 1aa4 1f3d
000001c0: e971 923d 94b2 113e 135b 2cbd 4ff9 be3d
000001d0: ba17 693f 73f5 5d3d d635 703d cc45 813d
000001e0: aabe 49bb 3c02 8dba 4760 7abc 0d67 983b
000001f0: 66dc e5bb 8990 44bc 3bce 4dbc 1b81 bbbb
00000200: f2e2 f8bc 7746 16bc 6e52 71bc 2a19 8abc
00000210: 0987 383b 6634 86bb be2c 1b3c 4fc1 193c
00000220: 827a 65bc 6297 1c3c 1642 cebc 0032 3cbc
00000230: a590 223c e8c7 a1bc 453e 8ebc c48a 06bb
00000240: 2339 843e b60c 9d3e 9775 8a3e 255e ac3e
00000250: cce6 603e 5045 883e cce8 9b3e 5c42 5d3e
00000260: 71a1 933e 0087 9c3e 4d14 9d3e bf85 d63e
00000270: 0ac4 833e b80e 463e 5ce9 2ebf 1103 713e
00000280: 3515 8d3e db8e 783e 95bd a53d d001 9c3d
00000290: d0f5 343f 8c92 af3e f3d8 893e e4e5 5d3e
000002a0: 7bc4 773d a9fb 0d3e f371 243e ec9e e93d
000002b0: 86dd 433d 437a 0c3e 432b b03d f17e 103e
000002c0: 72bc ac3c 98dc 173e 0f84 8f3d af73 693d
000002d0: 9df7 243d 9fa6 413d 77cc 39bf e5a9 7a3c
000002e0: 8cb5 c83d a0e9 5a3d 9820 01be cab3 373d
000002f0: e6cf 4a3f cd63 133d 6f22 e43d 3317 023e
00000300: 6f40 c13d 1a89 8b3e 3639 533e ecf5 903e
00000310: c041 023e e27b e53d b8ab 883e 9f9d f0bd
00000320: 1984 923e 1736 6b3e 9dd0 103e b9be 373e
00000330: b12f 173e 95d5 223e 9993 383f 660e 613e
00000340: d3c7 663e 01cb 343e 0003 c43e e257 363e
00000350: 15f2 56bf b472 3e3e f181 5d3d 3fed 19bd
00000360: 2a67 243b 4b7d ecbb b9b5 8fbb e353 1cbc
00000370: e3fb 573b d39b e83a 9513 67bc b4cf 28bb
00000380: a507 47bb 01d6 b1bc c6b1 09bc 3447 66bb
00000390: 10ff 25bb b9c3 f9ba 6ee1 53bb 055c 9ebc
000003a0: bb21 8c3b 328d 413b c066 babb 8fdf e2bb
000003b0: a11c efbc fc13 88bb 38b3 c4bb 6f66 48bc
000003c0: 2c42 c03d 050e 1e3e dcb2 1f3e 8a74 ef3d
000003d0: 158e dc3c fc59 003e b76b e13d 4dd9 e53d
000003e0: c7e0 f33c 4e44 263e 922b 5c3d 34a6 1dbd
000003f0: 2e85 463c eed8 8f3d 4563 3abf bdc5 ab3d

fc1.bias f4 [20]
0.38247687 0.3627292 0.3291006 0.32360607 0.33014268 -0.01001443 0.33198503 0.29482922
0.06503131 -0.0052978853 0.28870988 -0.0043237004 0.32006463 0.28322643 0.18631472 0.3229743
0.0 0.2595551 -0.0075962474 -0.010177753
00000000: 02d4 c33e a4b7 b93e e07f a83e b2af a53e
00000010: 7608 a93e 9013 24bc f1f9 a93e dbf3 963e
00000020: 232f 853d e299 adbb c8d1 933e d4ad 8dbb
00000030: 83df a33e 0e03 913e 49c9 3e3e e35c a53e
00000040: 0000 0000 68e4 843e f1e9 f8bb 97c0 26bc

fc2.weight f4 [15, 20]
0.59433144 0.65782005 0.26783073 0.06949789 -0.03379833 0.15955974 0.34593016 -0.09962911
0.35822386 -0.106134355 0.15767214 0.13884407 0.11370008 0.15632005 0.46734366 0.46352488
0.14740482 -0.09281085 0.1039302 -0.05878324 0.10545921 -0.019093378 -0.20815244 0.06325119
-0.119568266 0.19734831 -0.14598413 0.1468852 -0.025166683 -0.1421413 0.10007001 -0.05320126
-0.034565885 0.16649212 -0.019133976 -0.0010839133 -0.11522392 0.023392912 0.0756599 0.18389218
0.04220984 -0.0557786 -0.10866023 -0.12088153 -0.20567997 0.16430515 0.04737604 -0.04198177
-0.22336383 0.18327026 -0.11061177 0.05589146 -0.1316498 0.092871845 0.057390276 0.047543254
0.13444768 0.18902569 0.093891494 0.15762952 -0.114260204 0.06763093 -0.09264095 0.17438693
-0.16408856 -0.16594039 0.17860186 0.019134989 -0.06492737 -0.00580949 -0.016584115 -0.05513462
-0.050438125 0.10778346 -0.15671413 -0.026543226 -0.081547685 -0.16379431 -0.04084516 -0.08868454
0.114786774 0.0061009205 0.45731315 0.4881978 0.43243018 0.16087158 0.33655697 0.6681063
-0.6341282 -0.19221587 0.6268669 -0.05487798 0.3727216 0.6353867 -0.5394471 0.11774482
-0.16025501 0.3905 -0.18399817 -0.18318766 0.13593829 -0.15607953 0.3220162 0.5697491
0.5445326 0.18553565 0.4365609 0.6546128 -0.5871505 -0.044371765 0.651718 -0.12844256
0.7178321 0.5246872 -0.3675513 -0.29072663 0.008479223 0.68513876 -0.1526591 -0.012662141
0.214199 0.18457717 0.41551372 0.34152642 0.46900618 -0.08289261 0.5077228 0.5813748
-0.64346445 -0.09315144 0.3751349 -0.08748446 0.4260849 0.28689158 -0.3886037 -0.1649085
-0.016450888 0.4431768 0.04763442 0.21908708 -0.21030171 -0.18056934 -0.09933446 -0.07652526
0.039506707 -0.1453959 -0.11692804 -0.051186863 -0.0054227114 -0.0032515265 -0.21124843 -0.20101489
0.14799511 0.15726167 0.20670246 0.02677612 -0.15566096 0.18327926 -0.14471255 0.13100804
0.36034924 0.5690245 -0.27989623 0.043593876 -0.1965261 0.1172179 0.099389516 0.032451466
0.60201156 -0.19734526 0.012833832 0.22275235 -0.10102031 -0.48400867 0.52566904 0.6778683
0.007081861 -0.36179978 -0.16990377 -0.05477269 0.5682169 0.6166992 -0.5816893 -0.18438058
-0.39254314 -0.10963739 -0.11629993 -0.59229094 0.37294975 0.19570422 -0.4941716 0.11908919
-0.42280248 -0.7035714 0.57356775 0.72998077 0.092672564 -0.6181609 -0.03939999 -0.2143986
0.3935682 0.29996738 0.51843035 0.6253074 0.47987846 -0.0629505 0.48261318 0.477724
-0.70629257 0.11249461 0.39753664 0.016184648 0.6025166 0.4640995 -0.7379315 0.060990587
0.06603394 0.6127556 -0.07005535 -0.16454194 -0.0880469 -0.078291066 0.07432937 -0.038890928
-0.091771625 -0.1852882 -0.1420741 -0.12991151 -0.06679713 0.045675922 -0.14463516 -0.18631558
0.18170308 0.008978809 -0.19831006 0.009875038 0.028006827 0.09854065 0.062183026 -0.13840462
0.20082264 0.6595904 -0.50175 -0.6674784 -0.66477746 0.14513385 0.03957279 -0.6274983
0.48170078 -0.0641882 -0.67447096 0.18705253 -0.4752659 -0.52486193 0.5372609 0.65414685
00000000: 1b26 183f e566 283f 1c21 893e e954 8e3d
00000010: 1e70 0abd a163 233e c21d b13e 590a ccbd
00000020: 1e69 b73e f85c d9bd ce74 213e 242d 0e3e
00000030: 96db e83d 5d12 203e ab47 ef3e 2253 ed3e
00000040: 4af1 163e 9d13 bebd 5bd9 d43d b2c6 70bd
00000050: 00fb d73d b769 9cbc ea25 55be d789 813d
00000060: 35e0 f4bd ad15 4a3e dd7c 15be 1369 163e
00000070: 5c2a cebc 7d8d 11be 81f1 cc3d 90e9 59bd
00000080: f594 0dbd e97c 2a3e dbbe 9cbc 1812 8eba
00000090: 85fa ebbd 7ea2 bf3c 94f3 9a3d 3b4e 3c3e
000000a0: 3ae4 2c3d 1a78 64bd 4189 debd bc90 f7bd
000000b0: c59d 52be 9c3f 283e 610d 423d 14f5 2bbd
000000c0: 7db9 64be 33ab 3b3e 6c88 e2bd 72ee 643d
000000d0: 35cf 06be 9833 be3d 1112 6b3d b7bc 423d
000000e0: a7ac 093e f38f 413e 2f4a c03d a269 213e
000000f0: 4101 eabd 1682 8a3d 8aba bdbd 7d92 323e
00000100: d506 28be 47ec 29be 68e3 363e fbc0 9c3c
00000110: a4f8 84bd 895d bebb 69db 87bc d7d4 61bd
00000120: 3598 4ebd 93bd dc3d ab79 20be 2e71 d9bc
00000130: 7902 a7bd b2b9 27be 414d 27bd 3da0 b5bd
00000140: 5415 eb3d 3bea c73b f324 ea3e 10f5 f93e
00000150: 7d67 dd3e 85bb 243e 3251 ac3e 0409 2b3f
00000160: 3a56 22bf 3dd4 44be 597a 203f bcc7 60bd
00000170: 5ed5 be3e b4a8 223f 3519 0abf 3224 f13d
00000180: e419 24be 9eef c73e 046a 3cbe 8c95 3bbe
00000190: 6833 0b3e 50d3 1fbe 4fdf a43e 14db 113f
000001a0: 7d66 0b3f 0ffd 3d3e e984 df3e b494 273f
000001b0: 7f4f 16bf 2bbf 35bd fed6 263f 7286 03be
000001c0: d8c3 373f e651 063f af2f bcbe 1fda 94be
000001d0: 70ec 0a3c 4165 2f3f ab52 1cbe de74 4fbc
000001e0: fc56 5b3e cc01 3d3e 37be d43e 8ddc ae3e
000001f0: 9421 f03e 9ac3 a9bd 1ffa 013f fbd4 143f
00000200: 16ba 24bf 2fc6 bebd ae11 c03e 0d2b b3bd
00000210: cd27 da3e 74e3 923e 10f7 c6be c6dd 28be
00000220: 03c4 86bc 12e8 e23e 4f1c 433d 5d58 603e
00000230: 5559 57be 2be7 38be de6f cbbd 47b9 9cbd
00000240: c9d1 213d aae2 14be f877 efbd 51a9 51bd
00000250: 00b1 b1bb 9017 55bb 8251 58be d9d6 4dbe
00000260: 088c 173e 3409 213e cfa9 533e 9859 db3c
00000270: 9665 1fbe 8fad 3b3e 872f 14be f926 063e
00000280: b27f b83e 97ab 113f 8f4e 8fbe 7e8f 323d
00000290: 233e 49be f00f f03d bb8c cb3d d4eb 043d
000002a0: 6e1d 1a3f e014 4abe fe44 523c 3119 643e
000002b0: bce3 cebd fccf f7be 3f92 063f c788 2d3f
000002c0: f50e e83b d23d b9be 41fb 2dbe 5459 60bd
000002d0: aa76 113f 00e0 1d3f 97e9 14bf 43ce 3cbe
000002e0: 6afb c8be 9189 e0bd a82e eebd 61a0 17bf
000002f0: 45f3 be3e b066 483e 0f04 fdbe 09e5 f33d
00000300: 9179 d8be 411d 34bf 56d5 123f 05e0 3a3f
00000310: 1dcb bd3d cb3f 1ebf e261 21bd 4e8b 5bbe
00000320: c581 c93e 5395 993e dab7 043f 2514 203f
00000330: a1b2 f53e 31ec 80bd 1319 f73e 3d98 f43e
00000340: 97cf 34bf 9363 e63d ec89 cb3e ab95 843c
00000350: 873e 1a3f 739e ed3e 14e9 3cbf 44d1 793d
00000360: cd3c 873d 8ddd 1c3f 2e79 8fbd af7d 28be
00000370: ef51 b4bd 1157 a0bd ff39 983d 184c 1fbd
00000380: c3f2 bbbd 31bc 3dbe df7b 11be 8607 05be
00000390: efcc 88bd ad16 3b3d 3d1b 14be 83c9 3ebe
000003a0: 5f10 3a3e db1b 133c cb11 4bbe e9ca 213c
000003b0: 936e e53c aecf c93d a1b3 7e3d f1b9 0dbe
000003c0: 73a4 4d3e ebda 283f b072 00bf dddf 2abf
000003d0: db2e 2abf f89d 143e 1417 223d bba3 20bf
000003e0: 7ca1 f63e 1a75 83bd 21aa 2cbf b38a 3f3e
000003f0: 0d56 f3be 5a5d 06bf ee89 093f 2b76 273f

fc2.bias f4 [15]
0.122994855 -0.19513658 -0.08637666 -0.11674324 0.2723582 0.16598533 0.18982787 -0.12923293
0.5068225 0.38286757 0.47585073 -0.057250228 0.3285679 -0.107021675 0.030954504
00000000: bae4 fb3d e2d1 47be 3fe6 b0bd 1417 efbd
00000010: 8972 8b3e 0ff8 293e 3d62 423e a355 04be
00000020: 1fbf 013f 3807 c43e b5a2 f33e 377f 6abd
00000030: 0d3a a83e 2e2e dbbd 4d94 fd3c

fc3.weight f4 [10, 15]
0.54920805 0.02855424 -0.2339044 0.11770277 -0.4813198 -0.49858063 -0.394052 0.119240485
0.3116992 0.37538248 -0.5648178 -0.14796913 0.56965685 -0.17737456 0.20004506 0.4167611
0.14681695 0.18993446 0.02214846 -0.34321442 -0.57016045 -0.18368316 -0.12591475 0.19854678
0.6629995 -0.5416038 -0.08984221 0.36807254 -0.10861049 0.25510746 0.31561464 0.079392865
0.008078287 0.06394253 0.17656212 0.23476289 0.42663923 -0.093289316 0.45222118 0.56149143
0.34918785 -0.12468705 0.14958878 -0.20676218 -0.21129578 0.47025505 -0.19282304 0.048285447
-0.14204006 -0.41404974 -0.64880127 -0.57226145 -0.14496048 0.4954987 0.6854444 -0.48846823
-0.057890102 0.71912575 0.25299427 -0.16196734 0.36674258 -0.057435855 -0.06637702 -0.054552782
0.56693304 0.45716256 0.48765394 -0.100131586 0.23705691 -0.56186384 0.39394182 -0.2455806
-0.48286486 0.116977446 -0.19576128 0.24017021 -0.032671396 -0.06807197 0.25181246 -0.48623583
-0.7262486 -0.3840303 -0.2545194 0.41368532 0.56354064 -0.28748676 -0.12076876 0.5973588
0.0050208317 0.08210012 0.342196 0.17047568 -0.24295403 -0.15786308 0.45084536 0.3713469
0.43272007 -0.23894455 -0.23508039 -0.32161278 0.45443043 -0.106201775 -0.5113779 -0.045792516
0.14181322 -0.10210053 -0.19822146 -0.23575918 0.17891628 -0.09925526 -0.2420165 -0.11397747
-0.20502378 -0.19146504 -0.03145095 0.08114589 0.047292802 -0.23918146 0.19501369 0.044316467
-0.15223323 0.036510304 0.15742917 -0.19863024 -0.059671942 -0.07139205 -0.15589754 -0.25363103
0.008293187 0.06407927 -0.2067589 -0.024745991 0.14042702 0.0713262 0.0938491 0.033192057
0.23629522 -0.20732732 0.0160948 0.14314105 0.0021796734 -0.2436196 -0.16555712 -0.21888551
-0.326227 0.01919101 -0.25245607 -0.29801735 -0.16767325 -0.17678945
00000000: e698 0c3f 95ea e93c a384 6fbe 260e f13d
00000010: 8c6f f6be f645 ffbe 2fc1 c9be 5b34 f43d
00000020: 0a97 9f3e 2232 c03e e697 10bf 3885 17be
00000030: 08d5 113f ada1 35be 9dd8 4c3e b661 d53e
00000040: 2f57 163e 2e7e 423e b070 b53c cdb9 afbe
00000050: 09f6 11bf 7017 3cbe ccef 00be d94f 4b3e
00000060: 56ba 293f 8ca6 0abf 31ff b7bd 0174 bc3e
00000070: 2d6f debd 729d 823e 3e98 a13e ba98 a23d
00000080: cb5a 043c 4df4 823d b3cc 343e af65 703e
00000090: 7570 da3e 780e bfbd 8989 e73e e7bd 0f3f
000000a0: c0c8 b23e ed5b ffbd cd2d 193e 77b9 53be
000000b0: ec5d 58be 45c5 f03e 6773 45be f6c6 453d
000000c0: f372 11be 54fe d3be d717 26bf ba7f 12bf
000000d0: 8570 14be 01b2 fd3e 4979 2f3f 8218 fabe
000000e0: 2c1e 6dbd a018 383f 7788 813e c4da 25be
000000f0: afc5 bb3e dc41 6bbd adf0 87bd bd72 5fbd
00000100: 8622 113f 3611 ea3e c7ad f93e ca11 cdbd
00000110: 0cbf 723e 4fd6 0fbf beb2 c93e 7b79 7bbe
00000120: 103a f7be df91 ef3d a575 48be 2eef 753e
00000130: 71d2 05bd 5169 8bbd 90ed 803e e7f3 f8be
00000140: 6eeb 39bf 9f9f c4be 5e50 82be 90ce d33e
00000150: 3344 103f 7731 93be 9d55 f7bd 82ec 183f
00000160: ca85 a43b 1c24 a83d 5034 af3e 2d91 2e3e
00000170: f1c8 78be dca6 21be 34d5 e63e 2e21 be3e
00000180: 7c8d dd3e e1ad 74be eab8 70be 6eaa a4be
00000190: 1bab e83e 5180 d9bd a9e9 02bf ef90 3bbd
000001a0: 7c37 113e 151a d1bd 91fa 4abe db6a 71be
000001b0: d435 373e 5746 cbbd 2cd3 77be 056d e9bd
000001c0: c1f1 51be 690f 44be b6d2 00bd d12f a63d
000001d0: 19b6 413d fceb 74be abb1 473e 2f85 353d
000001e0: 07e3 1bbe d48b 153d 1d35 213e ba65 4bbe
000001f0: 916a 74bd ff35 92bd 9ba3 1fbe eddb 81be
00000200: 26e0 073c fe3b 833d 9bb8 53be 1bb8 cabc
00000210: 1acc 0f3e 7913 923d f533 c03d 65f4 073d
00000220: 60f7 713e 9d4d 54be 3ed9 833c 9193 123e
00000230: dad8 0e3b 6b77 79be ce87 29be 8623 60be
00000240: 3a07 a7be 7736 9d3c ec41 81be bb95 98be
00000250: 89b2 2bbe 4b08 35be

fc3.bias f4 [10]
0.31346974 0.044368993 0.3415985 0.31487387 0.47775102 -0.10366972 0.27306452 -0.17702197
0.16529477 -0.040774357
00000000: 1b7f a03e 43bc 353d 00e6 ae3e 2637 a13e
00000010: c89b f43e ca50 d4bd 1dcf 8b3e 3f45 35be
00000020: 0843 293e 0303 27bd

fc4.weight f4 [5, 10]
-0.28406236 0.15423635 -0.12147825 0.26729575 -0.09623194 -0.0698673 0.16579849 -0.15147136
0.1399235 0.025342384 -0.6911826 -0.6287992 0.41258547 -0.8702941 0.41440144 -0.9807853
0.4127456 0.18140243 -0.21167156 0.002655204 -0.76269996 -0.84253585 0.0056855846 -0.4639094
0.5261449 -0.8836991 0.31457788 -0.21367282 -0.029529415 -0.02586985 0.33252764 0.124869235
-0.22062115 0.09769012 -0.107480496 -0.123265855 0.07914118 -0.2187702 -0.086094305 0.036620013
0.59137976 0.4552573 0.39872977 0.6244123 0.0606912 0.2751524 -0.12966968 0.027631018
-0.14051643 -0.33332798
00000000: 9f70 91be 22f0 1d3e 97c9 f8bd fdda 883e
00000010: 4015 c5bd 9616 8fbd 14c7 293e 4f1b 1bbe
00000020: 1b48 0f3e d59a cf3c 58f1 30bf fcf8 20bf
00000030: 673e d33e 98cb 5ebf 6d2c d43e bf14 7bbf
00000040: 6453 d33e 8fc1 393e 6ec0 58be ee02 2e3b
00000050: 4e40 43bf 6eb0 57bf 244e ba3b 8885 edbe
00000060: 6fb1 063f 1b3a 62bf 5a10 a13e 0ccd 5abe
00000070: ace7 f1bc 02ed d3bc 1041 aa3e 71bb ff3d
00000080: 83ea 61be c211 c83d bc1e dcbd cf72 fcbd
00000090: c514 a23d 4c05 60be 3652 b0bd defe 153d
000000a0: aa64 173f 7c17 e93e 4f26 cc3e 7cd9 1f3f
000000b0: 5697 783d c6e0 8c3e 21c8 04be 725a e23c
000000c0: 8ae3 0fbe f7a9 aabe

fc4.bias f4 [5]
-0.2957589 0.3251603 -0.061314728 -0.2603259 0.39207637
00000000: b66d 97be 697b a63e 2725 7bbd 7049 85be
00000010: 3cbe c83e

fc5.weight f4 [4, 5]
-0.30073377 0.060219176 -0.71907955 0.37225732 0.45604953 -0.22960062 0.75383544 0.80529153
-0.2657347 -0.4158968 0.29033235 -0.117286555 0.056638982 -0.14500248 -0.21512829 -0.17595725
-0.021350656 -0.105529375 -0.4150689 -0.40340036
00000000: c7f9 99be 62a8 763d 9915 38bf 8398 be3e
00000010: 537f e93e 6d1c 6bbe 5cfb 403f 9627 4e3f
00000020: 610e 88be 6df0 d4be 71a6 943e ef33 f0bd
00000030: 47fe 673d 887b 14be 974a 5cbe 232e 34be
00000040: 92e7 aebc c91f d8bd e983 d4be 7e8a cebe

fc5.bias f4 [4]
0.0699189 0.13869362 0.11288416 -0.5526268
00000000: a431 8f3d b305 0e3e cf2f e73d f378 0dbf
