Laboratorios/Lab1/checkpoints/modelo_epoch_20.pth (torch, 7848 bytes, 10 tensors)

fc1.weight f4 [20, 24]
000000 33 4b 2e 3d ac 6c 07 3c e2 1d b8 3c fc e8 b2 3c
       0.042552184 0.0082656555 0.022475187 0.021839611
000010 c9 b4 76 3c 6d 25 90 3c 2c 05 00 3c b9 e0 97 3b
       0.015057751 0.017595971 0.007813733 0.0046349433
000020 26 5e 52 3b 7c d4 cd 3c dd 29 c7 3c 74 68 26 bc
       0.0032099574 0.025125735 0.024311954 -0.0101567395
000030 df c2 41 bc a6 71 ce bc 10 d6 ba bc b4 37 81 bc
       -0.011826246 -0.025200676 -0.022807151 -0.015773632
000040 24 6a 66 3c a6 40 fb bc 80 3d 82 bc 04 1f e3 bb
       0.014063392 -0.030670475 -0.015898466 -0.0069311876
000050 b3 23 12 3d f2 9c 09 3d 8b 5e 5c 3c ad 0e e8 3c
       0.035678577 0.03359694 0.013450275 0.02832731
000060 88 66 9e 3c cf bb b9 3c 4f 33 31 3c b7 a6 63 3c
       0.019336 0.022672562 0.010815456 0.013894728
000070 a7 6f b1 3c ca 42 06 3c a5 28 fa 3c 4b 26 07 3d
       0.021659685 0.008194635 0.030536959 0.032995503
000080 64 ad eb 3b 34 ef 7d 3c 61 a3 a5 3c 53 27 92 3c
       0.0071923006 0.015498925 0.020219507 0.017841017
000090 b3 ab 09 3d ff 35 89 3c 34 95 af 3c 82 a1 f1 3c
       0.03361101 0.01674938 0.02143345 0.029495958
0000a0 7c e7 fe 3c 41 62 8f 3c 61 49 4e 3d 09 dd 59 3b
       0.03111624 0.017502906 0.05036295 0.003324332
0000b0 b7 ab 8a 3c 8e 75 b2 bb 37 01 1d 3d 4d 32 29 3d
       0.016927583 -0.0054461425 0.038331237 0.041307736
0000c0 3a 2d 96 3c 94 a8 c3 3c 60 9b 84 3c fa 98 de 3c
       0.018332113 0.023884095 0.01618737 0.027172554
0000d0 0a db 4f 3c 05 0d 2c 3c 03 bd 21 bc 79 19 9b 3c
       0.0126865 0.010501151 -0.009871724 0.018933045
0000e0 16 af a8 bb b0 53 48 38 e1 23 b2 ba 98 8b fd bc
       -0.005147825 4.7761656e-05 -0.0013591015 -0.030950353
0000f0 ca b5 ec bc c1 a4 a4 bc 9c 07 ab bc 64 d8 4c bc
       -0.028895278 -0.020098092 -0.020877652 -0.012502763
000100 69 87 e3 3c 25 97 11 bd 5c 2f 00 bd a2 9d 80 39
       0.02777453 -0.035544533 -0.031295165 0.00024531508
000110 8a 96 32 3c a6 2a b5 3c ff 3e b6 3c 97 55 ab 3c
       0.010900149 0.022115063 0.022246836 0.020914836
000120 8a e6 1c 3c 9f 3e 07 3c 4e d5 c5 3b 27 fe 3c 3c
       0.009576449 0.008254676 0.006037391 0.011535204
000130 ec b8 e9 3c b6 d7 2c 3c 36 8e 8b 3b 0f c0 d9 3c
       0.02853056 0.010549476 0.004258896 0.026580838
000140 95 ba ea 3c 5b a7 8c 3c 9a 39 78 3c 8b d0 3a bc
       0.028653422 0.017169645 0.015150452 -0.01140226
000150 85 72 8a bc e8 96 35 bc bf 3f 51 bc 66 7d 51 3c
       -0.01690031 -0.011083342 -0.012771546 0.012786245
000160 2d 5e 0c 3d 55 c0 08 bd cb 65 f7 bb 24 a6 3e bc
       0.0342695 -0.033386547 -0.0075499765 -0.011636291
000170 09 2c 39 3d a2 cb 00 3c 46 2c 0e 3c 9e af a6 3c
       0.04520801 0.00786105 0.008677548 0.020347413
000180 6c bf f2 3c d0 c0 dd 3c 35 25 d0 3b 9a f2 df b9
       0.029632293 0.02706948 0.0063520917 -0.00042714627
000190 a7 fa 8c bb 5f 43 a3 3c d3 92 5d bc d4 11 89 3c
       -0.004302341 0.019929586 -0.013523775 0.016732134
0001a0 c7 22 25 bd f1 76 8b ba c0 d4 ad b9 15 83 7e bc
       -0.04031637 -0.0010640306 -0.00033155642 -0.015534182
0001b0 ae c2 be 3a 79 7d 57 bc ac fc b4 bc 2d b9 d6 ba
       0.0014553869 -0.013152474 -0.02209314 -0.0016382091
0001c0 2a d7 83 3c 6b b8 29 3c d7 28 49 3c d3 0b dd 3c
       0.01609381 0.01035891 0.012277803 0.026983177
0001d0 3a 1a 0a 3c f6 d1 3b 3a 1a 15 b3 3c 96 4b 21 3c
       0.008429104 0.00071647705 0.021860648 0.009844681
0001e0 75 9f ea ba 85 15 67 39 23 82 66 bc 24 ab c3 3b
       -0.0017900305 0.00022037893 -0.014069113 0.0059713293
0001f0 29 b8 bc bb b1 6a 31 bc 2a f3 39 bc b3 0e 96 bb
       -0.0057592583 -0.01082866 -0.011349479 -0.004579389
000200 94 b0 ee bc 68 c7 01 bc f0 11 5c bc 0e e5 84 bc
       -0.029136933 -0.007921077 -0.013432011 -0.016222503
000210 c3 7c 8a 3b 1a e5 85 bb 78 09 0c 3c eb 96 0c 3c
       0.0042262985 -0.004086149 0.008547179 0.0085809035
000220 b8 6c 50 bc 92 ec 29 3c 78 5a c3 bc 00 9d 28 bc
       -0.012721233 0.010371344 -0.02384685 -0.010291338
000230 08 79 39 3c 80 06 96 bc 7f a4 84 bc ec b4 4a ba
       0.01132036 -0.018313646 -0.01619172 -0.0007732648
000240 df 9f ef 3c 58 f4 a9 3c 13 c1 3c 3c 56 63 12 3d
       0.029251037 0.020746395 0.011520642 0.035739265
000250 fe e7 f9 bb ae 31 53 bb 1c d2 37 3c dd 69 4c bb
       -0.0076265326 -0.0032225656 0.011219528 -0.003119103
000260 1f 54 1f bb 1f 44 c4 3a 47 e3 78 bc 81 16 46 bc
       -0.0024311615 0.0014973915 -0.015190906 -0.012090326
000270 87 4e 37 bb 64 39 ee bb 52 3f 13 bc 9e 3a 00 3b
       -0.002797039 -0.007270025 -0.008987265 0.0019566189
000280 a8 41 d0 3b b4 2e 5f bc 38 ca 90 bc 2f ba 86 bc
       0.006355483 -0.013621975 -0.01767455 -0.016446201
000290 36 41 a8 3c b8 9a af 3c cf 5c 28 3d a5 14 5b 3c
       0.020538907 0.02143608 0.041104134 0.013371621
0002a0 7b 03 51 bc 26 81 1e 3c c8 18 b2 3c 6f 3c 0a 3c
       -0.012757177 0.009674346 0.021740332 0.00843726
0002b0 88 4a 91 3c ba 43 c2 3c ba 97 d1 3b ff d4 81 3c
       0.017735735 0.023713935 0.006396261 0.015848635
0002c0 f9 88 b0 3b 08 2d c6 3c 65 da e5 3b 07 1d 2f bc
       0.005387422 0.024191394 0.00701456 -0.010688073
0002d0 13 32 90 bc 4b a0 4f ba 6a 7a ca bc 97 28 c3 ba
       -0.017602002 -0.0007920309 -0.024716575 -0.0014889416
0002e0 cc f8 b9 3c a8 3d a6 bb 00 39 65 bc db 11 24 bc
       0.022701643 -0.005073268 -0.013990641 -0.010014023
0002f0 40 04 92 3b 1c 0c 34 3c fa 66 0d 3d a3 1d bb 3c
       0.004456073 0.010989215 0.034522034 0.02284128
000300 ce f9 30 3b 3a 63 d0 bc c3 52 70 3c e9 7f 3d 3c
       0.0027004364 -0.02543794 0.014668169 0.011566141
000310 dd 4e 21 bc 3a 8f e3 bb d2 08 e2 bb 80 65 0d bc
       -0.009845463 -0.006944564 -0.006898024 -0.0086301565
000320 85 8e f2 3c e5 6e b2 bb f2 0b 98 b9 60 ca c8 3b
       0.029608974 -0.0054453486 -0.000290006 0.0061276406
000330 5e 4f 84 3c 33 0f 2d 3c 91 21 97 3c 25 03 3d bc
       0.016151126 0.010562706 0.018448623 -0.011536394
000340 35 9c 8a bb 63 02 25 bc d3 ae e3 3c c4 fe 0c 3d
       -0.004230047 -0.01007137 0.027793324 0.03442265
000350 a5 17 0e ba bc ee 0f bc 43 dc c1 bb 17 9a 3a bb
       -0.00054203934 -0.008784946 -0.00591615 -0.0028473192
000360 3c e0 49 3b b9 c8 da bb ae 98 83 bb d1 6e 13 bc
       0.003080382 -0.00667676 -0.0040160036 -0.008998589
000370 0a 49 67 3b 1f 88 17 3b fe 57 5c bc 0e 45 07 bb
       0.0035291337 0.0023121906 -0.013448713 -0.0020640525
000380 0f 1b 1a bb ff 25 ad bc cb 2d 00 bc 41 4e 3e bb
       -0.0023514663 -0.021136282 -0.007823418 -0.0029038342
000390 42 00 01 bb f6 29 ad ba 1a 13 26 bb d9 a3 99 bc
       -0.0019683992 -0.0013211358 -0.0025340975 -0.018754886
0003a0 46 56 94 3b 37 5a 55 3b bf e0 a5 bb 84 85 ce bb
       0.004526886 0.0032554993 -0.005062192 -0.0063025374
0003b0 da 6e ea bc e4 5c 64 bb 51 52 b0 bb 79 d8 3e bc
       -0.028617311 -0.0034845406 -0.0053809066 -0.011648291
0003c0 f1 6c 91 3c 04 36 19 3c ed 1d 73 3c 9a 32 44 3c
       0.017752143 0.009351257 0.014838678 0.011974955
0003d0 d1 3f 45 3b 12 55 41 3c 7e 3a 2d 3b b8 44 19 bb
       0.0030097852 0.0118000675 0.002643257 -0.0023386907
0003e0 71 68 64 bc 91 d9 c5 3c e9 37 a6 3c b9 3d 54 bd
       -0.013940916 0.024151595 0.020290332 -0.051816676
0003f0 c4 b6 26 bd cf 01 ce bc 22 21 24 3c 78 59 57 3c
       -0.040701643 -0.025147347 0.010017665 0.01314389

fc1.bias f4 [20]
000000 89 8d a4 3c b4 c1 a2 3c c5 98 93 3c de 43 73 3c
       0.02008702 0.019867755 0.018017182 0.014847724
000010 b4 fe 3c 3c 48 b4 0e bc 6e 02 c7 3b 46 97 99 3c
       0.011535335 -0.008709975 0.0060732877 0.01874889
000020 48 6e f7 3a 3e fc 99 bb 1a ab 2a 3c 3e 5c 81 bb
       0.0018877471 -0.004699259 0.01041677 -0.0039477637
000030 4c fa 9e 3c 72 bf 3f 3c cb 90 24 3c 59 9a bb 3b
       0.01940646 0.011703359 0.010044287 0.005725187
000040 00 00 00 00 a5 75 be 3b 8e 75 da bb d1 dc 10 bc
       0.0 0.005812364 -0.0066668456 -0.008841709

fc2.weight f4 [15, 20]
000000 42 e5 52 3e 57 7e 62 3e 65 72 18 3e 4f 67 ed bd
       0.20595267 0.22118507 0.14887388 -0.1159197
000010 c3 fd ea bd a1 63 23 3e 12 ca 98 3d c7 65 44 be
       -0.114741825 0.15955974 0.07460417 -0.1917945
000020 d0 61 c5 bd f8 5c d9 bd a9 a3 b5 3d 24 2d 0e 3e
       -0.09637797 -0.106134355 0.08869106 0.13884407
000030 72 4a 2e bd 79 14 3f 3e ff eb bb 3c 61 10 89 bb
       -0.042551465 0.18660153 0.02293968 -0.0041828607
000040 4a f1 16 3e 89 a4 b8 bd 5b d9 d4 3d b2 c6 70 bd
       0.14740482 -0.090157576 0.1039302 -0.05878324
000050 00 fb d7 3d b7 69 9c bc ea 25 55 be d7 89 81 3d
       0.10545921 -0.019093378 -0.20815244 0.06325119
000060 35 e0 f4 bd ad 15 4a 3e dd 7c 15 be 13 69 16 3e
       -0.119568266 0.19734831 -0.14598413 0.1468852
000070 5c 2a ce bc 7d 8d 11 be 81 f1 cc 3d 90 e9 59 bd
       -0.025166683 -0.1421413 0.10007001 -0.05320126
000080 f5 94 0d bd e9 7c 2a 3e db be 9c bc 18 12 8e ba
       -0.034565885 0.16649212 -0.019133976 -0.0010839133
000090 85 fa eb bd 7e a2 bf 3c 94 f3 9a 3d 3b 4e 3c 3e
       -0.11522392 0.023392912 0.0756599 0.18389218
0000a0 3a e4 2c 3d 1a 78 64 bd 41 89 de bd bc 90 f7 bd
       0.04220984 -0.0557786 -0.10866023 -0.12088153
0000b0 c5 9d 52 be 9c 3f 28 3e 61 0d 42 3d 14 f5 2b bd
       -0.20567997 0.16430515 0.04737604 -0.04198177
0000c0 7d b9 64 be 33 ab 3b 3e 6c 88 e2 bd 72 ee 64 3d
       -0.22336383 0.18327026 -0.11061177 0.05589146
0000d0 35 cf 06 be 98 33 be 3d 11 12 6b 3d b7 bc 42 3d
       -0.1316498 0.092871845 0.057390276 0.047543254
0000e0 a7 ac 09 3e f3 8f 41 3e 2f 4a c0 3d a2 69 21 3e
       0.13444768 0.18902569 0.093891494 0.15762952
0000f0 41 01 ea bd 16 82 8a 3d 8a ba bd bd 7d 92 32 3e
       -0.114260204 0.06763093 -0.09264095 0.17438693
000100 d5 06 28 be 47 ec 29 be 68 e3 36 3e fb c0 9c 3c
       -0.16408856 -0.16594039 0.17860186 0.019134989
000110 a4 f8 84 bd 89 5d be bb 69 db 87 bc d7 d4 61 bd
       -0.06492737 -0.00580949 -0.016584115 -0.05513462
000120 35 98 4e bd 93 bd dc 3d ab 79 20 be 2e 71 d9 bc
       -0.050438125 0.10778346 -0.15671413 -0.026543226
000130 79 02 a7 bd b2 b9 27 be 41 4d 27 bd 3d a0 b5 bd
       -0.081547685 -0.16379431 -0.04084516 -0.08868454
000140 ac 86 e3 bd 06 67 bd 3b 89 43 1a bc f4 0c 03 3d
       -0.11109671 0.0057801036 -0.009415516 0.031994775
000150 a6 c5 90 bd 94 f7 23 3e 60 bd 26 bd d4 d5 4d 3e
       -0.070689484 0.16012412 -0.040707946 0.201011
000160 3a 20 a3 bd 4b 0d 45 be fb f4 0e 3e 18 c8 60 bd
       -0.07965131 -0.19243352 0.1396064 -0.054878324
000170 1a 61 ac bd cf 0c dd 3d 91 90 f4 bc 50 9b 75 3e
       -0.08416958 0.10793459 -0.02985409 0.23985028
000180 e4 19 24 be 07 7a ef bd 57 47 3d be 38 a5 3c be
       -0.16025501 -0.11693197 -0.18484245 -0.18422401
000190 7d 59 e6 3c 6b 34 7d 3c 18 03 33 be ef a7 b2 3d
       0.028118843 0.015454392 -0.17481649 0.08723437
0001a0 ac bf 4b 3c 85 40 3d 3e 0c 09 96 3d e3 aa 22 3e
       0.012435835 0.18481643 0.07325944 0.158855
0001b0 8d 71 12 bd 79 a5 35 bd b2 12 0f 3e a2 86 03 be
       -0.03575282 -0.04434726 0.13971975 -0.12844327
0001c0 e8 ba 6f 3e 87 e9 05 bd 26 0d 1b 3e a3 36 2f bd
       0.23411143 -0.032693412 0.15141734 -0.042776715
0001d0 70 ec 0a 3c 95 3c 17 3e f3 e4 1c be b4 7a 4f bc
       0.008479223 0.14769204 -0.15321712 -0.012663532
0001e0 a0 e0 dc bc 12 f3 5b 3d 85 e5 92 3c 88 ee 74 bd
       -0.026962578 0.053698607 0.017931709 -0.059797794
0001f0 1a 91 0e 3d 9a c3 a9 bd ab bd 25 3e 8b e6 36 3e
       0.03480635 -0.08289261 0.16185634 0.17861383
000200 3b 60 2a be 2f c6 be bd 9f 1f 4c bd 0d 2b b3 bd
       -0.16638272 -0.09315144 -0.049834844 -0.08748446
000210 1e ab e7 3c 5a 76 2c be 05 8e c8 3c d9 bd 64 be
       0.028279837 -0.16842023 0.024481783 -0.22338046
000220 03 c4 86 bc 25 8b 0d 3c 4f 1c 43 3d 5d 58 60 3e
       -0.016450888 0.008639132 0.04763442 0.21908708
000230 55 59 57 be 2b e7 38 be de 6f cb bd 47 b9 9c bd
       -0.21030171 -0.18056934 -0.09933446 -0.07652526
000240 c9 d1 21 3d aa e2 14 be f8 77 ef bd 51 a9 51 bd
       0.039506707 -0.1453959 -0.11692804 -0.051186863
000250 00 b1 b1 bb 90 17 55 bb 82 51 58 be d9 d6 4d be
       -0.0054227114 -0.0032515265 -0.21124843 -0.20101489
000260 08 8c 17 3e 34 09 21 3e cf a9 53 3e 98 59 db 3c
       0.14799511 0.15726167 0.20670246 0.02677612
000270 96 65 1f be 8f ad 3b 3e 87 2f 14 be f9 26 06 3e
       -0.15566096 0.18327926 -0.14471255 0.13100804
000280 f2 c0 4b bd 43 dc 9a 3d d5 7c 67 be 23 be a0 bd
       -0.049744554 0.07561543 -0.22606213 -0.07848766
000290 b0 b1 bd bd 8c a9 f1 3d db e0 24 be f4 c2 09 3e
       -0.09262407 0.117999166 -0.161014 0.13453275
0002a0 7f ae 4e 3d 34 2e 4a be 56 83 40 3e 60 19 64 3e
       0.05045938 -0.19744188 0.188001 0.22275305
0002b0 98 93 22 be b3 c2 3f be f9 6a 1a bc b9 a6 18 3e
       -0.15876615 -0.18726616 -0.009424918 0.1490735
0002c0 f5 0e e8 3b e9 e7 00 be 70 0a 2d be f1 54 64 bd
       0.007081861 -0.12588467 -0.16898513 -0.05574507
0002d0 5b 8b 30 3e c4 91 ed 3d db 0e 46 be e0 04 f8 3d
       0.1724066 0.11600068 -0.19341604 0.12110305
0002e0 e6 a7 fb 3c 59 97 de bd 8a cf 5f be b9 69 6e be
       0.030719709 -0.10868711 -0.21856514 -0.23282517
0002f0 a1 38 29 be 9b 28 48 3e 4c 83 c7 bd 20 e6 f3 3d
       -0.16525508 0.1954674 -0.0974184 0.11909127
000300 fa 4e 19 bd 19 04 4a be a7 0c 66 3d a0 1d 41 3e
       -0.037428834 -0.19728126 0.05616441 0.18858957
000310 1d cb bd 3d 31 9f 3d be 09 07 1d bd 68 a9 5c be
       0.092672564 -0.18517758 -0.038336787 -0.21548998
000320 f7 bc 1e 3e 26 9d 6b 3e 42 b8 71 3d 93 e2 28 3e
       0.15501772 0.23009166 0.059013613 0.16492681
000330 d8 c2 ef bc 68 ff 82 bd d6 81 b9 3d 60 ca 66 3c
       -0.029267713 -0.06396371 0.09057967 0.014086336
000340 92 56 1e be 31 76 e6 3d 09 38 a1 bd d4 8c 84 3c
       -0.15462711 0.11253012 -0.07872016 0.016180433
000350 8f 71 15 3e ad 2d 43 bd e4 75 69 be e2 38 af 3d
       0.145941 -0.04765098 -0.22798878 0.085557714
000360 cd 3c 87 3d a4 e4 e3 3d 68 a7 91 bd 69 55 29 be
       0.06603394 0.11127594 -0.07112008 -0.16536488
000370 ef 51 b4 bd 11 57 a0 bd ff 39 98 3d 18 4c 1f bd
       -0.0880469 -0.078291066 0.07432937 -0.038890928
000380 c3 f2 bb bd 31 bc 3d be df 7b 11 be 86 07 05 be
       -0.091771625 -0.1852882 -0.1420741 -0.12991151
000390 ef cc 88 bd ad 16 3b 3d 3d 1b 14 be 83 c9 3e be
       -0.06679713 0.045675922 -0.14463516 -0.18631558
0003a0 5f 10 3a 3e db 1b 13 3c cb 11 4b be e9 ca 21 3c
       0.18170308 0.008978809 -0.19831006 0.009875038
0003b0 93 6e e5 3c ae cf c9 3d a1 b3 7e 3d f1 b9 0d be
       0.028006827 0.09854065 0.062183026 -0.13840462
0003c0 e6 ac 1c be 99 0a 45 3e 4b b4 0c bd 57 36 f0 bd
       -0.1530033 0.19242324 -0.03435163 -0.117291145
0003d0 21 fd d6 bd 6c a6 15 3e ac 51 37 3e 6b 5a 24 be
       -0.10497499 0.14614266 0.17902249 -0.16050117
0003e0 3f 13 1e bd 37 28 84 bd 22 53 58 be ae 8b 3f 3e
       -0.038592573 -0.06452983 -0.21125463 0.18705627
0003f0 8e ba b8 3c a5 a0 86 bc 1a b1 31 3d 82 1f 0d 3e
       0.022549894 -0.016434023 0.043381788 0.1378155

fc2.bias f4 [15]
000000 35 88 3c be e2 d1 47 be 3f e6 b0 bd 14 17 ef bd
       -0.18411334 -0.19513658 -0.08637666 -0.11674324
000010 78 6c 81 3d fe 41 91 3b a8 bd 5c bd a3 55 04 be
       0.06319517 0.0044329157 -0.053891808 -0.12923293
000020 db 52 2b 3e 02 66 c4 3d 47 b9 75 3e 37 7f 6a bd
       0.16730826 0.09589769 0.23996459 -0.057250228
000030 0b 32 0a 3e 6b e6 94 bd 72 72 8d 3d
       0.13495652 -0.07270511 0.06906594

fc3.weight f4 [10, 15]
000000 75 01 38 3e 95 ea e9 3c a3 84 6f be 26 0e f1 3d
       0.17969306 0.02855424 -0.2339044 0.11770277
000010 30 73 94 3c fa 0f 7b 3d 22 15 8d 3d 5b 34 f4 3d
       0.018121332 0.061294533 0.068887964 0.119240485
000020 61 1e 0e be 62 94 19 be a3 1b 23 be 38 85 17 be
       -0.13878776 -0.1499801 -0.15928511 -0.14796913
000030 ad 1a 3d 3d c5 b8 3b be cb 99 5f 3e 9e be 65 3e
       0.046168018 -0.18332203 0.21836011 0.22435996
000040 2f 57 16 3e 2e 7e 42 3e b0 70 b5 3c 6a 7e 75 3d
       0.14681695 0.18993446 0.02214846 0.05993501
000050 c1 e5 d1 bd 8f 2f 61 3e cc ef 00 be 1d e3 de bd
       -0.102489 0.21990798 -0.12591475 -0.10883162
000060 3a 62 82 3e e1 c1 4f be 31 ff b7 bd ed 88 bc bd
       0.25465566 -0.20288803 -0.08984221 -0.09205804
000070 64 a3 e3 bd 72 9d 82 3e 0e a4 22 bd ba 98 a2 3d
       -0.11115149 0.25510746 -0.039707236 0.079392865
000080 cb 5a 04 3c 4d f4 82 3d a4 12 07 be 28 fc 8d bd
       0.008078287 0.06394253 -0.13190705 -0.069328606
000090 bc bd 12 3e 78 0e bf bd 8b f2 ed 3d a6 78 4d 3e
       0.1433019 -0.093289316 0.11618527 0.20065555
0000a0 80 cf 3b 3d ed 5b ff bd 5d d9 28 be b3 cb 5a be
       0.045852184 -0.12468705 -0.16489168 -0.21366768
0000b0 3b d6 5a be 95 f7 cc 3d 67 73 45 be f6 c6 45 3d
       -0.21370785 0.1000816 -0.19282304 0.048285447
0000c0 f3 72 11 be 3c 88 da bb 8e ad 2b be a5 48 31 be
       -0.14204006 -0.0066690724 -0.16765425 -0.17312868
0000d0 85 70 14 be c0 ed 3b 3d 55 7a 26 3e 6a a6 14 be
       -0.14496048 0.045881033 0.16257603 -0.14516607
0000e0 2c 1e 6d bd c8 9c 45 3e 0d 85 7d 3e ed 24 1e be
       -0.057890102 0.19298089 0.24757786 -0.15443774
0000f0 3d fd 89 3d dc 41 6b bd ad f0 87 bd bd 72 5f bd
       0.067377545 -0.057435855 -0.06637702 -0.054552782
000100 7b 41 10 3e e3 94 6e 3c f9 15 da 3d ca 11 cd bd
       0.14087479 0.014561865 0.10648722 -0.100131586
000110 9e 7b 20 3e c6 b3 23 be 12 cb f9 3b 7b 79 7b be
       0.15672156 -0.15986547 0.007623085 -0.2455806
000120 19 b0 bb 3d 5a 13 eb 3d e9 15 5b be 56 84 3b 3b
       0.09164447 0.114783004 -0.21395077 0.0028612814
000130 71 d2 05 bd 51 69 8b bd 90 ed 80 3e 8c 18 cc bc
       -0.032671396 -0.06807197 0.25181246 -0.024914049
000140 7e ab 42 be 26 ca bf 3d 5e 50 82 be 50 37 8d 3d
       -0.19010732 0.09364729 -0.2545194 0.06895316
000150 f5 6e e6 3d 6a 99 07 3e 9d 55 f7 bd 3d 14 8f 3d
       0.11251632 0.13242117 -0.12076876 0.06986282
000160 28 61 ca 3b 3e e1 b0 3d 95 9e ea 3d 2d 91 2e 3e
       0.0061761327 0.086367115 0.11456028 0.17047568
000170 f1 c8 78 be dc a6 21 be 08 d4 8c 3d f5 1d 07 bd
       -0.24295403 -0.15786308 0.06876379 -0.032987554
000180 91 2d b3 3d e1 ad 74 be 49 64 25 be 3b b7 74 3d
       0.087489255 -0.23894455 -0.16151537 0.059745055
000190 af 3a f2 3d 51 80 d9 bd 86 07 d8 3c 70 f4 2e bd
       0.11827599 -0.106201775 0.026370775 -0.042713583
0001a0 72 3f 00 3e 15 1a d1 bd 91 fa 4a be db 6a 71 be
       0.12524202 -0.10210053 -0.19822146 -0.23575918
0001b0 d4 35 37 3e 57 46 cb bd 2c d3 77 be 05 6d e9 bd
       0.17891628 -0.09925526 -0.2420165 -0.11397747
0001c0 c1 f1 51 be 69 0f 44 be b6 d2 00 bd d1 2f a6 3d
       -0.20502378 -0.19146504 -0.03145095 0.08114589
0001d0 19 b6 41 3d fc eb 74 be ab b1 47 3e 2f 85 35 3d
       0.047292802 -0.23918146 0.19501369 0.044316467
0001e0 8a 3b 01 3c d4 8b 15 3d 1d 35 21 3e ba 65 4b be
       0.00788773 0.036510304 0.15742917 -0.19863024
0001f0 7c 46 79 3d 1a e5 61 3d e3 91 aa bc ed db 81 be
       0.060858235 0.05515013 -0.020821517 -0.25363103
000200 86 b2 05 3e ea c4 47 3e 8c 82 cb bd 1b b8 ca bc
       0.13056383 0.1950871 -0.09937009 -0.024745991
000210 d4 69 7d 3e dd aa 9a 3d ad 28 ca 3d a2 8f 0d 3e
       0.24747401 0.07552121 0.098710395 0.13824323
000220 60 f7 71 3e 9d 4d 54 be 3e d9 83 3c 3a 61 56 3e
       0.23629522 -0.20732732 0.0160948 0.20935526
000230 55 fe 7e 3d 40 22 10 be ce 87 29 be ab c3 22 be
       0.06225427 -0.14075565 -0.16555712 -0.15894954
000240 c3 da 83 be 6b 87 ac 3d ec 41 81 be 28 63 7c be
       -0.2575284 0.084242664 -0.25245607 -0.246472
000250 89 b2 2b be 3d 33 50 be
       -0.16767325 -0.20332046

fc3.bias f4 [10]
000000 3f d0 22 3e e6 4b 17 bc 03 bd b2 3d 75 3e 1a 3e
       0.15899752 -0.009234404 0.087274574 0.15062888
000010 53 54 65 3e 4e b4 d0 bd 21 64 b0 3d 3f 45 35 be
       0.22395448 -0.101906404 0.08612848 -0.17702197
000020 ad 1d 79 3e 9f a5 ba 3b
       0.24327727 0.005696013

fc4.weight f4 [5, 10]
000000 dd e9 81 be 8f ce 3d 3e 9d fe 9c bd 40 20 98 3e
       -0.25373736 0.18535827 -0.07665751 0.29712105
000010 5f d2 6b bd e4 22 15 bd ef ef 4f 3e 4f 1b 1b be
       -0.057573672 -0.036410227 0.20306371 -0.15147136
000020 5a cf 22 3e dc 5d 04 3d 4f c0 d8 bd 66 2d cb 3d
       0.15899411 0.032316074 -0.10583555 0.099207684
000030 9b c5 c4 3d aa 9a 8d be 16 92 9d 3d d6 05 52 be
       0.09608003 -0.27657062 0.07693879 -0.20510039
000040 c2 96 96 3d 8f c1 39 3e 66 f8 90 be b5 49 03 be
       0.073529735 0.18140243 -0.28314513 -0.12821086
000050 5e 30 4a be b1 cd 25 be d0 75 e1 bd f6 57 73 3d
       -0.19745013 -0.16191746 -0.11008799 0.059410058
000060 c3 cb 28 3e ef 7f 84 be 62 32 6f bd 0c cd 5a be
       0.16483979 -0.25878856 -0.05839766 -0.21367282
000070 ac e7 f1 bc 9f 41 42 bd 1d a6 9e 3e 83 d1 c3 3d
       -0.029529415 -0.047425862 0.3098611 0.095614456
000080 71 fc 6d be 84 08 9a 3d 53 ef b4 bd 95 5e 19 be
       -0.2324083 0.075211555 -0.0883471 -0.14977486
000090 bd 16 b9 3d 4c 05 60 be 37 c1 ae bd de fe 15 3d
       0.0903754 -0.2187702 -0.085329466 0.036620013
0000a0 45 1a 55 3e be 34 b3 3c ac 12 48 3d 13 05 47 3e
       0.20810802 0.021875735 0.048845932 0.1943553
0000b0 33 09 ea bd b0 1a 4f be 47 d6 6b be 72 5a e2 3c
       -0.11427536 -0.20225024 -0.23030959 0.027631018
0000c0 91 af 32 be ef dd 85 be
       -0.17449786 -0.26145884

fc4.bias f4 [5]
000000 c4 68 84 be 41 48 e7 3d fe 64 b4 bd d2 5d 85 be
       -0.2586118 0.11293078 -0.08808325 -0.26048142
000010 fe bf 5a 3e
       0.21362302

fc5.weight f4 [4, 5]
000000 8c d1 98 be a7 a2 bd 3d 10 d7 da bd bf 4a b6 3e
       -0.29847372 0.09259539 -0.10685551 0.35603902
000010 fe 25 7d 3d 68 6e 6d be fb e5 a2 3e ca 0a 65 3e
       0.06180381 -0.23186648 0.31816086 0.22367397
000020 a4 e6 87 be 8e 62 ca bd 49 9d 95 3e 18 03 3d 3e
       -0.26543152 -0.09882079 0.29221562 0.18458211
000030 46 3a c0 3e 5d df f8 bd db 93 8a 3d fd 6c 35 be
       0.3754446 -0.12151978 0.067664824 -0.17717357
000040 b6 a7 87 3e 31 7c bb 3d 03 74 d4 be e8 2f 1a be
       0.2649514 0.09154547 -0.4149476 -0.15057337

fc5.bias f4 [4]
000000 92 f9 bf bd 22 25 e3 3c 16 31 7c 3e f4 6a cb be
       -0.09373774 0.027727667 0.246281 -0.39730036
