Laboratorios/Lab1/checkpoints/modelo_epoch_300.pth (torch, 7862 bytes, 10 tensors)

fc1.weight f4 [20, 24]
0	0x3eb27558	0.3485515
1	0x3ea0c211	0.3139806
2	0x3ea4a067	0.32153627
3	0x3eb387f0	0.3506465
4	0x3ea70687	0.32622167
5	0x3eb1cfb0	0.34728765
6	0x3ea62206	0.32447833
7	0x3e92ec1c	0.28695762
8	0x3ea7fcb0	0.32809973
9	0x3eb4eeaa	0.35338336
10	0x3ec518c3	0.38495454
11	0x3ea23f12	0.31688744
12	0x3e66f8fe	0.2255592
13	0x3e2ba5f7	0.1676253
14	0xbda9c892	-0.08290209
15	0x3e1a9fd8	0.15100038
16	0x3e9b38ec	0.30316865
17	0x3e0a0515	0.13478501
18	0x3e25e723	0.16201453
19	0x3e0feee0	0.14055967
20	0x3e8505ab	0.25980887
21	0x3ed65468	0.41861272
22	0x3ea2d030	0.3179946
23	0x3e98f9cf	0.2987809
24	0x3eac0aa4	0.33601868
25	0x3eabea80	0.33577347
26	0x3e9b35f0	0.3031459
27	0x3ec3aaff	0.38216397
28	0x3eb6115a	0.35560113
29	0x3eb7ccf1	0.35898545
30	0x3eb429c3	0.35188112
31	0x3e8489d9	0.2588642
32	0x3ea8bd33	0.32956848
33	0x3eafd042	0.34338576
34	0x3ecb59f8	0.39717078
35	0x3ec02330	0.37526846
36	0x3e9b4cbd	0.30331984
37	0x3e83579a	0.25652772
38	0x3ea38980	0.31940842
39	0x3eb1d78c	0.34734762
40	0x3eb52634	0.3538071
41	0x3ea5a1a1	0.32349876
42	0x3e956b66	0.291835
43	0x3de126e0	0.10993743
44	0x3ddd1457	0.10794895
45	0x3ee15e42	0.44017226
46	0x3ebbf727	0.36712
47	0x3e85b525	0.26114765
48	0x3e86f226	0.2635662
49	0x3e845f16	0.25853795
50	0x3ea48841	0.32135203
51	0x3e0bb57c	0.1364345
52	0x3e66dc0f	0.22544883
53	0x3e5755ab	0.21028773
54	0x3e31515e	0.17316195
55	0x3ec90feb	0.39269957
56	0x3e0521d4	0.13001186
57	0x3e72e351	0.23719527
58	0xbd730c1d	-0.059337724
59	0xbe2a368a	-0.16622368
60	0xbca8d0d8	-0.020607397
61	0x3de5fd28	0.11229926
62	0xbef4dd10	-0.47824907
63	0xbdcea2a3	-0.10089614
64	0x3d96638f	0.07343208
65	0xbdfee1d3	-0.12445416
66	0xbd8ba77c	-0.068190545
67	0x3e6960ab	0.22790782
68	0x3ee93c79	0.4555395
69	0x3d1be585	0.038060684
70	0x3e70a31e	0.23499724
71	0x3eb14775	0.3462483
72	0x3e81bf6a	0.2534135
73	0x3e85320f	0.26014754
74	0x3e955195	0.29163805
75	0x3e343cd8	0.17601335
76	0x3e83a08a	0.2570842
77	0x3e6543da	0.22389165
78	0x3e6ceef4	0.23138028
79	0x3eb904f7	0.361366
80	0x3e85f4a7	0.26163217
81	0x3e92587c	0.28583133
82	0x3dae38db	0.08506938
83	0x3c6f08e3	0.014589521
84	0x3e0fb43e	0.140336
85	0x3dd011b9	0.1015963
86	0xbecf9efb	-0.4055098
87	0x3c51f81d	0.0128155025
88	0x3e331efe	0.17492291
89	0xbcf629de	-0.03004926
90	0x3c429a51	0.011877612
91	0x3e30bee6	0.17260322
92	0x3ee0e15d	0.4392194
93	0x3d612a48	0.054971963
94	0x3e691fb0	0.22765994
95	0x3ea11c6c	0.31466997
96	0x3e61f243	0.22065072
97	0x3e6945ca	0.22780529
98	0x3e95f686	0.29289645
99	0x3d766d0b	0.060162585
100	0x3e4fb51d	0.20283933
101	0x3e5b981d	0.21444745
102	0x3e0b1986	0.13583955
103	0x3ed2b93f	0.41156957
104	0x3dc67d5c	0.09691879
105	0x3e74b3fe	0.23896787
106	0xbcfc9983	-0.030834919
107	0xbd92c817	-0.0716707
108	0x3def7cee	0.1169375
109	0x3e141cad	0.14464064
110	0xbf003224	-0.5007651
111	0xbdff69ec	-0.12471375
112	0x3d2afc72	0.041744657
113	0xbdb5ce08	-0.08877188
114	0xbc9c02f8	-0.019044384
115	0x3e891955	0.2677714
116	0x3ef289ee	0.47370857
117	0xbcc24413	-0.023714101
118	0x3e52f92a	0.20602861
119	0x3ea98918	0.33112407
120	0xbb49beaa	-0.003078381
121	0xba8d023c	-0.0010758112
122	0xbc7a6047	-0.015281743
123	0x3b98670d	0.0046509565
124	0xbbe5dc66	-0.007014799
125	0xbc449089	-0.0119973505
126	0xbc4dce3b	-0.012561376
127	0xbbbb811b	-0.0057221777
128	0xbcf8e2f2	-0.030381653
129	0xbc164677	-0.009172074
130	0xbc71526e	-0.014729125
131	0xbc8a192a	-0.016857702
132	0x3b388709	0.002815666
133	0xbb863466	-0.004095602
134	0x3c1b2cbe	0.009471117
135	0x3c19c14f	0.009384467
136	0xbc657a82	-0.014006259
137	0x3c1c9762	0.009557577
138	0xbcce4216	-0.025177997
139	0xbc3c3200	-0.01148653
140	0x3c2290a5	0.009922181
141	0xbca1c7e8	-0.019748643
142	0xbc8e3e45	-0.017363677
143	0xbb068ac4	-0.0020529488
144	0x3ea316f5	0.31853452
145	0x3e99bb53	0.3002573
146	0x3e9f9453	0.3116785
147	0x3e9624a6	0.29324836
148	0x3e8aaa73	0.27083167
149	0x3e8daa5c	0.27669036
150	0x3e9258ff	0.28583524
151	0x3e9fc49d	0.31204692
152	0x3e886eb0	0.26646948
153	0x3e98bfdd	0.2983388
154	0x3e4ce604	0.20009619
155	0x3e3d2624	0.1847158
156	0x3e47a6c7	0.19497214
157	0x3e26b321	0.1627927
158	0xbe9d87a6	-0.30767554
159	0x3de979ad	0.11400161
160	0x3e83ded3	0.2575594
161	0x3da7ec92	0.08199419
162	0x3db5770d	0.08860598
163	0x3e33030a	0.17481628
164	0x3ebba7b0	0.36651373
165	0x3e62d726	0.22152385
166	0x3ea1ea64	0.31624138
167	0x3ea3bf9b	0.3198212
168	0x3e50e756	0.20400748
169	0x3e4107d1	0.18850638
170	0x3e990a46	0.2989065
171	0x3d850402	0.06494905
172	0x3e4e08ed	0.20120592
173	0x3e46e5cc	0.19423598
174	0x3dd930b4	0.106049925
175	0x3ec2d43c	0.38052547
176	0x3d8c5d0b	0.06853684
177	0x3e563f43	0.2092257
178	0xbd002724	-0.031287327
179	0xbe07fd3a	-0.13280192
180	0xbced7f3d	-0.028991336
181	0x3d5ca833	0.053871345
182	0xbeea26a6	-0.4573261
183	0xbde168cc	-0.110063165
184	0x3da77d79	0.08178229
185	0xbe12fc1d	-0.14353986
186	0xbdc813db	-0.09769412
187	0x3e42e019	0.19030799
188	0x3eda273a	0.42608052
189	0xbcbc9e9f	-0.023024855
190	0x3e6313db	0.22175543
191	0x3eac00bb	0.33594307
192	0xbddc1aca	-0.10747297
193	0x3e4b79d2	0.1987069
194	0xbbd154cc	-0.0063882824
195	0x3ea5f2ac	0.32411706
196	0xbd883987	-0.066515975
197	0x3d350ae5	0.044199843
198	0x3e79ec5e	0.24406573
199	0xbecbe5f5	-0.3982388
200	0x3e736a9b	0.23771136
201	0x3e127819	0.14303626
202	0x3e67e016	0.22644076
203	0x3eaeff1a	0.34179002
204	0x3e512a98	0.20426404
205	0x3e15aef0	0.14617515
206	0x3ef7e87d	0.48419562
207	0x3ea81c19	0.32833937
208	0x3e7132e1	0.23554565
209	0x3eb02f34	0.34411013
210	0x3eae89c2	0.34089476
211	0x3cc87708	0.024470821
212	0xbeee5744	-0.46550953
213	0x3e6f856c	0.2339074
214	0xbdabf969	-0.083971806
215	0xbe93fae8	-0.28902364
216	0x3b24672a	0.0025085905
217	0xbbec7d4b	-0.0072170845
218	0xbb8fb5b9	-0.0043856767
219	0xbc1c53e3	-0.0095414845
220	0x3b57fbe3	0.0032956533
221	0x3ae89bd3	0.0017746635
222	0xbc671395	-0.01410379
223	0xbb28cfb4	-0.0025758566
224	0xbb4707a5	-0.0030369547
225	0xbcb1d601	-0.02170849
226	0xbc09b1c6	-0.008404201
227	0xbb664734	-0.0035137655
228	0xbb25ff10	-0.002532903
229	0xbaf9c3b9	-0.0019055522
230	0xbb53e16e	-0.0032330411
231	0xbc9e5c05	-0.019330988
232	0x3b8c21bb	0.004276482
233	0x3b418d32	0.0029533622
234	0xbbba66c0	-0.0056885183
235	0xbbe2df8f	-0.006923623
236	0xbcef1ca1	-0.029188456
237	0xbb8813fc	-0.004152773
238	0xbbc4b338	-0.00600281
239	0xbc48666f	-0.012231453
240	0x3e71e88e	0.23623869
241	0x3e4ce5e7	0.20009576
242	0x3e931ae9	0.28731468
243	0x3d7f9e76	0.06240698
244	0x3e3970f0	0.18109488
245	0x3e38680d	0.18008442
246	0x3e0458bd	0.12924476
247	0x3eb33195	0.34998766
248	0x3da6489d	0.08119319
249	0x3e5e096b	0.2168328
250	0xbd7c36e0	-0.06157577
251	0xbe792f4a	-0.24334446
252	0xbd87eb62	-0.066366926
253	0x3d99fabb	0.07518526
254	0xbedc6359	-0.43044546
255	0xbd6ae338	-0.0573456

fc1.bias f4 [20]
0	0x3eaf25ab	0.34208426
1	0x3eaade1e	0.33372587
2	0x3e9fc427	0.3120434
3	0x3e9e5738	0.30925918
4	0x3e9e5c69	0.30929878
5	0xbc241390	-0.01001443
6	0x3ea1be12	0.31590325
7	0x3e8d02e1	0.2754126
8	0x3dce501b	0.10073873
9	0xbbad99e2	-0.0052978853
10	0x3e894396	0.26809376
11	0xbb8dadd4	-0.0043237004
12	0x3e9c481b	0.30523762
13	0x3e84339a	0.2582062
14	0x3e4c8274	0.19971639
15	0x3e994369	0.29934242
16	0x00000000	0.0
17	0x3e70508e	0.23468229
18	0xbbf8e9f1	-0.0075962474
19	0xbc26c097	-0.010177753

fc2.weight f4 [15, 20]
0	0x3f08a2ed	0.53373605
1	0x3f133e6c	0.57517123
2	0x3eb967d6	0.36212033
3	0x3e1aa1d0	0.15100789
4	0x3dc50df4	0.09621802
5	0x3e2363a1	0.15955974
6	0x3ebcdcd3	0.36887226
7	0x3b91ecb3	0.0044532656
8	0x3e89c58d	0.26908532
9	0xbdd95cf8	-0.106134355
10	0x3e8a114a	0.26966316
11	0x3e0e2d24	0.13884407
12	0x3e4e3068	0.20135653
13	0x3e9a2449	0.30105808
14	0x3ec67c65	0.3876678
15	0x3ebd727f	0.37001416
16	0x3e16f14a	0.14740482
17	0x3d670602	0.056402214
18	0x3dd4d95b	0.1039302
19	0xbd70c6b2	-0.05878324
20	0x3dd7fb00	0.10545921
21	0xbc9c69b7	-0.019093378
22	0xbe5525ea	-0.20815244
23	0x3d8189d7	0.06325119
24	0xbdf4e035	-0.119568266
25	0x3e4a15ad	0.19734831
26	0xbe157cdd	-0.14598413
27	0x3e166913	0.1468852
28	0xbcce2a5c	-0.025166683
29	0xbe118d7d	-0.1421413
30	0x3dccf181	0.10007001
31	0xbd59e990	-0.05320126
32	0xbd0d94f5	-0.034565885
33	0x3e2a7ce9	0.16649212
34	0xbc9cbedb	-0.019133976
35	0xba8e1218	-0.0010839133
36	0xbdebfa85	-0.11522392
37	0x3cbfa27e	0.023392912
38	0x3d9af394	0.0756599
39	0x3e3c4e3b	0.18389218
40	0x3d2ce43a	0.04220984
41	0xbd64781a	-0.0557786
42	0xbdde8941	-0.10866023
43	0xbdf790bc	-0.12088153
44	0xbe529dc5	-0.20567997
45	0x3e283f9c	0.16430515
46	0x3d420d61	0.04737604
47	0xbd2bf514	-0.04198177
48	0xbe64b97d	-0.22336383
49	0x3e3bab33	0.18327026
50	0xbde2886c	-0.11061177
51	0x3d64ee72	0.05589146
52	0xbe06cf35	-0.1316498
53	0x3dbe3398	0.092871845
54	0x3d6b1211	0.057390276
55	0x3d42bcb7	0.047543254
56	0x3e09aca7	0.13444768
57	0x3e418ff3	0.18902569
58	0x3dc04a2f	0.093891494
59	0x3e2169a2	0.15762952
60	0xbdea0141	-0.114260204
61	0x3d8a8216	0.06763093
62	0xbdbdba8a	-0.09264095
63	0x3e32927d	0.17438693
64	0xbe2806d5	-0.16408856
65	0xbe29ec47	-0.16594039
66	0x3e36e368	0.17860186
67	0x3c9cc0fb	0.019134989
68	0xbd84f8a4	-0.06492737
69	0xbbbe5d89	-0.00580949
70	0xbc87db69	-0.016584115
71	0xbd61d4d7	-0.05513462
72	0xbd4e9835	-0.050438125
73	0x3ddcbd93	0.10778346
74	0xbe2079ab	-0.15671413
75	0xbcd9712e	-0.026543226
76	0xbda70279	-0.081547685
77	0xbe27b9b2	-0.16379431
78	0xbd274d41	-0.04084516
79	0xbdb5a03d	-0.08868454
80	0x3e06a1f7	0.13147722
81	0x3def5eac	0.11687979
82	0x3ea7dfa9	0.32787827
83	0x3eacd28d	0.33754387
84	0x3e89a169	0.2688096
85	0x3e24bb85	0.16087158
86	0x3e732f0a	0.23748413
87	0x3f08e594	0.5347531
88	0xbefe2325	-0.49636188
89	0xbe44d43d	-0.19221587
90	0x3efbab96	0.49154347
91	0xbd60c7bc	-0.05487798
92	0x3e6e105d	0.2324843
93	0x3ef86302	0.48513037
94	0xbed9cbb4	-0.42538226
95	0x3e8af9e0	0.27143764
96	0xbe2419e4	-0.16025501
97	0x3e6d044c	0.2314617
98	0xbe3c6a04	-0.18399817
99	0xbe3b958c	-0.18318766
100	0x3e35099c	0.17679447
101	0xbcbb68b1	-0.02287707
102	0x3e2570a1	0.16156246
103	0x3ebbfef6	0.36717957
104	0x3eafc748	0.34331727
105	0x3e3dfd0f	0.18553565
106	0x3e988009	0.29785183
107	0x3efb37fe	0.49066156
108	0xbeef22a9	-0.4670613
109	0xbd35bf2b	-0.044371765
110	0x3efc4176	0.49268693
111	0xbe038672	-0.12844256
112	0x3f0910e4	0.535414
113	0x3eb6b765	0.35686794
114	0xbe88ab71	-0.266933
115	0xbe13d2aa	-0.1443583
116	0x3c0aec70	0.008479223
117	0x3efe8a05	0.49714676
118	0xbe1c52ab	-0.1526591
119	0xbc4f74de	-0.012662141
120	0x3e5c79b6	0.21530804
121	0x3e808221	0.2509928
122	0x3e9bfe2c	0.30467355
123	0x3e5e6d6a	0.21721426
124	0x3ea99a2f	0.33125445
125	0xbda9c39a	-0.08289261
126	0x3ed9275d	0.42412844
127	0x3eefe92d	0.46857587
128	0xbef9ac92	-0.48764473
129	0xbdbec62f	-0.09315144
130	0x3e828dd7	0.2549884
131	0xbdb32b0d	-0.08748446
132	0x3e9e4bec	0.309173
133	0x3e1ab7bf	0.15109156
134	0xbe86280e	-0.26202434
135	0xbd64494c	-0.055733964
136	0xbc86c403	-0.016450888
137	0x3e9d5616	0.3072974
138	0x3d431c4f	0.04763442
139	0x3e60585d	0.21908708
140	0xbe575955	-0.21030171
141	0xbe38e72b	-0.18056934
142	0xbdcb6fde	-0.09933446
143	0xbd9cb947	-0.07652526
144	0x3d21d1c9	0.039506707
145	0xbe14e2aa	-0.1453959
146	0xbdef77f8	-0.11692804
147	0xbd51a951	-0.051186863
148	0xbbb1b100	-0.0054227114
149	0xbb551790	-0.0032515265
150	0xbe585182	-0.21124843
151	0xbe4dd6d9	-0.20101489
152	0x3e178c08	0.14799511
153	0x3e210934	0.15726167
154	0x3e53a9cf	0.20670246
155	0x3cdb5998	0.02677612
156	0xbe1f6596	-0.15566096
157	0x3e3bad8f	0.18327926
158	0xbe142f87	-0.14471255
159	0x3e0626f9	0.13100804
160	0x3e94b93b	0.2904757
161	0x3ef3a483	0.4758645
162	0xbdbf8aec	-0.09352669
163	0x3e417623	0.18892722
164	0x3d25194f	0.04030734
165	0x3df00ff0	0.1172179
166	0x3e15eec7	0.14641868
167	0x3e6beb5d	0.23039003
168	0x3f013595	0.50472385
169	0xbe4a14e0	-0.19734526
170	0x3e56a95f	0.20963047
171	0x3e641931	0.22275235
172	0x3d837764	0.06419256
173	0xbe8f33d0	-0.27969217
174	0x3ee10300	0.439476
175	0x3f132e57	0.57492584
176	0x3be80ef5	0.007081861
177	0xbdf07ec7	-0.11742931
178	0xbe2dfb41	-0.16990377
179	0xbd605954	-0.05477269
180	0x3efe28e4	0.49640572
181	0x3f047815	0.5174573
182	0xbeb43235	-0.35194555
183	0x3e4a7b59	0.19773616
184	0xbde55cec	-0.11199364
185	0xbde08991	-0.10963739
186	0x3d667b36	0.056269847
187	0xbec16226	-0.37770194
188	0x3e8e26f3	0.2776409
189	0x3e4866b0	0.19570422
190	0xbe9c876a	-0.30572063
191	0x3df3e509	0.11908919
192	0xbdc746ed	-0.09730325
193	0xbf06fc70	-0.5272894
194	0x3efb6bc6	0.49105662
195	0x3f1f5827	0.62243885
196	0x3dbdcb1d	0.092672564
197	0xbece6398	-0.4031036
198	0xbd2161e2	-0.03939999
199	0xbe5b8b4e	-0.2143986
200	0x3ed2cc61	0.41171554
201	0x3ecef3d3	0.40420398
202	0x3ec9da7c	0.39424503
203	0x3ef6a1ce	0.48170322
204	0x3ea4a1b6	0.32154626
205	0xbd80ec31	-0.0629505
206	0x3ec76d0a	0.38950378
207	0x3eb3261d	0.34990016
208	0xbf12e971	-0.57387453
209	0x3de66393	0.11249461
210	0x3e88895a	0.2666729
211	0x3c8495ab	0.016184648
212	0x3eefe9b4	0.4685799
213	0x3ea2c2a4	0.31789124
214	0xbf20d1d3	-0.62820166
215	0x3e52d0a9	0.2058741
216	0x3d873ccd	0.06603394
217	0x3eeb83bf	0.45998952
218	0xbd8f792e	-0.07005535
219	0xbe287daf	-0.16454194
220	0xbdb451ef	-0.0880469
221	0xbda05711	-0.078291066
222	0x3d9839ff	0.07432937
223	0xbd1f4c18	-0.038890928
224	0xbdbbf2c3	-0.091771625
225	0xbe3dbc31	-0.1852882
226	0xbe117bdf	-0.1420741
227	0xbe050786	-0.12991151
228	0xbd88ccef	-0.06679713
229	0x3d3b16ad	0.045675922
230	0xbe141b3d	-0.14463516
231	0xbe3ec983	-0.18631558
232	0x3e3a105f	0.18170308
233	0x3c131bdb	0.008978809
234	0xbe4b11cb	-0.19831006
235	0x3c21cae9	0.009875038
236	0x3ce56e93	0.028006827
237	0x3dc9cfae	0.09854065
238	0x3d7eb3a1	0.062183026
239	0xbe0db9f1	-0.13840462
240	0x3e05efcb	0.13079755
241	0x3f0f1345	0.5588878
242	0xbe93a2d2	-0.2883516
243	0xbe8f082e	-0.27935928
244	0xbecf75a5	-0.40519443
245	0x3e149df8	0.14513385
246	0x3eb1f0da	0.34754068
247	0xbed8a9ee	-0.42317146
248	0x3ec5c669	0.38627937
249	0xbd83751a	-0.0641882
250	0xbefb5982	-0.49091727
251	0x3e3f8ab3	0.18705253
252	0xbe3a4a18	-0.18192327
253	0xbeb471a7	-0.3524296
254	0x3ee94e4a	0.45567542
255	0x3f0bacaf	0.5456037

fc2.bias f4 [15]
0	0x3dc38d9d	0.09548495
1	0xbe47d1e2	-0.19513658
2	0xbdb0e63f	-0.08637666
3	0xbdef1714	-0.11674324
4	0x3e85641b	0.26052937
5	0x3e18b7bf	0.14913844
6	0x3e353b02	0.17698291
7	0xbe0455a3	-0.12923293
8	0x3ef36dec	0.475448
9	0x3ebd1986	0.36933535
10	0x3eef3479	0.4671972
11	0xbd6a7f37	-0.057250228
12	0x3eaa167c	0.3322028
13	0xbddb2e2e	-0.107021675
14	0x3cfd944d	0.030954504

fc3.weight f4 [10, 15]
0	0x3efb6fa4	0.49108613
1	0x3ce9ea95	0.02855424
2	0xbe6f84a3	-0.2339044
3	0x3df10e26	0.11770277
4	0xbe8666b9	-0.26250246
5	0xbe889d9d	-0.2668275
6	0xbe384611	-0.17995478
7	0x3df4345b	0.119240485
8	0x3e632476	0.22181877
9	0x3e7d4eea	0.24737135
10	0xbeadd29f	-0.33949754
11	0xbe178538	-0.14796913
12	0x3ed9db88	0.42550302
13	0xbe35a1ad	-0.17737456
14	0x3e4cd89d	0.20004506
15	0x3eab4cd6	0.3345706
16	0x3e16572f	0.14681695
17	0x3e427e2e	0.18993446
18	0x3cb570b0	0.02214846
19	0xbdba344e	-0.090920076
20	0xbe8ba15d	-0.27271548
21	0x3d8e57a0	0.06950307
22	0xbe00efcc	-0.12591475
23	0x3d3f22ac	0.046663925
24	0x3edcd0b4	0.43127978
25	0xbea6a434	-0.32547152
26	0xbdb7ff31	-0.08984221
27	0x3dbc90c8	0.09207302
28	0xbdde6f2d	-0.10861049
29	0x3e829d72	0.25510746
30	0x3e86bb2b	0.26314673
31	0x3da298ba	0.079392865
32	0x3c045acb	0.008078287
33	0x3d82f44d	0.06394253
34	0x3e1c43ef	0.1526029
35	0x3e5e738b	0.21723764
36	0x3ecc00b5	0.3984429
37	0xbdbf0e78	-0.093289316
38	0x3ec97762	0.39348894
39	0x3f0278bf	0.50965494
40	0x3ea66270	0.32496977
41	0xbdff5bed	-0.12468705
42	0x3dd24290	0.10266602
43	0xbe53b977	-0.20676218
44	0xbe585dec	-0.21129578
45	0x3ed8f48a	0.42374068
46	0xbe457367	-0.19282304
47	0x3d45c6f6	0.048285447
48	0xbe1172f3	-0.14204006
49	0xbe4abca5	-0.19798525
50	0xbed952a3	-0.4244586
51	0xbeb8e126	-0.36109275
52	0xbe147085	-0.14496048
53	0x3ed5704e	0.41687244
54	0x3f11caee	0.5695027
55	0xbe898a25	-0.26863208
56	0xbd6d1e2c	-0.057890102
57	0x3f1681b1	0.58791643
58	0x3e818877	0.25299427
59	0xbe25dac4	-0.16196734
60	0x3eb0ac13	0.34506282
61	0xbd6b41dc	-0.057435855
62	0xbd87f0ad	-0.06637702
63	0xbd5f72bd	-0.054552782
64	0x3efdca0c	0.49568212
65	0x3ebe7714	0.37200224
66	0x3ed35d09	0.41281918
67	0xbdcd11ca	-0.100131586
68	0x3e89a2db	0.2688206
69	0xbead92df	-0.33901116
70	0x3ead1ba3	0.33810148
71	0xbe7b797b	-0.2455806
72	0xbe8d855f	-0.27640817
73	0x3def91df	0.116977446
74	0xbe4875a5	-0.19576128
75	0x3e402a3c	0.18766111
76	0xbd05d271	-0.032671396
77	0xbd8b6951	-0.06807197
78	0x3e80ed90	0.25181246
79	0xbe730207	-0.23731242
80	0xbee555b2	-0.44791943
81	0xbe0d7a65	-0.13816221
82	0xbe82505e	-0.2545194
83	0x3e972579	0.29520777
84	0x3ebe41db	0.3715962
85	0xbd82931a	-0.06375714
86	0xbdf7559d	-0.12076876
87	0x3ebe0c4f	0.37118766
88	0x3ba485ca	0.0050208317
89	0x3da8241c	0.08210012
90	0x3eac8556	0.33695477
91	0x3e2e912d	0.17047568
92	0xbe78c8f1	-0.24295403
93	0xbe21a6dc	-0.15786308
94	0x3ec37357	0.38173935
95	0x3e928880	0.28619766
96	0x3eb8497a	0.35993558
97	0xbe74ade1	-0.23894455
98	0xbe2f4a7d	-0.17118259
99	0xbe1b0a2f	-0.15140603
100	0x3ecf1427	0.40445063
101	0xbdd98051	-0.106201775
102	0xbeab1724	-0.33416092
103	0xbd3b90ef	-0.045792516
104	0x3e11377c	0.14181322
105	0xbdd11a15	-0.10210053
106	0xbe4afa91	-0.19822146
107	0xbe716adb	-0.23575918
108	0x3e3735d4	0.17891628
109	0xbdcb4657	-0.09925526
110	0xbe77d32c	-0.2420165
111	0xbde96d05	-0.11397747
112	0xbe51f1c1	-0.20502378
113	0xbe440f69	-0.19146504
114	0xbd00d2b6	-0.03145095
115	0x3da62fd1	0.08114589
116	0x3d41b619	0.047292802
117	0xbe74ebfc	-0.23918146
118	0x3e47b1ab	0.19501369
119	0x3d35852f	0.044316467
120	0xbe1b83c2	-0.1518698
121	0x3d158bd4	0.036510304
122	0x3e21351d	0.15742917
123	0xbe4b65ba	-0.19863024
124	0xbd745768	-0.05965367
125	0xbd9235f7	-0.07139199
126	0xbe1f9469	-0.15583958
127	0xbe81dbed	-0.25363103
128	0x3c0dfeed	0.008666736
129	0x3d840c5f	0.06447672
130	0xbe53af28	-0.20672286
131	0xbccab81b	-0.024745991
132	0x3e103d9c	0.14086002
133	0x3d921379	0.0713262
134	0x3dc033f5	0.0938491
135	0x3d07f465	0.033192057
136	0x3e71f760	0.23629522
137	0xbe544d9d	-0.20732732
138	0x3c83d93e	0.0160948
139	0x3e129391	0.14314105
140	0x3b0ed8da	0.0021796734
141	0xbe79776b	-0.2436196
142	0xbe2987ce	-0.16555712
143	0xbe602386	-0.21888551
144	0xbea7073a	-0.326227
145	0x3c9d3677	0.01919101
146	0xbe8141ec	-0.25245607
147	0xbe9895bb	-0.29801735
148	0xbe2bb289	-0.16767325
149	0xbe35084b	-0.17678945

fc3.bias f4 [10]
0	0x3e99a609	0.30009487
1	0x3d0d95c5	0.03456666
2	0x3ea61a62	0.32442003
3	0x3e9d8f84	0.30773556
4	0x3eed58c9	0.463568
5	0xbdba6bfa	-0.09102626
6	0x3e88356c	0.26603258
7	0xbe35453f	-0.17702197
8	0x3e29487b	0.16531555
9	0xbd270303	-0.040774357

fc4.weight f4 [5, 10]
0	0xbe8fcef1	-0.2808757
1	0x3e2e2bc7	0.17008887
2	0xbdf621d0	-0.12018168
3	0x3e8a07d5	0.269591
4	0xbdc4e3d5	-0.09613768
5	0xbd870a21	-0.06593729
6	0x3e29c714	0.16579849
7	0xbe1b1b4f	-0.15147136
8	0x3e0f8a76	0.14017662
9	0x3ccf9ad5	0.025342384
10	0xbea0a3ee	-0.31375068
11	0xbd95c7d5	-0.073135056
12	0x3ec5b5b6	0.38615197
13	0xbf1a9e62	-0.60397923
14	0x3ebeb71e	0.37249082
15	0xbf15f8c7	-0.5858273
16	0x3ebf5744	0.37371266
17	0x3e39c18f	0.18140243
18	0xbe58c06e	-0.21167156
19	0x3b2e02ee	0.002655204
20	0xbefca7d0	-0.4934678
21	0xbed1f47f	-0.41006848
22	0xbb2acffe	-0.0026063914
23	0xbe80e955	-0.25178018
24	0x3ed44f8b	0.41466936
25	0xbf174575	-0.5909036
26	0x3e4bf4a7	0.19917546
27	0xbe5acd0c	-0.21367282
28	0xbcf1e7ac	-0.029529415
29	0xbcd3ed02	-0.02586985
30	0x3e99a614	0.3000952
31	0x3db40e02	0.08791734
32	0xbe789f72	-0.24279574
33	0x3d834fbb	0.06411692
34	0xbdc03aeb	-0.09386238
35	0xbe22cef1	-0.15899254
36	0x3db916bd	0.0903754
37	0xbe60054c	-0.2187702
38	0xbdafb341	-0.08579112
39	0x3d15fede	0.036620013
40	0x3ef3e9b1	0.4763923
41	0x3e722f1b	0.23650782
42	0x3eb37dc2	0.35056883
43	0x3f090bb3	0.53533477
44	0x3dc8d73d	0.098066784
45	0x3e098484	0.13429457
46	0xbd6cff65	-0.05786075
47	0x3ce25a72	0.027631018
48	0xbe0fe93d	-0.14053817
49	0xbeaaa9f7	-0.33332798

fc4.bias f4 [5]
0	0xbe9725ab	-0.29520926
1	0x3ea40e9b	0.32042393
2	0xbd967be6	-0.073478505
3	0xbe872930	-0.2639861
4	0x3ec06d97	0.3758361

fc5.weight f4 [4, 5]
0	0xbe9930fe	-0.2992019
1	0x3e8ce231	0.2751632
2	0xbeeba8ab	-0.4602712
3	0x3eb64596	0.35599965
4	0x3ebdf11f	0.37098023
5	0xbe6b2843	-0.22964577
6	0x3f224acd	0.63395387
7	0x3f0e207e	0.5551833
8	0xbe87e611	-0.26542714
9	0xbea1f341	-0.316309
10	0x3e93d2e0	0.28871822
11	0xbdc84ba1	-0.0978005
12	0x3e285959	0.16440333
13	0xbdf8ce8d	-0.121487714
14	0xbe175b8e	-0.14781019
15	0xbe34414c	-0.17603034
16	0xbc8a5781	-0.016887428
17	0xbda3fcd1	-0.08007205
18	0xbed473a5	-0.4149448
19	0xbebededa	-0.37279397

fc5.bias f4 [4]
0	0x3d84a954	0.06477609
1	0x3e0d5713	0.13802747
2	0x3dee2bfc	0.11629483
3	0xbf0d3128	-0.5515313
