Laboratorios/Lab1/checkpoints/modelo_epoch_940.pth (torch, 7862 bytes, 10 tensors)

fc1.weight f4 [20, 24]
0	0x3ee711ea	0.45130855
1	0x3ebd9722	0.37029368
2	0x3ecf386c	0.40472734
3	0x3ec00bed	0.375091
4	0x3ed9d7f2	0.42547566
5	0x3ed4d6c6	0.4157011
6	0x3ebe7204	0.37196362
7	0x3edc5c9c	0.43039405
8	0x3ec972e1	0.39345458
9	0x3ece51d8	0.40296817
10	0x3eba3330	0.36367178
11	0x3e7f8e73	0.24956684
12	0x3e634d79	0.22197522
13	0x3e4a9ab3	0.19785576
14	0x3dfc549a	0.12320824
15	0x3dfd280e	0.123611555
16	0x3ebaead7	0.36507294
17	0x3db28e3c	0.08718535
18	0x3e6d187c	0.23153871
19	0x3e8276dd	0.2548131
20	0xbcb2de85	-0.021834621
21	0x3ed7fdc7	0.42185804
22	0x3ecc8c9a	0.3995102
23	0x3ee83f95	0.4536101
24	0x3ef8b399	0.48574522
25	0x3ec73499	0.38907316
26	0x3ed5bab0	0.41743994
27	0x3ec3371a	0.38127977
28	0x3efa39bc	0.48872173
29	0x3edc586b	0.43036208
30	0x3ec55b1f	0.38546082
31	0x3ef71d30	0.48264456
32	0x3ec45efb	0.38353714
33	0x3ec8285a	0.39093286
34	0x3eb3d2e2	0.35121828
35	0x3e89799c	0.26850593
36	0x3e8e5407	0.27798483
37	0x3e8f457e	0.27982706
38	0x3f0b806f	0.5449285
39	0x3e92075d	0.28521243
40	0x3ec454b7	0.38345882
41	0x3e687aa1	0.22703029
42	0x3eb74afa	0.3579939
43	0x3e8b0742	0.27153975
44	0xbe9d4e8a	-0.30723983
45	0x3ed49a24	0.4152385
46	0x3ef889d8	0.48542666
47	0x3f029645	0.51010543
48	0x3ddb629e	0.10712169
49	0x3e56790d	0.20944615
50	0x3e37a1a3	0.17932753
51	0x3e438255	0.19092686
52	0x3d7905c0	0.0607965
53	0x3e199f01	0.15002061
54	0x3e142593	0.14467458
55	0x3e101df6	0.14073929
56	0x3d8a0803	0.06739809
57	0x3e3e98b6	0.18612942
58	0x3d84464b	0.0645872
59	0x3d380d4b	0.044934552
60	0x3d845316	0.0646116
61	0x3dd16844	0.10224965
62	0xbf58d93f	-0.8470649
63	0x3d46fab1	0.04857892
64	0x3dc5c9b6	0.09657614
65	0x3dc0e28a	0.09418209
66	0xbdc4e69c	-0.09614298
67	0x3d8b45d0	0.06800425
68	0x3f64e8b4	0.89417577
69	0x3dd4c784	0.10389617
70	0x3ddcc6b8	0.1078009
71	0x3dd92387	0.106024794
72	0x3de96289	0.11395747
73	0x3e6a0032	0.22851637
74	0x3e2c9f12	0.16857556
75	0x3e78bfd6	0.2429193
76	0x3dd4b036	0.10385172
77	0x3e2b668b	0.16738336
78	0x3e59cf44	0.21270472
79	0x3df057ab	0.11735471
80	0x3e66c4f4	0.22536069
81	0x3e87169b	0.26384434
82	0x3e824104	0.25440228
83	0x3e8cab9e	0.27474684
84	0x3e780440	0.24220371
85	0x3dde1ab5	0.10844938
86	0xbf62340f	-0.88360685
87	0x3e3eefc0	0.18646145
88	0x3e58bfac	0.21166867
89	0x3e5138bf	0.20431803
90	0xbbf79f2d	-0.007556817
91	0xb901023e	-0.00012303234
92	0x3f6d3499	0.9265838
93	0x3e245c71	0.16050889
94	0x3dd096c3	0.101850055
95	0x3d9a46a0	0.07533002
96	0x3d2e21ad	0.042512584
97	0x3e28c258	0.16480386
98	0x3dfa1a7b	0.12212082
99	0x3df8f965	0.12156943
100	0x3c18c87c	0.009325143
101	0x3e1460a7	0.14489995
102	0x3dc90f52	0.09817375
103	0x3e048479	0.1294116
104	0x3cabee76	0.02098773
105	0x3e33ad36	0.17546543
106	0x3dd4f322	0.103979364
107	0x3e185439	0.14875878
108	0x3e53540e	0.20637533
109	0x3e08933d	0.13337417
110	0xbf6736db	-0.9031808
111	0x3d1189cd	0.035531808
112	0x3d91bc57	0.07116001
113	0x3e0fa304	0.1402703
114	0xbd407ab6	-0.046992026
115	0x3dbe44fc	0.092905015
116	0x3f719d64	0.94380784
117	0x3d45f4ea	0.04832927
118	0x3d6b4aea	0.05744449
119	0x3d75bbc7	0.05999353
120	0xbb49beaa	-0.003078381
121	0xba8d023c	-0.0010758112
122	0xbc7a6047	-0.015281743
123	0x3b98670d	0.0046509565
124	0xbbe5dc66	-0.007014799
125	0xbc449089	-0.0119973505
126	0xbc4dce3b	-0.012561376
127	0xbbbb811b	-0.0057221777
128	0xbcf8e2f2	-0.030381653
129	0xbc164677	-0.009172074
130	0xbc71526e	-0.014729125
131	0xbc8a192a	-0.016857702
132	0x3b388709	0.002815666
133	0xbb863466	-0.004095602
134	0x3c1b2cbe	0.009471117
135	0x3c19c14f	0.009384467
136	0xbc657a82	-0.014006259
137	0x3c1c9762	0.009557577
138	0xbcce4216	-0.025177997
139	0xbc3c3200	-0.01148653
140	0x3c2290a5	0.009922181
141	0xbca1c7e8	-0.019748643
142	0xbc8e3e45	-0.017363677
143	0xbb068ac4	-0.0020529488
144	0x3e824398	0.25442195
145	0x3e9d618d	0.30738488
146	0x3e8a629a	0.27028352
147	0x3eabfb36	0.33590096
148	0x3e60dc83	0.21959119
149	0x3e88948f	0.2667584
150	0x3e9b45f6	0.30326813
151	0x3e5fad6f	0.21843503
152	0x3e906235	0.28199926
153	0x3e9de38d	0.3083767
154	0x3e9dd1cf	0.30824134
155	0x3ed457a0	0.41473103
156	0x3e865072	0.2623325
157	0x3e4243a2	0.18971112
158	0xbf3aa969	-0.7291475
159	0x3e6eb596	0.23311457
160	0x3e8d7e2e	0.2763533
161	0x3e778d0e	0.24174902
162	0x3d9ec941	0.0775323
163	0x3d9cfbb8	0.07665199
164	0x3f3d840c	0.7402961
165	0x3ead1c38	0.33810592
166	0x3e89cef3	0.26915702
167	0x3e5bcfb6	0.21465954
168	0x3d63719e	0.055528276
169	0x3e0d957b	0.13826554
170	0x3e23307f	0.15936469
171	0x3de61f77	0.1123647
172	0x3d3f4909	0.04670051
173	0x3e0bf73d	0.13668533
174	0x3dab0bf4	0.08351889
175	0x3e11f7b1	0.14254643
176	0x3c5c37cb	0.013441036
177	0x3e1989a1	0.14993908
178	0x3d900401	0.07032014
179	0x3d556c92	0.052105494
180	0x3d33dd2d	0.0439121
181	0x3d2e5b3f	0.042567488
182	0xbf40bf25	-0.75291663
183	0x3c45a127	0.0120623475
184	0x3dc82f49	0.09774644
185	0x3d5313c0	0.051532507
186	0xbe05f8dc	-0.13083214
187	0x3d3688cd	0.044564057
188	0x3f52869b	0.8223664
189	0x3cfa07e8	0.030521348
190	0x3de1f255	0.11032549
191	0x3dfe6658	0.12421864
192	0x3dcbbfcc	0.09948692
193	0x3e8bd909	0.27314022
194	0x3e54b27b	0.2077121
195	0x3e91e916	0.28498143
196	0x3e03a18e	0.12854597
197	0x3de7026b	0.11279758
198	0x3e8a0a4e	0.26960987
199	0xbdf311a4	-0.11868599
200	0x3e966e60	0.29381084
201	0x3e69cf9a	0.228331
202	0x3e10d198	0.14142454
203	0x3e3c9bc8	0.18418801
204	0x3e13f501	0.1444893
205	0x3e279fb5	0.16369517
206	0x3f3e582b	0.74353284
207	0x3e647954	0.22311908
208	0x3e674388	0.22584355
209	0x3e36e027	0.17858945
210	0x3ec67e7b	0.38768372
211	0x3e36c5fb	0.17848961
212	0xbf5e55e7	-0.86849827
213	0x3e43f556	0.19136557
214	0x3d62b468	0.05534783
215	0xbd0dda48	-0.034631997
216	0x3b24672a	0.0025085905
217	0xbbec7d4b	-0.0072170845
218	0xbb8fb5b9	-0.0043856767
219	0xbc1c53e3	-0.0095414845
220	0x3b57fbe3	0.0032956533
221	0x3ae89bd3	0.0017746635
222	0xbc671395	-0.01410379
223	0xbb28cfb4	-0.0025758566
224	0xbb4707a5	-0.0030369547
225	0xbcb1d601	-0.02170849
226	0xbc09b1c6	-0.008404201
227	0xbb664734	-0.0035137655
228	0xbb25ff10	-0.002532903
229	0xbaf9c3b9	-0.0019055522
230	0xbb53e16e	-0.0032330411
231	0xbc9e5c05	-0.019330988
232	0x3b8c21bb	0.004276482
233	0x3b418d32	0.0029533622
234	0xbbba66c0	-0.0056885183
235	0xbbe2df8f	-0.006923623
236	0xbcef1ca1	-0.029188456
237	0xbb8813fc	-0.004152773
238	0xbbc4b338	-0.00600281
239	0xbc48666f	-0.012231453
240	0x3db62141	0.088930614
241	0x3e1dc18c	0.15405864
242	0x3e1e87f7	0.15481554
243	0x3dec1419	0.11527271
244	0x3cd41a8a	0.025891561
245	0x3dffe478	0.12494749
246	0x3ddc70f3	0.10763731
247	0x3de9089c	0.11378595
248	0x3cb50d5c	0.022101097
249	0x3e281336	0.16413578
250	0x3d5da6f9	0.054114316
251	0xbd31f404	-0.043445602
252	0x3c82ee67	0.01598282
253	0x3d8621d7	0.06549423
254	0xbf42282c	-0.7584255
255	0x3da5370a	0.080671385

fc1.bias f4 [20]
0	0x3ec43cbf	0.38327596
1	0x3eb891b7	0.36048672
2	0x3eaae971	0.33381227
3	0x3ea83184	0.32850277
4	0x3eab6d12	0.33481652
5	0xbc241390	-0.01001443
6	0x3eace2e5	0.33766857
7	0x3e995a6c	0.299518
8	0x3d788a6b	0.06067888
9	0xbbad99e2	-0.0052978853
10	0x3e964f7a	0.2935751
11	0xbb8dadd4	-0.0043237004
12	0x3ea651a4	0.32484162
13	0x3e9359bd	0.28779402
14	0x3e3a9e36	0.18224415
15	0x3ea3c775	0.3198811
16	0x00000000	0.0
17	0x3e873443	0.2640706
18	0xbbf8e9f1	-0.0075962474
19	0xbc26c097	-0.010177753

fc2.weight f4 [15, 20]
0	0x3f195d49	0.59907967
1	0x3f2a0465	0.66412956
2	0x3e84304f	0.25818107
3	0x3d825a23	0.063648485
4	0xbd3bae01	-0.04582024
5	0x3e2363a1	0.15955974
6	0x3eb06627	0.34452936
7	0xbde3eac8	-0.11128765
8	0x3ebd208e	0.369389
9	0xbdd95cf8	-0.106134355
10	0x3e14d04e	0.14532587
11	0x3e0e2d24	0.13884407
12	0x3dd96608	0.10615164
13	0x3e0a8eec	0.13531083
14	0x3ef45b38	0.47725844
15	0x3ef0fe9a	0.47069246
16	0x3e16f14a	0.14740482
17	0xbde75644	-0.11295751
18	0x3dd4d95b	0.1039302
19	0xbd70c6b2	-0.05878324
20	0x3dd7fb00	0.10545921
21	0xbc9c69b7	-0.019093378
22	0xbe5525ea	-0.20815244
23	0x3d8189d7	0.06325119
24	0xbdf4e035	-0.119568266
25	0x3e4a15ad	0.19734831
26	0xbe157cdd	-0.14598413
27	0x3e166913	0.1468852
28	0xbcce2a5c	-0.025166683
29	0xbe118d7d	-0.1421413
30	0x3dccf181	0.10007001
31	0xbd59e990	-0.05320126
32	0xbd0d94f5	-0.034565885
33	0x3e2a7ce9	0.16649212
34	0xbc9cbedb	-0.019133976
35	0xba8e1218	-0.0010839133
36	0xbdebfa85	-0.11522392
37	0x3cbfa27e	0.023392912
38	0x3d9af394	0.0756599
39	0x3e3c4e3b	0.18389218
40	0x3d2ce43a	0.04220984
41	0xbd64781a	-0.0557786
42	0xbdde8941	-0.10866023
43	0xbdf790bc	-0.12088153
44	0xbe529dc5	-0.20567997
45	0x3e283f9c	0.16430515
46	0x3d420d61	0.04737604
47	0xbd2bf514	-0.04198177
48	0xbe64b97d	-0.22336383
49	0x3e3bab33	0.18327026
50	0xbde2886c	-0.11061177
51	0x3d64ee72	0.05589146
52	0xbe06cf35	-0.1316498
53	0x3dbe3398	0.092871845
54	0x3d6b1211	0.057390276
55	0x3d42bcb7	0.047543254
56	0x3e09aca7	0.13444768
57	0x3e418ff3	0.18902569
58	0x3dc04a2f	0.093891494
59	0x3e2169a2	0.15762952
60	0xbdea0141	-0.114260204
61	0x3d8a8216	0.06763093
62	0xbdbdba8a	-0.09264095
63	0x3e32927d	0.17438693
64	0xbe2806d5	-0.16408856
65	0xbe29ec47	-0.16594039
66	0x3e36e368	0.17860186
67	0x3c9cc0fb	0.019134989
68	0xbd84f8a4	-0.06492737
69	0xbbbe5d89	-0.00580949
70	0xbc87db69	-0.016584115
71	0xbd61d4d7	-0.05513462
72	0xbd4e9835	-0.050438125
73	0x3ddcbd93	0.10778346
74	0xbe2079ab	-0.15671413
75	0xbcd9712e	-0.026543226
76	0xbda70279	-0.081547685
77	0xbe27b9b2	-0.16379431
78	0xbd274d41	-0.04084516
79	0xbdb5a03d	-0.08868454
80	0x3de89474	0.1135644
81	0x3b19db30	0.0023476593
82	0x3ef13755	0.47112527
83	0x3eff4627	0.4985821
84	0x3ee5cdaf	0.44883487
85	0x3e24bb85	0.16087158
86	0x3eaf3138	0.34217238
87	0x3f2f1864	0.6839659
88	0xbf258f11	-0.64671427
89	0xbe44d43d	-0.19221587
90	0x3f24a1a1	0.64309126
91	0xbd60c7bc	-0.05487798
92	0x3ec4ff04	0.3847581
93	0x3f28e15c	0.6596887
94	0xbf0cb60b	-0.54965276
95	0x3de71077	0.11282437
96	0xbe2419e4	-0.16025501
97	0x3ed43214	0.41444457
98	0xbe3c6a04	-0.18399817
99	0xbe3b958c	-0.18318766
100	0x3e09ac40	0.13444614
101	0xbe23eec1	-0.16009046
102	0x3eac468d	0.33647576
103	0x3f148b63	0.5802519
104	0x3f0fcc9f	0.561716
105	0x3e3dfd0f	0.18553565
106	0x3ee25600	0.44206238
107	0x3f2be5fc	0.67147803
108	0xbf19757b	-0.59944886
109	0xbd35bf2b	-0.044371765
110	0x3f2b2cc5	0.6686519
111	0xbe038672	-0.12844256
112	0x3f3af062	0.73023045
113	0x3f0cf9c8	0.55068636
114	0xbec159f2	-0.37763935
115	0xbe977b92	-0.29586464
116	0x3c0aec70	0.008479223
117	0x3f362710	0.71153355
118	0xbe1c52ab	-0.1526591
119	0xbc4f74de	-0.012662141
120	0x3e5ac697	0.21364819
121	0x3e39e3ae	0.18153259
122	0x3edb989c	0.4288987
123	0x3eb43c6f	0.35202357
124	0x3ef83247	0.4847586
125	0xbda9c39a	-0.08289261
126	0x3f038613	0.51376456
127	0x3f18ac58	0.59637976
128	0xbf27e222	-0.65579426
129	0xbdbec62f	-0.09315144
130	0x3ec82886	0.39093417
131	0xbdb32b0d	-0.08748446
132	0x3ee03b44	0.43795216
133	0x3e9e995b	0.30976376
134	0xbecbfb40	-0.39840126
135	0xbe2d3637	-0.16915213
136	0xbc86c403	-0.016450888
137	0x3eee0519	0.46488264
138	0x3d431c4f	0.04763442
139	0x3e60585d	0.21908708
140	0xbe575955	-0.21030171
141	0xbe38e72b	-0.18056934
142	0xbdcb6fde	-0.09933446
143	0xbd9cb947	-0.07652526
144	0x3d21d1c9	0.039506707
145	0xbe14e2aa	-0.1453959
146	0xbdef77f8	-0.11692804
147	0xbd51a951	-0.051186863
148	0xbbb1b100	-0.0054227114
149	0xbb551790	-0.0032515265
150	0xbe585182	-0.21124843
151	0xbe4dd6d9	-0.20101489
152	0x3e178c08	0.14799511
153	0x3e210934	0.15726167
154	0x3e53a9cf	0.20670246
155	0x3cdb5998	0.02677612
156	0xbe1f6596	-0.15566096
157	0x3e3bad8f	0.18327926
158	0xbe142f87	-0.14471255
159	0x3e0626f9	0.13100804
160	0x3ebac053	0.36474857
161	0x3f134977	0.57533973
162	0xbe957a2c	-0.29194772
163	0x3d149a89	0.03628019
164	0xbe587b93	-0.2114089
165	0x3df00ff0	0.1172179
166	0x3dc6cd00	0.097070694
167	0x3c8f7383	0.017511135
168	0x3f1d3aef	0.6141805
169	0xbe4a14e0	-0.19734526
170	0xbb0ef0bb	-0.0021810967
171	0x3e641931	0.22275235
172	0xbde23216	-0.110447094
173	0xbf02ef8e	-0.5114678
174	0x3f094b65	0.5363067
175	0x3f2f629a	0.6850983
176	0x3be80ef5	0.007081861
177	0xbec792f9	-0.3897932
178	0xbe2dfb41	-0.16990377
179	0xbd605954	-0.05477269
180	0x3f1239b3	0.5711929
181	0x3f1f3501	0.6219025
182	0xbf1866ce	-0.5953187
183	0xbe461f0d	-0.19347782
184	0xbed16da9	-0.40903977
185	0xbde08991	-0.10963739
186	0xbdf65085	-0.12027077
187	0xbf1bd0d4	-0.6086552
188	0x3ec4eaed	0.38460484
189	0x3e4866b0	0.19570422
190	0xbf02a4f4	-0.5103295
191	0x3df3e509	0.11908919
192	0xbede37db	-0.4340199
193	0xbf3aadc0	-0.7292137
194	0x3f15622f	0.5835294
195	0x3f3c7526	0.73616254
196	0x3dbdcb1d	0.092672564
197	0xbf252ba6	-0.6451973
198	0xbd2161e2	-0.03939999
199	0xbe5b8b4e	-0.2143986
200	0x3ec8d318	0.39223552
201	0x3e97a2c5	0.2961637
202	0x3f081d70	0.5316992
203	0x3f22a32d	0.63530236
204	0x3efdcb5f	0.49569222
205	0xbd80ec31	-0.0629505
206	0x3ef9d6de	0.48796743
207	0x3efc5f70	0.49291563
208	0xbf37f9b7	-0.7186541
209	0x3de66393	0.11249461
210	0x3ed38ac0	0.41316795
211	0x3c8495ab	0.016184648
212	0x3f1d3519	0.61409146
213	0x3ef98701	0.48735812
214	0xbf3f7ca6	-0.74799573
215	0x3d658b57	0.056041088
216	0x3d873ccd	0.06603394
217	0x3f22ae21	0.6354695
218	0xbd8f792e	-0.07005535
219	0xbe287daf	-0.16454194
220	0xbdb451ef	-0.0880469
221	0xbda05711	-0.078291066
222	0x3d9839ff	0.07432937
223	0xbd1f4c18	-0.038890928
224	0xbdbbf2c3	-0.091771625
225	0xbe3dbc31	-0.1852882
226	0xbe117bdf	-0.1420741
227	0xbe050786	-0.12991151
228	0xbd88ccef	-0.06679713
229	0x3d3b16ad	0.045675922
230	0xbe141b3d	-0.14463516
231	0xbe3ec983	-0.18631558
232	0x3e3a105f	0.18170308
233	0x3c131bdb	0.008978809
234	0xbe4b11cb	-0.19831006
235	0x3c21cae9	0.009875038
236	0x3ce56e93	0.028006827
237	0x3dc9cfae	0.09854065
238	0x3d7eb3a1	0.062183026
239	0xbe0db9f1	-0.13840462
240	0x3e4ff2b1	0.20307423
241	0x3f2a0934	0.6642029
242	0xbf042211	-0.5161448
243	0xbf2d6dbe	-0.6774558
244	0xbf2e9813	-0.68200797
245	0x3e149df8	0.14513385
246	0x3d0e6503	0.0347643
247	0xbf250101	-0.64454657
248	0x3efc89d3	0.49323902
249	0xbd83751a	-0.0641882
250	0xbf30fb09	-0.6913305
251	0x3e3f8ab3	0.18705253
252	0xbef98461	-0.4873381
253	0xbf0cf927	-0.55067676
254	0x3f0c0742	0.54698575
255	0x3f28e7f2	0.6597892

fc2.bias f4 [15]
0	0x3dfb23a1	0.12262655
1	0xbe47d1e2	-0.19513658
2	0xbdb0e63f	-0.08637666
3	0xbdef1714	-0.11674324
4	0x3e8ddfcc	0.27709806
5	0x3e2ecb0b	0.17069642
6	0x3e476f13	0.19475965
7	0xbe0455a3	-0.12923293
8	0x3f01708c	0.5056236
9	0x3ec280e0	0.3798895
10	0x3ef5e85e	0.48028845
11	0xbd6a7f37	-0.057250228
12	0x3ea639a4	0.3246585
13	0xbddb2e2e	-0.107021675
14	0x3cfd944d	0.030954504

fc3.weight f4 [10, 15]
0	0x3f0daad8	0.5533881
1	0x3ce9ea95	0.02855424
2	0xbe6f84a3	-0.2339044
3	0x3df10e26	0.11770277
4	0xbf0030ca	-0.50074446
5	0xbf05cd9b	-0.52266854
6	0xbed2a7f4	-0.41143763
7	0x3df4345b	0.119240485
8	0x3ea43d13	0.32077846
9	0x3ec8724b	0.391497
10	0xbf14192b	-0.57850903
11	0xbe178538	-0.14796913
12	0x3f16f2ca	0.58964217
13	0xbe35a1ad	-0.17737456
14	0x3e4cd89d	0.20004506
15	0x3ed7558c	0.42057455
16	0x3e16572f	0.14681695
17	0x3e427e2e	0.18993446
18	0x3cb570b0	0.02214846
19	0xbebb3119	-0.36560896
20	0xbf1979fe	-0.5995177
21	0xbe50a88a	-0.20376793
22	0xbe00efcc	-0.12591475
23	0x3e560d74	0.2090357
24	0x3f2fe3ca	0.68706954
25	0xbf0ea36d	-0.5571812
26	0xbdb7ff31	-0.08984221
27	0x3ecf86d2	0.40532547
28	0xbdde6f2d	-0.10861049
29	0x3e829d72	0.25510746
30	0x3ea5cb4a	0.3238166
31	0x3da298ba	0.079392865
32	0x3c045acb	0.008078287
33	0x3d82f44d	0.06394253
34	0x3e394126	0.18091258
35	0x3e744204	0.23853308
36	0x3edd196d	0.4318346
37	0xbdbf0e78	-0.093289316
38	0x3eebf7b9	0.46087435
39	0x3f117a61	0.5682736
40	0x3eb4ed5e	0.35337347
41	0xbdff5bed	-0.12468705
42	0x3e1e8686	0.15481004
43	0xbe53b977	-0.20676218
44	0xbe585dec	-0.21129578
45	0x3ef2c54f	0.4741616
46	0xbe457367	-0.19282304
47	0x3d45c6f6	0.048285447
48	0xbe1172f3	-0.14204006
49	0xbeddc428	-0.43313718
50	0xbf2c0a49	-0.67203194
51	0xbf16e26f	-0.5893926
52	0xbe147085	-0.14496048
53	0x3f010634	0.5040009
54	0x3f334442	0.7002603
55	0xbf0088b8	-0.50208616
56	0xbd6d1e2c	-0.057890102
57	0x3f3cb517	0.7371382
58	0x3e818877	0.25299427
59	0xbe25dac4	-0.16196734
60	0x3ebc8b7b	0.36825165
61	0xbd6b41dc	-0.057435855
62	0xbd87f0ad	-0.06637702
63	0xbd5f72bd	-0.054552782
64	0x3f13c269	0.5771852
65	0x3ef01e84	0.46898282
66	0x3efefd2b	0.49802527
67	0xbdcd11ca	-0.100131586
68	0x3e6ee45f	0.23329304
69	0xbf145742	-0.57945645
70	0x3ecdb9a1	0.40180686
71	0xbe7b797b	-0.2455806
72	0xbf021527	-0.50813526
73	0x3def91df	0.116977446
74	0xbe4875a5	-0.19576128
75	0x3e774918	0.24148977
76	0xbd05d271	-0.032671396
77	0xbd8b6951	-0.06807197
78	0x3e80ed90	0.25181246
79	0xbf0245f8	-0.50888014
80	0xbf4121d9	-0.7544227
81	0xbecf2b7e	-0.4046287
82	0xbe82505e	-0.2545194
83	0x3ed7aac8	0.42122483
84	0x3f153b8c	0.58293986
85	0xbe9bb8e5	-0.304145
86	0xbdf7559d	-0.12076876
87	0x3f205f52	0.6264545
88	0x3ba485ca	0.0050208317
89	0x3da8241c	0.08210012
90	0x3eaed5d8	0.34147525
91	0x3e2e912d	0.17047568
92	0xbe78c8f1	-0.24295403
93	0xbe21a6dc	-0.15786308
94	0x3eec05e0	0.46098232
95	0x3ec44e0f	0.38340804
96	0x3ee2c234	0.4428879
97	0xbe74ade1	-0.23894455
98	0xbe779f1d	-0.2418179
99	0xbeae112f	-0.33997485
100	0x3eec5400	0.46157837
101	0xbdd98051	-0.106201775
102	0xbf090307	-0.53520244
103	0xbd3b90ef	-0.045792516
104	0x3e11377c	0.14181322
105	0xbdd11a15	-0.10210053
106	0xbe4afa91	-0.19822146
107	0xbe716adb	-0.23575918
108	0x3e3735d4	0.17891628
109	0xbdcb4657	-0.09925526
110	0xbe77d32c	-0.2420165
111	0xbde96d05	-0.11397747
112	0xbe51f1c1	-0.20502378
113	0xbe440f69	-0.19146504
114	0xbd00d2b6	-0.03145095
115	0x3da62fd1	0.08114589
116	0x3d41b619	0.047292802
117	0xbe74ebfc	-0.23918146
118	0x3e47b1ab	0.19501369
119	0x3d35852f	0.044316467
120	0xbe1be307	-0.15223323
121	0x3d158bd4	0.036510304
122	0x3e21351d	0.15742917
123	0xbe4b65ba	-0.19863024
124	0xbd746a91	-0.059671942
125	0xbd9235ff	-0.07139205
126	0xbe1fa39b	-0.15589754
127	0xbe81dbed	-0.25363103
128	0x3c07e026	0.008293187
129	0x3d833bfe	0.06407927
130	0xbe53b89b	-0.2067589
131	0xbccab81b	-0.024745991
132	0x3e0fcc1a	0.14042702
133	0x3d921379	0.0713262
134	0x3dc033f5	0.0938491
135	0x3d07f465	0.033192057
136	0x3e71f760	0.23629522
137	0xbe544d9d	-0.20732732
138	0x3c83d93e	0.0160948
139	0x3e129391	0.14314105
140	0x3b0ed8da	0.0021796734
141	0xbe79776b	-0.2436196
142	0xbe2987ce	-0.16555712
143	0xbe602386	-0.21888551
144	0xbea7073a	-0.326227
145	0x3c9d3677	0.01919101
146	0xbe8141ec	-0.25245607
147	0xbe9895bb	-0.29801735
148	0xbe2bb289	-0.16767325
149	0xbe35084b	-0.17678945

fc3.bias f4 [10]
0	0x3e9faadf	0.31185052
1	0x3d293f07	0.041319873
2	0x3eb041a3	0.34425077
3	0x3ea064e2	0.31326967
4	0x3ef60e12	0.4805761
5	0xbddee296	-0.108830616
6	0x3e8cb691	0.27483037
7	0xbe35453f	-0.17702197
8	0x3e294308	0.16529477
9	0xbd270303	-0.040774357

fc4.weight f4 [5, 10]
0	0xbe917188	-0.2840693
1	0x3e1de5ca	0.15419689
2	0xbdf8cae0	-0.1214807
3	0x3e88da5f	0.26729104
4	0xbdc51540	-0.09623194
5	0xbd8f1b3f	-0.06987619
6	0x3e29c714	0.16579849
7	0xbe1b1b4f	-0.15147136
8	0x3e0f4819	0.13992347
9	0x3ccf9ad5	0.025342384
10	0xbf3f9879	-0.7484203
11	0xbf34ce0a	-0.7062689
12	0x3ed5391c	0.41645133
13	0xbf691524	-0.91047883
14	0x3ed78547	0.4209387
15	0xbf857f7f	-1.0429534
16	0x3ed67ab4	0.4189049
17	0x3e39c18f	0.18140243
18	0xbe58c06e	-0.21167156
19	0x3b2e02ee	0.002655204
20	0xbf4d4f96	-0.80199564
21	0xbf677a42	-0.90420926
22	0x3bbd80bf	0.00578317
23	0xbefca8e5	-0.49347606
24	0x3f0a4a41	0.5401955
25	0xbf6d7006	-0.9274906
26	0x3ea90305	0.33010116
27	0xbe5acd0c	-0.21367282
28	0xbcf1e7ac	-0.029529415
29	0xbcd3ed02	-0.02586985
30	0x3ea8b63a	0.32951528
31	0x3df8e3e1	0.121528395
32	0xbe66de6f	-0.22545789
33	0x3dc1294b	0.09431704
34	0xbde17cf8	-0.11010164
35	0xbe0163e6	-0.12635764
36	0x3da0af65	0.07845954
37	0xbe60054c	-0.2187702
38	0xbdb05135	-0.08609239
39	0x3d15fede	0.036620013
40	0x3f1b6ba5	0.6071113
41	0x3ef9e6bc	0.4880885
42	0x3ecfce70	0.40587187
43	0x3f22d29b	0.6360261
44	0x3d691561	0.056905154
45	0x3e96f004	0.29479992
46	0xbe0d49f1	-0.13797738
47	0x3ce25a72	0.027631018
48	0xbe0fe38a	-0.14051643
49	0xbeaaa9f7	-0.33332798

fc4.bias f4 [5]
0	0xbe976db6	-0.2957589
1	0x3ea6e7e8	0.32598805
2	0xbd711496	-0.058857523
3	0xbe85b2b6	-0.26112908
4	0x3ec9cc4d	0.39413682

fc5.weight f4 [4, 5]
0	0xbe99f9c7	-0.30073377
1	0x3cd7f24b	0.026360651
2	0xbf4238da	-0.75868
3	0x3ebea3ad	0.3723425
4	0x3eefc2e3	0.46828374
5	0xbe6b1c6d	-0.22960062
6	0x3f460453	0.7735035
7	0x3f57fa83	0.84366626
8	0xbe880fa2	-0.26574427
9	0xbedc12e2	-0.42983156
10	0x3e94a61c	0.2903298
11	0xbdf64b86	-0.12026124
12	0x3d24f70a	0.040274657
13	0xbe1577ab	-0.14596431
14	0xbe663b8c	-0.22483653
15	0xbe342e23	-0.17595725
16	0xbcb62019	-0.022232102
17	0xbde229f4	-0.11043158
18	0xbed4848b	-0.41507372
19	0xbed1b993	-0.40961894

fc5.bias f4 [4]
0	0x3d907686	0.070538566
1	0x3e0e4384	0.13892943
2	0x3de62cf2	0.112390414
3	0xbf0d8749	-0.55284554
