Laboratorios/Lab1/checkpoints/modelo_epoch_40.pth (torch, 7848 bytes, 10 tensors)

fc1.weight f4 [20, 24]
000000 3b 2d 85 3d 0b 26 f9 3c 7a 45 36 3d e8 3a 35 3d
       0.06502768 0.030413648 0.04449985 0.04424563
000010 88 04 1b 3d fc 02 24 3d d8 a1 d5 3c c4 aa e3 3c
       0.03784612 0.04004191 0.02607815 0.027791388
000020 2f d6 b1 3c bf f7 42 3d a7 4c 3c 3d cb b0 8f bc
       0.021708576 0.04759955 0.04597154 -0.017540356
000030 b9 e1 06 bd 5a 5e 43 bd 77 e4 3f bd 60 0f ae bc
       -0.03293011 -0.047697403 -0.04684874 -0.021247566
000040 59 d5 14 3d 7c 83 53 bd e0 e8 1c bd 26 30 df bc
       0.036336277 -0.051639065 -0.038308024 -0.027244639
000050 9d be 69 3d 24 55 61 3d 04 c4 11 3d 76 2d 50 3d
       0.05706655 0.055012837 0.035587326 0.050824605
000060 70 94 23 3d 75 b2 2d 3d df 92 03 3d 1a 9f 0f 3d
       0.039936483 0.042406518 0.03212249 0.03506384
000070 70 f1 31 3d 19 4b f0 3c e3 07 46 3d eb d9 58 3d
       0.043443143 0.029332684 0.048347365 0.052942198
000080 fc 75 c4 3c c6 ba 0d 3d c0 5c 1c 3d 6e f3 fb 3c
       0.02398204 0.03460195 0.03817439 0.030755725
000090 a5 73 31 3d 98 5c dc 3c 94 d5 af 3c a8 1a 43 3d
       0.043323178 0.02689962 0.021464147 0.047632843
0000a0 ee 6e 57 3d 63 38 e3 3c 43 66 10 3d ec 0f 4a bc
       0.052596025 0.027736848 0.035253774 -0.012332898
0000b0 80 71 1e 3d 7e c6 7b 3c aa 41 77 3d 04 83 83 3d
       0.03868246 0.015367148 0.060365357 0.064214736
0000c0 e6 0a 1c 3d ec 1a 26 3d a8 23 11 3d c7 93 40 3d
       0.03809633 0.04055302 0.035434395 0.04701593
0000d0 df 28 0f 3d 74 2b 05 3d c5 34 22 3b 88 df 2a 3d
       0.034951087 0.032512143 0.0024750691 0.041717082
0000e0 f1 b6 81 bb c9 fb ac 3c 6c 3d 00 bc 14 d6 37 bd
       -0.003958576 0.021116154 -0.007827144 -0.044881895
0000f0 20 33 30 bd 3b 8e 17 bd f2 2e 2e bd 9a e9 e0 bc
       -0.043017507 -0.037000876 -0.04252524 -0.02745514
000100 a5 78 17 3d 51 7d 49 bd ef 76 4c bd 26 dc 09 bb
       0.03698029 -0.049191777 -0.04991811 -0.002103576
000110 8f 95 f3 3c be ed 1d 3d 9f b3 28 3d 30 7a 2a 3d
       0.029734401 0.038556807 0.041186925 0.041620433
000120 ab 90 03 3d 72 d4 fc 3c 91 a5 eb 3c d4 65 0d 3d
       0.032120388 0.03086302 0.028765472 0.03452094
000130 9f 47 54 3d f7 87 0a 3d 7c 00 cf 3c ca 82 4c 3d
       0.051826116 0.033821072 0.025268786 0.049929418
000140 0f 7a 4a 3d 6b e2 22 3d 6e 9c 16 3d 04 c3 cb bc
       0.04943281 0.03976671 0.036770277 -0.024873264
000150 ca 23 1d bd 16 b7 08 bd 0b 68 18 bd 2e 7d c8 3c
       -0.03836421 -0.03337773 -0.037208598 0.024473753
000160 67 57 60 3d 17 d7 67 bd 08 68 02 bd bc 77 11 bd
       0.054770853 -0.05660161 -0.031837493 -0.03551458
000170 f3 87 88 3d 27 46 ef 3c f5 df fd 3c ea 96 30 3d
       0.06666555 0.029208256 0.03099058 0.043112673
000180 d4 31 55 3d 2b 84 3d 3d 7f 3f e1 3c a1 ea 9a 3c
       0.052049473 0.046268623 0.027496098 0.018910708
000190 19 bc 97 3c c3 0b 2c 3d a6 a6 94 3b 0a 5c 26 3d
       0.01852231 0.042003404 0.0045364676 0.04061512
0001a0 56 cd ea bc 3e 9d 94 3c 2a d2 7c ba a1 a7 a1 bc
       -0.028662365 0.018141385 -0.0009644354 -0.019733252
0001b0 b1 b1 cd bb 1e c6 11 bd bc ef 44 bd 28 fb b7 bc
       -0.006277286 -0.03558933 -0.04808019 -0.022458628
0001c0 eb 50 ef 3c ce 1e 06 3c 41 23 98 3c 2e 44 30 3d
       0.02921339 0.008186055 0.018571498 0.04303377
0001d0 e5 27 f6 3c b7 ea 80 3c 09 11 33 3d ad c3 08 3d
       0.03004832 0.01573692 0.043717418 0.033389736
0001e0 46 0d 3d bb 6f d1 66 ba 80 61 77 bc 35 ec 9e 3b
       -0.0028847023 -0.0008805012 -0.015098929 0.0048499354
0001f0 39 a8 df bb 9c ad 41 bc ab d1 4a bc 48 e0 b5 bb
       -0.0068254736 -0.011821177 -0.01237909 -0.005550418
000200 37 5c f7 bc b2 31 13 bc 3e 27 6e bc 9a 59 89 bc
       -0.030195339 -0.008984016 -0.014535723 -0.016766358
000210 5e 50 46 3b b1 28 86 bb 5b e6 18 3c ae cd 17 3c
       0.0030260305 -0.0040942063 0.009332265 0.009265346
000220 ed 5d 62 bc 73 84 1e 3c e7 a4 cc bc 6f 47 39 bc
       -0.013816339 0.009675133 -0.024980975 -0.011308535
000230 e0 02 26 3c 35 04 a0 bc 7f cc 8c bc 37 d0 f3 ba
       0.010132521 -0.019533256 -0.017187355 -0.0018601482
000240 0b 26 5d 3d 33 00 38 3d 0d 50 16 3d ef 3e 7a 3d
       0.05399136 0.044922065 0.036697436 0.061095174
000250 c8 f1 94 3c 03 67 b7 3c 87 92 f4 3c a0 f0 b3 3c
       0.018181697 0.022387987 0.029855026 0.021965325
000260 ca 36 38 3c 15 12 c8 3c 16 51 82 bb c8 48 b3 bc
       0.0112435315 0.024422685 -0.0039769514 -0.02188529
000270 1b b0 92 bc e0 2a ca bc fd 18 06 bd 78 27 51 3b
       -0.01790624 -0.024678648 -0.032738674 0.0031914394
000280 bd 51 cd 3c 55 79 16 bd f5 61 26 bd 80 29 d1 bc
       0.02506339 -0.036736805 -0.040620763 -0.025532484
000290 a7 ab 36 3d 34 29 3c 3d 52 86 86 3d d4 89 1e 3d
       0.044597294 0.04593773 0.06568588 0.038705662
0002a0 06 51 fc 3b 42 1c f5 3c cf 2f 31 3d 10 66 f8 3c
       0.0077000884 0.029920701 0.043258484 0.030322105
0002b0 6a 7b 26 3d b0 4c 3f 3d 0f 56 d2 3c 26 92 20 3d
       0.04064504 0.046703994 0.025675802 0.039201878
0002c0 c3 3f ac 3c 34 f1 3f 3d c7 0a d9 3c 89 1d b3 bc
       0.021026498 0.04686089 0.026494397 -0.02186467
0002d0 29 31 10 bd 9b b5 a1 bc a3 a9 44 bd f4 18 5c bb
       -0.035203133 -0.019739917 -0.04801334 -0.003358421
0002e0 cd 06 29 3d 58 a3 d2 bc 1c b5 16 bd ce ac f3 bc
       0.04126625 -0.025712654 -0.036793813 -0.029745486
0002f0 b5 a2 c6 3c 3c 2c ed 3c 9a 22 5f 3d 0c 87 35 3d
       0.024247507 0.028951757 0.054476358 0.044318244
000300 94 48 a6 3a 57 3d 16 bc 28 60 c1 3b e8 9f e4 ba
       0.0012686425 -0.009169898 0.0059013553 -0.0017442675
000310 33 3a d7 bc 58 16 c0 bc 51 73 0f 3b 62 1f d6 bc
       -0.026272869 -0.023448154 0.0021888802 -0.026138011
000320 8f eb 09 3d 73 d0 6e bc d2 3a 86 3b 2b ad f7 3c
       0.03367191 -0.014576065 0.0040963674 0.03023394
000330 d3 c2 24 3d bb e2 10 3d fd b0 34 3d dc 29 36 3c
       0.04022486 0.035372477 0.0441141 0.0111183785
000340 c6 3d 32 3b c2 69 71 3c 52 10 5a 3d b3 d2 74 3d
       0.0027197464 0.014734687 0.05323822 0.05977125
000350 39 09 77 bc 32 c0 ac bb 21 6b a7 bb 3d 73 92 bc
       -0.015077882 -0.005271935 -0.0051092063 -0.017877216
000360 83 ee 29 3b 51 de e9 bb f6 ed 8d bb 64 00 1b bc
       0.0025929518 -0.007137098 -0.0043313457 -0.009460542
000370 f4 40 5a 3b 77 2b f3 3a 1c 78 65 bc d9 f1 23 bb
       0.0033302875 0.0018552382 -0.014005687 -0.0025015979
000380 80 46 40 bb b4 24 b1 bc ba 48 08 bc 26 4d 60 bb
       -0.0029338896 -0.021623947 -0.008318121 -0.0034225672
000390 96 75 20 bb 6b 4c ee ba af fa 4c bb 47 ab 9d bc
       -0.002448415 -0.0018180733 -0.0031277349 -0.01924671
0003a0 f4 42 8d 3b 73 59 44 3b a3 57 b7 bb 47 db df bb
       0.00431096 0.0029960542 -0.005595164 -0.00683156
0003b0 44 6e ee bc f6 cc 84 bb 7a ba c1 bb 83 00 47 bc
       -0.029105313 -0.0040527536 -0.0059121223 -0.012146118
0003c0 6e 3c 10 3d 4e c4 cb 3c 02 c9 04 3d cd b8 f3 3c
       0.03521388 0.024873879 0.03241826 0.029751206
0003d0 3b fa c2 3c 97 3b 05 3d 71 ee 9e 3c 91 df 9c 3c
       0.02380096 0.032527532 0.019400807 0.019149574
0003e0 00 27 36 b9 ed 53 32 3d 8c d9 03 3d 33 ef 8a bd
       -0.00017371401 0.04353707 0.03218989 -0.06783905
0003f0 b6 97 81 bd 3b 60 4a bd a7 8f 7b bc c0 9d d1 3b
       -0.06327765 -0.04940818 -0.015354074 0.006396979

fc1.bias f4 [20]
000000 53 58 2d 3d 84 79 1f 3d 01 a3 1b 3d 43 94 17 3d
       0.04232056 0.038934246 0.03799725 0.037006628
000010 00 a0 08 3d 17 da 20 bc 33 a5 f5 3c 83 30 23 3d
       0.033355713 -0.009817622 0.029986 0.039841186
000020 68 99 dd 3b b8 a6 aa bb 1f 5a e3 3c e9 0b 8c bb
       0.006762672 -0.0052078627 0.027752934 -0.0042738807
000030 d7 8e 27 3d 81 d9 f5 3c 3a 31 be 3c f5 b9 d7 3c
       0.040907707 0.03001094 0.023216832 0.026333788
000040 00 00 00 00 d6 ed c8 3c 57 51 f4 bb 03 72 23 bc
       0.0 0.024527472 -0.0074559855 -0.009975913

fc2.weight f4 [15, 20]
000000 42 e5 52 3e 57 7e 62 3e 65 72 18 3e 4f 67 ed bd
       0.20595267 0.22118507 0.14887388 -0.1159197
000010 c3 fd ea bd a1 63 23 3e 12 ca 98 3d c7 65 44 be
       -0.114741825 0.15955974 0.07460417 -0.1917945
000020 d0 61 c5 bd f8 5c d9 bd a9 a3 b5 3d 24 2d 0e 3e
       -0.09637797 -0.106134355 0.08869106 0.13884407
000030 72 4a 2e bd 79 14 3f 3e ff eb bb 3c 61 10 89 bb
       -0.042551465 0.18660153 0.02293968 -0.0041828607
000040 4a f1 16 3e 89 a4 b8 bd 5b d9 d4 3d b2 c6 70 bd
       0.14740482 -0.090157576 0.1039302 -0.05878324
000050 00 fb d7 3d b7 69 9c bc ea 25 55 be d7 89 81 3d
       0.10545921 -0.019093378 -0.20815244 0.06325119
000060 35 e0 f4 bd ad 15 4a 3e dd 7c 15 be 13 69 16 3e
       -0.119568266 0.19734831 -0.14598413 0.1468852
000070 5c 2a ce bc 7d 8d 11 be 81 f1 cc 3d 90 e9 59 bd
       -0.025166683 -0.1421413 0.10007001 -0.05320126
000080 f5 94 0d bd e9 7c 2a 3e db be 9c bc 18 12 8e ba
       -0.034565885 0.16649212 -0.019133976 -0.0010839133
000090 85 fa eb bd 7e a2 bf 3c 94 f3 9a 3d 3b 4e 3c 3e
       -0.11522392 0.023392912 0.0756599 0.18389218
0000a0 3a e4 2c 3d 1a 78 64 bd 41 89 de bd bc 90 f7 bd
       0.04220984 -0.0557786 -0.10866023 -0.12088153
0000b0 c5 9d 52 be 9c 3f 28 3e 61 0d 42 3d 14 f5 2b bd
       -0.20567997 0.16430515 0.04737604 -0.04198177
0000c0 7d b9 64 be 33 ab 3b 3e 6c 88 e2 bd 72 ee 64 3d
       -0.22336383 0.18327026 -0.11061177 0.05589146
0000d0 35 cf 06 be 98 33 be 3d 11 12 6b 3d b7 bc 42 3d
       -0.1316498 0.092871845 0.057390276 0.047543254
0000e0 a7 ac 09 3e f3 8f 41 3e 2f 4a c0 3d a2 69 21 3e
       0.13444768 0.18902569 0.093891494 0.15762952
0000f0 41 01 ea bd 16 82 8a 3d 8a ba bd bd 7d 92 32 3e
       -0.114260204 0.06763093 -0.09264095 0.17438693
000100 d5 06 28 be 47 ec 29 be 68 e3 36 3e fb c0 9c 3c
       -0.16408856 -0.16594039 0.17860186 0.019134989
000110 a4 f8 84 bd 89 5d be bb 69 db 87 bc d7 d4 61 bd
       -0.06492737 -0.00580949 -0.016584115 -0.05513462
000120 35 98 4e bd 93 bd dc 3d ab 79 20 be 2e 71 d9 bc
       -0.050438125 0.10778346 -0.15671413 -0.026543226
000130 79 02 a7 bd b2 b9 27 be 41 4d 27 bd 3d a0 b5 bd
       -0.081547685 -0.16379431 -0.04084516 -0.08868454
000140 96 f3 ae bd e9 98 fa 3c f0 66 86 3c 67 25 6c 3d
       -0.08542554 0.030590491 0.016406506 0.057652857
000150 b1 64 3c bd 30 a0 24 3e e9 16 79 bc a5 2a 68 3e
       -0.045994464 0.16076732 -0.015203216 0.22672518
000160 06 e8 d2 bd 55 db 44 be 0b cd 28 3e c4 c7 60 bd
       -0.10298161 -0.19224294 0.16484468 -0.05487801
000170 64 b7 6f bd 64 fb 08 3e 9c cc 43 bd bb a4 87 3e
       -0.058524504 0.13377148 -0.047802553 0.26492867
000180 e4 19 24 be 7d ca ba bd 23 8a 3c be f5 bd 3b be
       -0.16025501 -0.09120653 -0.1841207 -0.18334182
000190 e2 6d 4e 3d 6d 3c 0a 3d 9d 9e 1b be 1f 02 e0 3d
       0.05039776 0.033749033 -0.15197225 0.109379046
0001a0 15 d2 0a 3d fc e2 3d 3e ff 55 c2 3d 4d a1 39 3e
       0.033891756 0.18543619 0.09489059 0.18127938
0001b0 92 32 7a bd 31 bc 35 bd 80 63 25 3e 74 86 03 be
       -0.061083384 -0.044368926 0.16151237 -0.12844259
0001c0 3c 3c 83 3e 20 58 1d bc 6d 71 00 3e 7d f3 d2 bc
       0.25631893 -0.00960353 0.12543269 -0.02575087
0001d0 70 ec 0a 3c 99 2d 2e 3e c7 65 1c be a6 75 4f bc
       0.008479223 0.17009582 -0.152732 -0.012662327
0001e0 a0 e0 dc bc 12 f3 5b 3d 85 e5 92 3c 88 ee 74 bd
       -0.026962578 0.053698607 0.017931709 -0.059797794
0001f0 1a 91 0e 3d 9a c3 a9 bd ab bd 25 3e 8b e6 36 3e
       0.03480635 -0.08289261 0.16185634 0.17861383
000200 3b 60 2a be 2f c6 be bd 9f 1f 4c bd 0d 2b b3 bd
       -0.16638272 -0.09315144 -0.049834844 -0.08748446
000210 1e ab e7 3c 5a 76 2c be 05 8e c8 3c d9 bd 64 be
       0.028279837 -0.16842023 0.024481783 -0.22338046
000220 03 c4 86 bc 25 8b 0d 3c 4f 1c 43 3d 5d 58 60 3e
       -0.016450888 0.008639132 0.04763442 0.21908708
000230 55 59 57 be 2b e7 38 be de 6f cb bd 47 b9 9c bd
       -0.21030171 -0.18056934 -0.09933446 -0.07652526
000240 c9 d1 21 3d aa e2 14 be f8 77 ef bd 51 a9 51 bd
       0.039506707 -0.1453959 -0.11692804 -0.051186863
000250 00 b1 b1 bb 90 17 55 bb 82 51 58 be d9 d6 4d be
       -0.0054227114 -0.0032515265 -0.21124843 -0.20101489
000260 08 8c 17 3e 34 09 21 3e cf a9 53 3e 98 59 db 3c
       0.14799511 0.15726167 0.20670246 0.02677612
000270 96 65 1f be 8f ad 3b 3e 87 2f 14 be f9 26 06 3e
       -0.15566096 0.18327926 -0.14471255 0.13100804
000280 21 5c 86 bd 3b 48 9e 3d bc 7f 7e be d6 19 b3 bd
       -0.06560541 0.077286206 -0.24853414 -0.08745162
000290 6f 5b ec bd 48 49 f0 3d ec ca 39 be 3d bc f5 3d
       -0.11540877 0.11732727 -0.18143815 0.11998794
0002a0 be 3a 96 3d e7 17 4a be 2a 06 2c 3e 33 19 64 3e
       0.07335423 -0.1973568 0.16799226 0.22275238
0002b0 49 c0 2b be c6 e5 56 be 5e da 4d 3c a9 28 1e 3e
       -0.1677257 -0.20986089 0.01256427 0.15445198
0002c0 f5 0e e8 3b 6b ce 15 be c6 d8 2d be bf ea 60 bd
       0.007081861 -0.14629523 -0.16977224 -0.05491137
0002d0 40 c8 1b 3e 31 e2 f3 3d 8f 8d 5b be 55 4e cf 3d
       0.15213108 0.11908377 -0.21440719 0.101223625
0002e0 94 45 3a 3c e6 40 e0 bd 32 d7 72 be 26 c9 81 be
       0.011369128 -0.109498784 -0.23714903 -0.25348777
0002f0 4d b1 0f be d9 5e 48 3e d6 b4 ee bd 26 e5 f3 3d
       -0.14032479 0.19567432 -0.116555855 0.11908941
000300 7f 20 6a bd 30 0f 60 be 8e d5 a5 3d f5 fd 4f 3e
       -0.057159897 -0.21880794 0.08097373 0.2031172
000310 1d cb bd 3d 4f 71 52 be 67 bd 20 bd b2 b5 5b be
       0.092672564 -0.20551036 -0.03924313 -0.2145603
000320 6f b6 38 3e 5c 5e 82 3e 4e ff ac 3d 86 05 43 3e
       0.18038343 0.25462615 0.08447133 0.19045076
000330 3a d8 6c bb 36 3b 81 bd d6 13 ee 3d e9 23 22 3d
       -0.0036139623 -0.06310122 0.11624877 0.039585028
000340 c8 55 38 be cc 65 e6 3d 39 c7 59 bd a9 94 84 3c
       -0.18001473 0.11249885 -0.05316851 0.016184168
000350 c7 85 2f 3e 19 41 b4 bc 6d d9 81 be 6e c0 e1 3d
       0.17140876 -0.022003697 -0.25361195 0.11023031
000360 cd 3c 87 3d db ed 0b 3e c5 cc 8f bd 62 9d 28 be
       0.06603394 0.13664953 -0.070214786 -0.16466287
000370 ef 51 b4 bd 11 57 a0 bd ff 39 98 3d 18 4c 1f bd
       -0.0880469 -0.078291066 0.07432937 -0.038890928
000380 c3 f2 bb bd 31 bc 3d be df 7b 11 be 86 07 05 be
       -0.091771625 -0.1852882 -0.1420741 -0.12991151
000390 ef cc 88 bd ad 16 3b 3d 3d 1b 14 be 83 c9 3e be
       -0.06679713 0.045675922 -0.14463516 -0.18631558
0003a0 5f 10 3a 3e db 1b 13 3c cb 11 4b be e9 ca 21 3c
       0.18170308 0.008978809 -0.19831006 0.009875038
0003b0 93 6e e5 3c ae cf c9 3d a1 b3 7e 3d f1 b9 0d be
       0.028006827 0.09854065 0.062183026 -0.13840462
0003c0 7e 54 34 be 74 2c 3c 3e ee c0 6c bd 2f b1 0f be
       -0.17610356 0.18376333 -0.05780118 -0.14032434
0003d0 f4 5f 03 be 18 c5 14 3e 0a 0b 20 3e 7f 39 3c be
       -0.12829572 0.1452831 0.15629211 -0.18381308
0003e0 f9 10 61 bc bb 8c 83 bd 49 99 6f be cd 8a 3f 3e
       -0.013736957 -0.064233266 -0.23398317 0.18705292
0003f0 10 99 fe b9 fd c2 24 bd 71 74 8b 3d 58 2c 15 3e
       -0.00048560696 -0.040225018 0.06809319 0.14567697

fc2.bias f4 [15]
000000 35 88 3c be e2 d1 47 be 3f e6 b0 bd 14 17 ef bd
       -0.18411334 -0.19513658 -0.08637666 -0.11674324
000010 00 0d ab 3d 66 db bd 3c a8 bd 5c bd a3 55 04 be
       0.08352089 0.023175906 -0.053891808 -0.12923293
000020 1d 35 2d 3e 29 c5 bd 3d 00 95 85 3e 37 7f 6a bd
       0.16914792 0.09266121 0.2609024 -0.057250228
000030 6a 9a fc 3d e6 c4 a8 bd 19 75 71 3d
       0.1233414 -0.082406804 0.058949564

fc3.weight f4 [10, 15]
000000 75 01 38 3e 95 ea e9 3c a3 84 6f be 26 0e f1 3d
       0.17969306 0.02855424 -0.2339044 0.11770277
000010 82 5b aa bb ac a2 11 3d 22 15 8d 3d 5b 34 f4 3d
       -0.005198897 0.035555527 0.068887964 0.119240485
000020 b7 fb 16 be e6 ff 1b be 38 29 39 be 38 85 17 be
       -0.14744459 -0.15234336 -0.1808213 -0.14796913
000030 69 09 2c 3d b0 7e 3c be 62 46 4c 3e 9e be 65 3e
       0.04200116 -0.18407702 0.19948724 0.22435996
000040 2f 57 16 3e 2e 7e 42 3e b0 70 b5 3c 6a 7e 75 3d
       0.14681695 0.18993446 0.02214846 0.05993501
000050 c1 e5 d1 bd 8f 2f 61 3e cc ef 00 be 1d e3 de bd
       -0.102489 0.21990798 -0.12591475 -0.10883162
000060 3a 62 82 3e e1 c1 4f be 31 ff b7 bd ed 88 bc bd
       0.25465566 -0.20288803 -0.08984221 -0.09205804
000070 64 a3 e3 bd 72 9d 82 3e 0e a4 22 bd ba 98 a2 3d
       -0.11115149 0.25510746 -0.039707236 0.079392865
000080 cb 5a 04 3c 4d f4 82 3d 4f 60 06 be 8c e6 65 bd
       0.008078287 0.06394253 -0.13122676 -0.05612807
000090 bc bd 12 3e 78 0e bf bd 15 bd d6 3d fe da 3d 3e
       0.1433019 -0.093289316 0.10485283 0.1854057
0000a0 df ad 45 3d ed 5b ff bd 6b 26 36 be e6 84 5a be
       0.04826152 -0.12468705 -0.17788093 -0.21339759
0000b0 cc c1 5b be 95 f7 cc 3d 67 73 45 be f6 c6 45 3d
       -0.21460646 0.1000816 -0.19282304 0.048285447
0000c0 f3 72 11 be 3c 06 e2 bc 00 2f 43 be a5 48 31 be
       -0.14204006 -0.027590863 -0.19060898 -0.17312868
0000d0 85 70 14 be 56 fd 26 3d 66 da 2b 3e 37 a7 29 be
       -0.14496048 0.040768944 0.16782531 -0.16567694
0000e0 2c 1e 6d bd 33 e8 46 3e 12 38 7c 3e 9f c0 30 be
       -0.057890102 0.19424514 0.24630764 -0.17260979
0000f0 3d fd 89 3d dc 41 6b bd ad f0 87 bd bd 72 5f bd
       0.067377545 -0.057435855 -0.06637702 -0.054552782
000100 ad ad 29 3e a5 cc 25 3d f9 15 da 3d ca 11 cd bd
       0.16570158 0.040478367 0.10648722 -0.100131586
000110 27 39 29 3e ed 43 24 be 63 42 ff 3c 7b 79 7b be
       0.16525708 -0.16041537 0.031159585 -0.2455806
000120 b3 27 c0 3d 97 41 ec 3d c1 bf 45 be 56 84 3b 3b
       0.09382572 0.11535948 -0.1931143 0.0028612814
000130 71 d2 05 bd 51 69 8b bd 90 ed 80 3e 8c 18 cc bc
       -0.032671396 -0.06807197 0.25181246 -0.024914049
000140 7e ab 42 be 26 ca bf 3d 5e 50 82 be 50 37 8d 3d
       -0.19010732 0.09364729 -0.2545194 0.06895316
000150 f5 6e e6 3d 6a 99 07 3e 9d 55 f7 bd 3d 14 8f 3d
       0.11251632 0.13242117 -0.12076876 0.06986282
000160 28 61 ca 3b 3e e1 b0 3d 95 9e ea 3d 2d 91 2e 3e
       0.0061761327 0.086367115 0.11456028 0.17047568
000170 f1 c8 78 be dc a6 21 be 0f 96 bd 3d 1a d7 ea bb
       -0.24295403 -0.15786308 0.09257137 -0.0071667554
000180 91 2d b3 3d e1 ad 74 be e2 d5 1b be c0 be 80 3d
       0.087489255 -0.23894455 -0.15218309 0.06286383
000190 a8 c5 0f 3e 51 80 d9 bd ba 50 fe 3c 11 a2 2b bd
       0.14040244 -0.106201775 0.031044353 -0.041902605
0001a0 2e 3d 14 3e 15 1a d1 bd 91 fa 4a be db 6a 71 be
       0.14476463 -0.10210053 -0.19822146 -0.23575918
0001b0 d4 35 37 3e 57 46 cb bd 2c d3 77 be 05 6d e9 bd
       0.17891628 -0.09925526 -0.2420165 -0.11397747
0001c0 c1 f1 51 be 69 0f 44 be b6 d2 00 bd d1 2f a6 3d
       -0.20502378 -0.19146504 -0.03145095 0.08114589
0001d0 19 b6 41 3d fc eb 74 be ab b1 47 3e 2f 85 35 3d
       0.047292802 -0.23918146 0.19501369 0.044316467
0001e0 8a 3b 01 3c d4 8b 15 3d 1d 35 21 3e ba 65 4b be
       0.00788773 0.036510304 0.15742917 -0.19863024
0001f0 e0 ef 86 3d 3d 6c 4f 3d e3 91 aa bc ed db 81 be
       0.06588721 0.050640333 -0.020821517 -0.25363103
000200 56 a4 12 3e ef d4 57 3e 27 a1 c6 bd 1b b8 ca bc
       0.14320502 0.21077321 -0.09698706 -0.024745991
000210 af aa 85 3e 38 86 99 3d 2e d0 d5 3d a2 8f 0d 3e
       0.26106784 0.07496303 0.10440098 0.13824323
000220 60 f7 71 3e 9d 4d 54 be 3e d9 83 3c 97 32 6c 3e
       0.23629522 -0.20732732 0.0160948 0.23066173
000230 1b a7 ab 3d 40 22 10 be ce 87 29 be ab 68 10 be
       0.08381482 -0.14075565 -0.16555712 -0.14102428
000240 7e 4b 79 be 53 34 d8 3d ec 41 81 be ad 2c 6e be
       -0.24345204 0.10556855 -0.25245607 -0.2325923
000250 89 b2 2b be 38 5c 3b be
       -0.16767325 -0.18296897

fc3.bias f4 [10]
000000 1c ab 11 3e e6 4b 17 bc 74 3c ad 3d 2b 39 09 3e
       0.1422543 -0.009234404 0.08458796 0.13400714
000010 72 4d 79 3e 4e b4 d0 bd 9b 2f d4 3d 3f 45 35 be
       0.2434595 -0.101906404 0.103606425 -0.17702197
000020 8f ff 7e 3e 4e db d8 3c
       0.24902175 0.02647176

fc4.weight f4 [5, 10]
000000 dd e9 81 be 8f ce 3d 3e 9d fe 9c bd 40 20 98 3e
       -0.25373736 0.18535827 -0.07665751 0.29712105
000010 5f d2 6b bd e4 22 15 bd ef ef 4f 3e 4f 1b 1b be
       -0.057573672 -0.036410227 0.20306371 -0.15147136
000020 5a cf 22 3e dc 5d 04 3d 70 38 b4 bd 66 2d cb 3d
       0.15899411 0.032316074 -0.08799827 0.099207684
000030 68 8c d9 3d 85 1f 92 be bd 19 c5 3d d6 05 52 be
       0.106224835 -0.28539672 0.0962405 -0.20510039
000040 8c 68 c6 3d 8f c1 39 3e 83 bc 89 be e6 5c db bd
       0.096879095 0.18140243 -0.26901636 -0.10711078
000050 5e 30 4a be b1 cd 25 be d0 75 e1 bd f6 57 73 3d
       -0.19745013 -0.16191746 -0.11008799 0.059410058
000060 c3 cb 28 3e ef 7f 84 be 62 32 6f bd 0c cd 5a be
       0.16483979 -0.25878856 -0.05839766 -0.21367282
000070 ac e7 f1 bc 9f 41 42 bd 1d a6 9e 3e 83 d1 c3 3d
       -0.029529415 -0.047425862 0.3098611 0.095614456
000080 71 fc 6d be 84 08 9a 3d 53 ef b4 bd 95 5e 19 be
       -0.2324083 0.075211555 -0.0883471 -0.14977486
000090 bd 16 b9 3d 4c 05 60 be 37 c1 ae bd de fe 15 3d
       0.0903754 -0.2187702 -0.085329466 0.036620013
0000a0 68 b8 47 3e be 34 b3 3c 54 3b 19 3d b9 0f 3f 3e
       0.19503939 0.021875735 0.037410095 0.18658341
0000b0 79 9b 05 be b0 1a 4f be 39 c9 7f be 72 5a e2 3c
       -0.1304759 -0.20225024 -0.24979104 0.027631018
0000c0 4a 31 41 be 58 aa 90 be
       -0.18866459 -0.28254962

fc4.bias f4 [5]
000000 c4 68 84 be dd f7 06 3e fe 64 b4 bd d2 5d 85 be
       -0.2586118 0.1318049 -0.08808325 -0.26048142
000010 eb 42 4b 3e
       0.19849746

fc5.weight f4 [4, 5]
000000 8c d1 98 be 76 05 eb 3d 10 d7 da bd bf 4a b6 3e
       -0.29847372 0.11475651 -0.10685551 0.35603902
000010 02 84 9f 3d 68 6e 6d be 89 e5 af 3e ca 0a 65 3e
       0.0778885 -0.23186648 0.3435481 0.22367397
000020 a4 e6 87 be 38 a9 aa bd 49 9d 95 3e b9 cc 23 3e
       -0.26543152 -0.08333057 0.29221562 0.15996064
000030 46 3a c0 3e 5d df f8 bd 23 fa 54 3d fd 6c 35 be
       0.3754446 -0.12151978 0.05199636 -0.17717357
000040 d6 fc 75 3e 31 7c bb 3d 03 74 d4 be 4f 25 2b be
       0.2402223 0.09154547 -0.4149476 -0.16713451

fc5.bias f4 [4]
000000 08 40 97 bd 7e a0 43 3d 91 d8 67 3e 02 e9 d5 be
       -0.0738526 0.04776048 0.22641207 -0.41779333
