Laboratorios/Lab1/checkpoints/modelo_epoch_140.pth (torch, 7862 bytes, 10 tensors)

fc1.weight f4 [20, 24]
0.23342468 0.20275076 0.2122278 0.21440856 0.20943816 0.21233292 0.1998527 0.20533231
0.2010743 0.22496119 0.22791947 0.15632655 0.113904096 0.07474496 -0.16584876 0.071161725
0.1830634 0.015386279 0.016451396 0.058501616 0.22869858 0.22608995 0.20230377 0.21923274
0.21854429 0.218074 0.20744024 0.21147962 0.22043288 0.20412117 0.2130365 0.22722939
0.18681349 0.20481776 0.20263647 0.16639386 0.16494128 0.124234274 0.051669534 0.21028036
0.22427526 0.17604016 0.11996974 0.099099755 0.21706593 0.19497064 0.24333024 0.24633825
0.20106535 0.1945855 0.19749902 0.21302545 0.21333086 0.20894058 0.15736155 0.2227956
0.13582024 0.1961562 0.11124476 0.042536978 0.012808314 0.07943169 -0.20746514 -0.015719336
0.045161832 -0.0734947 -0.063430004 0.011955236 0.20272593 0.19274306 0.20577702 0.21411425
0.17175642 0.16952547 0.17009927 0.18001132 0.20569475 0.18616877 0.15802084 0.2134186
0.1908205 0.20095739 0.20045881 0.113977976 0.059151795 0.04735741 -0.17953108 0.049742647
0.124504775 -0.06838404 -0.039279588 -0.02069496 0.22188973 0.16706221 0.17550819 0.19484222
0.15578564 0.15443356 0.1517282 0.15160814 0.19323085 0.21020453 0.11900126 0.22179931
0.10423324 0.19216326 0.15661922 0.1491033 0.15135431 0.1101806 -0.22589687 -0.03234817
0.021135706 -0.026894297 -0.009517214 0.044300467 0.20544714 0.13999069 0.17949194 0.19074449
-0.0030783731 -0.0010758025 -0.015281738 0.0046509644 -0.007014792 -0.011997345 -0.012561371 -0.0057221716
-0.030381653 -0.009172068 -0.01472912 -0.016857702 0.0028156748 -0.004095602 0.009471114 0.009384466
-0.014006253 0.009557578 -0.025177997 -0.011486526 0.009922188 -0.019748641 -0.017363677 -0.002052941
0.22686355 0.21119876 0.20680703 0.23111162 0.19466034 0.19901533 0.19561192 0.20379801
0.17674516 0.2015213 0.16820255 0.13177831 0.09823238 0.09922543 -0.19414411 0.10178592
0.1776948 0.005526645 -0.008744333 0.03141584 0.22093214 0.2107642 0.23779324 0.21742958
0.14228123 0.14869267 0.17832497 0.16704793 0.1979766 0.20201528 0.14594139 0.20625553
0.12780459 0.20312797 0.16033307 0.09929769 0.053100016 0.0657572 -0.20212662 0.008200263
0.06886997 -0.04411807 -0.045076333 -0.013970446 0.17479895 0.14013585 0.18849166 0.19880031
-0.039787702 0.04167222 0.0411223 0.026201941 -0.09630196 -0.045354966 0.09738271 -0.14414643
0.07163062 -0.057322066 -0.028252063 0.07179825 0.06297988 0.08111504 0.21590918 0.17642212
0.14388248 0.17844807 0.18520012 0.15293565 -0.15382883 -0.08859532 -0.038681474 -0.098729864
0.0025085933 -0.0072170827 -0.0043856767 -0.0095414845 0.003295654 0.0017746668 -0.01410379 -0.0025758543
-0.0030369507 -0.02170849 -0.008404201 -0.003513762 -0.0025329 -0.0019055487 -0.003233037 -0.019330988
0.004276482 0.0029533631 -0.0056885155 -0.00692362 -0.029188456 -0.0041527697 -0.0060028075 -0.012231453
0.16869758 0.13675407 0.15615574 0.14921285 0.16891642 0.1755829 0.12677467 0.17114995
0.101336375 0.17347907 0.12104379 -0.023895726 -0.020010518 0.04854 -0.16835482 0.042205304
00000000: e106 6f3e e59d 4f3e 3f52 593e eb8d 5b3e
00000010: f576 563e cd6d 593e 30a6 4c3e a242 523e
00000020: 6ce6 4d3e 3a5c 663e b963 693e 1114 203e
00000030: 8d46 e93d e313 993d 42d4 29be 3dbd 913d
00000040: f974 3b3e bb16 7c3c 14c5 863c 649f 6f3d
00000050: f62f 6a3e 2084 673e b828 4f3e 8c7e 603e
00000060: 13ca 5f3e ca4e 5f3e 376b 543e 1d8e 583e
00000070: 28b9 613e 2405 513e 3e26 5a3e d2ae 683e
00000080: 094c 3f3e bfbb 513e ef7f 4f3e 2763 2a3e
00000090: 5ee6 283e 8a6e fe3d 6fa3 533d bc53 573e
000000a0: 6aa8 653e df43 343e b2b2 f53d d0f4 ca3d
000000b0: 8846 5e3e 62a6 473e 902b 793e 1840 7c3e
000000c0: 13e4 4d3e 6c41 473e 2f3d 4a3e 5823 5a3e
000000d0: 6873 5a3e 85f4 553e 6323 213e 8824 643e
000000e0: 7614 0b3e 2cdd 483e 4bd4 e33d 413b 2e3d
000000f0: f6d9 513c 15ad a23d be71 54be d6c5 80bc
00000100: 9dfb 383d 6484 96bd 97e7 81bd e5df 433c
00000110: 6397 4f3e 705e 453e 36b7 523e c440 5b3e
00000120: eae0 2f3e 1698 2d3e 812e 2e3e e354 383e
00000130: a5a1 523e 07a3 3e3e 37d0 213e 688a 5a3e
00000140: 7366 433e c6c7 4d3e 1345 4d3e 496d e93d
00000150: 2749 723d d8f9 413d ffd6 37be f2be 4b3d
00000160: 5cfc fe3d ee0c 8cbd a2e3 20bd 7a88 a9bc
00000170: 1037 633e 5b12 2b3e 6bb8 333e b884 473e
00000180: 4586 1f3e d523 1e3e a35e 1b3e 2a3f 1b3e
00000190: 4fde 453e db3f 573e efb6 f33d 5c1f 633e
000001a0: 3d78 d53d 72c6 443e ca60 203e 89ae 183e
000001b0: a0fc 1a3e 5ea6 e13d 8251 67be 847f 04bd
000001c0: ca24 ad3c 6e51 dcbc 17ee 1bbc 6874 353d
000001d0: bc60 523e b859 0f3e bccc 373e 8652 433e
000001e0: 88be 49bb f101 8dba 4160 7abc 1e67 983b
000001f0: 57dc e5bb 8390 44bc 35ce 4dbc 0e81 bbbb
00000200: f2e2 f8bc 7146 16bc 6852 71bc 2a19 8abc
00000210: 2f87 383b 6634 86bb bb2c 1b3c 4ec1 193c
00000220: 7c7a 65bc 6397 1c3c 1642 cebc fb31 3cbc
00000230: ac90 223c e7c7 a1bc 453e 8ebc a28a 06bb
00000240: eb4e 683e 7d44 583e 39c5 533e 86a8 6c3e
00000250: 0a55 473e adca 4b3e 7e4e 483e 6db0 503e
00000260: affc 343e 9a5b 4e3e 4a3d 2c3e e5f0 063e
00000270: 0f2e c93d b436 cb3d b7cd 46be 2375 d03d
00000280: a0f5 353e dc18 b53b 6444 0fbc e5ad 003d
00000290: 093c 623e 92d2 573e 1280 733e dca5 5e3e
000002a0: 2cb2 113e e442 183e d29a 363e 9d0e 2b3e
000002b0: 61ba 4a3e 18dd 4e3e a971 153e a634 533e
000002c0: 35df 023e c700 503e 5a2e 243e 965c cb3d
000002d0: 677f 593d b6ab 863d 48fa 4ebe 655a 063c
000002e0: b30b 8d3d 26b5 34bd f6a1 38bd 4ce4 64bc
000002f0: 7ffe 323e c67f 0f3e f503 413e 4f92 4b3e
00000300: 6ef8 22bd 7db0 2a3d db6f 283d 74a5 d63c
00000310: f639 c5bd 21c6 39bd 9670 c73d 1f9b 13be
00000320: 13b3 923d 8bca 6abd df70 e7bc f60a 933d
00000330: 98fb 803d a41f a63d 4c17 5d3e 00a8 343e
00000340: ee55 133e 17bb 363e 1aa5 3d3e 2a9b 1c3e
00000350: 4e85 1dbe 7771 b5bd 7770 1ebd e232 cabd
00000360: 3667 243b 477d ecbb b9b5 8fbb e353 1cbc
00000370: e6fb 573b f09b e83a 9513 67bc aacf 28bb
00000380: 9407 47bb 01d6 b1bc c6b1 09bc 2547 66bb
00000390: 03ff 25bb 9bc3 f9ba 5ce1 53bb 055c 9ebc
000003a0: bb21 8c3b 368d 413b ba66 babb 89df e2bb
000003b0: a11c efbc f513 88bb 33b3 c4bb 6f66 48bc
000003c0: 0fbf 2c3e 4209 0c3e 4ae7 1f3e 41cb 183e
000003d0: 6df8 2c3e 01cc 333e 38d1 013e ef41 2f3e
000003e0: 7289 cf3d 7fa4 313e cee5 f73d f8c0 c3bc
000003f0: 19ed a3bc e1d1 463d 3565 2cbe 78df 2c3d

fc1.bias f4 [20]
0.217552 0.21015388 0.20631877 0.19109727 0.1872649 -0.010014423 0.20620576 0.18564081
0.025600586 -0.0052978825 0.15594068 -0.0043237004 0.19775498 0.16009143 0.06754923 0.1587985
0.0 0.15526424 -0.0075962427 -0.010177746
00000000: f4c5 5e3e 9432 573e 3a45 533e 01af 433e
00000010: 5fc2 3f3e 8913 24bc 9a27 533e a018 3e3e
00000020: 52b8 d13c dc99 adbb eaae 1f3e d4ad 8dbb
00000030: 4880 4a3e 02ef 233e 4057 8a3d 139c 223e
00000040: 0000 0000 97fd 1e3e e7e9 f8bb 90c0 26bc

fc2.weight f4 [15, 20]
0.37480462 0.38994262 0.31779352 0.053379092 0.05433702 0.15955974 0.24353305 -0.02209714
0.020840436 -0.106134355 0.2587799 0.13884407 0.12672807 0.35617098 0.14553612 0.16598335
0.14740482 0.079326056 0.1039302 -0.05878324 0.10545921 -0.019093378 -0.20815244 0.06325119
-0.119568266 0.19734831 -0.14598413 0.1468852 -0.025166683 -0.1421413 0.10007001 -0.05320126
-0.034565885 0.16649212 -0.019133976 -0.0010839133 -0.11522392 0.023392912 0.0756599 0.18389218
0.04220984 -0.0557786 -0.10866023 -0.12088153 -0.20567997 0.16430515 0.04737604 -0.04198177
-0.22336383 0.18327026 -0.11061177 0.05589146 -0.1316498 0.092871845 0.057390276 0.047543254
0.13444768 0.18902569 0.093891494 0.15762952 -0.114260204 0.06763093 -0.09264095 0.17438693
-0.16408856 -0.16594039 0.17860186 0.019134989 -0.06492737 -0.00580949 -0.016584115 -0.05513462
-0.050438125 0.10778346 -0.15671413 -0.026543226 -0.081547685 -0.16379431 -0.04084516 -0.08868454
0.074208 0.14872847 0.1939638 0.21931869 0.122111574 0.16087158 0.14288159 0.39621323
-0.25985152 -0.19221587 0.3403216 -0.05487798 0.10775602 0.3139392 -0.19926004 0.36603448
-0.16025501 0.07973629 -0.18399817 -0.18318766 0.1708694 0.11285216 6.61097e-05 0.23273623
0.16596296 0.18553565 0.20793392 0.32155815 -0.22640398 -0.044371765 0.31131727 -0.12844256
0.38764367 0.15332294 -0.03424942 0.03936473 0.008479223 0.31271896 -0.1526591 -0.012662141
0.14207064 0.22217569 0.18837616 0.10987003 0.20484267 -0.08289261 0.33157295 0.3500902
-0.25919977 -0.09315144 0.12384396 -0.08748446 0.19885232 0.0041759796 -0.047955934 -0.053307425
-0.016450888 0.17906249 0.04763442 0.21908708 -0.21030171 -0.18056934 -0.09933446 -0.07652526
0.039506707 -0.1453959 -0.11692804 -0.051186863 -0.0054227114 -0.0032515265 -0.21124843 -0.20101489
0.14799511 0.15726167 0.20670246 0.02677612 -0.15566096 0.18327926 -0.14471255 0.13100804
0.083610125 0.25265664 -0.121878535 0.057907656 0.019922916 0.1172179 -0.025095847 0.2394225
0.25751016 -0.19734526 0.25398186 0.22275235 -0.028699012 -0.15044 0.19692546 0.33927345
0.007081861 -0.022299526 -0.16990377 -0.05477269 0.25106815 0.27311122 -0.15621196 0.18594429
0.070805535 -0.10963739 -0.13077852 -0.1961817 0.036032207 0.19570422 -0.08180521 0.11908919
0.0231526 -0.26047808 0.25549728 0.3714323 0.092672564 -0.17740072 -0.03939999 -0.2143986
0.3648315 0.44127807 0.26958516 0.37448174 0.18544403 -0.0629505 0.30581883 0.22052003
-0.33671707 0.11249461 0.12351964 0.016184648 0.35408524 0.15421627 -0.39949992 0.30015144
0.06603394 0.3160002 -0.07005535 -0.16454194 -0.0880469 -0.078291066 0.07432937 -0.038890928
-0.091771625 -0.1852882 -0.1420741 -0.12991151 -0.06679713 0.045675922 -0.14463516 -0.18631558
0.18170308 0.008978809 -0.19831006 0.009875038 0.028006827 0.09854065 0.062183026 -0.13840462
-0.11779637 0.31175274 -0.040071744 -0.10952853 -0.14942256 0.14513385 0.21923347 -0.17922051
0.14742057 -0.0641882 -0.23484068 0.18705253 0.031970534 -0.08819903 0.22291698 0.2923419
00000000: 64e6 bf3e 8fa6 c73e d5b5 a23e 09a4 5a3d
00000010: 7f90 5e3d a163 233e ba60 793e 1005 b5bc
00000020: 90b9 aa3c f85c d9bd cd7e 843e 242d 0e3e
00000030: 01c5 013e 0b5c b63e 6c07 153e 8af7 293e
00000040: 4af1 163e b375 a23d 5bd9 d43d b2c6 70bd
00000050: 00fb d73d b769 9cbc ea25 55be d789 813d
00000060: 35e0 f4bd ad15 4a3e dd7c 15be 1369 163e
00000070: 5c2a cebc 7d8d 11be 81f1 cc3d 90e9 59bd
00000080: f594 0dbd e97c 2a3e dbbe 9cbc 1812 8eba
00000090: 85fa ebbd 7ea2 bf3c 94f3 9a3d 3b4e 3c3e
000000a0: 3ae4 2c3d 1a78 64bd 4189 debd bc90 f7bd
000000b0: c59d 52be 9c3f 283e 610d 423d 14f5 2bbd
000000c0: 7db9 64be 33ab 3b3e 6c88 e2bd 72ee 643d
000000d0: 35cf 06be 9833 be3d 1112 6b3d b7bc 423d
000000e0: a7ac 093e f38f 413e 2f4a c03d a269 213e
000000f0: 4101 eabd 1682 8a3d 8aba bdbd 7d92 323e
00000100: d506 28be 47ec 29be 68e3 363e fbc0 9c3c
00000110: a4f8 84bd 895d bebb 69db 87bc d7d4 61bd
00000120: 3598 4ebd 93bd dc3d ab79 20be 2e71 d9bc
00000130: 7902 a7bd b2b9 27be 414d 27bd 3da0 b5bd
00000140: 5dfa 973d 474c 183e 729e 463e 1495 603e
00000150: a215 fa3d 85bb 243e 8d4f 123e 76dc ca3e
00000160: 420b 85be 3dd4 44be a23e ae3e bcc7 60bd
00000170: 30af dc3d a4bc a03e d30a 4cbe df68 bb3e
00000180: e419 24be c84c a33d 046a 3cbe 8c95 3bbe
00000190: 63f8 2e3e 091f e73d 60a4 8a38 6852 6e3e
000001a0: 32f2 293e 0ffd 3d3e a1ec 543e 45a3 a43e
000001b0: 72d6 67be 2bbf 35bd fa64 9f3e 7286 03be
000001c0: 3b79 c63e b000 1d3e 1f49 0cbd e93c 213d
000001d0: 70ec 0a3c b31c a03e ab52 1cbe de74 4fbc
000001e0: f77a 113e 0682 633e aee5 403e 8a03 e13d
000001f0: 47c2 513e 9ac3 a9bd eec3 a93e 063f b33e
00000200: d5b5 84be 2fc6 bebd e7a1 fd3d 0d2b b3bd
00000210: f19f 4b3e a8d6 883b 716d 44bd e358 5abd
00000220: 03c4 86bc 285c 373e 4f1c 433d 5d58 603e
00000230: 5559 57be 2be7 38be de6f cbbd 47b9 9cbd
00000240: c9d1 213d aae2 14be f877 efbd 51a9 51bd
00000250: 00b1 b1bb 9017 55bb 8251 58be d9d6 4dbe
00000260: 088c 173e 3409 213e cfa9 533e 9859 db3c
00000270: 9665 1fbe 8fad 3b3e 872f 14be f926 063e
00000280: c93b ab3d 365c 813e 749b f9bd 9430 6d3d
00000290: 6235 a33c f00f f03d ce95 cdbc 2c2b 753e
000002a0: 5fd8 833e e014 4abe e909 823e 3119 643e
000002b0: 311a ebbc f20c 1abe d4a6 493e 40b5 ad3e
000002c0: f50e e83b 7fad b6bc 41fb 2dbe 5459 60bd
000002d0: 018c 803e 3cd5 8b3e 07f6 1fbe 2e68 3e3e
000002e0: 7e02 913d 9189 e0bd ceea 05be dbe3 48be
000002f0: 8296 133d b066 483e 7d89 a7bd 09e5 f33d
00000300: 85aa bd3c 625d 85be 8ad0 823e 602c be3e
00000310: 1dcb bd3d 89a8 35be e261 21bd 4e8b 5bbe
00000320: 32cb ba3e 33ef e13e 1107 8a3e 12bc bf3e
00000330: 0ae5 3d3e 31ec 80bd 4994 9c3e 01d0 613e
00000340: 2e66 acbe 9363 e63d ddf7 fc3d ab95 843c
00000350: a94a b53e dfea 1d3e 418b ccbe 73ad 993e
00000360: cd3c 873d c7ca a13e 2e79 8fbd af7d 28be
00000370: ef51 b4bd 1157 a0bd ff39 983d 184c 1fbd
00000380: c3f2 bbbd 31bc 3dbe df7b 11be 8607 05be
00000390: efcc 88bd ad16 3b3d 3d1b 14be 83c9 3ebe
000003a0: 5f10 3a3e db1b 133c cb11 4bbe e9ca 213c
000003b0: 936e e53c aecf c93d a1b3 7e3d f1b9 0dbe
000003c0: 393f f1bd 0e9e 9f3e 4522 24bd 7e50 e0bd
000003d0: 3a02 19be f89d 143e bd7e 603e 9585 37be
000003e0: 6bf5 163e 1a75 83bd 137a 70be b38a 3f3e
000003f0: 89f3 023d b1a1 b4bd 5944 643e d6ad 953e

fc2.bias f4 [15]
-0.022042925 -0.19513658 -0.08637666 -0.11674324 0.18794872 0.09414016 0.10518065 -0.12923293
0.3183312 0.21506621 0.410173 -0.057250228 0.20171769 -0.0949646 0.030960185
00000000: 5d93 b4bc e2d1 47be 3fe6 b0bd 1417 efbd
00000010: a175 403e 8ecc c03d f468 d73d a355 04be
00000020: 4ffc a23e 513a 5c3e 3202 d23e 377f 6abd
00000030: 158f 4e3e cd7c c2bd 37a0 fd3c

fc3.weight f4 [10, 15]
0.2545019 0.02855424 -0.2339044 0.11770277 -0.042169057 -0.019026862 0.05191573 0.119240485
-0.014707599 0.0007076834 -0.17922033 -0.14796913 0.17635798 -0.18483853 0.20004188 0.20435914
0.14681695 0.18993446 0.02214846 0.039970454 -0.12000446 0.20197912 -0.12591475 -0.12694354
0.23648095 -0.22341079 -0.08984221 -0.11027388 -0.11115149 0.25510746 0.12925847 0.079392865
0.008078287 0.06394253 0.067453906 0.14237384 0.31102377 -0.093289316 0.21473593 0.3033581
0.24294466 -0.12468705 -0.12571879 -0.21310237 -0.21129446 0.20838813 -0.19282304 0.048285447
-0.14204006 0.024841106 -0.17873743 -0.13073197 -0.14496048 0.18676357 0.32684854 -0.104077995
-0.057890102 0.3430667 0.24498466 -0.16197193 0.2371022 -0.057435855 -0.06637702 -0.054552782
0.3618583 0.23237303 0.27550128 -0.100131586 0.18726866 -0.18512225 0.22198611 -0.2455806
-0.0536134 0.115964904 -0.19575647 0.009961586 -0.032671396 -0.06807197 0.25181246 -0.032172553
-0.21895628 0.071170785 -0.2545194 0.058741976 0.11379021 0.10572294 -0.12076876 0.10990087
0.0061761327 0.08209146 0.284804 0.17047568 -0.24295403 -0.15786308 0.28225517 0.17797652
0.25676364 -0.23894455 -0.14493133 0.008599421 0.3226461 -0.106201775 -0.1051963 -0.041059874
0.14181772 -0.10210053 -0.19822146 -0.23575918 0.17891628 -0.09925526 -0.2420165 -0.11397747
-0.20502378 -0.19146504 -0.03145095 0.08114589 0.047292802 -0.23918146 0.19501369 0.044316467
-0.07569266 0.036510304 0.15742917 -0.19863024 -0.021815078 -0.037480712 -0.098715134 -0.25363103
0.08623892 0.1430562 -0.18732123 -0.024745991 0.21758324 0.074372716 0.093851924 0.03387794
0.23629522 -0.20732732 0.0160948 0.14373682 0.0027668052 -0.24295248 -0.16555712 -0.21851924
-0.32608816 0.019635772 -0.25245607 -0.29797253 -0.16767325 -0.17678945
00000000: 134e 823e 95ea e93c a384 6fbe 260e f13d
00000010: 76b9 2cbd 39de 9bbc 97a5 543d 5b34 f43d
00000020: 24f8 70bc d483 393a 8985 37be 3885 17be
00000030: 3097 343e 5046 3dbe c7d7 4c3e 8643 513e
00000040: 2f57 163e 2e7e 423e b070 b53c 0fb8 233d
00000050: e6c4 f5bd 9dd3 4e3e ccef 00be 7dfd 01be
00000060: 1028 723e ccc5 64be 31ff b7bd 46d7 e1bd
00000070: 64a3 e3bd 729d 823e 555c 043e ba98 a23d
00000080: cb5a 043c 4df4 823d 4625 8a3d 73ca 113e
00000090: 823e 9f3e 780e bfbd bce3 5b3e c151 9b3e
000000a0: 7cc6 783e ed5b ffbd 6dbc 00be 8237 5abe
000000b0: 935d 58be b363 553e 6773 45be f6c6 453d
000000c0: f372 11be 937f cb3c f206 37be 9ade 05be
000000d0: 8570 14be f33e 3f3e b158 a73e d826 d5bd
000000e0: 2c1e 6dbd 70a6 af3e 42dd 7a3e f8db 25be
000000f0: ebca 723e dc41 6bbd adf0 87bd bd72 5fbd
00000100: 7e45 b93e 32f3 6d3e 810e 8d3e ca11 cdbd
00000110: 5bc3 3f3e b090 3dbe 5450 633e 7b79 7bbe
00000120: b999 5bbd 027f ed3d 6274 48be ec35 233c
00000130: 71d2 05bd 5169 8bbd 90ed 803e 5ec7 03bd
00000140: 1336 60be fdc1 913d 5e50 82be 6d9b 703d
00000150: d70a e93d 4585 d83d 9d55 f7bd b513 e13d
00000160: 2861 ca3b 911f a83d d4d1 913e 2d91 2e3e
00000170: f1c8 78be dca6 21be c083 903e 7a3f 363e
00000180: 8676 833e e1ad 74be e168 14be 96e4 0c3c
00000190: df31 a53e 5180 d9bd 2871 d7bd 662e 28bd
000001a0: aa38 113e 151a d1bd 91fa 4abe db6a 71be
000001b0: d435 373e 5746 cbbd 2cd3 77be 056d e9bd
000001c0: c1f1 51be 690f 44be b6d2 00bd d12f a63d
000001d0: 19b6 413d fceb 74be abb1 473e 2f85 353d
000001e0: c104 9bbd d48b 153d 1d35 213e ba65 4bbe
000001f0: 89b5 b2bc 6085 19bd 292b cabd eddb 81be
00000200: 089e b03d 537d 123e 23d1 3fbe 1bb8 cabc
00000210: 24ce 5e3e b950 983d 7035 c03d 98c3 0a3d
00000220: 60f7 713e 9d4d 54be 3ed9 833c bf2f 133e
00000230: 4a53 353b 89c8 78be ce87 29be 82c3 5fbe
00000240: 07f5 a6be 33db a03c ec41 81be db8f 98be
00000250: 89b2 2bbe 4b08 35be

fc3.bias f4 [10]
0.17497562 -0.026335672 0.25240344 0.20050347 0.40113598 -0.13600354 0.23426549 -0.17702197
0.17234103 -0.04054106
00000000: cf2c 333e e8bd d7bc 063b 813e c850 4d3e
00000010: b261 cd3e 8344 0bbe 4be3 6f3e 3f45 35be
00000020: 2b7a 303e 620e 26bd

fc4.weight f4 [5, 10]
-0.25373736 0.18535827 -0.093928 0.29712105 -0.0746295 -0.0386313 0.18606342 -0.15147136
0.15899411 0.025700137 -0.081981555 0.09886726 0.30491227 -0.40789437 0.2910667 -0.3324795
0.29358625 0.18140243 -0.21320075 0.0023132528 -0.21800011 -0.16119781 -0.10633112 0.0010121826
0.19433 -0.30973557 -0.026039574 -0.21367282 -0.029529415 -0.026705543 0.3098611 0.095614456
-0.2324083 0.075211555 -0.0883471 -0.14977486 0.0903754 -0.2187702 -0.085329466 0.036620013
0.23044679 0.01921689 0.16593432 0.2985028 -0.018718025 -0.12459728 -0.14056675 0.027631018
-0.1507348 -0.33330625
00000000: dde9 81be 8fce 3d3e 535d c0bd 4020 983e
00000010: 5ad7 98bd db3b 1ebd 6987 3e3e 4f1b 1bbe
00000020: 5acf 223e 1889 d23c f2e5 a7bd eb7a ca3d
00000030: 761d 9c3e 88d7 d0be b206 953e c13a aabe
00000040: f050 963e 8fc1 393e 4c51 5abe f199 173b
00000050: 6c3b 5fbe 0a11 25be 21c4 d9bd 36ab 843a
00000060: 72fe 463e a995 9ebe f250 d5bc 0ccd 5abe
00000070: ace7 f1bc 95c5 dabc 1da6 9e3e 83d1 c33d
00000080: 71fc 6dbe 8408 9a3d 53ef b4bd 955e 19be
00000090: bd16 b93d 4c05 60be 37c1 aebd defe 153d
000000a0: 3efa 6b3e bd6c 9d3c b0ea 293e 5cd5 983e
000000b0: 8b56 99bc dc2c ffbd bbf0 0fbe 725a e23c
000000c0: 395a 1abe 1ea7 aabe

fc4.bias f4 [5]
-0.27406242 0.2923962 -0.10575671 -0.26048142 0.27029634
00000000: e951 8cbe f4b4 953e f996 d8bd d25d 85be
00000010: 4864 8a3e

fc5.weight f4 [4, 5]
-0.30244166 0.28736252 -0.17964347 0.35603902 0.15136202 -0.22524707 0.5314828 0.29563352
-0.26543152 -0.10447472 0.28893536 -0.022712007 0.3043652 -0.12151978 0.023424614 -0.17923412
0.048970953 0.020297838 -0.4149476 -0.22328553
00000000: a2d9 9abe 2e21 933e 75f4 37be bf4a b63e
00000010: a5fe 1a3e 2ba7 66be 420f 083f 475d 973e
00000020: a4e6 87be d8f6 d5bd 56ef 933e 880e babc
00000030: c1d5 9b3e 5ddf f8bd fae4 bf3c 2689 37be
00000040: c495 483d a747 a63c 0374 d4be f6a4 64be

fc5.bias f4 [4]
0.013527305 0.14693171 0.13623548 -0.5277533
00000000: a1a1 5d3c 4475 163e 5081 0b3e d71a 07bf
