Laboratorios/Lab1/checkpoints/modelo_epoch_220.pth (torch, 7862 bytes, 10 tensors)

fc1.weight f4 [20, 24]
0.31659535 0.29586327 0.30670148 0.3083825 0.29132015 0.2955617 0.3047703 0.28896958
0.30948624 0.32921115 0.3455419 0.27523607 0.23005952 0.16344225 -0.1519391 0.1471956
0.26020107 0.11957111 0.12933484 0.16524713 0.30819416 0.31985134 0.2782202 0.28474554
0.28280497 0.3228811 0.29989505 0.3241716 0.29866618 0.28072998 0.34269395 0.29107034
0.32106715 0.3188782 0.3559843 0.32542133 0.32195926 0.27380314 0.24806201 0.3549709
0.29386705 0.31440577 0.2585536 0.19316243 0.22714688 0.31496328 0.29299548 0.24634258
0.29993308 0.2328759 0.28131294 0.2170677 0.2832816 0.2920419 0.12710057 0.3288387
0.08502475 0.24480388 -0.0006796729 -0.07504386 -0.10740892 0.03251066 -0.38254738 -0.14669642
0.117978886 -0.1464311 -0.04859308 0.11685414 0.34710056 0.18622717 0.30146992 0.34540743
0.2678551 0.23422551 0.26104468 0.22230245 0.2832776 0.2724226 0.1868223 0.3148898
0.21081647 0.27832574 0.14014594 0.09068463 0.032890312 0.04099518 -0.31929865 -0.041804623
0.1984445 -0.07098794 0.009899037 0.08710195 0.35138822 0.1911513 0.26779905 0.31117243
0.26432973 0.19642551 0.24693537 0.15156193 0.2716069 0.30609387 0.081591345 0.34184587
0.043039106 0.25007167 0.031419016 0.023623167 0.02410351 0.06352683 -0.40032086 -0.17440058
0.09269008 -0.11260403 0.0034723561 0.15186332 0.35786822 0.13016742 0.28251803 0.33142427
-0.003078381 -0.0010758112 -0.015281743 0.0046509565 -0.007014799 -0.0119973505 -0.012561376 -0.0057221777
-0.030381653 -0.009172074 -0.014729125 -0.016857702 0.002815666 -0.004095602 0.009471117 0.009384467
-0.014006259 0.009557577 -0.025177997 -0.01148653 0.009922181 -0.019748643 -0.017363677 -0.0020529488
0.3115555 0.28111807 0.29091358 0.29176432 0.26734403 0.27533114 0.25598574 0.28895998
0.23561275 0.28215277 0.19857673 0.18430436 0.14704749 0.127304 -0.2864288 0.079558626
0.24956934 0.054637913 0.06729166 0.13551441 0.32985878 0.26380754 0.31997007 0.31208563
0.2436135 0.16600278 0.2562756 0.14813706 0.2653351 0.28218624 0.07107935 0.31440917
0.03665191 0.22255091 0.020690532 -0.053028513 -0.0975771 -0.017730944 -0.37553734 -0.14378384
0.12850347 -0.1577686 -0.07522557 0.078939475 0.32239804 0.120696604 0.2876766 0.3356153
-0.2009278 0.21207844 0.07842051 0.22987568 -0.19017504 -0.08053415 0.26284665 -0.30920884
0.2539956 0.10256969 0.17648639 0.26912737 0.2564756 0.21124984 0.40338165 0.354344
0.17084952 0.34888422 0.3051101 0.15421587 -0.33992946 0.08792139 -0.18778506 -0.2923299
0.0025085905 -0.0072170845 -0.0043856767 -0.0095414845 0.0032956533 0.0017746635 -0.01410379 -0.0025758566
-0.0030369547 -0.02170849 -0.008404201 -0.0035137655 -0.002532903 -0.0019055522 -0.0032330411 -0.019330988
0.004276482 0.0029533622 -0.0056885183 -0.006923623 -0.029188456 -0.004152773 -0.00600281 -0.012231453
0.27270165 0.17310001 0.24475166 0.14543168 0.24173369 0.26338145 0.08227977 0.2849754
0.035354983 0.22298078 -0.0057110786 -0.15501724 -0.15103684 -0.0026926044 -0.3409961 -0.09916663
00000000: c918 a23e 647b 973e fa07 9d3e 50e4 9d3e
00000010: ea27 953e dd53 973e da0a 9c3e d2f3 933e
00000020: fb74 9e3e 5d8e a83e deea b03e beeb 8c3e
00000030: b994 6b3e 685d 273e ec95 1bbe 72ba 163e
00000040: 1339 853e b3e1 f43d 5a70 043e 8b36 293e
00000050: a0cb 9d3e 8ec3 a33e e172 8e3e 2bca 913e
00000060: d0cb 903e ac50 a53e d88b 993e d2f9 a53e
00000070: c6ea 983e d7bb 8f3e 9575 af3e 2c07 953e
00000080: ea62 a43e 0144 a33e 9343 b63e a09d a63e
00000090: d8d7 a43e ed2f 8c3e f803 7e3e bfbe b53e
000000a0: be75 963e cbf9 a03e 2361 843e 5fcc 453e
000000b0: 3199 683e de42 a13e 8103 963e 3b41 7c3e
000000c0: d490 993e 0577 6e3e 4008 903e ff46 5e3e
000000d0: 490a 913e 8486 953e a726 023e 8c5d a83e
000000e0: 7521 ae3d dead 7a3e 142c 32ba 98b0 99bd
000000f0: 35f9 dbbd e629 053d 40dd c3be 9637 16be
00000100: ea9e f13d 09f2 15be 8a09 47bd 3951 ef3d
00000110: 2ab7 b13e 56b2 3e3e 445a 9a3e 3ed9 b03e
00000120: 4e24 893e d0d8 6f3e a6a7 853e 41a3 633e
00000130: c309 913e fa7a 8b3e 584e 3f3e 3c39 a13e
00000140: 46e0 573e b680 8e3e 6b82 0f3e ddb8 b93d
00000150: feb7 063d 90ea 273d 1d7b a3be 533b 2bbd
00000160: 0935 4b3e 2062 91bd 922f 223c 8262 b23d
00000170: 28e9 b33e 2bbd 433e f51c 893e fe51 9f3e
00000180: 3a56 873e c523 493e a0dc 7c3e 0d33 1b3e
00000190: 0f10 8b3e 56b8 9c3e 5d19 a73d 6c06 af3e
000001a0: c649 303d 6509 803e 3ab1 003d 5f85 c13c
000001b0: b974 c53c 5b1a 823d dbf6 ccbe 1196 32be
000001c0: 4cd4 bd3d f19c e6bd 7890 633b 0f82 1b3e
000001d0: 813a b73e 9c4a 053e 34a6 903e 71b0 a93e
000001e0: aabe 49bb 3c02 8dba 4760 7abc 0d67 983b
000001f0: 66dc e5bb 8990 44bc 3bce 4dbc 1b81 bbbb
00000200: f2e2 f8bc 7746 16bc 6e52 71bc 2a19 8abc
00000210: 0987 383b 6634 86bb be2c 1b3c 4fc1 193c
00000220: 827a 65bc 6297 1c3c 1642 cebc 0032 3cbc
00000230: a590 223c e8c7 a1bc 453e 8ebc c48a 06bb
00000240: 3484 9f3e b5ee 8f3e a0f2 943e 2262 953e
00000250: 51e1 883e 34f8 8c3e 9010 833e 90f2 933e
00000260: 7844 713e 5476 903e b357 4b3e 48ba 3c3e
00000270: 9e93 163e fb5b 023e cca6 92be a2ef a23d
00000280: 1b8f 7f3e 01cc 5f3d 36d0 893d 4ac4 0a3e
00000290: 40e3 a83e c811 873e 1ed3 a33e b0c9 9f3e
000002a0: d175 793e a2fc 293e 8e36 833e 3eb1 173e
000002b0: 01da 873e b77a 903e 0d92 913d 3dfa a03e
000002c0: 5020 163d 63e4 633e 317f a93c 6d34 59bd
000002d0: 81d6 c7bd 7c40 91bc 6e46 c0be 123c 13be
000002e0: 6a96 033e 188e 21be dd0f 9abd 05ab a13d
000002f0: 5b11 a53e c82f f73d 594a 933e c5d5 ab3e
00000300: 04c0 4dbe 172b 593e ef9a a03d 8864 6b3e
00000310: 3fbd 42be 17ef a4bd d693 863e 9f50 9ebe
00000320: b60b 823e 0f10 d23d d9b8 343e 10cb 893e
00000330: c550 833e e151 583e 0a88 ce3e 946c b53e
00000340: 2df3 2e3e f4a0 b23e 6437 9c3e c4ea 1d3e
00000350: 3c0b aebe 2110 b43d ba4a 40be 44ac 95be
00000360: 2a67 243b 4b7d ecbb b9b5 8fbb e353 1cbc
00000370: e3fb 573b d39b e83a 9513 67bc b4cf 28bb
00000380: a507 47bb 01d6 b1bc c6b1 09bc 3447 66bb
00000390: 10ff 25bb b9c3 f9ba 6ee1 53bb 055c 9ebc
000003a0: bb21 8c3b 328d 413b c066 babb 8fdf e2bb
000003b0: a11c efbc fc13 88bb 38b3 c4bb 6f66 48bc
000003c0: 8d9f 8b3e 2141 313e 2ea0 7a3e 0bec 143e
000003d0: 0989 773e efd9 863e 4c82 a83d 4ce8 913e
000003e0: 63d0 103d 1355 643e 0024 bbbb d7bc 1ebe
000003f0: 67a9 1abe 6876 30bb 0a97 aebe e017 cbbd

fc1.bias f4 [20]
0.32288605 0.32079148 0.27899373 0.28029895 0.27021253 -0.01001443 0.2939682 0.24126658
0.1494562 -0.0052978853 0.23235533 -0.0043237004 0.27550173 0.21149947 0.22362171 0.28921375
0.0 0.18780783 -0.0075962474 -0.010177753
00000000: 5251 a53e c83e a43e 44d8 8e3e 5883 8f3e
00000010: 4c59 8a3e 9013 24bc 0083 963e 960e 773e
00000020: 0c0b 193e e299 adbb 8eee 6d3e d4ad 8dbb
00000030: 900e 8d3e 5193 583e 17fd 643e d313 943e
00000040: 0000 0000 b250 403e f1e9 f8bb 97c0 26bc

fc2.weight f4 [15, 20]
0.49449298 0.53063273 0.37766683 0.14579748 0.12180014 0.15955974 0.34666264 0.028463103
0.22286595 -0.106134355 0.2997992 0.13884407 0.20610678 0.35622308 0.34454 0.31984955
0.14740482 0.09649556 0.1039302 -0.05878324 0.10545921 -0.019093378 -0.20815244 0.06325119
-0.119568266 0.19734831 -0.14598413 0.1468852 -0.025166683 -0.1421413 0.10007001 -0.05320126
-0.034565885 0.16649212 -0.019133976 -0.0010839133 -0.11522392 0.023392912 0.0756599 0.18389218
0.04220984 -0.0557786 -0.10866023 -0.12088153 -0.20567997 0.16430515 0.04737604 -0.04198177
-0.22336383 0.18327026 -0.11061177 0.05589146 -0.1316498 0.092871845 0.057390276 0.047543254
0.13444768 0.18902569 0.093891494 0.15762952 -0.114260204 0.06763093 -0.09264095 0.17438693
-0.16408856 -0.16594039 0.17860186 0.019134989 -0.06492737 -0.00580949 -0.016584115 -0.05513462
-0.050438125 0.10778346 -0.15671413 -0.026543226 -0.081547685 -0.16379431 -0.04084516 -0.08868454
0.13992019 0.16255003 0.29366592 0.30726966 0.22498785 0.16087158 0.2220693 0.49779078
-0.4337221 -0.19221587 0.4513639 -0.05487798 0.19980295 0.4362824 -0.36928296 0.34622702
-0.16025501 0.19122061 -0.18399817 -0.18318766 0.21106991 0.049085062 0.11545503 0.32520932
0.28395104 0.18553565 0.28274885 0.4408321 -0.41069534 -0.044371765 0.44113678 -0.12844256
0.48970073 0.29800275 -0.2159687 -0.06264727 0.008479223 0.44579202 -0.1526591 -0.012662141
0.2145825 0.27067146 0.27798796 0.19352877 0.29788876 -0.08289261 0.40983924 0.44030508
-0.41586858 -0.09315144 0.22280845 -0.08748446 0.2840409 0.11098666 -0.19811608 -0.015162807
-0.016450888 0.2758666 0.04763442 0.21908708 -0.21030171 -0.18056934 -0.09933446 -0.07652526
0.039506707 -0.1453959 -0.11692804 -0.051186863 -0.0054227114 -0.0032515265 -0.21124843 -0.20101489
0.14799511 0.15726167 0.20670246 0.02677612 -0.15566096 0.18327926 -0.14471255 0.13100804
0.24182034 0.4261471 -0.049028527 0.18734773 0.10335226 0.1172179 0.11757467 0.29082438
0.4571155 -0.19734526 0.27981415 0.22275235 0.08194539 -0.19818065 0.39516726 0.5207235
0.007081861 -0.042915955 -0.16990377 -0.05477269 0.4356973 0.46222848 -0.2661357 0.2951906
-0.0007293329 -0.10963739 0.03238052 -0.2948378 0.2304364 0.19570422 -0.23114318 0.11908919
0.022717789 -0.456245 0.44781747 0.563298 0.092672564 -0.3345638 -0.03939999 -0.2143986
0.42138484 0.44696176 0.3627272 0.45476362 0.28090465 -0.0629505 0.3767161 0.31570145
-0.514874 0.11249461 0.22904116 0.016184648 0.43898034 0.2715139 -0.57517266 0.27447104
0.06603394 0.4222603 -0.07005535 -0.16454194 -0.0880469 -0.078291066 0.07432937 -0.038890928
-0.091771625 -0.1852882 -0.1420741 -0.12991151 -0.06679713 0.045675922 -0.14463516 -0.18631558
0.18170308 0.008978809 -0.19831006 0.009875038 0.028006827 0.09854065 0.062183026 -0.13840462
0.06009514 0.49996275 -0.21215461 -0.1496769 -0.3083379 0.14513385 0.3373086 -0.3472208
0.3381819 -0.0641882 -0.42050767 0.18705253 -0.08059528 -0.28357995 0.41183683 0.48309425
00000000: 2f2e fd3e 8cd7 073f 8c5d c13e ef4b 153e
00000010: 5a72 f93d a163 233e c47d b13e 742b e93c
00000020: f936 643e f85c d9bd 487f 993e 242d 0e3e
00000030: a80d 533e df62 b63e 8c67 b03e 52c3 a33e
00000040: 4af1 163e 779f c53d 5bd9 d43d b2c6 70bd
00000050: 00fb d73d b769 9cbc ea25 55be d789 813d
00000060: 35e0 f4bd ad15 4a3e dd7c 15be 1369 163e
00000070: 5c2a cebc 7d8d 11be 81f1 cc3d 90e9 59bd
00000080: f594 0dbd e97c 2a3e dbbe 9cbc 1812 8eba
00000090: 85fa ebbd 7ea2 bf3c 94f3 9a3d 3b4e 3c3e
000000a0: 3ae4 2c3d 1a78 64bd 4189 debd bc90 f7bd
000000b0: c59d 52be 9c3f 283e 610d 423d 14f5 2bbd
000000c0: 7db9 64be 33ab 3b3e 6c88 e2bd 72ee 643d
000000d0: 35cf 06be 9833 be3d 1112 6b3d b7bc 423d
000000e0: a7ac 093e f38f 413e 2f4a c03d a269 213e
000000f0: 4101 eabd 1682 8a3d 8aba bdbd 7d92 323e
00000100: d506 28be 47ec 29be 68e3 363e fbc0 9c3c
00000110: a4f8 84bd 895d bebb 69db 87bc d7d4 61bd
00000120: 3598 4ebd 93bd dc3d ab79 20be 2e71 d9bc
00000130: 7902 a7bd b2b9 27be 414d 27bd 3da0 b5bd
00000140: 3d47 0f3e 8473 263e 615b 963e 7352 9d3e
00000150: 3763 663e 85bb 243e 2266 633e 6fde fe3e
00000160: d310 debe 3dd4 44be 2b19 e73e bcc7 60bd
00000170: 2599 4c3e 6860 df3e a812 bdbe ab44 b13e
00000180: e419 24be 56cf 433e 046a 3cbe 8c95 3bbe
00000190: b622 583e 6b0d 493d b073 ec3d d681 a63e
000001a0: 0862 913e 0ffd 3d3e 75c4 903e bfb4 e13e
000001b0: a946 d2be 2bbf 35bd aedc e13e 7286 03be
000001c0: 0eba fa3e d193 983e e626 5dbe 364d 80bd
000001d0: 70ec 0a3c da3e e43e ab52 1cbe de74 4fbc
000001e0: 84bb 5b3e 7395 8a3e 7054 8e3e 682c 463e
000001f0: e084 983e 9ac3 a9bd 73d6 d13e ab6f e13e
00000200: baec d4be 2fc6 bebd e627 643e 0d2b b3bd
00000210: cf6d 913e f94c e33d f1de 4abe 6c6d 78bc
00000220: 03c4 86bc 633e 8d3e 4f1c 433d 5d58 603e
00000230: 5559 57be 2be7 38be de6f cbbd 47b9 9cbd
00000240: c9d1 213d aae2 14be f877 efbd 51a9 51bd
00000250: 00b1 b1bb 9017 55bb 8251 58be d9d6 4dbe
00000260: 088c 173e 3409 213e cfa9 533e 9859 db3c
00000270: 9665 1fbe 8fad 3b3e 872f 14be f926 063e
00000280: c09f 773e f42f da3e 23d2 48bd 15d8 3f3e
00000290: 5aaa d33d f00f f03d fdca f03d efe6 943e
000002a0: 0b0b ea3e e014 4abe cd43 8f3e 3119 643e
000002b0: fcd2 a73d deef 4abe 5d53 ca3e 234e 053f
000002c0: f50e e83b a4c8 2fbd 41fb 2dbe 5459 60bd
000002d0: b713 df3e 36a9 ec3e f042 88be 3923 973e
000002e0: b430 3fba 9189 e0bd 70a1 043d fbf4 96be
000002f0: 85f7 6b3e b066 483e ccb0 6cbe 09e5 f33d
00000300: a81a ba3c f298 e9be 5548 e53e 4c34 103f
00000310: 1dcb bd3d f24b abbe e261 21bd 4e8b 5bbe
00000320: c1bf d73e 2cd8 e43e 61b7 b93e c7d6 e83e
00000330: bcd2 8f3e 31ec 80bd efe0 c03e 9fa3 a13e
00000340: c8ce 03bf 9363 e63d c489 6a3e ab95 843c
00000350: 08c2 e03e df03 8b3e 843e 13bf 7887 8c3e
00000360: cd3c 873d 8132 d83e 2e79 8fbd af7d 28be
00000370: ef51 b4bd 1157 a0bd ff39 983d 184c 1fbd
00000380: c3f2 bbbd 31bc 3dbe df7b 11be 8607 05be
00000390: efcc 88bd ad16 3b3d 3d1b 14be 83c9 3ebe
000003a0: 5f10 3a3e db1b 133c cb11 4bbe e9ca 213c
000003b0: 936e e53c aecf c93d a1b3 7e3d f1b9 0dbe
000003c0: 5226 763d 1efb ff3e 0f3f 59be e744 19be
000003d0: 77de 9dbe f89d 143e b6b3 ac3e edc6 b1be
000003e0: 2e26 ad3e 1a75 83bd c84c d7be b38a 3f3e
000003f0: 230f a5bd 6431 91be 47dc d23e 2158 f73e

fc2.bias f4 [15]
0.08303529 -0.19513658 -0.08637666 -0.11674324 0.24061322 0.12249482 0.16204913 -0.12923293
0.4618425 0.36936006 0.45157233 -0.057250228 0.34374037 -0.10691071 0.030954504
00000000: 680e aa3d e2d1 47be 3fe6 b0bd 1417 efbd
00000010: 5063 763e 90de fa3d 35f0 253e a355 04be
00000020: 9f76 ec3e c31c bd3e 7d34 e73e 377f 6abd
00000030: bdfe af3e 01f4 dabd 4d94 fd3c

fc3.weight f4 [10, 15]
0.44380292 0.02855424 -0.2339044 0.11770277 -0.1910444 -0.19267556 -0.11221194 0.119240485
0.17533502 0.19476748 -0.26401892 -0.14796913 0.37138233 -0.17743893 0.20004506 0.28164336
0.14681695 0.18993446 0.02214846 -0.018687367 -0.19018029 0.1420605 -0.12591475 -0.01899838
0.35635796 -0.26382285 -0.08984221 0.014502527 -0.10863103 0.25510746 0.2407877 0.079392865
0.008078287 0.06394253 0.14485587 0.21383232 0.38952538 -0.093289316 0.36445123 0.4773674
0.31624207 -0.12468705 0.06793204 -0.20681626 -0.21129578 0.38004288 -0.19282304 0.048285447
-0.14204006 -0.12679549 -0.35159904 -0.29397094 -0.14496048 0.3731978 0.5192257 -0.19598995
-0.057890102 0.53612703 0.2529247 -0.16196734 0.33004865 -0.057435855 -0.06637702 -0.054552782
0.4692333 0.3423888 0.38547042 -0.100131586 0.26480243 -0.26364285 0.31666517 -0.2455806
-0.21238798 0.11696936 -0.19576128 0.13111283 -0.032671396 -0.06807197 0.25181246 -0.1581293
-0.36126336 -0.061150342 -0.2545194 0.23291592 0.29894942 0.006505903 -0.12076876 0.2963968
0.005030173 0.08210012 0.33344343 0.17047568 -0.24295403 -0.15786308 0.36043608 0.26083794
0.33783862 -0.23894455 -0.15018399 -0.093506664 0.38890252 -0.106201775 -0.2784113 -0.04575339
0.14181322 -0.10210053 -0.19822146 -0.23575918 0.17891628 -0.09925526 -0.2420165 -0.11397747
-0.20502378 -0.19146504 -0.03145095 0.08114589 0.047292802 -0.23918146 0.19501369 0.044316467
-0.15120973 0.036510304 0.15742917 -0.19863024 -0.05928762 -0.07107193 -0.1553194 -0.25363103
0.009338489 0.065157436 -0.20652391 -0.024745991 0.14153937 0.07135141 0.0938491 0.033192232
0.23629522 -0.20732732 0.0160948 0.14314117 0.002179835 -0.24361947 -0.16555712 -0.21888547
-0.326227 0.019191125 -0.25245607 -0.29801735 -0.16767325 -0.17678945
00000000: 233a e33e 95ea e93c a384 6fbe 260e f13d
00000010: 25a1 43be be4c 45be 60cf e5bd 5b34 f43d
00000020: 068b 333e 2071 473e 7d2d 87be 3885 17be
00000030: d325 be3e 8db2 35be 9dd8 4c3e 8f33 903e
00000040: 2f57 163e 2e7e 423e b070 b53c 4016 99bc
00000050: 9fbe 42be 4f78 113e ccef 00be 7ea2 9bbc
00000060: 8d74 b63e ca13 87be 31ff b7bd 029c 6d3c
00000070: f279 debd 729d 823e 0d91 763e ba98 a23d
00000080: cb5a 043c 4df4 823d 1955 143e dcf6 5a3e
00000090: df6f c73e 780e bfbd 5a99 ba3e 8069 f43e
000000a0: 7bea a13e ed5b ffbd f41f 8b3d a4c7 53be
000000b0: ec5d 58be fb94 c23e 6773 45be f6c6 453d
000000c0: f372 11be add6 01be ca04 b4be 5c83 96be
000000d0: 8570 14be c813 bf3e faeb 043f 97b1 48be
000000e0: 2c1e 6dbd 9f3f 093f 597f 813e c4da 25be
000000f0: 23fc a83e dc41 6bbd adf0 87bd bd72 5fbd
00000100: 593f f03e 964d af3e 615c c53e ca11 cdbd
00000110: 2f94 873e 32fc 86be f021 a23e 7b79 7bbe
00000120: 3c7c 59be a28d ef3d a575 48be 7142 063e
00000130: 71d2 05bd 5169 8bbd 90ed 803e a6ec 21be
00000140: 83f7 b8be c878 7abd 5e50 82be 8381 6e3e
00000150: e60f 993e 782f d53b 9d55 f7bd 52c1 973e
00000160: 26d4 a43b 1c24 a83d 19b9 aa3e 2d91 2e3e
00000170: f1c8 78be dca6 21be 148b b83e 8d8c 853e
00000180: 2ff9 ac3e e1ad 74be d5c9 19be 6c80 bfbd
00000190: 3b1e c73e 5180 d9bd ed8b 8ebe e867 3bbd
000001a0: 7c37 113e 151a d1bd 91fa 4abe db6a 71be
000001b0: d435 373e 5746 cbbd 2cd3 77be 056d e9bd
000001c0: c1f1 51be 690f 44be b6d2 00bd d12f a63d
000001d0: 19b6 413d fceb 74be abb1 473e 2f85 353d
000001e0: b9d6 1abe d48b 153d 1d35 213e ba65 4bbe
000001f0: 93d7 72bd 298e 91bd 0c0c 1fbe eddb 81be
00000200: 7600 193c 4371 853d 017b 53be 1bb8 cabc
00000210: b2ef 103e b020 923d f533 c03d 94f4 073d
00000220: 60f7 713e 9d4d 54be 3ed9 833c 9993 123e
00000230: 90db 0e3b 6277 79be ce87 29be 8323 60be
00000240: 3a07 a7be b536 9d3c ec41 81be bb95 98be
00000250: 89b2 2bbe 4b08 35be

fc3.bias f4 [10]
0.2963718 0.044081397 0.31626064 0.30406505 0.45044112 -0.06844266 0.25912026 -0.17702197
0.16539063 -0.040774304
00000000: 0bbe 973e b28e 343d eaec a13e 6aae 9b3e
00000010: 38a0 e63e aa2b 8cbd 69ab 843e 3f45 35be
00000020: 295c 293e f502 27bd

fc4.weight f4 [5, 10]
-0.28079727 0.17015354 -0.12010985 0.26966995 -0.09607998 -0.0658593 0.165852 -0.15147136
0.14025173 0.025342464 -0.21916354 0.0803962 0.3783508 -0.5355731 0.36108044 -0.4931671
0.3628628 0.18140243 -0.21169719 0.0026551106 -0.41519132 -0.2978729 -0.023241755 -0.18386324
0.36947513 -0.5106287 0.15402351 -0.21367282 -0.029529415 -0.025870075 0.3098611 0.095614456
-0.2324083 0.075211555 -0.0883471 -0.14977486 0.0903754 -0.2187702 -0.085329466 0.036620013
0.42789617 0.16592537 0.32263944 0.49298453 0.099088 0.08011844 -0.041275214 0.027631018
-0.14062081 -0.33332798
00000000: a9c4 8fbe bb3c 2e3e 27fc f5bd 2e12 8a3e
00000010: 95c5 c4bd 3ee1 86bd 1bd5 293e 4f1b 1bbe
00000020: 269e 0f3e 009b cf3c 686c 60be c3a6 a43d
00000030: 32b7 c13e 521b 09bf 89df b83e 6680 fcbe
00000040: 27c9 b93e 8fc1 393e 26c7 58be 5d01 2e3b
00000050: f593 d4be cc82 98be 7e65 bebc a546 3cbe
00000060: d82b bd3e 90b8 02bf 57b8 1d3e 0ccd 5abe
00000070: ace7 f1bc 7bed d3bc 1da6 9e3e 83d1 c33d
00000080: 71fc 6dbe 8408 9a3d 53ef b4bd 955e 19be
00000090: bd16 b93d 4c05 60be 37c1 aebd defe 153d
000000a0: 3515 db3e 57e8 293e ff30 a53e 7868 fc3e
000000b0: a6ee ca3d 2315 a43d 3310 29bd 725a e23c
000000c0: e7fe 0fbe f7a9 aabe

fc4.bias f4 [5]
-0.29514402 0.31802094 -0.10341709 -0.26048142 0.3662918
00000000: 1e1d 97be a4d3 a23e 57cc d3bd d25d 85be
00000010: 998a bb3e

fc5.weight f4 [4, 5]
-0.29920354 0.33208105 -0.38593838 0.35603902 0.33283743 -0.22964218 0.6032432 0.48524347
-0.26543152 -0.27663392 0.28871918 -0.091806106 0.1840415 -0.12151978 -0.11043053 -0.17603458
-0.015377151 -0.076029435 -0.4149476 -0.35763028
00000000: 3531 99be 8706 aa3e b799 c5be bf4a b63e
00000010: ab69 aa3e 5227 6bbe 256e 1a3f d571 f83e
00000020: a4e6 87be f6a2 8dbe 00d3 933e d704 bcbd
00000030: 6075 3c3e 5ddf f8bd 6729 e2bd 6942 34be
00000040: 72f0 7bbc 52b5 9bbd 0374 d4be 511b b7be

fc5.bias f4 [4]
0.060928296 0.13840975 0.118309796 -0.5508872
00000000: f38f 793d 49bb 0d3e 684c f23d f206 0dbf
