Laboratorios/Lab1/checkpoints/modelo_epoch_280.pth (torch, 7862 bytes, 10 tensors)

fc1.weight f4 [20, 24]
000000 55 e6 af 3e 11 b8 9e 3e 2b 8e a1 3e 83 9c b2 3e
       0.34355417 0.30999807 0.31553778 0.34885034
000010 c0 d2 a5 3e 00 5d ad 3e e0 94 a4 3e 74 26 91 3e
       0.32387352 0.33860016 0.32144833 0.2834965
000020 00 76 a6 3e f1 e2 b1 3e a7 99 c2 3e b7 17 a0 3e
       0.32511902 0.34743455 0.38007852 0.31268093
000030 f4 7c 71 3e f4 21 28 3e d2 cb c4 bd 89 d8 1d 3e
       0.23582822 0.16419202 -0.09609188 0.15414633
000040 5b e2 95 3e 8b 83 11 3e ba 5d 1e 3e c3 52 16 3e
       0.29274258 0.14210336 0.15465441 0.14680009
000050 65 52 8c 3e d9 8d cc 3e cd 48 9e 3e cc 49 97 3e
       0.27406612 0.3995197 0.30914918 0.2954849
000060 81 ec a7 3e df d9 a9 3e 05 c6 96 3e 29 54 c3 3e
       0.32797626 0.33174035 0.29447952 0.38150147
000070 60 16 b5 3e d6 64 b1 3e ce 40 b3 3e 6f 73 82 3e
       0.35368633 0.34647244 0.3501038 0.25478694
000080 0d e3 a7 3e 5b 92 ab 3e ef 11 c9 3e 58 e0 bd 3e
       0.32790413 0.33510098 0.39271495 0.37085223
000090 66 3b a3 3e 94 95 81 3e cf c3 9c 3e 5c b4 b4 3e
       0.31881255 0.25309432 0.3061814 0.35293853
0000a0 c4 a3 ac 3e 15 11 ac 3e 63 5e 90 3e 8d 17 ff 3d
       0.33718693 0.33606783 0.2819701 0.12455664
0000b0 f5 e7 08 3e 7c 66 d6 3e 0d f4 b3 3e df 05 83 3e
       0.13369735 0.41875064 0.35147133 0.25590417
0000c0 a6 39 8a 3e 71 66 85 3e 3c 0a a9 3e 29 5f 08 3e
       0.26997107 0.2605472 0.3301562 0.1331755
0000d0 e4 60 65 3e e2 79 65 3e 71 58 2d 3e 55 bc c9 3e
       0.22400242 0.22409776 0.16928269 0.39401498
0000e0 1c 79 01 3e 43 fc 81 3e 0d 1e 58 bd f9 35 22 be
       0.12643856 0.25387773 -0.052763034 -0.15840901
0000f0 0d 0b 75 bd 81 ee eb 3d f3 f5 ea be 78 fc ec bd
       -0.059824992 0.115201004 -0.4589077 -0.11571592
000100 df cc ba 3d e0 31 27 be 5a ca 4c bd d0 86 57 3e
       0.09121107 -0.1632762 -0.049997665 0.2104752
000110 cc 5e dd 3e bd 3f 81 3d d7 ab 80 3e 73 b3 b2 3e
       0.43236387 0.06310985 0.25131103 0.34902534
000120 80 68 83 3e 75 33 85 3e 6a 94 97 3e 61 87 2f 3e
       0.25665665 0.2601582 0.29605418 0.17141487
000130 fd 73 82 3e fe 1a 6f 3e 54 32 68 3e 10 24 b9 3e
       0.25479117 0.2335014 0.22675449 0.36160326
000140 ea 7f 83 3e 06 52 96 3e 6c 39 bd 3d 76 4d b8 3c
       0.25683528 0.29359454 0.09239468 0.022497874
000150 a1 d9 ca 3d ca c3 d2 3d e2 31 c5 be 4b 8f 4a bb
       0.09904791 0.1029125 -0.3851462 -0.0030908163
000160 b6 aa 3f 3e 18 af 84 bd 16 86 ac 3c c5 96 21 3e
       0.18717465 -0.06478709 0.02106003 0.1578017
000170 49 4f d6 3e ce fa a5 3d cc 3f 75 3e f3 f0 a1 3e
       0.41857365 0.08104478 0.23950118 0.31629142
000180 cc f8 69 3e a0 51 6c 3e 02 99 9b 3e 30 05 67 3d
       0.22848815 0.23078012 0.30390173 0.05640143
000190 77 f2 4d 3e 27 41 6b 3e 52 92 06 3e 08 99 d3 3e
       0.20112024 0.22974072 0.13141754 0.4132769
0001a0 fd 5e be 3d 85 b5 85 3e 64 2c c0 bc bd 3e 81 bd
       0.09295461 0.2611505 -0.023458667 -0.063107945
0001b0 a2 b7 9a 3d 52 78 17 3e c1 b7 f5 be 07 3a 10 be
       0.075545564 0.14791992 -0.47991756 -0.14084636
0001c0 3d 4a 7d 3d 46 f5 05 be da 05 6b 3a 67 3d 7f 3e
       0.061838377 -0.13081846 0.00089654105 0.24925767
0001d0 c5 af e5 3e be 4d 2c 3b 5a 84 66 3e cf 43 ab 3e
       0.44860664 0.0026291455 0.22511426 0.3345017
0001e0 aa be 49 bb 3c 02 8d ba 47 60 7a bc 0d 67 98 3b
       -0.003078381 -0.0010758112 -0.015281743 0.0046509565
0001f0 66 dc e5 bb 89 90 44 bc 3b ce 4d bc 1b 81 bb bb
       -0.007014799 -0.0119973505 -0.012561376 -0.0057221777
000200 f2 e2 f8 bc 77 46 16 bc 6e 52 71 bc 2a 19 8a bc
       -0.030381653 -0.009172074 -0.014729125 -0.016857702
000210 09 87 38 3b 66 34 86 bb be 2c 1b 3c 4f c1 19 3c
       0.002815666 -0.004095602 0.009471117 0.009384467
000220 82 7a 65 bc 62 97 1c 3c 16 42 ce bc 00 32 3c bc
       -0.014006259 0.009557577 -0.025177997 -0.01148653
000230 a5 90 22 3c e8 c7 a1 bc 45 3e 8e bc c4 8a 06 bb
       0.009922181 -0.019748643 -0.017363677 -0.0020529488
000240 3b b2 a2 3e 61 a6 98 3e ed 0f 9f 3e 2f 9b 94 3e
       0.31776604 0.29814437 0.31066838 0.29024646
000250 46 9c 89 3e b1 d9 8d 3e c5 67 90 3e c3 05 9f 3e
       0.2687704 0.27705148 0.2820417 0.31059083
000260 12 6b 86 3e 69 86 98 3e 3f 31 4c 3e bf c4 3c 3e
       0.26253563 0.29790047 0.19940661 0.18434428
000270 1d e7 38 3e 4b 17 25 3e 2f 2a 9a be fc 05 da 3d
       0.18056913 0.16122167 -0.3011031 0.10645673
000280 bc 7b 84 3e 95 a7 92 3d 13 32 b4 3d d6 e4 2c 3e
       0.25875652 0.0716087 0.087986134 0.16884169
000290 1c cd b7 3e a7 20 6c 3e e4 e2 a2 3e bb 86 a3 3e
       0.35898674 0.23059331 0.3181373 0.3193873
0002a0 b5 ac 57 3e 61 a0 43 3e 73 14 9e 3e 6c fc 7e 3d
       0.21061976 0.19104148 0.30874977 0.062252447
0002b0 28 ee 4c 3e 84 9a 55 3e 18 78 d3 3d 8b 97 c3 3e
       0.20012724 0.20859724 0.103256404 0.38201556
0002c0 3b 32 87 3d 66 37 6a 3e f0 bf d3 bc 9b 45 01 be
       0.066013776 0.22872695 -0.025848359 -0.12624209
0002d0 44 80 7f bd 58 b7 67 3d 5a ea e1 be 5c 02 f9 bd
       -0.062378183 0.056571335 -0.4412411 -0.12158653
0002e0 09 6e cc 3d 62 af 34 be ae 68 a3 bd a1 78 31 3e
       0.09981925 -0.17645028 -0.079789504 0.17331173
0002f0 a0 02 cf 3e d6 f7 3d 3a a3 cb 72 3e ae 5a ad 3e
       0.4043169 0.0007246708 0.23710494 0.33858246
000300 ba 69 f8 bd 62 b1 45 3e a3 3a e4 bc 7a e3 a6 3e
       -0.12129541 0.19305947 -0.027859991 0.32595426
000310 46 a8 87 bd 71 4e d9 3c f7 f2 7a 3e 08 68 cd be
       -0.066238925 0.026526662 0.24506746 -0.40118432
000320 a2 54 74 3e 80 69 e8 3d 0f 9d 62 3e ee f0 ab 3e
       0.2386041 0.113482475 0.22130226 0.33582252
000330 2f 4e 6e 3e da 28 12 3e 21 07 f0 3e da 2d ad 3e
       0.23272012 0.14273396 0.4688044 0.33824044
000340 8f 6b 5a 3e 9d b3 bd 3e 39 bb a4 3e a1 0e 32 3d
       0.21330093 0.37051097 0.3217409 0.043470982
000350 97 72 e1 be 90 5d 57 3e 60 d3 d8 bd 74 31 96 be
       -0.44032738 0.21031785 -0.105871916 -0.29334605
000360 2a 67 24 3b 4b 7d ec bb b9 b5 8f bb e3 53 1c bc
       0.0025085905 -0.0072170845 -0.0043856767 -0.0095414845
000370 e3 fb 57 3b d3 9b e8 3a 95 13 67 bc b4 cf 28 bb
       0.0032956533 0.0017746635 -0.01410379 -0.0025758566
000380 a5 07 47 bb 01 d6 b1 bc c6 b1 09 bc 34 47 66 bb
       -0.0030369547 -0.02170849 -0.008404201 -0.0035137655
000390 10 ff 25 bb b9 c3 f9 ba 6e e1 53 bb 05 5c 9e bc
       -0.002532903 -0.0019055522 -0.0032330411 -0.019330988
0003a0 bb 21 8c 3b 32 8d 41 3b c0 66 ba bb 8f df e2 bb
       0.004276482 0.0029533622 -0.0056885183 -0.006923623
0003b0 a1 1c ef bc fc 13 88 bb 38 b3 c4 bb 6f 66 48 bc
       -0.029188456 -0.004152773 -0.00600281 -0.012231453
0003c0 05 4e 78 3e ed db 4e 3e 8b 94 97 3e f1 98 72 3d
       0.24248512 0.20201083 0.29605517 0.059227888
0003d0 77 f9 37 3e 92 a3 46 3e b0 43 00 3e bc cd b3 3e
       0.17966257 0.19398335 0.1252582 0.351179
0003e0 0d 8d 9e 3d 0b 19 70 3e 4f a2 63 bd f1 b9 71 be
       0.07741747 0.23447053 -0.05557471 -0.23606087
0003f0 23 9c d5 bd 57 f2 9e 3d f0 3f d3 be ad 28 91 bd
       -0.10430171 0.077610664 -0.41259718 -0.070878364

fc1.bias f4 [20]
000000 69 1c ae 3e 9f 8c aa 3e 51 53 9c 3e d3 ac 9b 3e
       0.3400605 0.3331041 0.30532315 0.30405292
000010 5d 31 9a 3e 90 13 24 bc cd 1a a0 3e 22 52 89 3e
       0.30115786 -0.01001443 0.31270447 0.26820475
000020 ac c1 e9 3d e2 99 ad bb 55 a6 85 3e d4 ad 8d bb
       0.11413893 -0.0052978853 0.26103464 -0.0043237004
000030 8a 55 99 3e da 2d 7e 3e 57 0e 55 3e 6b 80 99 3e
       0.29948074 0.24822178 0.20806251 0.29980788
000040 00 00 00 00 9c e7 65 3e f1 e9 f8 bb 97 c0 26 bc
       0.0 0.22451633 -0.0075962474 -0.010177753

fc2.weight f4 [15, 20]
000000 55 1e 07 3f cb 77 11 3f 52 40 bb 3e fe 48 1c 3e
       0.5278066 0.56823415 0.3657251 0.1526222
000010 c7 9c d2 3d a1 63 23 3e 79 c9 bb 3e 29 60 1b 3c
       0.10283809 0.15955974 0.3667715 0.009483376
000020 b0 34 86 3e f8 5c d9 bd 2a c0 8c 3e 24 2d 0e 3e
       0.26212072 -0.106134355 0.2749036 0.13884407
000030 d7 fa 50 3e 1f f3 9e 3e fd 25 c3 3e 40 63 b9 3e
       0.20408188 0.31044862 0.3811492 0.36208534
000040 4a f1 16 3e bb c2 83 3d 5b d9 d4 3d b2 c6 70 bd
       0.14740482 0.06433626 0.1039302 -0.05878324
000050 00 fb d7 3d b7 69 9c bc ea 25 55 be d7 89 81 3d
       0.10545921 -0.019093378 -0.20815244 0.06325119
000060 35 e0 f4 bd ad 15 4a 3e dd 7c 15 be 13 69 16 3e
       -0.119568266 0.19734831 -0.14598413 0.1468852
000070 5c 2a ce bc 7d 8d 11 be 81 f1 cc 3d 90 e9 59 bd
       -0.025166683 -0.1421413 0.10007001 -0.05320126
000080 f5 94 0d bd e9 7c 2a 3e db be 9c bc 18 12 8e ba
       -0.034565885 0.16649212 -0.019133976 -0.0010839133
000090 85 fa eb bd 7e a2 bf 3c 94 f3 9a 3d 3b 4e 3c 3e
       -0.11522392 0.023392912 0.0756599 0.18389218
0000a0 3a e4 2c 3d 1a 78 64 bd 41 89 de bd bc 90 f7 bd
       0.04220984 -0.0557786 -0.10866023 -0.12088153
0000b0 c5 9d 52 be 9c 3f 28 3e 61 0d 42 3d 14 f5 2b bd
       -0.20567997 0.16430515 0.04737604 -0.04198177
0000c0 7d b9 64 be 33 ab 3b 3e 6c 88 e2 bd 72 ee 64 3d
       -0.22336383 0.18327026 -0.11061177 0.05589146
0000d0 35 cf 06 be 98 33 be 3d 11 12 6b 3d b7 bc 42 3d
       -0.1316498 0.092871845 0.057390276 0.047543254
0000e0 a7 ac 09 3e f3 8f 41 3e 2f 4a c0 3d a2 69 21 3e
       0.13444768 0.18902569 0.093891494 0.15762952
0000f0 41 01 ea bd 16 82 8a 3d 8a ba bd bd 7d 92 32 3e
       -0.114260204 0.06763093 -0.09264095 0.17438693
000100 d5 06 28 be 47 ec 29 be 68 e3 36 3e fb c0 9c 3c
       -0.16408856 -0.16594039 0.17860186 0.019134989
000110 a4 f8 84 bd 89 5d be bb 69 db 87 bc d7 d4 61 bd
       -0.06492737 -0.00580949 -0.016584115 -0.05513462
000120 35 98 4e bd 93 bd dc 3d ab 79 20 be 2e 71 d9 bc
       -0.050438125 0.10778346 -0.15671413 -0.026543226
000130 79 02 a7 bd b2 b9 27 be 41 4d 27 bd 3d a0 b5 bd
       -0.081547685 -0.16379431 -0.04084516 -0.08868454
000140 64 df 08 3e af 2c 01 3e ed c5 a4 3e cc 68 a9 3e
       0.13366467 0.12614702 0.32182255 0.33087766
000150 fe 38 85 3e 85 bb 24 3e 1d c0 6f 3e ad 32 07 3f
       0.26020044 0.16087158 0.23413129 0.528117
000160 3b 82 f8 be 3d d4 44 be b2 46 f8 3e bc c7 60 bd
       -0.48536858 -0.19221587 0.48491436 -0.05487798
000170 b6 64 67 3e b8 17 f4 3e c4 9a d4 be 1a 42 92 3e
       0.22597012 0.47674346 -0.41524327 0.28566056
000180 e4 19 24 be 65 39 65 3e 04 6a 3c be 8c 95 3b be
       -0.16025501 0.22385176 -0.18399817 -0.18318766
000190 31 81 3b 3e 5e 7f 25 bc 91 fd 1c 3e 88 d9 b6 3e
       0.18311001 -0.0101011675 0.15331103 0.35712838
0001a0 bb c0 a9 3e 0f fd 3d 3e c7 34 96 3e 35 a0 f6 3e
       0.33154854 0.18553565 0.2933714 0.48169103
0001b0 64 52 ea be 2b bf 35 bd 42 ef f7 3e 72 86 03 be
       -0.45765984 -0.044371765 0.48424727 -0.12844256
0001c0 c3 a2 06 3f e5 a0 b1 3e c9 3c 84 be 16 40 05 be
       0.52592105 0.34693065 -0.25827625 -0.13012728
0001d0 70 ec 0a 3c df 99 f9 3e ab 52 1c be de 74 4f bc
       0.008479223 0.48750207 -0.1526591 -0.012662141
0001e0 35 0a 5d 3e 64 f0 82 3e 35 92 99 3e f5 57 59 3e
       0.21585925 0.25574028 0.2999436 0.21224959
0001f0 80 41 a6 3e 9a c3 a9 bd 8c bc d7 3e f9 4b ed 3e
       0.32471848 -0.08289261 0.42136037 0.46347025
000200 85 d5 f2 be 2f c6 be bd eb 94 7f 3e 0d 2b b3 bd
       -0.47428527 -0.09315144 0.24959151 -0.08748446
000210 8c c9 9b 3e 6d 7f 13 3e 35 8f 7f be b1 f7 3f bd
       0.30427206 0.14404078 -0.24956973 -0.046867076
000220 03 c4 86 bc 0b 40 9a 3e 4f 1c 43 3d 5d 58 60 3e
       -0.016450888 0.30126986 0.04763442 0.21908708
000230 55 59 57 be 2b e7 38 be de 6f cb bd 47 b9 9c bd
       -0.21030171 -0.18056934 -0.09933446 -0.07652526
000240 c9 d1 21 3d aa e2 14 be f8 77 ef bd 51 a9 51 bd
       0.039506707 -0.1453959 -0.11692804 -0.051186863
000250 00 b1 b1 bb 90 17 55 bb 82 51 58 be d9 d6 4d be
       -0.0054227114 -0.0032515265 -0.21124843 -0.20101489
000260 08 8c 17 3e 34 09 21 3e cf a9 53 3e 98 59 db 3c
       0.14799511 0.15726167 0.20670246 0.02677612
000270 96 65 1f be 8f ad 3b 3e 87 2f 14 be f9 26 06 3e
       -0.15566096 0.18327926 -0.14471255 0.13100804
000280 a0 e4 90 3e 3a 98 ef 3e e1 1a ac bd dc 96 45 3e
       0.28299427 0.46795827 -0.08403564 0.1929583
000290 76 35 62 3d f0 0f f0 3d c7 64 13 3e 2e 32 78 3e
       0.055226766 0.1172179 0.14393912 0.24237892
0002a0 1c aa fe 3e e0 14 4a be 04 ac 62 3e 31 19 64 3e
       0.49739158 -0.19734526 0.22135931 0.22275235
0002b0 02 32 91 3d a9 42 88 be 5e 80 dd 3e 10 f2 10 3f
       0.07089616 -0.26613358 0.43262 0.5661936
0002c0 f5 0e e8 3b 15 4f d3 bd 41 fb 2d be 54 59 60 bd
       0.007081861 -0.10317818 -0.16990377 -0.05477269
0002d0 e2 56 f9 3e 4a 2e 02 3f e3 7b ac be c6 d1 67 3e
       0.486991 0.5085188 -0.33688268 0.22638616
0002e0 73 d5 b9 bd 91 89 e0 bd 3a 85 6d 3d bd f4 b9 be
       -0.09073915 -0.10963739 0.057988383 -0.36319533
0002f0 e5 69 8a 3e b0 66 48 3e 57 87 96 be 09 e5 f3 3d
       0.27033916 0.19570422 -0.2940013 0.11908919
000300 2e 06 94 bd 55 08 04 bf 45 f9 f7 3e ab df 1c 3f
       -0.07227741 -0.51575214 0.48432365 0.6127879
000310 1d cb bd 3d a8 02 c8 be e2 61 21 bd 4e 8b 5b be
       0.092672564 -0.39064527 -0.03939999 -0.2143986
000320 5e f6 d3 3e fd 4f d3 3e cd fb c6 3e 60 8a f3 3e
       0.413989 0.41271964 0.38863984 0.4756651
000330 da 81 a0 3e 31 ec 80 bd 7c f1 c5 3e 5c fe af 3e
       0.3134907 -0.0629505 0.386608 0.34373748
000340 c7 48 10 bf 93 63 e6 3d 74 59 85 3e ab 95 84 3c
       -0.5636105 0.11249461 0.2604481 0.016184648
000350 8b dc ec 3e a5 ab 9e 3e b4 66 1e bf 2b 1b 60 3e
       0.4626201 0.3099033 -0.6187546 0.21885364
000360 cd 3c 87 3d 56 dc e7 3e 2e 79 8f bd af 7d 28 be
       0.06603394 0.4528529 -0.07005535 -0.16454194
000370 ef 51 b4 bd 11 57 a0 bd ff 39 98 3d 18 4c 1f bd
       -0.0880469 -0.078291066 0.07432937 -0.038890928
000380 c3 f2 bb bd 31 bc 3d be df 7b 11 be 86 07 05 be
       -0.091771625 -0.1852882 -0.1420741 -0.12991151
000390 ef cc 88 bd ad 16 3b 3d 3d 1b 14 be 83 c9 3e be
       -0.06679713 0.045675922 -0.14463516 -0.18631558
0003a0 5f 10 3a 3e db 1b 13 3c cb 11 4b be e9 ca 21 3c
       0.18170308 0.008978809 -0.19831006 0.009875038
0003b0 93 6e e5 3c ae cf c9 3d a1 b3 7e 3d f1 b9 0d be
       0.028006827 0.09854065 0.062183026 -0.13840462
0003c0 c5 87 f5 3d 8d 9d 0c 3f 8f c7 8c be be 05 7e be
       0.119887866 0.54927903 -0.27496 -0.24806878
0003d0 93 ee c5 be f8 9d 14 3e c2 a6 b6 3e 72 d8 d1 be
       -0.3865858 0.14513385 0.356741 -0.40985447
0003e0 68 ed c1 3e 1a 75 83 bd aa a4 f5 be b3 8a 3f 3e
       0.3787644 -0.0641882 -0.4797719 0.18705253
0003f0 4a d9 24 be d2 b3 ae be 8f c4 e5 3e 77 0c 09 3f
       -0.16098514 -0.34121567 0.44876525 0.53534645

fc2.bias f4 [15]
000000 92 d4 c1 3d e2 d1 47 be 3f e6 b0 bd 14 17 ef bd
       0.09464373 -0.19513658 -0.08637666 -0.11674324
000010 e8 80 83 3e 73 d9 12 3e b5 97 32 3e a3 55 04 be
       0.25684285 0.14340763 0.17440684 -0.12923293
000020 5d 13 f3 3e 43 39 be 3e fd a6 ed 3e 37 7f 6a bd
       0.4747571 0.37153062 0.46416464 -0.057250228
000030 54 65 ac 3e 13 2e db bd 4d 94 fd 3c
       0.33671057 -0.10702147 0.030954504

fc3.weight f4 [10, 15]
000000 a7 ee f7 3e 95 ea e9 3c a3 84 6f be 26 0e f1 3d
       0.48424265 0.02855424 -0.2339044 0.11770277
000010 79 b6 7e be b7 8a 81 be da 81 2a be 5b 34 f4 3d
       -0.24874295 -0.25301144 -0.16651097 0.119240485
000020 98 ef 5b 3e c2 db 74 3e 8e 8a a5 be 38 85 17 be
       0.21478117 0.23911956 -0.3233227 -0.14796913
000030 6d 63 d5 3e b2 a1 35 be 9d d8 4c 3e 7c 98 a6 3e
       0.41677418 -0.17737463 0.20004506 0.3253821
000040 2f 57 16 3e 2e 7e 42 3e b0 70 b5 3c 99 a5 9c bd
       0.14681695 0.18993446 0.02214846 -0.07648773
000050 b5 4c 83 be 18 99 ac 3d cc ef 00 be 1e 0d 10 3d
       -0.2564446 0.08427638 -0.12591475 0.03516876
000060 ed 03 d6 3e 76 f0 9f be 31 ff b7 bd 11 f3 9f 3d
       0.4179987 -0.31238145 -0.08984221 0.07810033
000070 2e 6f de bd 72 9d 82 3e 42 1c 85 3e ba 98 a2 3d
       -0.108610496 0.25510746 0.25998122 0.079392865
000080 cb 5a 04 3c 4d f4 82 3d 0f 1d 1b 3e 89 f3 5d 3e
       0.008078287 0.06394253 0.15147804 0.21674933
000090 66 55 cb 3e 78 0e bf bd f4 71 c7 3e 58 66 01 3f
       0.3971359 -0.093289316 0.38954127 0.5054679
0000a0 90 c1 a5 3e ed 5b ff bd 62 30 c9 3d 7b b9 53 be
       0.3237424 -0.12468705 0.098236814 -0.20676224
0000b0 ec 5d 58 be 2d aa d5 3e 67 73 45 be f6 c6 45 3d
       -0.21129578 0.41731396 -0.19282304 0.048285447
0000c0 f3 72 11 be 4c 2e 3d be cc 89 d2 be 77 4d b2 be
       -0.14204006 -0.18474692 -0.41120756 -0.34824726
0000d0 85 70 14 be fd 0a d2 3e e9 c7 0f 3f 26 f3 81 be
       -0.14496048 0.41024008 0.56164414 -0.2538082
0000e0 2c 1e 6d bd 35 62 14 3f 77 88 81 3e c4 da 25 be
       -0.057890102 0.5796235 0.25299427 -0.16196734
0000f0 ff bb af 3e dc 41 6b bd ad f0 87 bd bd 72 5f bd
       0.34323117 -0.057435855 -0.06637702 -0.054552782
000100 7e 9f fb 3e 14 f2 bb 3e 39 17 d1 3e ca 11 cd bd
       0.4914512 0.36708128 0.4083803 -0.100131586
000110 40 16 8a 3e da 06 a6 be 54 5e ab 3e 7b 79 7b be
       0.269701 -0.32427102 0.33470404 -0.2455806
000120 1f 8d 87 be df 91 ef 3d a5 75 48 be de 0f 37 3e
       -0.26474854 0.116977446 -0.19576128 0.17877147
000130 71 d2 05 bd 51 69 8b bd 90 ed 80 3e 3f 20 63 be
       -0.032671396 -0.06807197 0.25181246 -0.2218027
000140 3c d1 dc be 0f 68 fb bd 5e 50 82 be 7c d6 91 3e
       -0.43128383 -0.12275707 -0.2545194 0.2848395
000150 9d ea b7 3e 61 c6 48 bd 9d 55 f7 bd 8a 5e b7 3e
       0.35921183 -0.049017314 -0.12076876 0.35814315
000160 eb 85 a4 3b 1c 24 a8 3d 5c 68 ac 3e 2d 91 2e 3e
       0.005020847 0.08210012 0.3367337 0.17047568
000170 f1 c8 78 be dc a6 21 be 58 97 c1 3e 4f 3f 90 3e
       -0.24295403 -0.15786308 0.3781078 0.281733
000180 a2 54 b6 3e e1 ad 74 be 69 cd 2a be f1 51 10 be
       0.35611445 -0.23894455 -0.1667992 -0.14093758
000190 63 b9 cd 3e 51 80 d9 bd 92 02 a6 be de 90 3b bd
       0.401805 -0.106201775 -0.32423836 -0.045792453
0001a0 7c 37 11 3e 15 1a d1 bd 91 fa 4a be db 6a 71 be
       0.14181322 -0.10210053 -0.19822146 -0.23575918
0001b0 d4 35 37 3e 57 46 cb bd 2c d3 77 be 05 6d e9 bd
       0.17891628 -0.09925526 -0.2420165 -0.11397747
0001c0 c1 f1 51 be 69 0f 44 be b6 d2 00 bd d1 2f a6 3d
       -0.20502378 -0.19146504 -0.03145095 0.08114589
0001d0 19 b6 41 3d fc eb 74 be ab b1 47 3e 2f 85 35 3d
       0.047292802 -0.23918146 0.19501369 0.044316467
0001e0 04 7c 1b be d4 8b 15 3d 1d 35 21 3e ba 65 4b be
       -0.15184027 0.036510304 0.15742917 -0.19863024
0001f0 e1 52 74 bd aa 35 92 bd 1f 92 1f be ed db 81 be
       -0.059649352 -0.07139142 -0.15583085 -0.25363103
000200 17 80 0e 3c c2 1d 84 3d 1f ae 53 be 1b b8 ca bc
       0.008697531 0.06450988 -0.2067189 -0.024745991
000210 0c 47 10 3e 7c 13 92 3d f5 33 c0 3d 65 f4 07 3d
       0.14089602 0.071326226 0.0938491 0.033192057
000220 60 f7 71 3e 9d 4d 54 be 3e d9 83 3c 91 93 12 3e
       0.23629522 -0.20732732 0.0160948 0.14314105
000230 da d8 0e 3b 6b 77 79 be ce 87 29 be 86 23 60 be
       0.0021796734 -0.2436196 -0.16555712 -0.21888551
000240 3a 07 a7 be 77 36 9d 3c ec 41 81 be bb 95 98 be
       -0.326227 0.01919101 -0.25245607 -0.29801735
000250 89 b2 2b be 4b 08 35 be
       -0.16767325 -0.17678945

fc3.bias f4 [10]
000000 4a 0c 9a 3e d8 c5 1e 3d a3 99 a5 3e 35 d2 9d 3e
       0.300875 0.038762897 0.32343778 0.30824438
000010 13 5d ec 3e 80 cb af bd df a0 87 3e 3f 45 35 be
       0.4616476 -0.085837364 0.26489922 -0.17702197
000020 04 49 29 3e 03 03 27 bd
       0.1653176 -0.040774357

fc4.weight f4 [5, 10]
000000 f0 ce 8f be cd 2b 2e 3e bf 21 f6 bd d6 07 8a 3e
       -0.28087568 0.17008896 -0.12018155 0.26959103
000010 c9 e3 c4 bd 0f 0a 87 bd 18 c7 29 3e 4f 1b 1b be
       -0.09613759 -0.065937154 0.16579854 -0.15147136
000020 7d 8a 0f 3e d5 9a cf 3c 06 e1 96 be f8 bb 2f bd
       0.14017673 0.025342384 -0.29468554 -0.04290387
000030 19 2f c5 3e b7 16 17 bf fc c0 bd 3e 88 28 11 bf
       0.38512495 -0.59019035 0.37061298 -0.5670247
000040 fb 6a be 3e 8f c1 39 3e 6e c0 58 be ee 02 2e 3b
       0.37190995 0.18140243 -0.21167156 0.002655204
000050 17 7b f5 be d7 fb c6 be 3b 89 aa bb 18 d2 75 be
       -0.47945473 -0.38864014 -0.0052043474 -0.24005926
000060 6d 8e d0 3e a9 84 13 bf 22 73 44 3e 0c cd 5a be
       0.40733662 -0.576243 0.19184545 -0.21367282
000070 ac e7 f1 bc 02 ed d3 bc 49 ac 99 3e 47 21 b4 3d
       -0.029529415 -0.02586985 0.30014256 0.0879541
000080 32 92 78 be 2c 6c 83 3d 50 2d c0 bd 47 c3 22 be
       -0.24274519 0.064171165 -0.09383643 -0.15894805
000090 bd 16 b9 3d 4c 05 60 be 29 b2 af bd de fe 15 3d
       0.0903754 -0.2187702 -0.08578903 0.036620013
0000a0 cf 09 f0 3e ac c7 65 3e ec 8c b1 3e a4 6d 07 3f
       0.46882483 0.2243945 0.34677827 0.52901673
0000b0 71 82 cb 3d 4e 8d 00 3e a1 79 5d bd 72 5a e2 3c
       0.09936989 0.12553903 -0.054071072 0.027631018
0000c0 49 e9 0f be f7 a9 aa be
       -0.14053835 -0.33332798

fc4.bias f4 [5]
000000 ab 25 97 be ee e3 a3 3e 54 c3 9f bd 0d 27 87 be
       -0.29520926 0.32009834 -0.07800928 -0.2639698
000010 0f f4 bf 3e
       0.3749089

fc5.weight f4 [4, 5]
000000 fe 30 99 be 40 49 92 3e dd db e4 be 99 45 b6 3e
       -0.2992019 0.2857151 -0.44698992 0.35599974
000010 6b 0d bb 3e 43 28 6b be be df 20 3f 02 ea 0a 3f
       0.36533675 -0.22964577 0.62841403 0.5426332
000020 11 e6 87 be 2f c4 9e be e0 d2 93 3e 8a 7c c6 bd
       -0.26542714 -0.3100905 0.28871822 -0.09691723
000030 ac 0d 2c 3e a0 ce f8 bd e2 1c 12 be 4c 41 34 be
       0.1680209 -0.121487856 -0.1426883 -0.17603034
000040 46 fd 88 bc ac bf a2 bd a5 73 d4 be 27 02 be be
       -0.016722333 -0.07946715 -0.4149448 -0.37111017

fc5.bias f4 [4]
000000 0d f3 83 3d fd 4a 0d 3e 60 a7 ee 3d 87 2d 0d bf
       0.06442843 0.13798137 0.11653018 -0.55147594
