Laboratorios/Lab1/checkpoints/modelo_epoch_420.pth (torch, 7862 bytes, 10 tensors)

fc1.weight f4 [20, 24]
000000 fa 69 c3 3e 4a 90 a9 3e 72 63 af 3e 04 be b6 3e
       0.3816679 0.33117896 0.34255558 0.35691845
000010 11 52 b6 3e d6 26 bd 3e 7f 20 ac 3e b4 bd b0 3e
       0.35609487 0.36943692 0.33618543 0.34519732
000020 b1 b0 b7 3e 44 f5 c1 3e 25 33 ae 3e 9b a1 aa 3e
       0.35876992 0.37882435 0.34023395 0.3332642
000030 70 8c 58 3e b7 1b 43 3e 69 f2 03 bc 9d 5f f5 3d
       0.21147323 0.19053541 -0.008053401 0.119811274
000040 fa 63 a4 3e d4 7e f9 3d b7 7d 36 3e ca 24 22 3e
       0.32107526 0.12182394 0.17821394 0.15834346
000050 dc 30 60 3e ce 89 e4 3e b9 fe ab 3e f1 4e ba 3e
       0.21893638 0.44636387 0.33592775 0.36388353
000060 bb c2 c9 3e c3 54 b5 3e 51 b2 a9 3e be b7 c3 3e
       0.3940638 0.3541623 0.33143857 0.38226122
000070 76 3f cc 3e c9 f1 c4 3e d2 ae b7 3e f9 e0 b7 3e
       0.39892167 0.38465717 0.35875565 0.35913828
000080 ec 59 ba 3e 4f 1a c2 3e 14 a1 ae 3e 9b fc c8 3e
       0.3639673 0.37910697 0.34107268 0.39255223
000090 a5 44 8f 3e 76 a4 92 3e 9e 91 ca 3e 44 f4 9b 3e
       0.2798206 0.286411 0.39564222 0.30459797
0000a0 9f 8d bf 3e 72 16 98 3e 5e f6 9c 3e 7b 57 07 3e
       0.37412736 0.29704624 0.30656713 0.13216965
0000b0 b3 ce 15 3d 5c d7 ee 3e 7f d5 c9 3e 06 e1 c0 3e
       0.036574077 0.4664868 0.39420697 0.3767168
0000c0 15 82 4a 3e 8b 28 79 3e c9 51 96 3e 20 12 1d 3e
       0.19776185 0.24331872 0.29359272 0.15338945
0000d0 60 cd 31 3e 4d c9 41 3e 61 10 3f 3e 7c 22 8f 3e
       0.173635 0.18924446 0.18658592 0.27955997
0000e0 a6 fe 44 3d e6 c6 26 3e 38 6c 6d 3d 01 b0 4b be
       0.048094414 0.16286811 0.057964534 -0.19891359
0000f0 42 e1 26 3d 68 36 7f 3d 7a 6a 18 bf cc ba ec bb
       0.040742166 0.062307745 -0.5953747 -0.0072244164
000100 ca 2c 80 3d 1a 25 22 bd 08 00 95 bd 32 05 5b 3e
       0.06258543 -0.039586164 -0.072753966 0.213887
000110 1a c8 06 3f c4 70 3e 3c f7 51 57 3e dd 01 75 3e
       0.5264908 0.011623565 0.21027361 0.23926492
000120 c9 98 4e 3e 42 f8 82 3e 66 3f 8c 3e c9 f8 46 3e
       0.2017547 0.2558003 0.2739212 0.19430842
000130 4e 88 5e 3e ad 81 55 3e 7b 3c 7e 3e cf db 85 3e
       0.21731684 0.20850249 0.24827759 0.26144263
000140 8e 70 48 3e 0b ca 77 3e a4 df 74 3e cf 35 a8 bc
       0.19574186 0.24198167 0.23913437 -0.02053347
000150 97 ae 57 3e 35 e1 76 3d c1 03 0c bf b9 96 f3 3d
       0.21062694 0.060273368 -0.5469323 0.118939824
000160 a8 61 2d 3e e6 c7 63 3d 55 3a 8b 3c d5 b7 23 3e
       0.16931784 0.05561056 0.016995588 0.15988095
000170 ef b0 03 3f 28 29 e1 3c c4 a8 55 3e 08 e2 5e 3e
       0.51441854 0.027485445 0.2086516 0.21765912
000180 c6 7c 0f 3e b9 1b 54 3e 24 bf 83 3e ce 42 a1 3d
       0.14012441 0.207137 0.25731766 0.0787407
000190 a7 8a 0f 3e 52 6c 42 3e 5f a3 1a 3e d3 6f 90 3e
       0.14017735 0.18986633 0.15101384 0.28210315
0001a0 d7 74 3f bb 5b 84 15 3e e8 6d c6 3d 46 77 dc bd
       -0.002921393 0.14601271 0.09688932 -0.10764937
0001b0 49 28 3a 3e fc c8 b7 3d e1 ca 20 bf ef 93 ba bc
       0.1817943 0.089738816 -0.6280957 -0.022775618
0001c0 af d2 e8 3c de 28 0d 3b 12 a8 d0 bc 7b c7 80 3e
       0.028420774 0.0021539251 -0.025470767 0.25152192
0001d0 98 59 0d 3f 7a 61 55 bd 89 b3 34 3e 6c c1 54 3e
       0.55214834 -0.052094914 0.17646612 0.2077691
0001e0 aa be 49 bb 3c 02 8d ba 47 60 7a bc 0d 67 98 3b
       -0.003078381 -0.0010758112 -0.015281743 0.0046509565
0001f0 66 dc e5 bb 89 90 44 bc 3b ce 4d bc 1b 81 bb bb
       -0.007014799 -0.0119973505 -0.012561376 -0.0057221777
000200 f2 e2 f8 bc 77 46 16 bc 6e 52 71 bc 2a 19 8a bc
       -0.030381653 -0.009172074 -0.014729125 -0.016857702
000210 09 87 38 3b 66 34 86 bb be 2c 1b 3c 4f c1 19 3c
       0.002815666 -0.004095602 0.009471117 0.009384467
000220 82 7a 65 bc 62 97 1c 3c 16 42 ce bc 00 32 3c bc
       -0.014006259 0.009557577 -0.025177997 -0.01148653
000230 a5 90 22 3c e8 c7 a1 bc 45 3e 8e bc c4 8a 06 bb
       0.009922181 -0.019748643 -0.017363677 -0.0020529488
000240 2b 19 9e 3e 0c 9e 9d 3e b9 ab a0 3e 89 0c 9c 3e
       0.30878577 0.30784643 0.31381014 0.30478314
000250 58 9f 88 3e e7 79 8f 3e 1c b3 99 3e 21 ec 91 3e
       0.2668407 0.28022692 0.30019462 0.28500465
000260 7e 68 86 3e 41 66 97 3e 2e 08 92 3e b1 8f 3e 3e
       0.26251596 0.295702 0.28521866 0.18609501
000270 c7 32 6a 3e 57 c5 1e 3e ac c0 c5 be fc 65 2c 3e
       0.22870933 0.15504967 -0.3862356 0.16835779
000280 6f b9 86 3e cd c7 ee 3d 1a 03 d1 3d e9 49 33 3e
       0.2631335 0.11659203 0.1020567 0.17508663
000290 09 73 cd 3e 4a 6b 5e 3e f1 22 a1 3e 4c 40 94 3e
       0.40126827 0.21720615 0.3147197 0.28955305
0002a0 38 5d 11 3e 7d ff 2e 3e bd 0c 8a 3e ed a5 a4 3d
       0.14195716 0.17089649 0.26962844 0.0803946
0002b0 29 f3 19 3e 08 05 31 3e 85 da ec 3d 90 05 8b 3e
       0.15034164 0.17287076 0.11565117 0.2715268
0002c0 1c b6 f3 3a 0d 77 02 3e 96 20 87 3d 26 28 24 be
       0.0018593702 0.12740727 0.06598012 -0.1603094
0002d0 ae 48 c0 3c bd df 29 3c bd be 0d bf 41 5f 10 bd
       0.023472156 0.010368285 -0.5536917 -0.03524709
0002e0 68 77 90 3d fb df 90 bd 65 f4 d4 bd a1 6e 35 3e
       0.07054025 -0.07073971 -0.10398177 0.17717983
0002f0 ca e0 fa 3e 49 ae 44 bd c8 93 4b 3e 96 64 76 3e
       0.48999625 -0.048017774 0.19880593 0.24061808
000300 53 9a 29 bb 4d 8d 6b 3e 1c c3 54 3d 43 59 9f 3e
       -0.0025879338 0.2300312 0.051943883 0.3112279
000310 70 77 b3 3b 9e 37 93 3d 9f 83 76 3e c5 ff 85 be
       0.0054768845 0.071883425 0.24073647 -0.261717
000320 70 8c 97 3e 29 53 7f 3e 25 fb 11 3e a5 af bb 3e
       0.29599333 0.24934067 0.1425596 0.36657444
000330 f0 c4 23 3e a3 60 43 3e b3 ca 12 3f f0 87 86 3e
       0.15993094 0.19079833 0.57340544 0.26275587
000340 ac 2d 81 3e d2 52 92 3e e6 2d b5 3e de 69 27 3d
       0.25230157 0.28578812 0.3538658 0.040872447
000350 08 27 09 bf cc d3 84 3e 26 93 51 bd 07 0e 2a be
       -0.5357518 0.25942838 -0.051165722 -0.16606914
000360 2a 67 24 3b 4b 7d ec bb b9 b5 8f bb e3 53 1c bc
       0.0025085905 -0.0072170845 -0.0043856767 -0.0095414845
000370 e3 fb 57 3b d3 9b e8 3a 95 13 67 bc b4 cf 28 bb
       0.0032956533 0.0017746635 -0.01410379 -0.0025758566
000380 a5 07 47 bb 01 d6 b1 bc c6 b1 09 bc 34 47 66 bb
       -0.0030369547 -0.02170849 -0.008404201 -0.0035137655
000390 10 ff 25 bb b9 c3 f9 ba 6e e1 53 bb 05 5c 9e bc
       -0.002532903 -0.0019055522 -0.0032330411 -0.019330988
0003a0 bb 21 8c 3b 32 8d 41 3b c0 66 ba bb 8f df e2 bb
       0.004276482 0.0029533622 -0.0056885183 -0.006923623
0003b0 a1 1c ef bc fc 13 88 bb 38 b3 c4 bb 6f 66 48 bc
       -0.029188456 -0.004152773 -0.00600281 -0.012231453
0003c0 3d f1 32 3e e8 53 3d 3e 43 a8 85 3e 77 26 a3 3d
       0.17474838 0.18489039 0.26104936 0.07966321
0003d0 f8 d7 05 3e 35 cb 23 3e 24 79 12 3e 31 84 78 3e
       0.13070667 0.15995486 0.14304024 0.24269177
0003e0 cb ef 7a 3b 64 63 0f 3e a9 01 43 3d b6 6f 8c be
       0.00382899 0.14002758 0.047609005 -0.2742898
0003f0 e7 74 f3 bb 07 2a fb 3c a6 8c 09 bf b6 5c e5 3c
       -0.0074297073 0.030659689 -0.5373024 0.02799831

fc1.bias f4 [20]
000000 a3 33 b1 3e 04 43 a8 3e e4 8f b6 3e 3c 7a af 3e
       0.34609708 0.3286363 0.35656655 0.34272945
000010 e1 a2 ba 3e 90 13 24 bc e7 f2 a9 3e 56 64 a5 3e
       0.36452392 -0.01001443 0.33193132 0.32303113
000020 c3 c3 11 3c e2 99 ad bb 5d 54 a0 3e d4 ad 8d bb
       0.008896771 -0.0052978853 0.31314364 -0.0043237004
000030 16 b2 af 3e 18 4f a6 3e 61 2a 0a 3e fd da 91 3e
       0.34315556 0.3248222 0.13492729 0.28487387
000040 00 00 00 00 b7 d8 9a 3e f1 e9 f8 bb 97 c0 26 bc
       0.0 0.30243465 -0.0075962474 -0.010177753

fc2.weight f4 [15, 20]
000000 ed 97 0e 3f 5e 59 1b 3f 93 62 ac 3e 35 7d 08 3e
       0.5570057 0.6068324 0.33668956 0.13329013
000010 a8 17 75 3d a1 63 23 3e 9b d8 bd 3e e3 83 d8 bc
       0.059837013 0.15955974 0.3707932 -0.026430076
000020 e2 4e 98 3e f8 5c d9 bd 05 57 70 3e 24 2d 0e 3e
       0.29747683 -0.106134355 0.23470695 0.13884407
000030 a8 4b 36 3e ec 53 84 3e 43 a1 d3 3e eb 28 cf 3e
       0.17802298 0.25845277 0.4133397 0.40460905
000040 4a f1 16 3e 0b e0 73 3c 5b d9 d4 3d b2 c6 70 bd
       0.14740482 0.014884959 0.1039302 -0.05878324
000050 00 fb d7 3d b7 69 9c bc ea 25 55 be d7 89 81 3d
       0.10545921 -0.019093378 -0.20815244 0.06325119
000060 35 e0 f4 bd ad 15 4a 3e dd 7c 15 be 13 69 16 3e
       -0.119568266 0.19734831 -0.14598413 0.1468852
000070 5c 2a ce bc 7d 8d 11 be 81 f1 cc 3d 90 e9 59 bd
       -0.025166683 -0.1421413 0.10007001 -0.05320126
000080 f5 94 0d bd e9 7c 2a 3e db be 9c bc 18 12 8e ba
       -0.034565885 0.16649212 -0.019133976 -0.0010839133
000090 85 fa eb bd 7e a2 bf 3c 94 f3 9a 3d 3b 4e 3c 3e
       -0.11522392 0.023392912 0.0756599 0.18389218
0000a0 3a e4 2c 3d 1a 78 64 bd 41 89 de bd bc 90 f7 bd
       0.04220984 -0.0557786 -0.10866023 -0.12088153
0000b0 c5 9d 52 be 9c 3f 28 3e 61 0d 42 3d 14 f5 2b bd
       -0.20567997 0.16430515 0.04737604 -0.04198177
0000c0 7d b9 64 be 33 ab 3b 3e 6c 88 e2 bd 72 ee 64 3d
       -0.22336383 0.18327026 -0.11061177 0.05589146
0000d0 35 cf 06 be 98 33 be 3d 11 12 6b 3d b7 bc 42 3d
       -0.1316498 0.092871845 0.057390276 0.047543254
0000e0 a7 ac 09 3e f3 8f 41 3e 2f 4a c0 3d a2 69 21 3e
       0.13444768 0.18902569 0.093891494 0.15762952
0000f0 41 01 ea bd 16 82 8a 3d 8a ba bd bd 7d 92 32 3e
       -0.114260204 0.06763093 -0.09264095 0.17438693
000100 d5 06 28 be 47 ec 29 be 68 e3 36 3e fb c0 9c 3c
       -0.16408856 -0.16594039 0.17860186 0.019134989
000110 a4 f8 84 bd 89 5d be bb 69 db 87 bc d7 d4 61 bd
       -0.06492737 -0.00580949 -0.016584115 -0.05513462
000120 35 98 4e bd 93 bd dc 3d ab 79 20 be 2e 71 d9 bc
       -0.050438125 0.10778346 -0.15671413 -0.026543226
000130 79 02 a7 bd b2 b9 27 be 41 4d 27 bd 3d a0 b5 bd
       -0.081547685 -0.16379431 -0.04084516 -0.08868454
000140 21 b9 fa 3d 4a b1 84 3d 26 71 b9 3e bf 33 c1 3e
       0.12242342 0.06479128 0.36219138 0.37734792
000150 bb 29 a0 3e 85 bb 24 3e 03 24 85 3e e9 49 12 3f
       0.31281838 0.16087158 0.26004037 0.5714403
000160 55 9b 0b bf 3d d4 44 be 78 98 07 3f bc c7 60 bd
       -0.5453389 -0.19221587 0.52967024 -0.05487798
000170 c9 f9 8a 3e 7d 3e 06 3f 37 f4 ef be b5 15 4e 3e
       0.27143696 0.524391 -0.4686601 0.20125468
000180 e4 19 24 be 61 e3 8a 3e 04 6a 3c be 8c 95 3b be
       -0.16025501 0.271266 -0.18399817 -0.18318766
000190 62 04 1c 3e d8 21 b5 bd d4 78 55 3e d1 0b db 3e
       0.15236047 -0.08844346 0.20846874 0.42782453
0001a0 5b 12 ce 3e 0f fd 3d 3e 82 10 aa 3e fa 37 0a 3f
       0.4024838 0.18553565 0.3321572 0.53991663
0001b0 aa fa 01 bf 2b bf 35 bd 67 8c 0a 3f 72 86 03 be
       -0.5077311 -0.044371765 0.54120487 -0.12844256
0001c0 9f ac 17 3f c9 12 ce 3e 53 05 9b be 05 18 58 be
       0.59247774 0.40248707 -0.302775 -0.21102913
0001d0 70 ec 0a 3c 02 f6 0b 3f ab 52 1c be de 74 4f bc
       0.008479223 0.54672253 -0.1526591 -0.012662141
0001e0 e0 3f 5a 3e 55 0c 63 3e b8 ca a9 3e 47 b4 7c 3e
       0.21313429 0.22172673 0.33162475 0.24678145
0001f0 90 08 bb 3e 9a c3 a9 bd 21 27 e2 3e 0f 8a fe 3e
       0.3652997 -0.08289261 0.44170478 0.49714705
000200 82 60 0c bf 2f c6 be bd c0 91 92 3e 0d 2b b3 bd
       -0.5483476 -0.09315144 0.28626823 -0.08748446
000210 f5 4f ad 3e 7e 4e 3d 3e 1a e4 a1 be 7a 9b d2 bd
       0.33850065 0.18486974 -0.3161934 -0.10283561
000220 03 c4 86 bc 4f cf ad 3e 4f 1c 43 3d 5d 58 60 3e
       -0.016450888 0.33947226 0.04763442 0.21908708
000230 55 59 57 be 2b e7 38 be de 6f cb bd 47 b9 9c bd
       -0.21030171 -0.18056934 -0.09933446 -0.07652526
000240 c9 d1 21 3d aa e2 14 be f8 77 ef bd 51 a9 51 bd
       0.039506707 -0.1453959 -0.11692804 -0.051186863
000250 00 b1 b1 bb 90 17 55 bb 82 51 58 be d9 d6 4d be
       -0.0054227114 -0.0032515265 -0.21124843 -0.20101489
000260 08 8c 17 3e 34 09 21 3e cf a9 53 3e 98 59 db 3c
       0.14799511 0.15726167 0.20670246 0.02677612
000270 96 65 1f be 8f ad 3b 3e 87 2f 14 be f9 26 06 3e
       -0.15566096 0.18327926 -0.14471255 0.13100804
000280 cd bc a3 3e ec 34 03 3f 07 3a 20 be 9f 32 1b 3e
       0.3197998 0.5125263 -0.15647136 0.15156029
000290 03 7b 1c bd f0 0f f0 3d 84 e6 14 3e 36 b7 23 3e
       -0.03820325 0.1172179 0.1454106 0.15987858
0002a0 ae f6 08 3f e0 14 4a be 9f d1 0a 3e 31 19 64 3e
       0.53501403 -0.19734526 0.13556527 0.22275235
0002b0 81 e5 3e 3c 09 82 ae be 45 ff ee 3e cb 10 1d 3f
       0.011651398 -0.34083584 0.4667913 0.6135375
0002c0 f5 0e e8 3b a6 d3 42 be 41 fb 2d be 54 59 60 bd
       0.007081861 -0.1902605 -0.16990377 -0.05477269
0002d0 77 4d 08 3f 62 63 0f 3f 7a 5a df be 2b 75 2a 3d
       0.532432 0.5601102 -0.43623716 0.041615646
0002e0 01 9a 59 be 91 89 e0 bd 75 8b 8d 3c b5 0b e9 be
       -0.21250154 -0.10963739 0.017278412 -0.45516744
0002f0 f5 99 9d 3e b0 66 48 3e 5e d5 be be 09 e5 f3 3d
       0.30781522 0.19570422 -0.3727216 0.11908919
000300 a7 7f 70 be f2 19 14 bf aa 8c 04 3f cb 65 2a 3f
       -0.23486196 -0.5785209 0.51777136 0.66561574
000310 1d cb bd 3d d2 18 ee be e2 61 21 bd 4e 8b 5b be
       0.092672564 -0.4650331 -0.03939999 -0.2143986
000320 29 e9 cd 3e 4e 5c b6 3e d8 61 da 3e 82 c3 04 3f
       0.4021695 0.35617298 0.42652774 0.5186082
000330 9d 11 ba 3e 31 ec 80 bd 52 ce d1 3e 40 da c4 3e
       0.36341563 -0.0629505 0.40977722 0.38447762
000340 f8 b9 1e bf 93 63 e6 3d 24 23 9b 3e ab 95 84 3c
       -0.62002516 0.11249461 0.30300248 0.016184648
000350 fa 42 01 3f d4 24 b6 3e 0a 3c 2b bf a5 69 10 3e
       0.50492823 0.35574973 -0.6688849 0.141028
000360 cd 3c 87 3d 30 de fe 3e 2e 79 8f bd af 7d 28 be
       0.06603394 0.4977889 -0.07005535 -0.16454194
000370 ef 51 b4 bd 11 57 a0 bd ff 39 98 3d 18 4c 1f bd
       -0.0880469 -0.078291066 0.07432937 -0.038890928
000380 c3 f2 bb bd 31 bc 3d be df 7b 11 be 86 07 05 be
       -0.091771625 -0.1852882 -0.1420741 -0.12991151
000390 ef cc 88 bd ad 16 3b 3d 3d 1b 14 be 83 c9 3e be
       -0.06679713 0.045675922 -0.14463516 -0.18631558
0003a0 5f 10 3a 3e db 1b 13 3c cb 11 4b be e9 ca 21 3c
       0.18170308 0.008978809 -0.19831006 0.009875038
0003b0 93 6e e5 3c ae cf c9 3d a1 b3 7e 3d f1 b9 0d be
       0.028006827 0.09854065 0.062183026 -0.13840462
0003c0 dd fb 2e 3e 39 d4 1a 3f 4c 90 b9 be ea da e0 be
       0.17088266 0.60480076 -0.36242902 -0.43917018
0003d0 54 c9 fc be f8 9d 14 3e 86 b1 80 3e 72 c9 fc be
       -0.4937235 0.14513385 0.2513544 -0.4937244
0003e0 70 9b d5 3e 1a 75 83 bd 7f ba 0d bf b3 8a 3f 3e
       0.41720152 -0.0641882 -0.55362695 0.18705253
0003f0 5c e6 98 be 5c d7 cd be a5 3f f7 3e ab 5e 17 3f
       -0.2986325 -0.4020337 0.48290744 0.59128827

fc2.bias f4 [15]
000000 f7 01 c1 3d e2 d1 47 be 3f e6 b0 bd 14 17 ef bd
       0.09424203 -0.19513658 -0.08637666 -0.11674324
000010 21 95 90 3e 66 e1 3d 3e ee 5e 44 3e a3 55 04 be
       0.28238776 0.18543014 0.19176838 -0.12923293
000020 1a 4c f1 3e b5 3a b2 3e bd c1 f8 3e 37 7f 6a bd
       0.47128373 0.34810415 0.4858531 -0.057250228
000030 b9 5b 98 3e 2e 2e db bd 4d 94 fd 3c
       0.2975748 -0.107021675 0.030954504

fc3.weight f4 [10, 15]
000000 10 7a 04 3f 95 ea e9 3c a3 84 6f be 26 0e f1 3d
       0.5174875 0.02855424 -0.2339044 0.11770277
000010 de 67 ab be 74 b9 ac be e9 8a 80 be 5b 34 f4 3d
       -0.33477682 -0.3373524 -0.2510598 0.119240485
000020 df be 80 3e 98 d8 91 3e 23 f1 d9 be 38 85 17 be
       0.25145623 0.2848556 -0.42566785 -0.14796913
000030 85 a2 ee 3e ad a1 35 be 9d d8 4c 3e 45 60 c0 3e
       0.46608368 -0.17737456 0.20004506 0.37573448
000040 2f 57 16 3e 2e 7e 42 3e b0 70 b5 3c cb 32 2f be
       0.14681695 0.18993446 0.02214846 -0.1710922
000050 16 f7 b8 be 6e 75 4f bc cc ef 00 be 43 39 d0 3d
       -0.36126012 -0.012662275 -0.12591475 0.10167172
000060 7d 3e ff 3e 11 7b cc be 31 ff b7 bd cc a5 27 3e
       0.49852362 -0.39937642 -0.08984221 0.1637184
000070 2d 6f de bd 72 9d 82 3e 1f 7a 8d 3e ba 98 a2 3d
       -0.10861049 0.25510746 0.27632234 0.079392865
000080 cb 5a 04 3c 4d f4 82 3d d9 43 21 3e 93 ea 60 3e
       0.008078287 0.06394253 0.15748538 0.21964483
000090 f7 ee ce 3e 78 0e bf bd ad 92 d1 3e 30 97 06 3f
       0.4041669 -0.093289316 0.40932217 0.52574444
0000a0 82 18 a9 3e ed 5b ff bd 3c 30 f4 3d 77 b9 53 be
       0.3302651 -0.12468705 0.119232625 -0.20676218
0000b0 ec 5d 58 be 9c 0a e5 3e 67 73 45 be f6 c6 45 3d
       -0.21129578 0.44734657 -0.19282304 0.048285447
0000c0 f3 72 11 be 25 fc 88 be 17 d7 fb be 33 c3 db be
       -0.14204006 -0.2675487 -0.49187538 -0.42922363
0000d0 85 70 14 be 67 51 e3 3e 9e be 1a 3f e5 83 b2 be
       -0.14496048 0.44398043 0.6044711 -0.34866253
0000e0 2c 1e 6d bd e5 35 20 3f 77 88 81 3e c4 da 25 be
       -0.057890102 0.62582237 0.25299427 -0.16196734
0000f0 1a 39 b4 3e dc 41 6b bd ad f0 87 bd bd 72 5f bd
       0.35199815 -0.057435855 -0.06637702 -0.054552782
000100 1e ea 03 3f 58 7b ca 3e 03 e6 dd 3e ca 11 cd bd
       0.5152911 0.3954723 0.43339548 -0.100131586
000110 34 78 85 3e 7f 6e d4 be 87 02 b5 3e 7b 79 7b be
       0.2606827 -0.41490552 0.3535349 -0.2455806
000120 4a 6a ab be df 91 ef 3d a5 75 48 be 03 e7 62 3e
       -0.3347953 0.116977446 -0.19576128 0.22158436
000130 71 d2 05 bd 51 69 8b bd 90 ed 80 3e 98 5f a3 be
       -0.032671396 -0.06807197 0.25181246 -0.3190887
000140 1d a5 08 bf 98 da 60 be 5e 50 82 be 84 8d ae 3e
       -0.5337694 -0.21958387 -0.2545194 0.34092343
000150 5f 7e dc 3e 6e 25 12 be 9d 55 f7 bd 67 77 de 3e
       0.43065163 -0.14272091 -0.12076876 0.43450472
000160 ca 85 a4 3b 1c 24 a8 3d b3 f0 ac 3e 2d 91 2e 3e
       0.0050208317 0.08210012 0.3377739 0.17047568
000170 f1 c8 78 be dc a6 21 be e6 98 cc 3e 6a f9 9d 3e
       -0.24295403 -0.15786308 0.39960402 0.3085435
000180 9e ec c1 3e e1 ad 74 be 7e 4a 45 be 67 ff 4f be
       0.37875837 -0.23894455 -0.19266698 -0.20312272
000190 7b a7 d5 3e 51 80 d9 bd cc 22 c4 be ef 90 3b bd
       0.4172934 -0.106201775 -0.38307798 -0.045792516
0001a0 7c 37 11 3e 15 1a d1 bd 91 fa 4a be db 6a 71 be
       0.14181322 -0.10210053 -0.19822146 -0.23575918
0001b0 d4 35 37 3e 57 46 cb bd 2c d3 77 be 05 6d e9 bd
       0.17891628 -0.09925526 -0.2420165 -0.11397747
0001c0 c1 f1 51 be 69 0f 44 be b6 d2 00 bd d1 2f a6 3d
       -0.20502378 -0.19146504 -0.03145095 0.08114589
0001d0 19 b6 41 3d fc eb 74 be ab b1 47 3e 2f 85 35 3d
       0.047292802 -0.23918146 0.19501369 0.044316467
0001e0 dd cb 1b be d4 8b 15 3d 1d 35 21 3e ba 65 4b be
       -0.15214486 0.036510304 0.15742917 -0.19863024
0001f0 73 69 74 bd ff 35 92 bd 6b a1 1f be ed db 81 be
       -0.059670877 -0.07139205 -0.1558892 -0.25363103
000200 c3 59 09 3c 7d 6d 83 3d af b6 53 be 1b b8 ca bc
       0.008383217 0.064173676 -0.20675157 -0.024745991
000210 eb e6 0f 3e 79 13 92 3d f5 33 c0 3d 65 f4 07 3d
       0.14052932 0.0713262 0.0938491 0.033192057
000220 60 f7 71 3e 9d 4d 54 be 3e d9 83 3c 91 93 12 3e
       0.23629522 -0.20732732 0.0160948 0.14314105
000230 da d8 0e 3b 6b 77 79 be ce 87 29 be 86 23 60 be
       0.0021796734 -0.2436196 -0.16555712 -0.21888551
000240 3a 07 a7 be 77 36 9d 3c ec 41 81 be bb 95 98 be
       -0.326227 0.01919101 -0.25245607 -0.29801735
000250 89 b2 2b be 4b 08 35 be
       -0.16767325 -0.17678945

fc3.bias f4 [10]
000000 59 34 95 3e 3c fa 1a 3b de 14 a8 3e 67 fa 99 3e
       0.291415 0.0023647686 0.3282842 0.30073854
000010 de c6 f1 3e 8d 23 fd bd e5 1e 8b 3e 3f 45 35 be
       0.47222036 -0.123602964 0.27172008 -0.17702197
000020 3d 44 29 3e 03 03 27 bd
       0.16529937 -0.040774357

fc4.weight f4 [5, 10]
000000 27 dc 90 be 1b 06 24 3e ae e4 f7 bd 1e 44 89 3e
       -0.28292963 0.16017954 -0.12104164 0.26809782
000010 34 12 c5 bd b2 2e 8c bd 14 c7 29 3e 4f 1b 1b be
       -0.096226126 -0.06844844 0.16579849 -0.15147136
000020 00 65 0f 3e d5 9a cf 3c 47 8a d2 be 4f 65 66 be
       0.14003372 0.025342384 -0.41121122 -0.22499584
000030 70 45 c8 3e f3 8d 2c bf 91 97 c3 3e 48 47 2f bf
       0.39115477 -0.674041 0.38201573 -0.6846814
000040 8a fa c3 3e 8f c1 39 3e 6e c0 58 be ee 02 2e 3b
       0.38277084 0.18140243 -0.21167156 0.002655204
000050 2e 33 10 bf 56 72 05 bf 4e 52 c7 3b 39 0f 9e be
       -0.56328094 -0.5212759 0.0060828095 -0.3087099
000060 35 c7 e5 3e 5d 70 2a bf 72 be 6e 3e 0c cd 5a be
       0.44878545 -0.665777 0.23314837 -0.21367282
000070 ac e7 f1 bc 02 ed d3 bc 61 d4 95 3e 5e a7 a5 3d
       -0.029529415 -0.02586985 0.29263595 0.080885634
000080 35 af 7f be 4a 8d 65 3d 19 58 c2 bd 26 83 2a be
       -0.2496918 0.056042947 -0.094894595 -0.16651592
000090 bd 16 b9 3d 4c 05 60 be 39 c3 b0 bd de fe 15 3d
       0.0903754 -0.2187702 -0.08630986 0.036620013
0000a0 3c 87 02 3f 83 a8 96 3e 48 e6 ba 3e 7c fb 0f 3f
       0.509876 0.2942544 0.36503816 0.5624311
0000b0 1f 27 b3 3d 95 8c 32 3e 8a b8 a1 bd 72 5a e2 3c
       0.08747696 0.1743644 -0.07896526 0.027631018
0000c0 79 e5 0f be f7 a9 aa be
       -0.1405238 -0.33332798

fc4.bias f4 [5]
000000 92 57 97 be a9 db a4 3e af 6e 5b bd 7c 10 88 be
       -0.29558998 0.32198837 -0.053572353 -0.26575077
000010 41 dd c1 3e
       0.37864116

fc5.weight f4 [4, 5]
000000 c1 df 99 be 06 b1 61 3e c4 e0 06 bf 71 4c b6 3e
       -0.30053523 0.22040185 -0.52686715 0.35605195
000010 79 5c ca 3e a1 1d 6b be c6 a1 29 3f 93 4d 1e 3f
       0.39523676 -0.22960521 0.6626247 0.6183712
000020 4a e6 87 be 1e 62 b0 be 2f 8c 94 3e ad 95 d0 bd
       -0.26542884 -0.34449857 0.29013202 -0.101847984
000030 1d f5 14 3e 33 e9 f8 bd ff e1 2b be 3c 30 34 be
       0.14546628 -0.12153854 -0.1678543 -0.17596525
000040 c1 12 90 bc e7 26 aa bd a5 73 d4 be 2c 34 c2 be
       -0.017587068 -0.08308201 -0.4149448 -0.3793043

fc5.bias f4 [4]
000000 92 e1 86 3d 1e c8 0d 3e 4b 4d ec 3d f2 3e 0d bf
       0.06585993 0.1384587 0.1153818 -0.5517417
