Laboratorios/Lab1/checkpoints/modelo_epoch_580.pth (torch, 7862 bytes, 10 tensors)

fc1.weight f4 [20, 24]
0.42994317 0.35279164 0.38377652 0.3525126 0.4029602 0.39925447 0.34879133 0.42197147
0.36447442 0.3868938 0.34848636 0.2326316 0.21648622 0.17717722 0.05292938 0.10530738
0.33338058 0.056895297 0.21160388 0.23334919 0.071685 0.39830485 0.3807617 0.4339092
0.46994686 0.37954623 0.4001829 0.36511037 0.47214407 0.42211345 0.36862984 0.48349783
0.3609659 0.38246927 0.34517673 0.25689545 0.28165027 0.25845724 0.46253425 0.27869526
0.36311093 0.20546295 0.3462014 0.25464177 -0.17676145 0.40093756 0.47068164 0.4921275
0.11545626 0.20981465 0.18943319 0.20095778 0.06961737 0.14863496 0.15510723 0.13103642
0.084023856 0.18594697 0.06245257 0.05229078 0.048065756 0.12469796 -0.7042667 0.045201585
0.108003296 0.10989667 -0.09409166 0.07895046 0.74467725 0.111266874 0.11601842 0.11936889
0.12117764 0.2275798 0.17734388 0.2519076 0.11148221 0.1646129 0.22165424 0.10648472
0.2403673 0.26242572 0.2507554 0.28126594 0.2232829 0.13020474 -0.69536555 0.18153206
0.22182198 0.21894102 -0.0069805905 0.010257316 0.7645458 0.16685982 0.1092017 0.08836953
0.051271137 0.165528 0.13281044 0.13208544 0.018693231 0.14389692 0.10911602 0.11976658
0.03816691 0.17561916 0.10211344 0.15653084 0.189732 0.15668179 -0.7469698 0.03243489
0.08302301 0.15631597 -0.04463945 0.1043403 0.7876854 0.056177594 0.06625301 0.074110255
-0.003078381 -0.0010758112 -0.015281743 0.0046509565 -0.007014799 -0.0119973505 -0.012561376 -0.0057221777
-0.030381653 -0.009172074 -0.014729125 -0.016857702 0.002815666 -0.004095602 0.009471117 0.009384467
-0.014006259 0.009557577 -0.025177997 -0.01148653 0.009922181 -0.019748643 -0.017363677 -0.0020529488
0.25705487 0.30191696 0.27325934 0.33997023 0.22186807 0.2594119 0.30596134 0.20434283
0.2906786 0.302289 0.29917428 0.4172704 0.23879261 0.2050054 -0.5249896 0.22292617
0.2813827 0.2519967 0.07327933 0.08277054 0.5825617 0.3394079 0.27161446 0.22322407
0.06361462 0.13855857 0.16920534 0.122026645 0.055220004 0.13530199 0.09357141 0.13319694
0.029543513 0.14968666 0.0683422 0.05904984 0.028696619 0.06333427 -0.6404785 0.009029526
0.10889449 0.0668083 -0.12882914 0.054955453 0.6851266 0.037529234 0.117987834 0.13649853
0.09012802 0.2714103 0.19623865 0.27437505 0.118596755 0.112623386 0.25841194 -0.110618494
0.2767977 0.22717649 0.14199674 0.17676823 0.15686601 0.14311436 0.649407 0.22442627
0.2134845 0.16276056 0.38425723 0.16737713 -0.7360017 0.18351471 0.0464003 -0.04776557
0.0025085905 -0.0072170845 -0.0043856767 -0.0095414845 0.0032956533 0.0017746635 -0.01410379 -0.0025758566
-0.0030369547 -0.02170849 -0.008404201 -0.0035137655 -0.002532903 -0.0019055522 -0.0032330411 -0.019330988
0.004276482 0.0029533622 -0.0056885183 -0.006923623 -0.029188456 -0.004152773 -0.00600281 -0.012231453
0.09658533 0.15372756 0.16412196 0.12456435 0.03393558 0.122887306 0.1171761 0.103776336
0.037832886 0.16326016 0.051450238 -0.036725067 -0.00060723536 0.08641486 -0.6333326 0.07679682
00000000: 8321 dc3e 1ba1 b43e 5b7e c43e 887c b43e
00000010: cd50 ce3e 156b cc3e c794 b23e a50c d83e
00000020: 649c ba3e f216 c63e ce6c b23e fa36 6e3e
00000030: 90ae 5d3e f26d 353e 7acc 583d 65ab d73d
00000040: dcb0 aa3e 0b0b 693d b0ae 583e 17f3 6e3e
00000050: 96cf 923d 9dee cb3e 33f3 c23e 5929 de3e
00000060: e09c f03e e253 c23e c6e4 cc3e bfef ba3e
00000070: debc f13e 411f d83e 0dbd bc3e 078d f73e
00000080: 86d0 b83e 03d3 c33e 01bb b03e cd87 833e
00000090: 7734 903e 8254 843e 4ad1 ec3e 25b1 8e3e
000000a0: ade9 b93e e164 523e 4f41 b13e 6860 823e
000000b0: f400 35be b047 cd3e 2ffd f03e 23f8 fb3e
000000c0: 5574 ec3d a7d9 563e c6fa 413e e0c7 4d3e
000000d0: 8d93 8e3d c333 183e 6ed4 1e3e 692e 063e
000000e0: b314 ac3d e268 3e3e 44ce 7f3d db2e 563d
000000f0: 99e0 443d a561 ff3d d34a 34bf 4c25 393d
00000100: d530 dd3d 8111 e13d 21b3 c0bd c7b0 a13d
00000110: 2ba3 3e3f e3df e33d 119b ed3d ad77 f43d
00000120: fc2b f83d ae0a 693e a299 353e 08fa 803e
00000130: c950 e43d 4990 283e 54f9 623e a914 da3d
00000140: d822 763e aa5c 863e 0363 803e 1702 903e
00000150: 46a4 643e 6454 053e 7a03 32bf 8ae3 393e
00000160: 4d25 633e 1332 603e 70bd e4bb 4d0e 283c
00000170: 46b9 433f 4ddd 2a3e 24a5 df3d 16fb b43d
00000180: af01 523d 2c80 293e 76ff 073e 6841 073e
00000190: 8c22 993c b759 133e 3878 df3d 2e48 f53d
000001a0: e854 1c3d 82d5 333e da20 d13d 9f49 203e
000001b0: 1b49 423e 3171 203e 6a39 3fbf 72da 043d
000001c0: f807 aa3d 4b11 203e dbd7 36bd 5eb0 d53d
000001d0: c0a5 493f 7a1a 663d a8af 873d 1ec7 973d
000001e0: aabe 49bb 3c02 8dba 4760 7abc 0d67 983b
000001f0: 66dc e5bb 8990 44bc 3bce 4dbc 1b81 bbbb
00000200: f2e2 f8bc 7746 16bc 6e52 71bc 2a19 8abc
00000210: 0987 383b 6634 86bb be2c 1b3c 4fc1 193c
00000220: 827a 65bc 6297 1c3c 1642 cebc 0032 3cbc
00000230: a590 223c e8c7 a1bc 453e 8ebc c48a 06bb
00000240: b29c 833e dc94 9a3e a6e8 8b3e 9410 ae3e
00000250: 6231 633e a3d1 843e f7a6 9c3e 3f3f 513e
00000260: d3d3 943e a0c5 9a3e 5f2d 993e 77a4 d53e
00000270: 0d86 743e f0ec 513e b865 06bf c246 643e
00000280: 6511 903e b605 813e 7913 963d 9a83 a93d
00000290: c322 153f dfc6 ad3e 0d11 8b3e da94 643e
000002a0: 6248 823d 4ce2 0d3e 2a44 2d3e 1be9 f93d
000002b0: 5f2e 623d 9b8c 0a3e 5ea2 bf3d c764 083e
000002c0: 3d05 f23c 7647 193e fff6 8b3d 3fde 713d
000002d0: 2c15 eb3c 66b5 813d 66f6 23bf 94f0 133c
000002e0: 1304 df3d cad2 883d c9eb 03be f818 613d
000002f0: 7564 2f3f 41b8 193d 9ba3 f13d 45c6 0b3e
00000300: 0a95 b83d 4af6 8a3e c9f2 483e e37a 8c3e
00000310: dbe2 f23d 17a7 e63d 924e 843e f38b e2bd
00000320: 6eb8 8d3e f4a0 683e 9867 113e bb02 353e
00000330: 7ca1 203e 928c 123e 8a3f 263f 00d0 653e
00000340: ae9b 5a3e b4aa 263e 5dbd c43e e964 2b3e
00000350: 9b6a 3cbf 48eb 3b3e 3e0e 3e3d d5a5 43bd
00000360: 2a67 243b 4b7d ecbb b9b5 8fbb e353 1cbc
00000370: e3fb 573b d39b e83a 9513 67bc b4cf 28bb
00000380: a507 47bb 01d6 b1bc c6b1 09bc 3447 66bb
00000390: 10ff 25bb b9c3 f9ba 6ee1 53bb 055c 9ebc
000003a0: bb21 8c3b 328d 413b c066 babb 8fdf e2bb
000003b0: a11c efbc fc13 88bb 38b3 c4bb 6f66 48bc
000003c0: 88ce c53d c26a 1d3e 960f 283e 981b ff3d
000003d0: 0900 0b3d 57ac fb3d 06fa ef3d b088 d43d
000003e0: a8f6 1a3d ac2d 273e 7cbd 523d 066d 16bd
000003f0: e02e 1fba 46fa b03d 1622 22bf a747 9d3d

fc1.bias f4 [20]
0.36213955 0.3456146 0.3398572 0.33291838 0.34145185 -0.01001443 0.33527824 0.30538344
0.052853808 -0.0052978853 0.29867896 -0.0043237004 0.33005324 0.29541236 0.17310242 0.3067922
0.0 0.27175316 -0.0075962474 -0.010177753
00000000: 5b6a b93e 66f4 b03e c301 ae3e 4774 aa3e
00000010: c7d2 ae3e 9013 24bc 97a9 ab3e 385b 9c3e
00000020: 3c7d 583d e299 adbb 73ec 983e d4ad 8dbb
00000030: bdfc a83e 4a40 973e c341 313e de13 9d3e
00000040: 0000 0000 3b23 8b3e f1e9 f8bb 97c0 26bc

fc2.weight f4 [15, 20]
0.57644385 0.634156 0.30248705 0.09259521 0.00881355 0.15955974 0.3518647 -0.059867088
0.3201952 -0.106134355 0.201725 0.13884407 0.14192669 0.21933459 0.43235603 0.43651813
0.14740482 -0.031256 0.1039302 -0.05878324 0.10545921 -0.019093378 -0.20815244 0.06325119
-0.119568266 0.19734831 -0.14598413 0.1468852 -0.025166683 -0.1421413 0.10007001 -0.05320126
-0.034565885 0.16649212 -0.019133976 -0.0010839133 -0.11522392 0.023392912 0.0756599 0.18389218
0.04220984 -0.0557786 -0.10866023 -0.12088153 -0.20567997 0.16430515 0.04737604 -0.04198177
-0.22336383 0.18327026 -0.11061177 0.05589146 -0.1316498 0.092871845 0.057390276 0.047543254
0.13444768 0.18902569 0.093891494 0.15762952 -0.114260204 0.06763093 -0.09264095 0.17438693
-0.16408856 -0.16594039 0.17860186 0.019134989 -0.06492737 -0.00580949 -0.016584115 -0.05513462
-0.050438125 0.10778346 -0.15671413 -0.026543226 -0.081547685 -0.16379431 -0.04084516 -0.08868454
0.11859798 0.022433506 0.40762186 0.4456783 0.37424445 0.16087158 0.31207693 0.6141792
-0.5815767 -0.19221587 0.570246 -0.05487798 0.3264261 0.56518334 -0.4946554 0.13956471
-0.16025501 0.31969976 -0.18399817 -0.18318766 0.14125362 -0.13832766 0.267224 0.52507514
0.4805847 0.18553565 0.41197893 0.5941657 -0.5382513 -0.044371765 0.5900693 -0.12844256
0.66775596 0.44814545 -0.32523715 -0.2679631 0.008479223 0.60461164 -0.1526591 -0.012662141
0.21461122 0.19691966 0.36942804 0.30028588 0.41556603 -0.08289261 0.48216182 0.53256613
-0.5900908 -0.09315144 0.32184586 -0.08748446 0.38253817 0.22176492 -0.34427586 -0.14680262
-0.016450888 0.38054255 0.04763442 0.21908708 -0.21030171 -0.18056934 -0.09933446 -0.07652526
0.039506707 -0.1453959 -0.11692804 -0.051186863 -0.0054227114 -0.0032515265 -0.21124843 -0.20101489
0.14799511 0.15726167 0.20670246 0.02677612 -0.15566096 0.18327926 -0.14471255 0.13100804
0.34292334 0.54411685 -0.2317004 0.07460037 -0.13811573 0.1172179 0.10956433 0.08979401
0.5596187 -0.19734526 0.07171733 0.22275235 -0.062342983 -0.39748138 0.48705795 0.6494736
0.007081861 -0.2690716 -0.16990377 -0.05477269 0.5562262 0.59492886 -0.52669054 -0.14448214
-0.327243 -0.10963739 -0.098350435 -0.5296899 0.33139268 0.19570422 -0.43228823 0.11908919
-0.37525553 -0.62644404 0.5363252 0.70440745 0.092672564 -0.53230155 -0.03939999 -0.2143986
0.39768705 0.3163091 0.4704146 0.5841458 0.42335743 -0.0629505 0.45905507 0.4257406
-0.6550296 0.11249461 0.3425573 0.016184648 0.55777127 0.3958842 -0.69412327 0.082745425
0.06603394 0.54475874 -0.07005535 -0.16454194 -0.0880469 -0.078291066 0.07432937 -0.038890928
-0.091771625 -0.1852882 -0.1420741 -0.12991151 -0.06679713 0.045675922 -0.14463516 -0.18631558
0.18170308 0.008978809 -0.19831006 0.009875038 0.028006827 0.09854065 0.062183026 -0.13840462
0.19220904 0.6401996 -0.44455785 -0.6238095 -0.5978088 0.14513385 0.061450616 -0.56352454
0.4403858 -0.0641882 -0.6110688 0.18705253 -0.42446232 -0.44869593 0.500627 0.630666
00000000: d391 133f 0c58 223f 95df 9a3e 8fa2 bd3d
00000010: b566 103c a163 233e 9c27 b43e 3137 75bd
00000020: a0f0 a33e f85c d9bd 0091 4e3e 242d 0e3e
00000030: 3b55 113e 3f99 603e c55d dd3e 4e7f df3e
00000040: 4af1 163e 4b06 00bd 5bd9 d43d b2c6 70bd
00000050: 00fb d73d b769 9cbc ea25 55be d789 813d
00000060: 35e0 f4bd ad15 4a3e dd7c 15be 1369 163e
00000070: 5c2a cebc 7d8d 11be 81f1 cc3d 90e9 59bd
00000080: f594 0dbd e97c 2a3e dbbe 9cbc 1812 8eba
00000090: 85fa ebbd 7ea2 bf3c 94f3 9a3d 3b4e 3c3e
000000a0: 3ae4 2c3d 1a78 64bd 4189 debd bc90 f7bd
000000b0: c59d 52be 9c3f 283e 610d 423d 14f5 2bbd
000000c0: 7db9 64be 33ab 3b3e 6c88 e2bd 72ee 643d
000000d0: 35cf 06be 9833 be3d 1112 6b3d b7bc 423d
000000e0: a7ac 093e f38f 413e 2f4a c03d a269 213e
000000f0: 4101 eabd 1682 8a3d 8aba bdbd 7d92 323e
00000100: d506 28be 47ec 29be 68e3 363e fbc0 9c3c
00000110: a4f8 84bd 895d bebb 69db 87bc d7d4 61bd
00000120: 3598 4ebd 93bd dc3d ab79 20be 2e71 d9bc
00000130: 7902 a7bd b2b9 27be 414d 27bd 3da0 b5bd
00000140: 7fe3 f23d 79c6 b73c d0b3 d03e f22f e43e
00000150: f89c bf3e 85bb 243e 8cc8 9f3e d93a 1d3f
00000160: 36e2 14bf 3dd4 44be a4fb 113f bcc7 60bd
00000170: 5221 a73e dbaf 103f 7943 fdbe 0dea 0e3e
00000180: e419 24be b0af a33e 046a 3cbe 8c95 3bbe
00000190: caa4 103e c4a5 0dbe 96d1 883e 536b 063f
000001a0: 330f f63e 0ffd 3d3e e7ee d23e 3e1b 183f
000001b0: d6ca 09bf 2bbf 35bd c80e 173f 7286 03be
000001c0: 0ef2 2a3f 5273 e53e 7c85 a6be 7632 89be
000001d0: 70ec 0a3c d4c7 1a3f ab52 1cbe de74 4fbc
000001e0: 0bc3 5b3e 4fa5 493e ac25 bd3e 12bf 993e
000001f0: 12c5 d43e 9ac3 a9bd eadd f63e 4156 083f
00000200: 3110 17bf 2fc6 bebd fbc8 a43e 0d2b b3bd
00000210: 0bdc c33e 5816 633e ed44 b0be 6d53 16be
00000220: 03c4 86bc 79d6 c23e 4f1c 433d 5d58 603e
00000230: 5559 57be 2be7 38be de6f cbbd 47b9 9cbd
00000240: c9d1 213d aae2 14be f877 efbd 51a9 51bd
00000250: 00b1 b1bb 9017 55bb 8251 58be d9d6 4dbe
00000260: 088c 173e 3409 213e cfa9 533e 9859 db3c
00000270: 9665 1fbe 8fad 3b3e 872f 14be f926 063e
00000280: a693 af3e 3e4b 0b3f df42 6dbe 14c8 983d
00000290: 366e 0dbe f00f f03d 4363 e03d ece5 b73d
000002a0: 2c43 0f3f e014 4abe 89e0 923d 3119 643e
000002b0: 5b5b 7fbd ae82 cbbe a95f f93e e743 263f
000002c0: f50e e83b c1c3 89be 41fb 2dbe 5459 60bd
000002d0: d764 0e3f 424d 183f 31d5 06bf 20f3 13be
000002e0: 658c a7be 9189 e0bd f46b c9bd c299 07bf
000002f0: 4dac a93e b066 483e e254 ddbe 09e5 f33d
00000300: 7e21 c0be a35e 20bf 9c4c 093f 0c54 343f
00000310: 1dcb bd3d ea44 08bf e261 21bd 4e8b 5bbe
00000320: a39d cb3e 44f3 a13e 2fda f03e 948a 153f
00000330: 4ec2 d83e 31ec 80bd 4409 eb3e acfa d93e
00000340: 05b0 27bf 9363 e63d ac63 af3e ab95 843c
00000350: 19ca 0e3f 55b1 ca3e 10b2 31bf 6f76 a93d
00000360: cd3c 873d 4f75 0b3f 2e79 8fbd af7d 28be
00000370: ef51 b4bd 1157 a0bd ff39 983d 184c 1fbd
00000380: c3f2 bbbd 31bc 3dbe df7b 11be 8607 05be
00000390: efcc 88bd ad16 3b3d 3d1b 14be 83c9 3ebe
000003a0: 5f10 3a3e db1b 133c cb11 4bbe e9ca 213c
000003b0: 936e e53c aecf c93d a1b3 7e3d f1b9 0dbe
000003c0: 72d2 443e 1fe4 233f 169d e3be fbb1 1fbf
000003d0: ff09 19bf f89d 143e a4b3 7b3d 2543 10bf
000003e0: 3f7a e13e 1a75 83bd 016f 1cbf b38a 3f3e
000003f0: 2053 d9be 79bb e5be 1729 003f 5473 213f

fc2.bias f4 [15]
0.10733145 -0.19513658 -0.08637666 -0.11674324 0.2783917 0.17452495 0.19186936 -0.12923293
0.48860797 0.36778373 0.48185977 -0.057250228 0.3165315 -0.107021675 0.030954504
00000000: 97d0 db3d e2d1 47be 3fe6 b0bd 1417 efbd
00000010: 5b89 8e3e abb6 323e 6779 443e a355 04be
00000020: d32a fa3e 264e bc3e 53b6 f63e 377f 6abd
00000030: 6b10 a23e 2e2e dbbd 4d94 fd3c

fc3.weight f4 [10, 15]
0.5336411 0.02855424 -0.2339044 0.11770277 -0.4101866 -0.4155783 -0.32898343 0.119240485
0.2787431 0.32373494 -0.51181406 -0.14796913 0.5098268 -0.17737456 0.20004506 0.4015508
0.14681695 0.18993446 0.02214846 -0.26094437 -0.4657655 -0.10817758 -0.12591475 0.15526158
0.57480055 -0.48265037 -0.08984221 0.24999988 -0.10861049 0.25510746 0.29185912 0.079392865
0.008078287 0.06394253 0.16465409 0.224759 0.41245633 -0.093289316 0.42671263 0.54100853
0.33748442 -0.12468705 0.13307409 -0.20676218 -0.21129578 0.45788375 -0.19282304 0.048285447
-0.14204006 -0.34264684 -0.56789714 -0.5065742 -0.14496048 0.46657887 0.6390907 -0.4336908
-0.057890102 0.6654123 0.25299427 -0.16196734 0.36061275 -0.057435855 -0.06637702 -0.054552782
0.5366087 0.4220039 0.45655358 -0.100131586 0.25188318 -0.49150383 0.37052217 -0.2455806
-0.4001055 0.116977446 -0.19576128 0.2331761 -0.032671396 -0.06807197 0.25181246 -0.40515032
-0.6288269 -0.30896193 -0.2545194 0.38078937 0.49268642 -0.22616695 -0.12076876 0.504987
0.0050208317 0.08210012 0.34200746 0.17047568 -0.24295403 -0.15786308 0.4205378 0.33533975
0.40169063 -0.23894455 -0.2111296 -0.25717878 0.43278486 -0.106201775 -0.4377469 -0.045792516
0.14181322 -0.10210053 -0.19822146 -0.23575918 0.17891628 -0.09925526 -0.2420165 -0.11397747
-0.20502378 -0.19146504 -0.03145095 0.08114589 0.047292802 -0.23918146 0.19501369 0.044316467
-0.15223046 0.036510304 0.15742917 -0.19863024 -0.059671942 -0.07139205 -0.15589754 -0.25363103
0.008295746 0.06408169 -0.2067589 -0.024745991 0.1404299 0.0713262 0.0938491 0.033192057
0.23629522 -0.20732732 0.0160948 0.14314105 0.0021796734 -0.2436196 -0.16555712 -0.21888551
-0.326227 0.01919101 -0.25245607 -0.29801735 -0.16767325 -0.17678945
00000000: b49c 083f 95ea e93c a384 6fbe 260e f13d
00000010: fa03 d2be aec6 d4be 8470 a8be 5b34 f43d
00000020: 6ab7 8e3e 96c0 a53e 3f06 03bf 3885 17be
00000030: 0284 023f ada1 35be 9dd8 4c3e 1198 cd3e
00000040: 2f57 163e 2e7e 423e b070 b53c 809a 85be
00000050: d178 eebe 358c ddbd ccef 00be e4fc 1e3e
00000060: 2126 133f f31d f7be 31ff b7bd f8ff 7f3e
00000070: 2d6f debd 729d 823e 8f6e 953e ba98 a23d
00000080: cb5a 043c 4df4 823d 159b 283e 3927 663e
00000090: 7a2d d33e 780e bfbd 147a da3e 897f 0a3f
000000a0: c2ca ac3e ed5b ffbd 9344 083e 77b9 53be
000000b0: ec5d 58be bd6f ea3e 6773 45be f6c6 453d
000000c0: f372 11be 686f afbe b561 11bf d9ae 01bf
000000d0: 8570 14be 6de3 ee3e 739b 233f b80c debe
000000e0: 2c1e 6dbd 7658 2a3f 7788 813e c4da 25be
000000f0: 3ca2 b83e dc41 6bbd adf0 87bd bd72 5fbd
00000100: 305f 093f e510 d83e 64c1 e93e ca11 cdbd
00000110: d5f6 803e 64a6 fbbe 15b5 bd3e 7b79 7bbe
00000120: a1da ccbe df91 ef3d a575 48be b7c5 6e3e
00000130: 71d2 05bd 5169 8bbd 90ed 803e dd6f cfbe
00000140: cdfa 20bf 4230 9ebe 5e50 82be d3f6 c23e
00000150: 6541 fc3e 4f98 67be 9d55 f7bd d446 013f
00000160: ca85 a43b 1c24 a83d 9a1b af3e 2d91 2e3e
00000170: f1c8 78be dca6 21be bb50 d73e a7b1 ab3e
00000180: 65aa cd3e e1ad 74be 5c32 58be f0ac 83be
00000190: fa95 dd3e 5180 d9bd 5d20 e0be ef90 3bbd
000001a0: 7c37 113e 151a d1bd 91fa 4abe db6a 71be
000001b0: d435 373e 5746 cbbd 2cd3 77be 056d e9bd
000001c0: c1f1 51be 690f 44be b6d2 00bd d12f a63d
000001d0: 19b6 413d fceb 74be abb1 473e 2f85 353d
000001e0: 4de2 1bbe d48b 153d 1d35 213e ba65 4bbe
000001f0: 916a 74bd ff35 92bd 9ba3 1fbe eddb 81be
00000200: e1ea 073c 433d 833d 9bb8 53be 1bb8 cabc
00000210: dbcc 0f3e 7913 923d f533 c03d 65f4 073d
00000220: 60f7 713e 9d4d 54be 3ed9 833c 9193 123e
00000230: dad8 0e3b 6b77 79be ce87 29be 8623 60be
00000240: 3a07 a7be 7736 9d3c ec41 81be bb95 98be
00000250: 89b2 2bbe 4b08 35be

fc3.bias f4 [10]
0.3017448 0.028744483 0.33363172 0.30685565 0.4749086 -0.11092034 0.27268818 -0.17702197
0.16529477 -0.040774357
00000000: 4b7e 9a3e 8d79 eb3c c7d1 aa3e 2f1c 9d3e
00000010: 3827 f33e 342a e3bd c99d 8b3e 3f45 35be
00000020: 0843 293e 0303 27bd

fc4.weight f4 [5, 10]
-0.28371754 0.15617329 -0.121350504 0.26753306 -0.09623194 -0.069423795 0.16579849 -0.15147136
0.13995144 0.025342384 -0.5248885 -0.39692262 0.40002432 -0.75344926 0.39510885 -0.80409527
0.39480582 0.18140243 -0.21167156 0.002655204 -0.6453006 -0.65608704 0.008288073 -0.37360168
0.4833975 -0.7551668 0.26837602 -0.21367282 -0.029529415 -0.02586985 0.29136726 0.0796183
-0.25080425 0.05468346 -0.09491588 -0.16781902 0.0903754 -0.2187702 -0.0864071 0.036620013
0.5441698 0.3596985 0.37850484 0.58903795 0.07443931 0.21661747 -0.10224393 0.027631018
-0.14051643 -0.33332798
00000000: 6d43 91be e4eb 1f3e 9d86 f8bd 18fa 883e
00000010: 4015 c5bd 102e 8ebd 14c7 293e 4f1b 1bbe
00000020: 6e4f 0f3e d59a cf3c 185f 06bf 7139 cbbe
00000030: fdcf cc3e 0de2 40bf b54b ca3e 30d9 4dbf
00000040: fd23 ca3e 8fc1 393e 6ec0 58be ee02 2e3b
00000050: 6c32 25bf 52f5 27bf b3ca 073c b848 bfbe
00000060: e17f f73e 9d52 41bf 9568 893e 0ccd 5abe
00000070: ace7 f1bc 02ed d3bc 172e 953e eb0e a33d
00000080: 6a69 80be c4fb 5f3d 4263 c2bd c0d8 2bbe
00000090: bd16 b93d 4c05 60be 35f6 b0bd defe 153d
000000a0: b64e 0b3f 672a b83e 63cb c13e 31cb 163f
000000b0: a373 983d f8d0 5d3e 4465 d1bd 725a e23c
000000c0: 8ae3 0fbe f7a9 aabe

fc4.bias f4 [5]
-0.2957157 0.32329598 -0.05600475 -0.26600885 0.38416073
00000000: 0c68 97be 0d87 a53e 3d65 65bd 5032 88be
00000010: b7b0 c43e

fc5.weight f4 [4, 5]
-0.30077016 0.15575983 -0.60498923 0.35605517 0.42030472 -0.22960062 0.69854087 0.6941125
-0.26542884 -0.37414956 0.290384 -0.10797894 0.11058029 -0.12154167 -0.18750712 -0.17595725
-0.018809618 -0.09035611 -0.4149448 -0.38750082
00000000: 8cfe 99be 817f 1f3e 93e0 1abf dd4c b63e
00000010: 2e32 d73e 6d1c 6bbe 93d3 323f 5bb1 313f
00000020: 4ae6 87be 8890 bfbe 36ad 943e 1024 ddbd
00000030: eb77 e23d d7ea f8bd de01 40be 232e 34be
00000040: a116 9abc a00c b9bd a573 d4be 8266 c6be

fc5.bias f4 [4]
0.067587025 0.13846628 0.114362024 -0.5520384
00000000: 116b 8a3d 1bca 0d3e a336 ea3d 6352 0dbf
