Laboratorios/Lab1/checkpoints/modelo_epoch_360.pth (torch, 7862 bytes, 10 tensors)

fc1.weight f4 [20, 24]
0.35996756 0.32626975 0.33012474 0.346823 0.3436055 0.36047065 0.33078507 0.3110399
0.3462444 0.37432817 0.36354062 0.33655307 0.21033986 0.17847125 -0.044265978 0.12397065
0.3142987 0.12343505 0.17342548 0.14843991 0.2467532 0.44657332 0.33232012 0.32235307
0.35365623 0.35076132 0.31257367 0.37126 0.38136053 0.37480533 0.35524195 0.29976872
0.35010007 0.3750779 0.36977512 0.39873406 0.280401 0.26983666 0.35818788 0.31271642
0.36757505 0.30306014 0.30450818 0.11810646 0.0827996 0.46933293 0.39041513 0.30492815
0.24846184 0.23971274 0.31851724 0.16747358 0.19397022 0.19676243 0.1834751 0.3495208
0.080573626 0.16390781 0.0022427007 -0.21813554 0.035232194 0.092672884 -0.5373517 -0.027978944
0.06396509 -0.06247127 -0.083678946 0.2252812 0.48097372 0.004513138 0.21145613 0.30852893
0.2435464 0.25116494 0.29243 0.20740648 0.233401 0.21471539 0.24366914 0.32677597
0.22388336 0.24029295 0.1693756 -0.04866564 0.20237717 0.087397434 -0.47452265 0.09364697
0.16930512 0.03130524 0.0051874886 0.1708676 0.46416268 0.017142557 0.20918281 0.2829646
0.20166826 0.20321834 0.2888337 0.09545182 0.1645742 0.19885606 0.14787515 0.3612812
0.036314312 0.14751346 0.03708067 -0.12865816 0.17599021 0.123141825 -0.56515235 -0.045180246
0.030510368 -0.022064455 -0.036867153 0.26441613 0.50151515 -0.059722397 0.17808579 0.28616017
-0.003078381 -0.0010758112 -0.015281743 0.0046509565 -0.007014799 -0.0119973505 -0.012561376 -0.0057221777
-0.030381653 -0.009172074 -0.014729125 -0.016857702 0.002815666 -0.004095602 0.009471117 0.009384467
-0.014006259 0.009557577 -0.025177997 -0.01148653 0.009922181 -0.019748643 -0.017363677 -0.0020529488
0.3191629 0.3033353 0.3161807 0.30522892 0.26840717 0.27892956 0.29487613 0.3057748
0.2650281 0.29220137 0.24123581 0.1704814 0.22134702 0.16235329 -0.33929983 0.15139443
0.260023 0.10454019 0.09306934 0.17743991 0.37742195 0.20801273 0.31347463 0.3123354
0.18920763 0.16773699 0.29506162 0.09335412 0.1701972 0.18022989 0.11347821 0.33821264
0.028133156 0.12928227 0.018753277 -0.17557693 0.019043023 0.036383767 -0.50600415 -0.051815834
0.07204355 -0.0904583 -0.11308692 0.18776818 0.44949815 -0.054202437 0.1999698 0.30253547
-0.07870262 0.23147176 0.0057854 0.297439 -0.021839134 0.062380884 0.24076815 -0.34164298
0.27322495 0.24484192 0.18372399 0.37843138 0.1630533 0.16491996 0.5298335 0.2767784
0.24898532 0.3012435 0.3593255 0.028528245 -0.49172553 0.26471227 -0.053408742 -0.24245432
0.0025085905 -0.0072170845 -0.0043856767 -0.0095414845 0.0032956533 0.0017746635 -0.01410379 -0.0025758566
-0.0030369547 -0.02170849 -0.008404201 -0.0035137655 -0.002532903 -0.0019055522 -0.0032330411 -0.019330988
0.004276482 0.0029533622 -0.0056885183 -0.006923623 -0.029188456 -0.004152773 -0.00600281 -0.012231453
0.22206447 0.18093435 0.28473064 0.09287106 0.15038177 0.16687807 0.1394963 0.3088831
0.03424364 0.1410912 -0.004620277 -0.292142 -0.012672816 0.057660602 -0.48447803 0.009029529
00000000: ab4d b83e d40c a73e 1c06 a93e c992 b13e
00000010: 0fed af3e 9c8f b83e a95c a93e 9f40 9f3e
00000020: f246 b13e f1a7 bf3e ff21 ba3e af50 ac3e
00000030: 5563 573e 2bc1 363e 3e50 35bd 53e4 fd3d
00000040: c2eb a03e 84cb fc3d 7396 313e a200 183e
00000050: dfac 7c3e 42a5 e43e dd25 aa3e 760b a53e
00000060: 6e12 b53e fd96 b33e a809 a03e ca15 be3e
00000070: b041 c33e 7ce6 bf3e 46e2 b53e 497b 993e
00000080: 5140 b33e 360a c03e 2a53 bd3e df26 cc3e
00000090: b890 8f3e 0828 8a3e 6764 b73e 5e1c a03e
000000a0: cc32 bc3e b32a 9b3e 7fe8 9b3e cde1 f13d
000000b0: d692 a93d 684c f03e 7ee4 c73e 8b1f 9c3e
000000c0: c86c 7e3e 4277 753e b114 a33e 327e 2b3e
000000d0: 21a0 463e 177c 493e e6e0 3b3e 64f4 b23e
000000e0: c903 a53d 73d7 273e 46fa 123b ec5e 5fbe
000000f0: a24f 103d 48cb bd3d e28f 09bf 1934 e5bc
00000100: 2100 833d e0e1 7fbd de5f abbd 1db0 663e
00000110: 3042 f63e f2e2 933b f587 583e 81f7 9d3e
00000120: 3a64 793e b198 803e 63b9 953e 5d62 543e
00000130: ac00 6f3e 5ade 5b3e 6784 793e 2e4f a73e
00000140: ae41 653e 5b0f 763e cc70 2d3e 9f55 47bd
00000150: f63b 4f3e 6dfd b23d a2f4 f2be fcc9 bf3d
00000160: 525e 2d3e ec39 003d cffb a93b ebf7 2e3e
00000170: bba6 ed3e 8c6e 8c3c 0534 563e bce0 903e
00000180: 2082 4e3e 7818 503e 03e2 933e 3e7c c33d
00000190: 2486 283e eca0 4b3e 956c 173e d9f9 b83e
000001a0: 51be 143d c50d 173e e7e1 173d f7be 03be
000001b0: c736 343e c831 fc3d d3ad 10bf ec0e 39bd
000001c0: e1f0 f93c 84c0 b4bc 0302 17bd 8d61 873e
000001d0: 4c63 003f 799f 74bd 1f5c 363e 9683 923e
000001e0: aabe 49bb 3c02 8dba 4760 7abc 0d67 983b
000001f0: 66dc e5bb 8990 44bc 3bce 4dbc 1b81 bbbb
00000200: f2e2 f8bc 7746 16bc 6e52 71bc 2a19 8abc
00000210: 0987 383b 6634 86bb be2c 1b3c 4fc1 193c
00000220: 827a 65bc 6297 1c3c 1642 cebc 0032 3cbc
00000230: a590 223c e8c7 a1bc 453e 8ebc c48a 06bb
00000240: 5269 a33e c44e 9b3e 70e2 a13e f746 9c3e
00000250: aa6c 893e dbcf 8e3e 01fa 963e 848e 9c3e
00000260: c3b1 873e 6b9b 953e 8506 773e ad92 2e3e
00000270: cba8 623e f13f 263e b5b8 adbe 2407 1b3e
00000280: bc21 853e 2b19 d63d 239b be3d cfb2 353e
00000290: 733d c13e 4a01 553e bf7f a03e 6dea 9f3e
000002a0: a5bf 413e 3fc3 2b3e 5112 973e 7230 bf3d
000002b0: 2d48 2e3e 2f8e 383e 4467 e83d 352a ad3e
000002c0: 8177 e63c 9262 043e 79a0 993c 70ca 33be
000002d0: 1d00 9c3c 2507 153d 7d89 01bf d73c 54bd
000002e0: 928b 933d 3442 b9bd 1d9a e7bd 4d46 403e
000002f0: 9f24 e63e 6003 5ebd e2c4 4c3e eee5 9a3e
00000300: d72e a1bd ef06 6d3e 7493 bd3b ed49 983e
00000310: fce7 b2bc 1983 7f3d ed8b 763e d4eb aebe
00000320: 24e4 8b3e d7b7 7a3e 2422 3c3e c2c1 c13e
00000330: 72f7 263e c7e0 283e 2ba3 073f e6b5 8d3e
00000340: 02f6 7e3e 973c 9a3e 83f9 b73e 11b4 e93c
00000350: 73c3 fbbe 5e88 873e 20c3 5abd f245 78be
00000360: 2a67 243b 4b7d ecbb b9b5 8fbb e353 1cbc
00000370: e3fb 573b d39b e83a 9513 67bc b4cf 28bb
00000380: a507 47bb 01d6 b1bc c6b1 09bc 3447 66bb
00000390: 10ff 25bb b9c3 f9ba 6ee1 53bb 055c 9ebc
000003a0: bb21 8c3b 328d 413b c066 babb 8fdf e2bb
000003b0: a11c efbc fc13 88bb 38b3 c4bb 6f66 48bc
000003c0: de64 633e db46 393e 37c8 913e 2f33 be3d
000003d0: aefd 193e 16e2 2a3e 1ed8 0e3e ed25 9e3e
000003e0: 0f43 0c3d 367a 103e b165 97bb a393 95be
000003f0: a5a1 4fbc 862d 6c3d 810d f8be 97f0 133c

fc1.bias f4 [20]
0.34457535 0.33131048 0.33635983 0.3272315 0.33950064 -0.01001443 0.3246087 0.301587
0.04844246 -0.0052978853 0.29285443 -0.0043237004 0.3257753 0.29536986 0.16372962 0.29192165
0.0 0.27255723 -0.0075962474 -0.010177753
00000000: 2e6c b03e 87a1 a93e 5b37 ac3e e38a a73e
00000010: 07d3 ad3e 9013 24bc 1d33 a63e 9c69 9a3e
00000020: 9a6b 463d e299 adbb 04f1 953e d4ad 8dbb
00000030: 05cc a63e b83a 973e bda8 273e c176 953e
00000040: 0000 0000 9f8c 8b3e f1e9 f8bb 97c0 26bc

fc2.weight f4 [15, 20]
0.5472712 0.592308 0.35081512 0.14471813 0.07935806 0.15955974 0.3721519 -0.0101464065
0.28474686 -0.106134355 0.25285944 0.13884407 0.1912005 0.27860317 0.40188372 0.38870394
0.14740482 0.03578483 0.1039302 -0.05878324 0.10545921 -0.019093378 -0.20815244 0.06325119
-0.119568266 0.19734831 -0.14598413 0.1468852 -0.025166683 -0.1421413 0.10007001 -0.05320126
-0.034565885 0.16649212 -0.019133976 -0.0010839133 -0.11522392 0.023392912 0.0756599 0.18389218
0.04220984 -0.0557786 -0.10866023 -0.12088153 -0.20567997 0.16430515 0.04737604 -0.04198177
-0.22336383 0.18327026 -0.11061177 0.05589146 -0.1316498 0.092871845 0.057390276 0.047543254
0.13444768 0.18902569 0.093891494 0.15762952 -0.114260204 0.06763093 -0.09264095 0.17438693
-0.16408856 -0.16594039 0.17860186 0.019134989 -0.06492737 -0.00580949 -0.016584115 -0.05513462
-0.050438125 0.10778346 -0.15671413 -0.026543226 -0.081547685 -0.16379431 -0.04084516 -0.08868454
0.12590936 0.09050096 0.3444161 0.35568628 0.29018536 0.16087158 0.24711408 0.55273604
-0.5222012 -0.19221587 0.5105062 -0.05487798 0.25125706 0.505579 -0.4481803 0.23544814
-0.16025501 0.25120604 -0.18399817 -0.18318766 0.16190612 -0.05704216 0.1841632 0.39470303
0.3721976 0.18553565 0.3117379 0.51489043 -0.48879302 -0.044371765 0.51688683 -0.12844256
0.56295407 0.38079658 -0.28610432 -0.17918482 0.008479223 0.5219115 -0.1526591 -0.012662141
0.21372302 0.23657659 0.3176365 0.2307401 0.34770426 -0.08289261 0.43186507 0.48251182
-0.51938885 -0.09315144 0.27046776 -0.08748446 0.32327604 0.16853645 -0.29024667 -0.07923961
-0.016450888 0.3231342 0.04763442 0.21908708 -0.21030171 -0.18056934 -0.09933446 -0.07652526
0.039506707 -0.1453959 -0.11692804 -0.051186863 -0.0054227114 -0.0032515265 -0.21124843 -0.20101489
0.14799511 0.15726167 0.20670246 0.02677612 -0.15566096 0.18327926 -0.14471255 0.13100804
0.3075709 0.49558738 -0.12221644 0.17479289 0.0030993302 0.1172179 0.14954579 0.19647108
0.5213274 -0.19734526 0.17337336 0.22275235 0.040722102 -0.31195527 0.45450673 0.595656
0.007081861 -0.15391131 -0.16990377 -0.05477269 0.5177881 0.5401773 -0.3928626 0.12358058
-0.16199748 -0.10963739 0.044943914 -0.41625407 0.29410928 0.19570422 -0.33937824 0.11908919
-0.16664326 -0.5544886 0.50568736 0.6454316 0.092672564 -0.43443283 -0.03939999 -0.2143986
0.40591782 0.37990668 0.40969482 0.4983466 0.3417402 -0.0629505 0.39798564 0.3667458
-0.598163 0.11249461 0.28463605 0.016184648 0.4859601 0.33751643 -0.6495951 0.17272516
0.06603394 0.4786433 -0.07005535 -0.16454194 -0.0880469 -0.078291066 0.07432937 -0.038890928
-0.091771625 -0.1852882 -0.1420741 -0.12991151 -0.06679713 0.045675922 -0.14463516 -0.18631558
0.18170308 0.008978809 -0.19831006 0.009875038 0.028006827 0.09854065 0.062183026 -0.13840462
0.15516402 0.5833625 -0.3244616 -0.357154 -0.44922373 0.14513385 0.31209746 -0.45837897
0.40317222 -0.0641882 -0.5225404 0.18705253 -0.24024482 -0.37880647 0.47060788 0.5699524
00000000: f719 0c3f 7fa1 173f 0a9e b33e fd30 143e
00000010: 7b86 a23d a163 233e b28a be3e 1d3d 26bc
00000020: 57ca 913e f85c d9bd cb76 813e 242d 0e3e
00000030: 10ca 433e 13a5 8e3e b4c3 cd3e 3404 c73e
00000040: 4af1 163e 1d93 123d 5bd9 d43d b2c6 70bd
00000050: 00fb d73d b769 9cbc ea25 55be d789 813d
00000060: 35e0 f4bd ad15 4a3e dd7c 15be 1369 163e
00000070: 5c2a cebc 7d8d 11be 81f1 cc3d 90e9 59bd
00000080: f594 0dbd e97c 2a3e dbbe 9cbc 1812 8eba
00000090: 85fa ebbd 7ea2 bf3c 94f3 9a3d 3b4e 3c3e
000000a0: 3ae4 2c3d 1a78 64bd 4189 debd bc90 f7bd
000000b0: c59d 52be 9c3f 283e 610d 423d 14f5 2bbd
000000c0: 7db9 64be 33ab 3b3e 6c88 e2bd 72ee 643d
000000d0: 35cf 06be 9833 be3d 1112 6b3d b7bc 423d
000000e0: a7ac 093e f38f 413e 2f4a c03d a269 213e
000000f0: 4101 eabd 1682 8a3d 8aba bdbd 7d92 323e
00000100: d506 28be 47ec 29be 68e3 363e fbc0 9c3c
00000110: a4f8 84bd 895d bebb 69db 87bc d7d4 61bd
00000120: 3598 4ebd 93bd dc3d ab79 20be 2e71 d9bc
00000130: 7902 a7bd b2b9 27be 414d 27bd 3da0 b5bd
00000140: 62ee 003e 9158 b93d 4f57 b03e 831c b63e
00000150: 2d93 943e 85bb 243e 790b 7d3e 1c80 0d3f
00000160: faae 05bf 3dd4 44be 89b0 023f bcc7 60bd
00000170: c4a4 803e a06d 013f e377 e5be 5119 713e
00000180: e419 24be 149e 803e 046a 3cbe 8c95 3bbe
00000190: b8ca 253e 0aa5 69bd 4795 3c3e 8416 ca3e
000001a0: af90 be3e 0ffd 3d3e 1c9c 9f3e dccf 033f
000001b0: 1443 fabe 2bbf 35bd b252 043f 7286 03be
000001c0: c21d 103f c5f7 c23e 447c 92be 3a7c 37be
000001d0: 70ec 0a3c fe9b 053f ab52 1cbe de74 4fbc
000001e0: 35da 5a3e 2241 723e 40a1 a23e 2247 6c3e
000001f0: 4b06 b23e 9ac3 a9bd 6b1d dd3e ca0b f73e
00000200: abf6 04bf 2fc6 bebd c07a 8a3e 0d2b b3bd
00000210: 7084 a53e d294 2c3e 369b 94be 6048 a2bd
00000220: 03c4 86bc d971 a53e 4f1c 433d 5d58 603e
00000230: 5559 57be 2be7 38be de6f cbbd 47b9 9cbd
00000240: c9d1 213d aae2 14be f877 efbd 51a9 51bd
00000250: 00b1 b1bb 9017 55bb 8251 58be d9d6 4dbe
00000260: 088c 173e 3409 213e cfa9 533e 9859 db3c
00000270: 9665 1fbe 8fad 3b3e 872f 14be f926 063e
00000280: ef79 9d3e a1bd fd3e 9d4c fabd e8fc 323e
00000290: 221e 4b3b f00f f03d 8822 193e b72f 493e
000002a0: b675 053f e014 4abe c988 313e 3119 643e
000002b0: 38cc 263d 9ab8 9fbe 1bb5 e83e e97c 183f
000002c0: f50e e83b ed9a 1dbe 41fb 2dbe 5459 60bd
000002d0: c38d 043f 0f49 0a3f 4925 c9be d117 fd3d
000002e0: abe2 25be 9189 e0bd 1c17 383d 411f d5be
000002f0: 7e95 963e b066 483e fcc2 adbe 09e5 f33d
00000300: 88a4 2abe f7f2 0dbf ba74 013f 013b 253f
00000310: 1dcb bd3d fb6d debe e261 21bd 4e8b 5bbe
00000320: 76d4 cf3e 2183 c23e 85c3 d13e 4927 ff3e
00000330: 92f8 ae3e 31ec 80bd c6c4 cb3e 1bc6 bb3e
00000340: 3621 19bf 9363 e63d d1bb 913e ab95 843c
00000350: c3cf f83e f4ce ac3e dd4b 26bf ddde 303e
00000360: cd3c 873d bc10 f53e 2e79 8fbd af7d 28be
00000370: ef51 b4bd 1157 a0bd ff39 983d 184c 1fbd
00000380: c3f2 bbbd 31bc 3dbe df7b 11be 8607 05be
00000390: efcc 88bd ad16 3b3d 3d1b 14be 83c9 3ebe
000003a0: 5f10 3a3e db1b 133c cb11 4bbe e9ca 213c
000003b0: 936e e53c aecf c93d a1b3 7e3d f1b9 0dbe
000003c0: 51e3 1e3e 3f57 153f d51f a6be e4dc b6be
000003d0: a700 e6be f89d 143e 3dcb 9f3e a6b0 eabe
000003e0: 976c ce3e 1a75 83bd 35c5 05bf b38a 3f3e
000003f0: bd02 76be ecf2 c1be 84f3 f03e 67e8 113f

fc2.bias f4 [15]
0.0949584 -0.19513658 -0.08637666 -0.11674324 0.2726413 0.16928446 0.18511026 -0.12923293
0.4733656 0.35771623 0.4774751 -0.057250228 0.31313774 -0.107021675 0.030954504
00000000: 8d79 c23d e2d1 47be 3fe6 b0bd 1417 efbd
00000010: a497 8b3e e858 2d3e 8b8d 3d3e a355 04be
00000020: fa5c f23e 9526 b73e 9e77 f43e 377f 6abd
00000030: 9753 a03e 2e2e dbbd 4d94 fd3c

fc3.weight f4 [10, 15]
0.50635916 0.02855424 -0.2339044 0.11770277 -0.29821685 -0.30216098 -0.21470378 0.119240485
0.23792969 0.2671642 -0.38132966 -0.14796913 0.44665328 -0.17737456 0.20004506 0.3571018
0.14681695 0.18993446 0.02214846 -0.12975961 -0.31613088 0.030002981 -0.12591475 0.075070836
0.4653772 -0.36062172 -0.08984221 0.1280967 -0.10861049 0.25510746 0.27045697 0.079392865
0.008078287 0.06394253 0.15529189 0.21852492 0.40159658 -0.093289316 0.4023699 0.51882404
0.32788822 -0.12468705 0.11218918 -0.20676218 -0.21129578 0.43772912 -0.19282304 0.048285447
-0.14204006 -0.23238473 -0.4582912 -0.3943876 -0.14496048 0.4318145 0.58813053 -0.30734357
-0.057890102 0.60781425 0.25299427 -0.16196734 0.34903836 -0.057435855 -0.06637702 -0.054552782
0.505918 0.384112 0.42351273 -0.100131586 0.26575327 -0.3769477 0.346189 -0.2455806
-0.30584553 0.116977446 -0.19576128 0.20731932 -0.032671396 -0.06807197 0.25181246 -0.2778939
-0.49091724 -0.17823955 -0.2545194 0.31941354 0.40212554 -0.102359526 -0.12076876 0.40360582
0.0050208317 0.08210012 0.3373606 0.17047568 -0.24295403 -0.15786308 0.39082366 0.29749626
0.36944997 -0.23894455 -0.18202731 -0.17777975 0.4109728 -0.106201775 -0.3590452 -0.045792516
0.14181322 -0.10210053 -0.19822146 -0.23575918 0.17891628 -0.09925526 -0.2420165 -0.11397747
-0.20502378 -0.19146504 -0.03145095 0.08114589 0.047292802 -0.23918146 0.19501369 0.044316467
-0.15199028 0.036510304 0.15742917 -0.19863024 -0.059663977 -0.07139205 -0.15586533 -0.25363103
0.008542183 0.064343266 -0.20673631 -0.024745991 0.14071444 0.0713262 0.0938491 0.033192057
0.23629522 -0.20732732 0.0160948 0.14314105 0.0021796734 -0.2436196 -0.16555712 -0.21888551
-0.326227 0.01919101 -0.25245607 -0.29801735 -0.16767325 -0.17678945
00000000: c1a0 013f 95ea e93c a384 6fbe 260e f13d
00000010: e1af 98be d8b4 9abe 4fdb 5bbe 5b34 f43d
00000020: d7a3 733e bfc9 883e a43d c3be 3885 17be
00000030: bdaf e43e ada1 35be 9dd8 4c3e 0cd6 b63e
00000040: 2f57 163e 2e7e 423e b070 b53c b4df 04be
00000050: e8db a1be d0c8 f53c ccef 00be bdbe 993d
00000060: ec45 ee3e 69a3 b8be 31ff b7bd c82b 033e
00000070: 2d6f debd 729d 823e 5679 8a3e ba98 a23d
00000080: cb5a 043c 4df4 823d d604 1f3e ffc4 5f3e
00000090: 119e cd3e 780e bfbd 6d03 ce3e a7d1 043f
000000a0: f7e0 a73e ed5b ffbd 71c3 e53d 77b9 53be
000000b0: ec5d 58be 081e e03e 6773 45be f6c6 453d
000000c0: f372 11be 43f6 6dbe 25a5 eabe 2ced c9be
000000d0: 8570 14be ca16 dd3e b98f 163f 235c 9dbe
000000e0: 2c1e 6dbd b799 1b3f 7788 813e c4da 25be
000000f0: 28b5 b23e dc41 6bbd adf0 87bd bd72 5fbd
00000100: d883 013f 54aa c43e a9d6 d83e ca11 cdbd
00000110: d010 883e 4aff c0be af3f b13e 7b79 7bbe
00000120: c997 9cbe df91 ef3d a575 48be 844b 543e
00000130: 71d2 05bd 5169 8bbd 90ed 803e 1c48 8ebe
00000140: 8159 fbbe 6e84 36be 5e50 82be 2c8a a33e
00000150: 66e3 cd3e dfa1 d1bd 9d55 f7bd 6ca5 ce3e
00000160: ca85 a43b 1c24 a83d 87ba ac3e 2d91 2e3e
00000170: f1c8 78be dca6 21be 0a1a c83e 6e51 983e
00000180: 8c28 bd3e e1ad 74be 5e65 3abe e50b 36be
00000190: 076b d23e 5180 d9bd c6d4 b7be ef90 3bbd
000001a0: 7c37 113e 151a d1bd 91fa 4abe db6a 71be
000001b0: d435 373e 5746 cbbd 2cd3 77be 056d e9bd
000001c0: c1f1 51be 690f 44be b6d2 00bd d12f a63d
000001d0: 19b6 413d fceb 74be abb1 473e 2f85 353d
000001e0: 57a3 1bbe d48b 153d 1d35 213e ba65 4bbe
000001f0: 3762 74bd ff35 92bd 299b 1fbe eddb 81be
00000200: 83f4 0b3c 67c6 833d afb2 53be 1bb8 cabc
00000210: 7217 103e 7913 923d f533 c03d 65f4 073d
00000220: 60f7 713e 9d4d 54be 3ed9 833c 9193 123e
00000230: dad8 0e3b 6b77 79be ce87 29be 8623 60be
00000240: 3a07 a7be 7736 9d3c ec41 81be bb95 98be
00000250: 89b2 2bbe 4b08 35be

fc3.bias f4 [10]
0.29529896 0.01645959 0.32655337 0.30399337 0.46853107 -0.109438606 0.26925153 -0.17702197
0.16530818 -0.040774357
00000000: 6d31 973e 43d6 863c 0132 a73e 05a5 9b3e
00000010: 4ee3 ef3e 5921 e0bd 56db 893e 3f45 35be
00000020: 8c46 293e 0303 27bd

fc4.weight f4 [5, 10]
-0.28058833 0.17170891 -0.120078474 0.26980007 -0.09613789 -0.06559617 0.16579849 -0.15147136
0.140229 0.025342384 -0.36246982 -0.14985566 0.38869348 -0.6390828 0.37727654 -0.6349232
0.37827197 0.18140243 -0.21167156 0.002655204 -0.52869666 -0.46559718 0.0026927385 -0.2807807
0.43245628 -0.62848365 0.21685593 -0.21367282 -0.029529415 -0.02586985 0.29652184 0.084628314
-0.24615954 0.060232554 -0.09454929 -0.16256428 0.0903754 -0.2187702 -0.086036 0.036620013
0.4942284 0.2665032 0.35893822 0.54995495 0.0936829 0.15541041 -0.06793458 0.027631018
-0.14053415 -0.33332798
00000000: 46a9 8fbe 76d4 2f3e b4eb f5bd 3c23 8a3e
00000010: f1e3 c4bd 4957 86bd 14c7 293e 4f1b 1bbe
00000020: 3198 0f3e d59a cf3c a595 b9be c373 19be
00000030: d502 c73e ee9a 23bf 642a c13e 548a 22bf
00000040: ddac c13e 8fc1 393e 6ec0 58be ee02 2e3b
00000050: aa58 07bf c162 eebe a878 303b 7dc2 8fbe
00000060: e96a dd3e 4ee4 20bf 7b0f 5e3e 0ccd 5abe
00000070: ace7 f1bc 02ed d3bc b6d1 973e 9c51 ad3d
00000080: 3f11 7cbe 69b6 763d 0fa3 c1bd 4077 26be
00000090: bd16 b93d 4c05 60be a433 b0bd defe 153d
000000a0: 810b fd3e 1c73 883e c0c6 b73e d9c9 0c3f
000000b0: d2dc bf3d e823 1f3e 4921 8bbd 725a e23c
000000c0: 2fe8 0fbe f7a9 aabe

fc4.bias f4 [5]
-0.29519087 0.32128164 -0.0616409 -0.26487562 0.3774351
00000000: 4223 97be 077f a43e 2b7b 7cbd c79d 87be
00000010: 2c3f c13e

fc5.weight f4 [4, 5]
-0.29967198 0.24788955 -0.4938863 0.355995 0.38410452 -0.22963013 0.6482317 0.58700806
-0.26542705 -0.3310827 0.28921822 -0.09990905 0.15516509 -0.12148349 -0.15931317 -0.17600916
-0.017253766 -0.081489764 -0.4149448 -0.37645593
00000000: 9b6e 99be c2d6 7d3e aade fcbe fa44 b63e
00000010: 59a9 c43e 2924 6bbe 83f2 253f 2946 163f
00000020: 0ee6 87be ac83 a9be 6914 943e 1e9d ccbd
00000030: 99e3 1e3e 56cc f8bd fe22 23be bf3b 34be
00000040: c557 8dbc 1be4 a6bd a573 d4be d5be c0be

fc5.bias f4 [4]
0.065402806 0.13825841 0.11577784 -0.55164814
00000000: e8f1 853d 9d93 0d3e ef1c ed3d d038 0dbf
