Laboratorios/Lab1/checkpoints/modelo_epoch_60.pth (torch, 7848 bytes, 10 tensors)

fc1.weight f4 [20, 24]
000000 8b 4c a9 3d ec 3c 42 3d a9 3d 7c 3d 41 0f 7f 3d
       0.082665525 0.04742138 0.06158224 0.062270407
000010 5b 5c 6f 3d b1 94 77 3d 14 16 27 3d f0 b5 4f 3d
       0.058437686 0.060444538 0.04079254 0.05071062
000020 e0 ca 20 3d ae bd 8c 3d 9d d9 89 3d b4 d3 94 bb
       0.039255977 0.06872116 0.067309596 -0.0045418385
000030 f7 65 1b bd c1 e2 75 bd 27 83 92 bd 99 fe 32 bd
       -0.037939038 -0.060030703 -0.071539216 -0.043699834
000040 b5 fb 40 3d 8f 1c 9e bd 97 20 80 bd cf e4 4f bd
       0.047115047 -0.07720291 -0.06256216 -0.05075532
000050 ab 05 99 3d 89 88 8d 3d 77 28 53 3d 62 aa 8e 3d
       0.07471784 0.06910808 0.051552262 0.06966092
000060 81 6a 77 3d e3 32 79 3d ee cc 53 3d 52 f0 61 3d
       0.060404304 0.060839545 0.051709108 0.055160828
000070 4e 56 83 3d 78 42 46 3d aa 39 75 3d 9a 71 90 3d
       0.06412946 0.048403233 0.059869446 0.07052918
000080 26 59 08 3d d5 dd 4a 3d 95 2c 4d 3d 9e 0d d9 3c
       0.033288144 0.04952796 0.050091345 0.026495751
000090 e3 e4 02 3d d8 a3 5f 3c 5f e9 bf ba 51 ed 71 3d
       0.031956565 0.013649903 -0.0014641694 0.059064213
0000a0 dd 0b 90 3d b3 41 cb 3c 90 75 0c 3c 1e 78 15 bd
       0.07033513 0.024811601 0.008572951 -0.036491506
0000b0 fc d6 72 3d 17 09 14 3d 6d 82 ab 3d 7b ca b2 3d
       0.059287056 0.03614148 0.08374486 0.08730026
0000c0 1c 50 4e 3d 96 64 32 3d d6 42 3e 3d 24 d2 75 3d
       0.050369367 0.043552957 0.04645046 0.06001486
0000d0 c4 92 69 3d c2 c4 5e 3d c2 61 47 3c 22 d5 86 3d
       0.057024732 0.05438686 0.012169303 0.065836206
0000e0 94 21 55 bb 84 58 24 3d d9 47 84 bc ad e1 6e bd
       -0.0032521235 0.040123478 -0.01614754 -0.05832069
0000f0 60 01 7d bd cd 4b 2d bd d9 48 8d bd d9 64 53 bd
       -0.06176889 -0.042308617 -0.0689866 -0.051609848
000100 d3 74 a3 3c dc 37 9e bd e8 83 9e bd 77 be dd bc
       0.019953167 -0.07725498 -0.07740003 -0.02706836
000110 b0 24 38 3d 74 08 22 3d ba 77 55 3d ec f6 73 3d
       0.044956863 0.039558843 0.052116133 0.059561655
000120 60 4c 37 3d 87 30 25 3d b6 81 2c 3d 1a cb 46 3d
       0.04475057 0.040329482 0.04211589 0.048533536
000130 77 91 8f 3d c6 7d 54 3d 55 fe 01 3d 93 c9 8f 3d
       0.07010167 0.05187776 0.03173669 0.07020869
000140 fd db 58 3d 02 aa 68 3d 75 2d 4f 3d 89 86 0f bd
       0.052944172 0.056802757 0.05058046 -0.035040412
000150 5c e0 72 bd 99 25 53 bd f8 3f 81 bd d3 bf cd 3a
       -0.059295997 -0.051549528 -0.06311029 0.0015697427
000160 27 17 72 3d 1f 03 b1 bd ea f7 72 bd dd d8 82 bd
       0.05910411 -0.086431734 -0.05931846 -0.0638902
000170 ca 87 a3 3d ff 10 0a 3d c6 64 2d 3d 33 14 74 3d
       0.07984884 0.033707615 0.042332433 0.059589576
000180 bd 62 86 3d 52 8d 50 3d cd 01 20 3d 02 98 fa 3c
       0.065618016 0.050916024 0.039064217 0.030590061
000190 65 d4 2e 3d fd ec 86 3d cb c7 80 3c 65 a4 8a 3d
       0.042683024 0.06588171 0.015720269 0.06769637
0001a0 06 55 96 bc 00 7c 2a 3d 0f d7 1e 3c e8 46 62 3a
       -0.01835109 0.041622162 0.009694829 0.00086317817
0001b0 d8 d3 e8 3b 20 63 c7 bc 81 fb 9e bd 62 3c 47 bd
       0.007105332 -0.024339259 -0.07762814 -0.04864157
0001c0 7d 1a 88 3c 96 6b 9c bc 9f 48 d8 bb 60 38 e9 3c
       0.016614193 -0.01909427 -0.006600454 0.028469265
0001d0 a0 d2 3e 3d df f4 10 3c 7b 28 55 3d 1d 74 59 3d
       0.046587586 0.008847444 0.05204056 0.05308925
0001e0 db ec 47 bb f4 54 89 ba 1c f2 79 bc d1 56 99 3b
       -0.0030506167 -0.0010477589 -0.015255477 0.004679539
0001f0 2b f8 e4 bb 5b 26 44 bc 97 60 4d bc 98 b2 ba bb
       -0.0069875917 -0.011972035 -0.012535236 -0.0056975596
000200 22 ab f8 bc 65 d5 15 bc ea de 70 bc a3 fe 89 bc
       -0.03035504 -0.0091451155 -0.014701584 -0.016845053
000210 b9 7d 3a 3b c2 32 86 bb 4a d9 1a 3c 7d 7a 19 3c
       0.0028456284 -0.0040954063 0.00945122 0.009367582
000220 de 09 65 bc e3 db 1c 3c 97 07 ce bc cc c7 3b bc
       -0.013979403 0.009573909 -0.025150103 -0.0114612095
000230 31 0f 23 3c 3c 87 a1 bc 3b 09 8e bc 38 ba 04 bb
       0.009952352 -0.019717805 -0.017338386 -0.0020252597
000240 6a 3b 91 3d 46 9e 6e 3d 3f 04 5e 3d 50 4d a1 3d
       0.070914105 0.05825641 0.05420327 0.07876074
000250 65 86 23 3d ef 17 35 3d f4 dc 33 3d 34 89 3b 3d
       0.03992309 0.044212278 0.04391189 0.045785144
000260 10 36 bc 3c 13 1d 39 3d 0f 05 56 3c e0 72 b1 bc
       0.022974998 0.045193743 0.0130627295 -0.021661222
000270 06 e4 18 bd e2 bf 20 bd 76 82 7d bd 98 9f 41 bb
       -0.037326835 -0.039245494 -0.061891995 -0.0029544588
000280 d7 d7 15 3d 20 b2 85 bd 9f 0d 8e bd 49 d2 5f bd
       0.036582794 -0.06528115 -0.06936192 -0.054643903
000290 87 0c 82 3d 69 0a 6f 3d 3e 5a a8 3d 9b 8a 75 3d
       0.06350046 0.058359537 0.08220337 0.059946638
0002a0 ec 69 cd 3b dc d5 ac 3c c9 28 39 3d 25 3a 07 3d
       0.0062687304 0.02109807 0.04520491 0.033014435
0002b0 8b 44 5d 3d 3b 2f 75 3d 7a c6 8f 3c ca 64 65 3d
       0.054020446 0.059859496 0.017550696 0.056004323
0002c0 3a 57 b9 3b c0 83 67 3d c6 d6 c3 3c b2 ef 13 bd
       0.00565615 0.05652213 0.023906123 -0.036117263
0002d0 10 d7 6b bd ed da 0f bd 7c d1 97 bd 2a 67 02 bd
       -0.057578146 -0.035120893 -0.07413003 -0.031836666
0002e0 1f fb f1 3c fa 81 62 bd 8c a9 84 bd d0 c8 6b bd
       0.02953869 -0.055299737 -0.06477651 -0.057564557
0002f0 03 97 d2 3c 52 69 66 3c 62 44 52 3d 25 af 59 3d
       0.025706774 0.014063196 0.051334746 0.053145546
000300 89 31 03 3b 75 2a 86 3c bc ba 42 3c fe 09 aa ba
       0.002001854 0.016377667 0.011885341 -0.0012972949
000310 50 b9 35 bd 03 32 22 bd a6 6a df 3c 38 77 45 bd
       -0.04436618 -0.039598476 0.027272534 -0.0482094
000320 6e 25 6e 3d b3 7a 5d bc cf eb c3 3c c2 11 70 3d
       0.058141164 -0.013518023 0.023916153 0.058610685
000330 d1 f6 8e 3d 3a 4f 83 3d 77 1c 96 3d 6b 7a 25 3d
       0.0698067 0.06411596 0.07329648 0.04039995
000340 d9 a4 8e 3c eb f7 31 3d b0 c6 a7 3d 40 d0 b5 3d
       0.01741259 0.043449324 0.081921935 0.08877611
000350 89 4e 85 bc 68 d1 91 3c a1 37 da 3b f0 27 20 bd
       -0.0162728 0.017800048 0.0066594635 -0.039100587
000360 0c 2f 25 3b 4b 1e ec bb 8e 75 8f bb 8b 23 1c bc
       0.0025205044 -0.0072057596 -0.0043780273 -0.0095299585
000370 4a 4e 58 3b 84 1e ea 3a c6 d8 66 bc 05 22 28 bb
       0.0033005648 0.0017861878 -0.014089769 -0.0025655043
000380 bb 0f 46 bb f1 bc b1 bc 9d 7e 09 bc cf 6c 65 bb
       -0.0030221778 -0.02169654 -0.008392003 -0.0035007482
000390 99 34 25 bb 66 20 f8 ba b6 e3 52 bb 3d 43 9e bc
       -0.0025208353 -0.0018930554 -0.0032179183 -0.019319171
0003a0 88 48 8c 3b 19 ef 41 3b 44 f7 b9 bb 17 72 e2 bb
       0.0042811073 0.0029591976 -0.0056752283 -0.006910573
0003b0 42 04 ef bc 22 9c 87 bb c5 48 c4 bb 37 34 48 bc
       -0.029176835 -0.0041384855 -0.00599012 -0.01221948
0003c0 e0 34 e8 3c 5f 93 24 3c 2e b3 bf 3c e0 5b a1 3c
       0.028345525 0.010044902 0.02340087 0.01969713
0003d0 7a d0 d2 3c d5 e1 0d 3d e5 7e ec 3b e2 ae c1 3c
       0.025734175 0.0346392 0.0072172754 0.023642961
0003e0 d6 54 7f bc 6b 2d 19 3d 46 d5 68 3c 9e 96 b8 bd
       -0.015584191 0.03739683 0.014211005 -0.09013103
0003f0 d8 1c b2 bd 16 d0 78 bd 29 95 26 bd 51 8f 93 bc
       -0.08696908 -0.06074532 -0.040669594 -0.018012675

fc1.bias f4 [20]
000000 f6 59 7d 3d fc 1b 5e 3d ba cd 52 3d 81 14 51 3d
       0.06185337 0.054225907 0.051465727 0.051044945
000010 4e 26 57 3d e3 9c 23 bc c6 0c 48 3d f2 b7 27 3d
       0.052526765 -0.009986135 0.048840307 0.04094691
000020 e6 68 df 3c 9b 2d ad bb 76 25 9a 3c 27 77 8d bb
       0.0272717 -0.0052849776 0.01881669 -0.0043171826
000030 3f f5 40 3d af 3a e5 3c 7b b3 f3 3c e4 d8 0d 3d
       0.047108885 0.027982084 0.029748669 0.03463067
000040 00 00 00 00 0d 5b f9 3c be 40 f8 bb be 46 26 bc
       0.0 0.030438924 -0.0075760772 -0.010148702

fc2.weight f4 [15, 20]
000000 61 ad 56 3e f3 5a 66 3e 40 87 1b 3e 85 44 e6 bd
       0.20964576 0.22495632 0.15188313 -0.11243538
000010 e9 09 e5 bd a1 63 23 3e 55 fd 9f 3d 22 42 41 be
       -0.11183531 0.15955974 0.07811991 -0.18872884
000020 20 d6 c4 bd f8 5c d9 bd 40 2b ba 3d 24 2d 0e 3e
       -0.096111536 -0.106134355 0.090902805 0.13884407
000030 e4 10 21 bd cd 4b 41 3e 39 02 bc 3c a6 d5 9b ba
       -0.03932275 0.18876572 0.022950279 -0.0011889234
000040 4a f1 16 3e 38 70 b2 bd 5b d9 d4 3d b2 c6 70 bd
       0.14740482 -0.0871281 0.1039302 -0.05878324
000050 00 fb d7 3d b7 69 9c bc ea 25 55 be d7 89 81 3d
       0.10545921 -0.019093378 -0.20815244 0.06325119
000060 35 e0 f4 bd ad 15 4a 3e dd 7c 15 be 13 69 16 3e
       -0.119568266 0.19734831 -0.14598413 0.1468852
000070 5c 2a ce bc 7d 8d 11 be 81 f1 cc 3d 90 e9 59 bd
       -0.025166683 -0.1421413 0.10007001 -0.05320126
000080 f5 94 0d bd e9 7c 2a 3e db be 9c bc 18 12 8e ba
       -0.034565885 0.16649212 -0.019133976 -0.0010839133
000090 85 fa eb bd 7e a2 bf 3c 94 f3 9a 3d 3b 4e 3c 3e
       -0.11522392 0.023392912 0.0756599 0.18389218
0000a0 3a e4 2c 3d 1a 78 64 bd 41 89 de bd bc 90 f7 bd
       0.04220984 -0.0557786 -0.10866023 -0.12088153
0000b0 c5 9d 52 be 9c 3f 28 3e 61 0d 42 3d 14 f5 2b bd
       -0.20567997 0.16430515 0.04737604 -0.04198177
0000c0 7d b9 64 be 33 ab 3b 3e 6c 88 e2 bd 72 ee 64 3d
       -0.22336383 0.18327026 -0.11061177 0.05589146
0000d0 35 cf 06 be 98 33 be 3d 11 12 6b 3d b7 bc 42 3d
       -0.1316498 0.092871845 0.057390276 0.047543254
0000e0 a7 ac 09 3e f3 8f 41 3e 2f 4a c0 3d a2 69 21 3e
       0.13444768 0.18902569 0.093891494 0.15762952
0000f0 41 01 ea bd 16 82 8a 3d 8a ba bd bd 7d 92 32 3e
       -0.114260204 0.06763093 -0.09264095 0.17438693
000100 d5 06 28 be 47 ec 29 be 68 e3 36 3e fb c0 9c 3c
       -0.16408856 -0.16594039 0.17860186 0.019134989
000110 a4 f8 84 bd 89 5d be bb 69 db 87 bc d7 d4 61 bd
       -0.06492737 -0.00580949 -0.016584115 -0.05513462
000120 35 98 4e bd 93 bd dc 3d ab 79 20 be 2e 71 d9 bc
       -0.050438125 0.10778346 -0.15671413 -0.026543226
000130 79 02 a7 bd b2 b9 27 be 41 4d 27 bd 3d a0 b5 bd
       -0.081547685 -0.16379431 -0.04084516 -0.08868454
000140 50 a8 97 bd 70 47 d9 3c e8 5b 0c 3d 8e 36 8e 3d
       -0.0740515 0.026523322 0.034267336 0.06943999
000150 51 51 0a bd d5 b7 24 3e 1e 70 d5 bb 1e cf 77 3e
       -0.033768956 0.16085751 -0.0065136096 0.24200103
000160 7c 1d 0a be 1f d5 44 be e0 6b 3c 3e bc c7 60 bd
       -0.1348781 -0.19221924 0.18400526 -0.05487798
000170 50 45 37 bd 82 8b 1e 3e cb b2 a2 bd d9 16 84 3e
       -0.044743836 0.15482906 -0.07944258 0.2579868
000180 e4 19 24 be 0e cf 9a bd 7b 6e 3c be 4a 9b 3b be
       -0.16025501 -0.07559024 -0.1840152 -0.18320957
000190 08 9f 20 3d ee 09 14 3c f8 d8 1c be 17 b1 c7 3d
       0.039214164 0.009035571 -0.15317142 0.09750574
0001a0 e5 93 ac 3c 8f f9 3d 3e a1 f4 9d 3d b1 1c 33 3e
       0.021066615 0.1855223 0.07712675 0.17491414
0001b0 40 e0 bd bd d2 be 35 bd 9a 6c 23 3e 72 86 03 be
       -0.09271288 -0.044371434 0.15959397 -0.12844256
0001c0 83 fa 7c 3e ff c9 9c bb d4 0c c1 3d fa 2c 59 bd
       0.24704938 -0.004784822 0.09426275 -0.05302141
0001d0 70 ec 0a 3c 3b 30 29 3e 22 55 1c be f6 74 4f bc
       0.008479223 0.16522305 -0.1526685 -0.012662163
0001e0 c3 b8 b2 bc 42 14 71 3d 00 aa bb 3c df 14 60 bd
       -0.021816617 0.05885721 0.02290821 -0.054707404
0001f0 49 99 22 3d 9a c3 a9 bd 26 fe 2a 3e 2a fe 3b 3e
       0.039696965 -0.08289261 0.16698512 0.18358675
000200 88 72 28 be 2f c6 be bd d6 16 39 bd 0d 2b b3 bd
       -0.1644994 -0.09315144 -0.045187794 -0.08748446
000210 ac 5f 08 3d bb b3 27 be bf bb cb 3c 52 c1 5f be
       0.033294365 -0.16377155 0.024869798 -0.2185109
000220 03 c4 86 bc 2f 3e 5f 3c 4f 1c 43 3d 5d 58 60 3e
       -0.016450888 0.013625666 0.04763442 0.21908708
000230 55 59 57 be 2b e7 38 be de 6f cb bd 47 b9 9c bd
       -0.21030171 -0.18056934 -0.09933446 -0.07652526
000240 c9 d1 21 3d aa e2 14 be f8 77 ef bd 51 a9 51 bd
       0.039506707 -0.1453959 -0.11692804 -0.051186863
000250 00 b1 b1 bb 90 17 55 bb 82 51 58 be d9 d6 4d be
       -0.0054227114 -0.0032515265 -0.21124843 -0.20101489
000260 08 8c 17 3e 34 09 21 3e cf a9 53 3e 98 59 db 3c
       0.14799511 0.15726167 0.20670246 0.02677612
000270 96 65 1f be 8f ad 3b 3e 87 2f 14 be f9 26 06 3e
       -0.15566096 0.18327926 -0.14471255 0.13100804
000280 0c f8 98 bd 35 4e b2 3d 5e 72 87 be a1 ab c5 bd
       -0.07469186 0.08706323 -0.26454443 -0.09651876
000290 42 b2 03 be b7 17 f0 3d 6d 52 3f be 47 6d db 3d
       -0.12860969 0.11723273 -0.18683787 0.107142024
0002a0 54 a8 d5 3d 3e 15 4a be 6d c0 1e 3e 31 19 64 3e
       0.10432497 -0.19734666 0.15503092 0.22275235
0002b0 b0 d5 35 be 2c f2 69 be b9 78 28 3d e9 c4 2f 3e
       -0.17757297 -0.22846287 0.041130755 0.17164959
0002c0 f5 0e e8 3b a7 b8 22 be 81 f6 2d be 58 6d 60 bd
       0.007081861 -0.15890752 -0.16988565 -0.05479178
0002d0 f7 6b 14 3e 7a fa 0b 3e 3a bd 69 be 5d 54 c2 3d
       0.1449431 0.13669768 -0.2282609 0.09488747
0002e0 42 aa 0e 3b 69 7f e0 bd 50 a8 74 be a1 e2 86 be
       0.0021768962 -0.109618016 -0.23892331 -0.2634478
0002f0 2c f2 e1 bd b3 65 48 3e 0f db fd bd 09 e5 f3 3d
       -0.11032519 0.19570045 -0.12395298 0.11908919
000300 23 e2 81 bd fb 5a 70 be c4 63 e0 3d be 6d 66 3e
       -0.0634196 -0.23472206 0.10956529 0.22502801
000310 1d cb bd 3d 7f c2 5c be ae 4a 21 bd 4a 91 5b be
       0.092672564 -0.2155857 -0.03937786 -0.21442142
000320 00 0d 53 3e 77 89 8e 3e 08 1e e2 3d 0b ea 5d 3e
       0.20610428 0.27839252 0.11040884 0.21671312
000330 44 54 c7 3c 6c f7 80 bd 84 85 13 3e d9 52 85 3d
       0.024332173 -0.06297192 0.14406401 0.065099426
000340 49 f3 56 be d6 63 e6 3d 0a 08 ef bc 8e 95 84 3c
       -0.20991243 0.11249511 -0.029178638 0.016184594
000350 e4 b1 49 3e 54 54 53 3b 5a 95 90 be 15 9d 09 3e
       0.19696766 0.0032246308 -0.28238946 0.13438828
000360 cd 3c 87 3d 0b 88 25 3e 1d 85 8f bd 20 82 28 be
       0.06603394 0.16165178 -0.07007811 -0.16455889
000370 ef 51 b4 bd 11 57 a0 bd ff 39 98 3d 18 4c 1f bd
       -0.0880469 -0.078291066 0.07432937 -0.038890928
000380 c3 f2 bb bd 31 bc 3d be df 7b 11 be 86 07 05 be
       -0.091771625 -0.1852882 -0.1420741 -0.12991151
000390 ef cc 88 bd ad 16 3b 3d 3d 1b 14 be 83 c9 3e be
       -0.06679713 0.045675922 -0.14463516 -0.18631558
0003a0 5f 10 3a 3e db 1b 13 3c cb 11 4b be e9 ca 21 3c
       0.18170308 0.008978809 -0.19831006 0.009875038
0003b0 93 6e e5 3c ae cf c9 3d a1 b3 7e 3d f1 b9 0d be
       0.028006827 0.09854065 0.062183026 -0.13840462
0003c0 40 06 46 be c0 59 3e 3e 57 6b 9d bd b5 e0 21 be
       -0.19338322 0.18588924 -0.07686489 -0.15808375
0003d0 b2 6e 18 be 7f a3 14 3e a0 56 0e 3e 6b b1 4e be
       -0.14885977 0.14515494 0.13900232 -0.20184867
0003e0 35 78 66 3c 2e 78 83 bd 74 94 7e be b3 8a 3f 3e
       0.0140667455 -0.06419407 -0.24861318 0.18705253
0003f0 18 4a 8f bc 57 c3 74 bd 06 d4 bf 3d 1a 9e 1f 3e
       -0.017491385 -0.059756603 0.09366612 0.15587655

fc2.bias f4 [15]
000000 2e fc 37 be e2 d1 47 be 3f e6 b0 bd 14 17 ef bd
       -0.17967293 -0.19513658 -0.08637666 -0.11674324
000010 27 59 a9 3d 3f cf a7 3b 8e c3 46 bd a3 55 04 be
       0.082689576 0.005121141 -0.04852634 -0.12923293
000020 5f b6 2e 3e 84 1a d8 3d 57 19 8d 3e 37 7f 6a bd
       0.17061757 0.105519325 0.27558395 -0.057250228
000030 7f 92 f9 3d 1e 30 be bd 33 34 22 3d
       0.12186145 -0.092865214 0.039600562

fc3.weight f4 [10, 15]
000000 75 01 38 3e 95 ea e9 3c a3 84 6f be 26 0e f1 3d
       0.17969306 0.02855424 -0.2339044 0.11770277
000010 04 52 cc bc d1 a9 66 3c 22 15 8d 3d 5b 34 f4 3d
       -0.024941452 0.014078573 0.068887964 0.119240485
000020 de 95 0a be 98 53 09 be f2 bf 4a be 38 85 17 be
       -0.13533732 -0.13410795 -0.19799784 -0.14796913
000030 bf f1 6c 3d f9 2b 3d be 66 0c 48 3e 9e be 65 3e
       0.057847735 -0.18473805 0.1953598 0.22435996
000040 2f 57 16 3e 2e 7e 42 3e b0 70 b5 3c 6a 7e 75 3d
       0.14681695 0.18993446 0.02214846 0.05993501
000050 c1 e5 d1 bd 8f 2f 61 3e cc ef 00 be 1d e3 de bd
       -0.102489 0.21990798 -0.12591475 -0.10883162
000060 3a 62 82 3e e1 c1 4f be 31 ff b7 bd ed 88 bc bd
       0.25465566 -0.20288803 -0.08984221 -0.09205804
000070 64 a3 e3 bd 72 9d 82 3e f7 77 14 bd ba 98 a2 3d
       -0.11115149 0.25510746 -0.03624722 0.079392865
000080 cb 5a 04 3c 4d f4 82 3d 05 c1 cd bd f6 7e c9 bc
       0.008078287 0.06394253 -0.10046581 -0.024596673
000090 a9 b8 14 3e 78 0e bf bd 11 87 c4 3d be 0a 34 3e
       0.14523567 -0.093289316 0.095960744 0.17582223
0000a0 cd 5f a0 3d ed 5b ff bd 26 0a 41 be ef 41 5a be
       0.078307725 -0.12468705 -0.18851528 -0.21314214
0000b0 04 99 56 be 95 f7 cc 3d 67 73 45 be f6 c6 45 3d
       -0.20956808 0.1000816 -0.19282304 0.048285447
0000c0 f3 72 11 be fd 33 ae bc d3 bf 44 be a5 48 31 be
       -0.14204006 -0.021265024 -0.192138 -0.17312868
0000d0 85 70 14 be b9 2c 7e 3d 4e b2 45 3e 68 64 28 be
       -0.14496048 0.06205437 0.19306299 -0.16444552
0000e0 2c 1e 6d bd 16 f8 5e 3e f0 0b 7b 3e f1 6e 2d be
       -0.057890102 0.21774325 0.24516273 -0.16936852
0000f0 58 ce 90 3d dc 41 6b bd ad f0 87 bd bd 72 5f bd
       0.07070607 -0.057435855 -0.06637702 -0.054552782
000100 b8 e1 47 3e 29 92 8d 3d d0 f3 dd 3d ca 11 cd bd
       0.19519699 0.069126435 0.10837519 -0.100131586
000110 44 77 15 3e 46 5a 3d be 06 8f 71 3d 7b 79 7b be
       0.14596277 -0.18491468 0.05897429 -0.2455806
000120 7d 2f 91 3d 9c 54 ed 3d 44 1e 41 be 56 84 3b 3b
       0.07089136 0.115884036 -0.18859202 0.0028612814
000130 71 d2 05 bd 51 69 8b bd 90 ed 80 3e 67 b1 00 bd
       -0.032671396 -0.06807197 0.25181246 -0.031419184
000140 b3 f5 45 be 26 ca bf 3d 5e 50 82 be ea 85 7a 3d
       -0.19332008 0.09364729 -0.2545194 0.061162867
000150 43 de d6 3d 5c 74 fe 3d 9d 55 f7 bd 44 0c 7e 3d
       0.10491612 0.124245375 -0.12076876 0.062023416
000160 28 61 ca 3b 52 01 aa 3d ec 77 f1 3d 2d 91 2e 3e
       0.0061761327 0.08301033 0.117904514 0.17047568
000170 f1 c8 78 be dc a6 21 be 3d e4 f3 3d d4 f2 9e 3c
       -0.24295403 -0.15786308 0.11908767 0.019402899
000180 3e 0e b7 3d e1 ad 74 be 35 92 2b be e8 48 2a 3d
       0.08938263 -0.23894455 -0.16754992 0.041573435
000190 2a 2f 28 3e 51 80 d9 bd b7 f9 40 3c 6a a4 28 bd
       0.16424242 -0.106201775 0.011778287 -0.041172422
0001a0 5c 0e 18 3e 15 1a d1 bd 91 fa 4a be db 6a 71 be
       0.14849228 -0.10210053 -0.19822146 -0.23575918
0001b0 d4 35 37 3e 57 46 cb bd 2c d3 77 be 05 6d e9 bd
       0.17891628 -0.09925526 -0.2420165 -0.11397747
0001c0 c1 f1 51 be 69 0f 44 be b6 d2 00 bd d1 2f a6 3d
       -0.20502378 -0.19146504 -0.03145095 0.08114589
0001d0 19 b6 41 3d fc eb 74 be ab b1 47 3e 2f 85 35 3d
       0.047292802 -0.23918146 0.19501369 0.044316467
0001e0 4f 31 3b 3b d4 8b 15 3d 1d 35 21 3e ba 65 4b be
       0.0028563326 0.036510304 0.15742917 -0.19863024
0001f0 f1 71 14 3d c3 52 9e 3c 02 1e be bc ed db 81 be
       0.036241475 0.019326573 -0.023207668 -0.25363103
000200 f0 54 14 3e a5 c1 58 3e 0a b4 00 be 1b b8 ca bc
       0.14485526 0.2116762 -0.1256868 -0.024745991
000210 9c cc 86 3e 1c 7a 98 3d 65 25 ca 3d 63 c7 0a 3e
       0.2632798 0.074451655 0.09870414 0.13552622
000220 60 f7 71 3e 9d 4d 54 be 3e d9 83 3c ad 58 68 3e
       0.23629522 -0.20732732 0.0160948 0.22690077
000230 25 86 a9 3d 15 bf 11 be ce 87 29 be 15 8f 21 be
       0.08277539 -0.14233048 -0.16555712 -0.15777238
000240 8a 40 8a be 11 e2 cf 3d ec 41 81 be 35 3e 84 be
       -0.27002364 0.101505406 -0.25245607 -0.2582871
000250 89 b2 2b be d9 3e 35 be
       -0.16767325 -0.17699756

fc3.bias f4 [10]
000000 1a 84 08 3e e6 4b 17 bc 26 87 dc 3d 56 6f 0f 3e
       0.13331643 -0.009234404 0.10767965 0.14007315
000010 62 fe 86 3e 63 28 e5 bd 1f b8 ef 3d 3f 45 35 be
       0.26365954 -0.11189344 0.1170504 -0.17702197
000020 f4 86 69 3e 67 44 a9 3c
       0.22805387 0.0206625

fc4.weight f4 [5, 10]
000000 dd e9 81 be 8f ce 3d 3e 9d fe 9c bd 40 20 98 3e
       -0.25373736 0.18535827 -0.07665751 0.29712105
000010 5f d2 6b bd e4 22 15 bd ef ef 4f 3e 4f 1b 1b be
       -0.057573672 -0.036410227 0.20306371 -0.15147136
000020 5a cf 22 3e dc 5d 04 3d 96 d6 98 bd 66 2d cb 3d
       0.15899411 0.032316074 -0.07462804 0.099207684
000030 93 ca 0a 3e c9 a5 9c be 02 5a 02 3e df b2 50 be
       0.13553838 -0.30595234 0.12729648 -0.20380734
000040 c4 63 03 3e 8f c1 39 3e 74 da 76 be ad 60 9b bd
       0.12831026 0.18140243 -0.24106771 -0.07586799
000050 5e 30 4a be b1 cd 25 be d0 75 e1 bd f6 57 73 3d
       -0.19745013 -0.16191746 -0.11008799 0.059410058
000060 c3 cb 28 3e ef 7f 84 be 62 32 6f bd 0c cd 5a be
       0.16483979 -0.25878856 -0.05839766 -0.21367282
000070 ac e7 f1 bc 9f 41 42 bd 1d a6 9e 3e 83 d1 c3 3d
       -0.029529415 -0.047425862 0.3098611 0.095614456
000080 71 fc 6d be 84 08 9a 3d 53 ef b4 bd 95 5e 19 be
       -0.2324083 0.075211555 -0.0883471 -0.14977486
000090 bd 16 b9 3d 4c 05 60 be 37 c1 ae bd de fe 15 3d
       0.0903754 -0.2187702 -0.085329466 0.036620013
0000a0 8b 60 44 3e be 34 b3 3c 8f e2 16 3d 96 8e 45 3e
       0.19177453 0.021875735 0.036837157 0.19292673
0000b0 a9 02 0a be 45 bf 4f be f6 4a 84 be 72 5a e2 3c
       -0.13477577 -0.20287807 -0.2583844 0.027631018
0000c0 05 7e 40 be 10 2e 9d be
       -0.18798073 -0.30699205

fc4.bias f4 [5]
000000 c4 68 84 be ea 84 25 3e fe 64 b4 bd d2 5d 85 be
       -0.2586118 0.16163984 -0.08808325 -0.26048142
000010 2c 6d 47 3e
       0.1947524

fc5.weight f4 [4, 5]
000000 8c d1 98 be 41 95 14 3e 10 d7 da bd bf 4a b6 3e
       -0.29847372 0.14510061 -0.10685551 0.35603902
000010 83 e3 b4 3d 68 6e 6d be 7e 78 bf 3e ca 0a 65 3e
       0.08832457 -0.23186648 0.37396616 0.22367397
000020 a4 e6 87 be df d4 9f bd 49 9d 95 3e ac a6 04 3e
       -0.26543152 -0.07804274 0.29221562 0.12954205
000030 46 3a c0 3e 5d df f8 bd ef bf 35 3d fd 6c 35 be
       0.3754446 -0.12151978 0.044372495 -0.17717357
000040 1c aa 56 3e 31 7c bb 3d 03 74 d4 be 5d 67 35 be
       0.20963329 0.09154547 -0.4149476 -0.17715211

fc5.bias f4 [4]
000000 da ea 5d bd 1b 06 8b 3d 09 ae 53 3e c9 b1 e0 be
       -0.05417905 0.06788274 0.20671858 -0.4388564
