Laboratorios/Lab1/checkpoints/modelo_epoch_960.pth (torch, 7862 bytes, 10 tensors)

fc1.weight f4 [20, 24]
0.45185885 0.3707798 0.40525317 0.3755206 0.42619723 0.41621515 0.37255672 0.43039653
0.39441574 0.40342098 0.36421153 0.24995294 0.22220744 0.19830714 0.12577824 0.12434279
0.36566034 0.08762513 0.23280707 0.25530443 -0.025131145 0.42259026 0.3998699 0.45381984
0.4860954 0.38933003 0.41776335 0.38149154 0.48925903 0.43066913 0.38581905 0.48235613
0.384305 0.39113492 0.35151225 0.26868922 0.2779873 0.28016105 0.5479639 0.28569472
0.3837504 0.22721124 0.35913587 0.2718467 -0.3114567 0.41575143 0.48557624 0.51011306
0.10692841 0.2093592 0.17917198 0.1908694 0.06041317 0.14989206 0.14449628 0.14123996
0.06675598 0.18612155 0.06445258 0.044912104 0.064806834 0.10202991 -0.8523304 0.048234534
0.09646758 0.09416129 -0.0971744 0.067817725 0.8989719 0.10350448 0.10781697 0.10617581
0.11379142 0.22845599 0.16844833 0.24288583 0.10349988 0.16728349 0.21255942 0.11787645
0.22475544 0.26386443 0.25429526 0.27475092 0.24242753 0.108257234 -0.8900563 0.18614356
0.21158761 0.20432149 -0.008541161 -0.0002890145 0.9315228 0.16013764 0.10189099 0.07550385
0.042313036 0.16471137 0.12195957 0.12150668 0.008932089 0.14476241 0.09798802 0.12991156
0.02033597 0.17545189 0.10383705 0.14872976 0.20656586 0.13314798 -0.9088758 0.03517992
0.07104579 0.14024602 -0.0480334 0.09271542 0.94872916 0.047928836 0.057456177 0.060143862
-0.003078381 -0.0010758112 -0.015281743 0.0046509565 -0.007014799 -0.0119973505 -0.012561376 -0.0057221777
-0.030381653 -0.009172074 -0.014729125 -0.016857702 0.002815666 -0.004095602 0.009471117 0.009384467
-0.014006259 0.009557577 -0.025177997 -0.01148653 0.009922181 -0.019748643 -0.017363677 -0.0020529488
0.25434536 0.30741397 0.27024925 0.33594984 0.21934418 0.26676193 0.3032334 0.21903102
0.28150785 0.30849338 0.30823618 0.41483393 0.26265433 0.18961209 -0.7360068 0.23288563
0.27636483 0.24183409 0.076677464 0.07655081 0.74520767 0.33781895 0.26928002 0.21489857
0.055342514 0.13818382 0.15921532 0.11231206 0.046327457 0.13656378 0.0833479 0.1430409
0.012811961 0.14993572 0.0701942 0.05208741 0.04410744 0.04235885 -0.7571456 0.01172915
0.09764334 0.051516388 -0.13184656 0.044383623 0.82690555 0.030144425 0.11034645 0.12436728
0.09968531 0.27323696 0.20787553 0.28504753 0.1289324 0.112938076 0.2697981 -0.11915289
0.29444438 0.2283537 0.14156261 0.18422426 0.14431956 0.16391008 0.7470416 0.2234575
0.22596182 0.17861739 0.38869706 0.17867412 -0.8728641 0.19174123 0.055340372 -0.034766592
0.0025085905 -0.0072170845 -0.0043856767 -0.0095414845 0.0032956533 0.0017746635 -0.01410379 -0.0025758566
-0.0030369547 -0.02170849 -0.008404201 -0.0035137655 -0.002532903 -0.0019055522 -0.0032330411 -0.019330988
0.004276482 0.0029533622 -0.0056885183 -0.006923623 -0.029188456 -0.004152773 -0.00600281 -0.012231453
0.08875249 0.1539868 0.15467528 0.11522934 0.02552454 0.124836326 0.107476704 0.114298545
0.02147551 0.16414414 0.053996842 -0.04345302 0.016193165 0.06529036 -0.76314527 0.080343
00000000: 0b5a e73e dad6 bd3e 587d cf3e 3c44 c03e
00000010: 8636 da3e 271a d53e c1bf be3e ef5c dc3e
00000020: dcf0 c93e 328d ce3e ef79 ba3e aaf3 7f3e
00000030: 598a 633e 0711 4b3e 03cc 003e 6fa7 fe3d
00000040: d537 bb3e ce74 b33d fa64 6e3e 43b7 823e
00000050: d5df cdbc c05d d83e bfbb cc3e 135b e83e
00000060: 7fe1 f83e 4456 c73e 14e5 d53e dc52 c33e
00000070: 2980 fa3e aa80 dc3e 138a c53e 62f7 f63e
00000080: a0c3 c43e d642 c83e 6af9 b33e a291 893e
00000090: 5a54 8e3e 4571 8f3e 5d47 0c3f 9446 923e
000000a0: ef7a c43e 10aa 683e a8e0 b73e 7e2f 8b3e
000000b0: 4177 9fbe 5fdd d43e 739d f83e c596 023f
000000c0: 48fd da3d 4262 563e dc78 373e 4573 433e
000000d0: cd73 773d 4e7d 193e d5f6 133e 35a1 103e
000000e0: 5cb7 883d a696 3e3e b7ff 833d c1f5 373d
000000f0: 72b9 843d 0ff5 d03d 5332 5abf 9391 453d
00000100: cb90 c53d a2d7 c03d 5f03 c7bd 05e4 8a3d
00000110: 0623 663f 28fa d33d 25cf dc3d b472 d93d
00000120: 7a0b e93d 5ef0 693e b87d 2c3e 10b7 783e
00000130: bff7 d33d 5d4c 2b3e 2da9 593e 3569 f13d
00000140: 4a26 663e 3d19 873e fd32 823e 27ac 8c3e
00000150: ec3e 783e f8b5 dd3d bbda 63bf 6b9c 3e3e
00000160: 6caa 583e a739 513e 3af0 0bbc df86 97b9
00000170: 4778 6e3f 1ffb 233e 39ac d03d c3a1 9a3d
00000180: 6f50 2d3d 19aa 283e f0c5 f93d 7fd8 f83d
00000190: e657 123c 993c 143e f1ad c83d 8907 053e
000001a0: 9f97 a63c a9a9 333e 85a8 d43d 9d4c 183e
000001b0: 0086 533e f257 083e 16ac 68bf d218 103d
000001c0: 7580 913d a79c 0f3e acbe 44bd 95e1 bd3d
000001d0: eadf 723f 0751 443d 2b57 6b3d 6959 763d
000001e0: aabe 49bb 3c02 8dba 4760 7abc 0d67 983b
000001f0: 66dc e5bb 8990 44bc 3bce 4dbc 1b81 bbbb
00000200: f2e2 f8bc 7746 16bc 6e52 71bc 2a19 8abc
00000210: 0987 383b 6634 86bb be2c 1b3c 4fc1 193c
00000220: 827a 65bc 6297 1c3c 1642 cebc 0032 3cbc
00000230: a590 223c e8c7 a1bc 453e 8ebc c48a 06bb
00000240: 8e39 823e 5d65 9d3e 1c5e 8a3e 9e01 ac3e
00000250: c39b 603e 0595 883e 6941 9b3e ab49 603e
00000260: cc21 903e d8f2 9d3e 22d1 9d3e 1d65 d43e
00000270: a17a 863e ac29 423e f16a 3cbf 9279 6e3e
00000280: b17f 8d3e 5ba3 773e 1309 9d3d acc6 9c3d
00000290: eec5 3e3f 9bf6 ac3e 12df 893e 5f0e 5c3e
000002a0: d5ae 623d 0f80 0d3e 5709 233e de03 e63d
000002b0: dcc1 3d3d 60d7 0b3e 4eb2 aa3d 5079 123e
000002c0: 42e9 513c c088 193e fac1 8f3d 9c59 553d
000002d0: 01aa 343d 7980 2d3d 4bd4 41bf 9f2b 403c
000002e0: 3bf9 c73d d902 533d c902 07be 9acb 353d
000002f0: 15b0 533f 71f1 f63c 52fd e13d 46b4 fe3d
00000300: d027 cc3d b7e5 8b3e 53dd 543e c0f1 913e
00000310: db06 043e 144c e73d fa22 8a3e 6e06 f4bd
00000320: 6ac1 963e 8dd5 693e caf5 103e 49a5 3c3e
00000330: 82c8 133e 0bd8 273e 1e3e 3f3f 0bd2 643e
00000340: 8962 673e 7ae7 363e 4d03 c73e 59f6 363e
00000350: 0674 5fbf d057 443e 96ac 623d 6a67 0ebd
00000360: 2a67 243b 4b7d ecbb b9b5 8fbb e353 1cbc
00000370: e3fb 573b d39b e83a 9513 67bc b4cf 28bb
00000380: a507 47bb 01d6 b1bc c6b1 09bc 3447 66bb
00000390: 10ff 25bb b9c3 f9ba 6ee1 53bb 055c 9ebc
000003a0: bb21 8c3b 328d 413b c066 babb 8fdf e2bb
000003b0: a11c efbc fc13 88bb 38b3 c4bb 6f66 48bc
000003c0: dec3 b53d b7ae 1d3e 3263 1e3e 5cfd eb3d
000003d0: d718 d13c 30aa ff3d bf1c dc3d 5b15 ea3d
000003e0: 69ed af3c 6715 283e cb2b 5d3d cbfb 31bd
000003f0: 87a7 843c f4b6 853d 7d5d 43bf df8a a43d

fc1.bias f4 [20]
0.3832349 0.36006 0.33451566 0.3292265 0.33551705 -0.01001443 0.3384802 0.30022052
0.060007915 -0.0052978853 0.2942977 -0.0043237004 0.32555223 0.28848708 0.18160611 0.31935427
0.0 0.2647572 -0.0075962474 -0.010177753
00000000: 5d37 c43e c959 b83e a345 ab3e 6090 a83e
00000010: e4c8 ab3e 9013 24bc 474d ad3e 81b6 993e
00000020: dcca 753d e299 adbb 30ae 963e d4ad 8dbb
00000030: c8ae a63e 94b4 933e f4f6 393e 6782 a33e
00000040: 0000 0000 418e 873e f1e9 f8bb 97c0 26bc

fc2.weight f4 [15, 20]
0.5995745 0.6648643 0.25669876 0.062691264 -0.047630027 0.15955974 0.34416226 -0.11305587
0.37090468 -0.106134355 0.14349453 0.13884407 0.10496272 0.13210568 0.47856814 0.47155347
0.14740482 -0.11606323 0.1039302 -0.05878324 0.10545921 -0.019093378 -0.20815244 0.06325119
-0.119568266 0.19734831 -0.14598413 0.1468852 -0.025166683 -0.1421413 0.10007001 -0.05320126
-0.034565885 0.16649212 -0.019133976 -0.0010839133 -0.11522392 0.023392912 0.0756599 0.18389218
0.04220984 -0.0557786 -0.10866023 -0.12088153 -0.20567997 0.16430515 0.04737604 -0.04198177
-0.22336383 0.18327026 -0.11061177 0.05589146 -0.1316498 0.092871845 0.057390276 0.047543254
0.13444768 0.18902569 0.093891494 0.15762952 -0.114260204 0.06763093 -0.09264095 0.17438693
-0.16408856 -0.16594039 0.17860186 0.019134989 -0.06492737 -0.00580949 -0.016584115 -0.05513462
-0.050438125 0.10778346 -0.15671413 -0.026543226 -0.081547685 -0.16379431 -0.04084516 -0.08868454
0.113511495 0.0019665973 0.47313237 0.5000911 0.45119935 0.16087158 0.34305206 0.68627435
-0.6483037 -0.19221587 0.6454197 -0.05487798 0.3865 0.6633764 -0.5509037 0.11228545
-0.16025501 0.4180969 -0.18399817 -0.18318766 0.13436519 -0.16049959 0.33854875 0.58177006
0.5641606 0.18553565 0.4429291 0.67389405 -0.60102123 -0.044371765 0.6710536 -0.12844256
0.73200643 0.5546002 -0.37888932 -0.29642898 0.008479223 0.715506 -0.1526591 -0.012662141
0.21367504 0.1812346 0.43086958 0.35355824 0.487062 -0.08289261 0.5147008 0.5985995
-0.6573357 -0.09315144 0.3932269 -0.08748446 0.43968913 0.31325975 -0.39959115 -0.16960996
-0.016450888 0.468234 0.04763442 0.21908708 -0.21030171 -0.18056934 -0.09933446 -0.07652526
0.039506707 -0.1453959 -0.11692804 -0.051186863 -0.0054227114 -0.0032515265 -0.21124843 -0.20101489
0.14799511 0.15726167 0.20670246 0.02677612 -0.15566096 0.18327926 -0.14471255 0.13100804
0.36518228 0.5760506 -0.29371062 0.035145365 -0.21355022 0.1172179 0.09658293 0.015359508
0.6158026 -0.19734526 -0.004318474 0.22275235 -0.1118592 -0.5155269 0.5376842 0.68594384
0.007081861 -0.39391968 -0.16990377 -0.05477269 0.57145107 0.6224657 -0.5972716 -0.19482237
-0.41137692 -0.10963739 -0.12095485 -0.61098367 0.3861493 0.19570422 -0.5126152 0.11908919
-0.43564254 -0.7330621 0.5848087 0.7368675 0.092672564 -0.6492274 -0.03939999 -0.2143986
0.39216816 0.29577482 0.5336374 0.6367639 0.49798122 -0.0629505 0.48881492 0.4951378
-0.72022074 0.11249461 0.41542026 0.016184648 0.61577636 0.4908882 -0.7492338 0.055496894
0.06603394 0.63894045 -0.07005535 -0.16454194 -0.0880469 -0.078291066 0.07432937 -0.038890928
-0.091771625 -0.1852882 -0.1420741 -0.12991151 -0.06679713 0.045675922 -0.14463516 -0.18631558
0.18170308 0.008978809 -0.19831006 0.009875038 0.028006827 0.09854065 0.062183026 -0.13840462
0.20324145 0.6646879 -0.5182026 -0.6789125 -0.6844493 0.14513385 0.033975147 -0.6469744
0.49476108 -0.0641882 -0.6937171 0.18705253 -0.48907217 -0.55457383 0.54822683 0.6604217
00000000: b77d 193f 8c34 2a3f 056e 833e 4764 803d
00000010: b417 43bd a163 233e 0936 b03e d689 e7bd
00000020: 38e7 bd3e f85c d9bd 3bf0 123e 242d 0e3e
00000030: b2f6 d63d b646 073e e206 f53e 756f f13e
00000040: 4af1 163e 8fb2 edbd 5bd9 d43d b2c6 70bd
00000050: 00fb d73d b769 9cbc ea25 55be d789 813d
00000060: 35e0 f4bd ad15 4a3e dd7c 15be 1369 163e
00000070: 5c2a cebc 7d8d 11be 81f1 cc3d 90e9 59bd
00000080: f594 0dbd e97c 2a3e dbbe 9cbc 1812 8eba
00000090: 85fa ebbd 7ea2 bf3c 94f3 9a3d 3b4e 3c3e
000000a0: 3ae4 2c3d 1a78 64bd 4189 debd bc90 f7bd
000000b0: c59d 52be 9c3f 283e 610d 423d 14f5 2bbd
000000c0: 7db9 64be 33ab 3b3e 6c88 e2bd 72ee 643d
000000d0: 35cf 06be 9833 be3d 1112 6b3d b7bc 423d
000000e0: a7ac 093e f38f 413e 2f4a c03d a269 213e
000000f0: 4101 eabd 1682 8a3d 8aba bdbd 7d92 323e
00000100: d506 28be 47ec 29be 68e3 363e fbc0 9c3c
00000110: a4f8 84bd 895d bebb 69db 87bc d7d4 61bd
00000120: 3598 4ebd 93bd dc3d ab79 20be 2e71 d9bc
00000130: 7902 a7bd b2b9 27be 414d 27bd 3da0 b5bd
00000140: b778 e83d 07e2 003b 683e f23e f805 003f
00000150: 9a03 e73e 85bb 243e 85a4 af3e adaf 2f3f
00000160: 3bf7 25bf 3dd4 44be 3a3a 253f bcc7 60bd
00000170: 54e3 c53e 09d3 293f 0608 0dbf eaf5 e53d
00000180: e419 24be cc10 d63e 046a 3cbe 8c95 3bbe
00000190: 0797 093e 015a 24be 4356 ad3e e2ee 143f
000001a0: d46c 103f 0ffd 3d3e 9ac7 e23e 5284 2c3f
000001b0: 87dc 19bf 2bbf 35bd 2bca 2b3f 7286 03be
000001c0: c664 3b3f 47fa 0d3f c8fd c1be 8ac5 97be
000001d0: 70ec 0a3c 672b 373f ab52 1cbe de74 4fbc
000001e0: a1cd 5a3e 9095 393e f09a dc3e 9605 b53e
000001f0: 3160 f93e 9ac3 a9bd 6ec3 033f d13d 193f
00000200: 2747 28bf 2fc6 bebd 0955 c93e 0d2b b3bd
00000210: ef1e e13e 9563 a03e 3697 ccbe 3cae 2dbe
00000220: 03c4 86bc 5ebc ef3e 4f1c 433d 5d58 603e
00000230: 5559 57be 2be7 38be de6f cbbd 47b9 9cbd
00000240: c9d1 213d aae2 14be f877 efbd 51a9 51bd
00000250: 00b1 b1bb 9017 55bb 8251 58be d9d6 4dbe
00000260: 088c 173e 3409 213e cfa9 533e 9859 db3c
00000270: 9665 1fbe 8fad 3b3e 872f 14be f926 063e
00000280: 2cf9 ba3e 0d78 133f 3d61 96be 96f4 0f3d
00000290: e9ac 5abe f00f f03d 45cd c53d 72a6 7b3c
000002a0: 3da5 1d3f e014 4abe fc81 8dbb 3119 643e
000002b0: 7016 e5bd 92f9 03bf aca5 093f 049a 2f3f
000002c0: f50e e83b d7af c9be 41fb 2dbe 5459 60bd
000002d0: 9e4a 123f ea59 1f3f cbe6 18bf 847f 47be
000002e0: ff9f d2be 9189 e0bd 2db7 f7bd 6d69 1cbf
000002f0: 5cb5 c53e b066 483e c03a 03bf 09e5 f33d
00000300: 8a0c dfbe f5a9 3bbf 06b6 153f 59a3 3c3f
00000310: 1dcb bd3d c433 26bf e261 21bd 4e8b 5bbe
00000320: 44ca c83e cc6f 973e 769c 083f f502 233f
00000330: 65f7 fe3e 31ec 80bd f345 fa3e b482 fd3e
00000340: 6360 38bf 9363 e63d f7b1 d43e ab95 843c
00000350: 85a3 1d3f b355 fb3e c9cd 3fbf b650 633d
00000360: cd3c 873d 9a91 233f 2e79 8fbd af7d 28be
00000370: ef51 b4bd 1157 a0bd ff39 983d 184c 1fbd
00000380: c3f2 bbbd 31bc 3dbe df7b 11be 8607 05be
00000390: efcc 88bd ad16 3b3d 3d1b 14be 83c9 3ebe
000003a0: 5f10 3a3e db1b 133c cb11 4bbe e9ca 213c
000003b0: 936e e53c aecf c93d a1b3 7e3d f1b9 0dbe
000003c0: 871e 503e fc28 2a3f eda8 04bf 36cd 2dbf
000003d0: 1238 2fbf f89d 143e 8629 0b3d 1da0 25bf
000003e0: 5351 fd3e 1a75 83bd 7297 31bf b38a 3f3e
000003f0: ab67 fabe 8df8 0dbf 9858 0c3f 6611 293f

fc2.bias f4 [15]
0.12247315 -0.19513658 -0.08637666 -0.11674324 0.27780887 0.17140351 0.19550133 -0.12923293
0.50534606 0.37939093 0.4809623 -0.057250228 0.3240428 -0.107021675 0.030954504
00000000: 34d3 fa3d e2d1 47be 3fe6 b0bd 1417 efbd
00000010: f73c 8e3e 6784 2f3e 8031 483e a355 04be
00000020: 5c5e 013f 873f c23e b140 f63e 377f 6abd
00000030: f0e8 a53e 2e2e dbbd 4d94 fd3c

fc3.weight f4 [10, 15]
0.55384016 0.02855424 -0.2339044 0.11770277 -0.503551 -0.52620876 -0.41395772 0.119240485
0.32194924 0.3937981 -0.58049744 -0.14796913 0.59266853 -0.17737456 0.20004506 0.4209662
0.14681695 0.18993446 0.02214846 -0.3687792 -0.6037074 -0.20661618 -0.12591475 0.21032746
0.69028264 -0.5594052 -0.08984221 0.41070822 -0.10861049 0.25510746 0.32503155 0.079392865
0.008078287 0.06394253 0.18156478 0.23910022 0.4326138 -0.093289316 0.4621532 0.56927246
0.35399798 -0.12468705 0.15557295 -0.20676218 -0.21129578 0.4745794 -0.19282304 0.048285447
-0.14204006 -0.43590507 -0.6754636 -0.59188455 -0.14496048 0.5051022 0.70238596 -0.504068
-0.057890102 0.7398669 0.25299427 -0.16196734 0.36850005 -0.057435855 -0.06637702 -0.054552782
0.5787797 0.47082475 0.49963608 -0.100131586 0.23281191 -0.58182096 0.4030342 -0.2455806
-0.5118625 0.116977446 -0.19576128 0.24157462 -0.032671396 -0.06807197 0.25181246 -0.51209944
-0.7584847 -0.4075583 -0.2545194 0.42215785 0.5855871 -0.30651414 -0.12076876 0.63074124
0.0050208317 0.08210012 0.34142703 0.17047568 -0.24295403 -0.15786308 0.46257287 0.3853009
0.4444808 -0.23894455 -0.24267834 -0.3424998 0.46271154 -0.106201775 -0.53876 -0.045792516
0.14181322 -0.10210053 -0.19822146 -0.23575918 0.17891628 -0.09925526 -0.2420165 -0.11397747
-0.20502378 -0.19146504 -0.03145095 0.08114589 0.047292802 -0.23918146 0.19501369 0.044316467
-0.15223323 0.036510304 0.15742917 -0.19863024 -0.059671942 -0.07139205 -0.15589754 -0.25363103
0.008293187 0.06407927 -0.2067589 -0.024745991 0.14042702 0.0713262 0.0938491 0.033192057
0.23629522 -0.20732732 0.0160948 0.14314105 0.0021796734 -0.2436196 -0.16555712 -0.21888551
-0.326227 0.01919101 -0.25245607 -0.29801735 -0.16767325 -0.17678945
00000000: 78c8 0d3f 95ea e93c a384 6fbe 260e f13d
00000010: b8e8 00bf 9eb5 06bf 44f2 d3be 5b34 f43d
00000020: 88d6 a43e e89f c93e 7b9b 14bf 3885 17be
00000030: 20b9 173f ada1 35be 9dd8 4c3e e288 d73e
00000040: 2f57 163e 2e7e 423e b070 b53c a1d0 bcbe
00000050: 918c 1abf 3193 53be ccef 00be 1560 573e
00000060: 5db6 303f 2e35 0fbf 31ff b7bd 5948 d23e
00000070: 2d6f debd 729d 823e 896a a63e ba98 a23d
00000080: cb5a 043c 4df4 823d 1eec 393e b0d6 743e
00000090: 8e7f dd3e 780e bfbd 589f ec3e d7bb 113f
000000a0: 393f b53e ed5b ffbd 844e 1f3e 77b9 53be
000000b0: ec5d 58be 12fc f23e 6773 45be f6c6 453d
000000c0: f372 11be f32e dfbe 2feb 2cbf bf85 17bf
000000d0: 8570 14be 614e 013f 91cf 333f 9a0a 01bf
000000e0: 2c1e 6dbd eb67 3d3f 7788 813e c4da 25be
000000f0: 0aac bc3e dc41 6bbd adf0 87bd bd72 5fbd
00000100: e82a 143f f10f f13e 4dd0 ff3e ca11 cdbd
00000110: 3f66 6e3e 38f2 14bf 805a ce3e 7b79 7bbe
00000120: 6c09 03bf df91 ef3d a575 48be 565f 773e
00000130: 71d2 05bd 5169 8bbd 90ed 803e f318 03bf
00000140: 0e2c 42bf 7bab d0be 5e50 82be 1325 d83e
00000150: 09e9 153f 6cef 9cbe 9d55 f7bd 4278 213f
00000160: ca85 a43b 1c24 a83d 86cf ae3e 2d91 2e3e
00000170: f1c8 78be dca6 21be 5ad6 ec3e 2946 c53e
00000180: fd92 e33e e1ad 74be ac80 78be 225c afbe
00000190: 87e8 ec3e 5180 d9bd 2dec 09bf ef90 3bbd
000001a0: 7c37 113e 151a d1bd 91fa 4abe db6a 71be
000001b0: d435 373e 5746 cbbd 2cd3 77be 056d e9bd
000001c0: c1f1 51be 690f 44be b6d2 00bd d12f a63d
000001d0: 19b6 413d fceb 74be abb1 473e 2f85 353d
000001e0: 07e3 1bbe d48b 153d 1d35 213e ba65 4bbe
000001f0: 916a 74bd ff35 92bd 9ba3 1fbe eddb 81be
00000200: 26e0 073c fe3b 833d 9bb8 53be 1bb8 cabc
00000210: 1acc 0f3e 7913 923d f533 c03d 65f4 073d
00000220: 60f7 713e 9d4d 54be 3ed9 833c 9193 123e
00000230: dad8 0e3b 6b77 79be ce87 29be 8623 60be
00000240: 3a07 a7be 7736 9d3c ec41 81be bb95 98be
00000250: 89b2 2bbe 4b08 35be

fc3.bias f4 [10]
0.31154296 0.04081959 0.34464484 0.31296793 0.48101112 -0.10959918 0.2751137 -0.17702197
0.16529477 -0.040774357
00000000: 8f82 9f3e 7132 273d 4a75 b03e 553d a03e
00000010: 1747 f63e 8975 e0bd b4db 8c3e 3f45 35be
00000020: 0843 293e 0303 27bd

fc4.weight f4 [5, 10]
-0.28406957 0.15419519 -0.12148085 0.26729104 -0.09623194 -0.06987657 0.16579849 -0.15147136
0.13992347 0.025342384 -0.75729185 -0.71809226 0.41706485 -0.9166496 0.4219717 -1.0526805
0.41988027 0.18140243 -0.21167156 0.002655204 -0.8080888 -0.9136748 0.00585961 -0.4980205
0.5423437 -0.93431497 0.33250552 -0.21367282 -0.029529415 -0.02586985 0.32914773 0.12111837
-0.2259902 0.09390895 -0.110322535 -0.1267396 0.078432016 -0.2187702 -0.08609231 0.036620013
0.60952306 0.49313366 0.40686935 0.63779116 0.05622815 0.29782102 -0.13933568 0.027631018
-0.14051643 -0.33332798
00000000: 9171 91be 58e5 1d3e f4ca f8bd 5fda 883e
00000010: 4015 c5bd 721b 8fbd 14c7 293e 4f1b 1bbe
00000020: 1948 0f3e d59a cf3c e1dd 41bf e5d4 37bf
00000030: 8689 d53e 8ca9 6abf ad0c d83e 3cbe 86bf
00000040: 8cfa d63e 8fc1 393e 6ec0 58be ee02 2e3b
00000050: e8de 4ebf 97e6 69bf f901 c03b 8bfc febe
00000060: 09d7 0a3f 442f 6fbf 2a3e aa3e 0ccd 5abe
00000070: ace7 f1bc 02ed d3bc 0d86 a83e e80c f83d
00000080: fa69 67be 5653 c03d c8f0 e1bd 07c8 01be
00000090: f7a0 a03d 4c05 60be 2a51 b0bd defe 153d
000000a0: b409 1c3f 047c fc3e 2e51 d03e 4846 233f
000000b0: 7d4f 663d ff7b 983e 03ae 0ebe 725a e23c
000000c0: 8ae3 0fbe f7a9 aabe

fc4.bias f4 [5]
-0.2957589 0.32611638 -0.05848044 -0.26121375 0.39442816
00000000: b66d 97be baf8 a63e 3089 6fbd cfbd 85be
00000010: 7df2 c93e

fc5.weight f4 [4, 5]
-0.30073377 0.020992655 -0.7648941 0.3723128 0.4701429 -0.22960062 0.77661216 0.84967417
-0.26574427 -0.43195015 0.2903298 -0.12070095 0.03785944 -0.14599077 -0.22629635 -0.17595725
-0.022364728 -0.11116731 -0.41507372 -0.41058
00000000: c7f9 99be caf8 ab3c 1ad0 43bf c99f be3e
00000010: 92b6 f03e 6d1c 6bbe 0ed0 463f 3f84 593f
00000020: a20f 88be 9228 ddbe 1ca6 943e 0f32 f7bd
00000030: 8012 1b3d 9b7e 15be 3bba 67be 232e 34be
00000040: 3c36 b7bc b0ab e3bd 8b84 d4be 8b37 d2be

fc5.bias f4 [4]
0.07062646 0.13896863 0.112317115 -0.5528789
00000000: 9ba4 903d cb4d 0e3e 8406 e63d 7989 0dbf
