Laboratorios/Lab1/checkpoints/modelo_epoch_560.pth (torch, 7862 bytes, 10 tensors)

fc1.weight f4 [20, 24]
0.42357805 0.35035363 0.37932807 0.35261506 0.3987899 0.39283866 0.3551008 0.4137787
0.36291265 0.38225126 0.3458047 0.23129514 0.21505934 0.17572469 0.0462306 0.12022605
0.32058966 0.077497415 0.1952079 0.22600661 0.08662046 0.3980355 0.37659857 0.44316587
0.46161193 0.3771663 0.39406988 0.3664345 0.4674096 0.41396755 0.37919873 0.47274494
0.3602004 0.37670058 0.34291095 0.25586283 0.2805302 0.25689948 0.45476326 0.29735184
0.3493064 0.23057005 0.3224567 0.24489298 -0.15622891 0.4016618 0.4652388 0.5069047
0.123760864 0.21172738 0.19595051 0.19834872 0.0740624 0.15739602 0.13850835 0.14237721
0.0837909 0.19233866 0.06482247 0.05315142 0.049029984 0.12643157 -0.69120723 0.019255184
0.12149578 0.08084194 -0.06321234 0.08892984 0.72271895 0.109556094 0.12155724 0.10261037
0.12948509 0.2293827 0.18375786 0.2491196 0.115863785 0.1736107 0.20485052 0.11825893
0.2399856 0.26868212 0.2533254 0.2821782 0.22431386 0.1319442 -0.676929 0.15385811
0.23536861 0.18944517 0.023735913 0.020756245 0.7396836 0.16482535 0.114854716 0.070155
0.059800282 0.16754128 0.13959008 0.1294615 0.023271326 0.15298817 0.09231725 0.13146907
0.037978496 0.18212461 0.104607426 0.1574619 0.19078359 0.15852045 -0.7325709 0.005862657
0.09667619 0.127114 -0.013366087 0.11467908 0.7644983 0.05443695 0.07205298 0.0564548
-0.003078381 -0.0010758112 -0.015281743 0.0046509565 -0.007014799 -0.0119973505 -0.012561376 -0.0057221777
-0.030381653 -0.009172074 -0.014729125 -0.016857702 0.002815666 -0.004095602 0.009471117 0.009384467
-0.014006259 0.009557577 -0.025177997 -0.01148653 0.009922181 -0.019748643 -0.017363677 -0.0020529488
0.2637823 0.30284643 0.27781013 0.33702764 0.22516993 0.26652527 0.29059875 0.21466243
0.28973565 0.3072919 0.3011947 0.41804427 0.23922667 0.20622617 -0.5047997 0.1953816
0.29392502 0.22274601 0.09973715 0.09189753 0.5592356 0.33698744 0.27593368 0.20732272
0.07174375 0.14045851 0.17564061 0.11948811 0.059567425 0.14377151 0.07746734 0.14411137
0.029308876 0.15601803 0.0704825 0.059818704 0.029558381 0.06488087 -0.63022524 -0.014760946
0.12225727 0.038175575 -0.0985977 0.064432666 0.6650522 0.03593922 0.12316663 0.12114723
0.08152481 0.26929864 0.189279 0.27673692 0.11402119 0.10398645 0.27364758 -0.1216563
0.2768585 0.22072972 0.13997778 0.17602475 0.15600921 0.14160381 0.64067566 0.2462551
0.19999067 0.19062866 0.35453844 0.1578633 -0.7161436 0.18490034 0.040934946 -0.032049105
0.0025085905 -0.0072170845 -0.0043856767 -0.0095414845 0.0032956533 0.0017746635 -0.01410379 -0.0025758566
-0.0030369547 -0.02170849 -0.008404201 -0.0035137655 -0.002532903 -0.0019055522 -0.0032330411 -0.019330988
0.004276482 0.0029533622 -0.0056885183 -0.006923623 -0.029188456 -0.004152773 -0.00600281 -0.012231453
0.10468115 0.15554105 0.17044887 0.121940434 0.038251147 0.13132541 0.10072548 0.11467425
0.037506778 0.16953956 0.05363008 -0.035978287 0.00023200997 0.087956406 -0.6220713 0.051995944
00000000: 39df d83e 8d61 b33e 4a37 c23e f689 b43e
00000010: 312e cc3e 2622 c93e c6cf b53e cdda d33e
00000020: b0cf b93e 70b6 c33e 500d b13e a2d8 6c3e
00000030: 8438 5c3e 2cf1 333e 4c5c 3d3d 1339 f63d
00000040: 5424 a43e f7b6 9e3d 94e4 473e 476e 673e
00000050: 1166 b13d 4fcb cb3e 87d1 c03e a3e6 e23e
00000060: 6658 ec3e f11b c13e 87c3 c93e 4e9d bb3e
00000070: 5050 ef3e 8ef3 d33e 5626 c23e a00b f23e
00000080: 306c b83e e6de c03e 0692 af3e 7400 833e
00000090: a8a1 8f3e 5488 833e bbd6 e83e 803e 983e
000000a0: 4ad8 b23e 8e1a 6c3e 0b19 a53e 3ac5 7a3e
000000b0: 79fa 1fbe 9ea6 cd3e c833 ee3e 82c4 013f
000000c0: 5676 fd3d 10cf 583e 40a7 483e ed1b 4b3e
000000d0: 07ae 973d 6c2c 213e 22d5 0d3e 55cb 113e
000000e0: 909a ab3d 6df4 443e a5c1 843d 4eb5 593d
000000f0: aad3 483d 4777 013e f5f2 30bf 0cbd 9d3c
00000100: c8d2 f83d 7690 a53d 7975 81bd d920 b63d
00000110: 1c04 393f f25e e03d 01f3 f83d 6325 d23d
00000120: bd97 043e 4ce3 6a3e 052b 3c3e 3519 7f3e
00000130: fe49 ed3d 01c7 313e 56c4 513e bd31 f23d
00000140: c9be 753e b490 893e deb3 813e a979 903e
00000150: 88b2 653e 611c 073e 384b 2dbf fb8c 1d3e
00000160: 7804 713e eafd 413e d171 c23c 0009 aa3c
00000170: e85b 3d3f fac7 283e f338 eb3d 6dad 8f3d
00000180: 24f1 743d f18f 2b3e b4f0 0e3e 8e91 043e
00000190: 82a3 be3c eea8 1c3e d410 bd3d d49f 063e
000001a0: 578f 1b3d e07e 3a3e 6b3c d63d b13d 213e
000001b0: c65c 433e 2f53 223e c489 3bbf 881b c03b
000001c0: 2bfe c53d 2c2a 023e 6ffd 5abc dedc ea3d
000001d0: 29b6 433f 47f9 5e3d 8390 933d 263d 673d
000001e0: aabe 49bb 3c02 8dba 4760 7abc 0d67 983b
000001f0: 66dc e5bb 8990 44bc 3bce 4dbc 1b81 bbbb
00000200: f2e2 f8bc 7746 16bc 6e52 71bc 2a19 8abc
00000210: 0987 383b 6634 86bb be2c 1b3c 4fc1 193c
00000220: 827a 65bc 6297 1c3c 1642 cebc 0032 3cbc
00000230: a590 223c e8c7 a1bc 453e 8ebc c48a 06bb
00000240: 790e 873e b00e 9b3e 213d 8e3e e38e ac3e
00000250: f292 663e 0076 883e 5cc9 943e 78d0 5b3e
00000260: 3b58 943e 5d55 9d3e 3136 9a3e e609 d63e
00000270: d6f7 743e f42c 533e 8e3a 01bf 1d12 483e
00000280: 577d 963e 8817 643e fe42 cc3d c634 bc3d
00000290: 102a 0f3f 9e89 ac3e 2e47 8d3e 684c 543e
000002a0: 63ee 923d 5bd4 0f3e 22db 333e 2fb6 f43d
000002b0: f9fc 733d d738 133e 32a7 9e3d ee91 133e
000002c0: 2b19 f03c 31c3 1f3e 2159 903d 7504 753d
000002d0: 6b24 f23c 43e0 843d 7156 21bf e5d7 71bc
000002e0: 0562 fa3d fe5d 1c3d 97ed c9bd 46f5 833d
000002f0: dc40 2a3f 0135 133d c93e fc3d 0a1c f83d
00000300: 7bf6 a63d 83e1 893e 5bd2 413e 76b0 8d3e
00000310: f183 e93d d9f6 d43d 891b 8c3e f026 f9bd
00000320: 66c0 8d3e f906 623e 5656 0f3e d53f 343e
00000330: e1c0 1f3e 9700 113e 5203 243f 4c2a 7c3e
00000340: 5bca 4c3e 2934 433e 1086 b53e eba6 213e
00000350: 3055 37bf 8456 3d3e 67ab 273d ec45 03bd
00000360: 2a67 243b 4b7d ecbb b9b5 8fbb e353 1cbc
00000370: e3fb 573b d39b e83a 9513 67bc b4cf 28bb
00000380: a507 47bb 01d6 b1bc c6b1 09bc 3447 66bb
00000390: 10ff 25bb b9c3 f9ba 6ee1 53bb 055c 9ebc
000003a0: bb21 8c3b 328d 413b c066 babb 8fdf e2bb
000003b0: a11c efbc fc13 88bb 38b3 c4bb 6f66 48bc
000003c0: 1263 d63d 2746 1f3e 268a 2e3e e8bb f93d
000003d0: 3cad 1c3d 2b7a 063e 2949 ce3d 55da ea3d
000003e0: b5a0 193d c79b 2d3e 37ab 5b3d f85d 13bd
000003f0: b447 7339 7d22 b43d 1140 1fbf b3f9 543d

fc1.bias f4 [20]
0.3599763 0.3437942 0.34078234 0.3336906 0.34244514 -0.01001443 0.33536193 0.30630332
0.051720675 -0.0052978853 0.2995078 -0.0043237004 0.33090913 0.2965022 0.17182687 0.3051059
0.0 0.2728506 -0.0075962474 -0.010177753
00000000: d04e b83e cb05 b03e 067b ae3e 7fd9 aa3e
00000010: f854 af3e 9013 24bc 8fb4 ab3e cad3 9c3e
00000020: 0fd9 533d e299 adbb 1659 993e d4ad 8dbb
00000030: ec6c a93e 23cf 973e 62f3 2f3e d736 9c3e
00000040: 0000 0000 13b3 8b3e f1e9 f8bb 97c0 26bc

fc2.weight f4 [15, 20]
0.5738739 0.6309421 0.30746722 0.096229866 0.014409556 0.15955974 0.35287234 -0.05465252
0.3157524 -0.106134355 0.20785934 0.13884407 0.14633447 0.22700754 0.42835253 0.4326763
0.14740482 -0.024080206 0.1039302 -0.05878324 0.10545921 -0.019093378 -0.20815244 0.06325119
-0.119568266 0.19734831 -0.14598413 0.1468852 -0.025166683 -0.1421413 0.10007001 -0.05320126
-0.034565885 0.16649212 -0.019133976 -0.0010839133 -0.11522392 0.023392912 0.0756599 0.18389218
0.04220984 -0.0557786 -0.10866023 -0.12088153 -0.20567997 0.16430515 0.04737604 -0.04198177
-0.22336383 0.18327026 -0.11061177 0.05589146 -0.1316498 0.092871845 0.057390276 0.047543254
0.13444768 0.18902569 0.093891494 0.15762952 -0.114260204 0.06763093 -0.09264095 0.17438693
-0.16408856 -0.16594039 0.17860186 0.019134989 -0.06492737 -0.00580949 -0.016584115 -0.05513462
-0.050438125 0.10778346 -0.15671413 -0.026543226 -0.081547685 -0.16379431 -0.04084516 -0.08868454
0.11961688 0.025122976 0.40112188 0.4397379 0.36711106 0.16087158 0.30883586 0.60759765
-0.5750326 -0.19221587 0.56302464 -0.05487798 0.3199587 0.5571666 -0.48920113 0.14330657
-0.16025501 0.31191584 -0.18399817 -0.18318766 0.14253405 -0.13541238 0.2598554 0.5186846
0.47254598 0.18553565 0.40867895 0.5865945 -0.5322884 -0.044371765 0.5820329 -0.12844256
0.66055703 0.4393244 -0.32017514 -0.26410136 0.008479223 0.59562457 -0.1526591 -0.012662141
0.21508461 0.19896244 0.3635281 0.2946585 0.40913823 -0.08289261 0.47881567 0.52671653
-0.5833636 -0.09315144 0.31515947 -0.08748446 0.37661394 0.21437037 -0.338857 -0.14365508
-0.016450888 0.37371546 0.04763442 0.21908708 -0.21030171 -0.18056934 -0.09933446 -0.07652526
0.039506707 -0.1453959 -0.11692804 -0.051186863 -0.0054227114 -0.0032515265 -0.21124843 -0.20101489
0.14799511 0.15726167 0.20670246 0.02677612 -0.15566096 0.18327926 -0.14471255 0.13100804
0.3402916 0.54065907 -0.224663 0.079399236 -0.13029033 0.1172179 0.11110721 0.09751366
0.55471563 -0.19734526 0.08004359 0.22275235 -0.056305815 -0.38695243 0.48267558 0.6453644
0.007081861 -0.25808138 -0.16990377 -0.05477269 0.55414575 0.59168744 -0.518807 -0.13844527
-0.31857407 -0.10963739 -0.09580122 -0.5213958 0.32654086 0.19570422 -0.4237964 0.11908919
-0.3679658 -0.61732984 0.53206044 0.70045775 0.092672564 -0.5223979 -0.03939999 -0.2143986
0.3986862 0.31895605 0.46399626 0.57826304 0.4162779 -0.0629505 0.45583692 0.41926023
-0.6486287 0.11249461 0.33539248 0.016184648 0.55138373 0.38791907 -0.68878585 0.08644304
0.06603394 0.53712314 -0.07005535 -0.16454194 -0.0880469 -0.078291066 0.07432937 -0.038890928
-0.091771625 -0.1852882 -0.1420741 -0.12991151 -0.06679713 0.045675922 -0.14463516 -0.18631558
0.18170308 0.008978809 -0.19831006 0.009875038 0.028006827 0.09854065 0.062183026 -0.13840462
0.1905688 0.63724226 -0.43650958 -0.61729926 -0.589053 0.14513385 0.06452351 -0.5551849
0.4355824 -0.0641882 -0.6025211 0.18705253 -0.41681096 -0.43981203 0.4964549 0.6269533
00000000: 66e9 123f 6c85 213f 586c 9d3e 2a14 c53d
00000010: 0f16 6c3c a163 233e afab b43e 52db 5fbd
00000020: 4caa a13e f85c d9bd 14d9 543e 242d 0e3e
00000030: b4d8 153e aa74 683e 0651 db3e bf87 dd3e
00000040: 4af1 163e da43 c5bc 5bd9 d43d b2c6 70bd
00000050: 00fb d73d b769 9cbc ea25 55be d789 813d
00000060: 35e0 f4bd ad15 4a3e dd7c 15be 1369 163e
00000070: 5c2a cebc 7d8d 11be 81f1 cc3d 90e9 59bd
00000080: f594 0dbd e97c 2a3e dbbe 9cbc 1812 8eba
00000090: 85fa ebbd 7ea2 bf3c 94f3 9a3d 3b4e 3c3e
000000a0: 3ae4 2c3d 1a78 64bd 4189 debd bc90 f7bd
000000b0: c59d 52be 9c3f 283e 610d 423d 14f5 2bbd
000000c0: 7db9 64be 33ab 3b3e 6c88 e2bd 72ee 643d
000000d0: 35cf 06be 9833 be3d 1112 6b3d b7bc 423d
000000e0: a7ac 093e f38f 413e 2f4a c03d a269 213e
000000f0: 4101 eabd 1682 8a3d 8aba bdbd 7d92 323e
00000100: d506 28be 47ec 29be 68e3 363e fbc0 9c3c
00000110: a4f8 84bd 895d bebb 69db 87bc d7d4 61bd
00000120: 3598 4ebd 93bd dc3d ab79 20be 2e71 d9bc
00000130: 7902 a7bd b2b9 27be 414d 27bd 3da0 b5bd
00000140: b2f9 f43d b3ce cd3c d95f cd3e 5325 e13e
00000150: fbf5 bb3e 85bb 243e bc1f 9e3e 858b 1b3f
00000160: 5635 13bf 3dd4 44be 6222 103f bcc7 60bd
00000170: a0d1 a33e 78a2 0e3f 9278 fabe f5be 123e
00000180: e419 24be 6fb3 9f3e 046a 3cbe 8c95 3bbe
00000190: 72f4 113e 8ba9 0abe c40b 853e 84c8 043f
000001a0: 8cf1 f13e 0ffd 3d3e 5e3e d13e 0f2b 163f
000001b0: 0d44 08bf 2bbf 35bd 1c00 153f 7286 03be
000001c0: 441a 293f 21ef e03e ffed a3be 4b38 87be
000001d0: 70ec 0a3c da7a 183f ab52 1cbe de74 4fbc
000001e0: 243f 5c3e cfbc 4b3e 5b20 ba3e 7bdd 963e
000001f0: 917a d13e 9ac3 a9bd 5427 f53e e5d6 063f
00000200: 5157 15bf 2fc6 bebd 955c a13e 0d2b b3bd
00000210: 8bd3 c03e e883 5b3e aa7e adbe 511a 13be
00000220: 03c4 86bc a257 bf3e 4f1c 433d 5d58 603e
00000230: 5559 57be 2be7 38be de6f cbbd 47b9 9cbd
00000240: c9d1 213d aae2 14be f877 efbd 51a9 51bd
00000250: 00b1 b1bb 9017 55bb 8251 58be d9d6 4dbe
00000260: 088c 173e 3409 213e cfa9 533e 9859 db3c
00000270: 9665 1fbe 8fad 3b3e 872f 14be f926 063e
00000280: b33a ae3e a268 0a3f 0f0e 66be 119c a23d
00000290: d46a 05be f00f f03d 2d8c e33d 3eb5 c73d
000002a0: d801 0e3f e014 4abe e5ed a33d 3119 643e
000002b0: eda0 66bd a11e c6be 4121 f73e 9a36 253f
000002c0: f50e e83b 3e23 84be 41fb 2dbe 5459 60bd
000002d0: 7fdc 0d3f d478 173f 89d0 04bf 99c4 0dbe
000002e0: 241c a3be 9189 e0bd 6e33 c4bd 327a 05bf
000002f0: 5d30 a73e b066 483e d7fb d8be 09e5 f33d
00000300: 0366 bcbe 5409 1ebf 1d35 083f 3351 333f
00000310: 1dcb bd3d debb 05bf e261 21bd 4e8b 5bbe
00000320: 9920 cc3e 354e a33e eb90 ed3e 0c09 143f
00000330: 6022 d53e 31ec 80bd 7563 e93e 47a9 d63e
00000340: 880c 26bf 9363 e63d 90b8 ab3e ab95 843c
00000350: 7c27 0d3f 549d c63e 4554 30bf 0c09 b13d
00000360: cd3c 873d e780 093f 2e79 8fbd af7d 28be
00000370: ef51 b4bd 1157 a0bd ff39 983d 184c 1fbd
00000380: c3f2 bbbd 31bc 3dbe df7b 11be 8607 05be
00000390: efcc 88bd ad16 3b3d 3d1b 14be 83c9 3ebe
000003a0: 5f10 3a3e db1b 133c cb11 4bbe e9ca 213c
000003b0: 936e e53c aecf c93d a1b3 7e3d f1b9 0dbe
000003c0: 7824 433e 4f22 233f 2f7e dfbe 5307 1ebf
000003d0: 2dcc 16bf f89d 143e e724 843d 9920 0ebf
000003e0: a804 df3e 1a75 83bd d33e 1abf b38a 3f3e
000003f0: 3f68 d5be 0b2f e1be 562f fe3e 0380 203f

fc2.bias f4 [15]
0.10564802 -0.19513658 -0.08637666 -0.11674324 0.27887592 0.17531991 0.19187798 -0.12923293
0.48662567 0.3661779 0.48230207 -0.057250228 0.31535396 -0.107021675 0.030954504
00000000: fd5d d83d e2d1 47be 3fe6 b0bd 1417 efbd
00000010: d3c8 8e3e 1087 333e a97b 443e a355 04be
00000020: 0027 f93e ab7b bb3e 4cf0 f63e 377f 6abd
00000030: 1376 a13e 2e2e dbbd 4d94 fd3c

fc3.weight f4 [10, 15]
0.5317348 0.02855424 -0.2339044 0.11770277 -0.40082267 -0.4046602 -0.32034427 0.119240485
0.2746274 0.31723815 -0.50467217 -0.14796913 0.50242794 -0.17737456 0.20004506 0.3995602
0.14681695 0.18993446 0.02214846 -0.25074065 -0.45255482 -0.09874868 -0.12591475 0.14962529
0.5634388 -0.47533593 -0.08984221 0.23554099 -0.10861049 0.25510746 0.2893202 0.079392865
0.008078287 0.06394253 0.16349366 0.2238533 0.41107205 -0.093289316 0.423915 0.5386559
0.3363043 -0.12468705 0.13105346 -0.20676218 -0.21129578 0.45670837 -0.19282304 0.048285447
-0.14204006 -0.33290786 -0.5569982 -0.49751 -0.14496048 0.46320507 0.6333669 -0.42591766
-0.057890102 0.65878856 0.25299427 -0.16196734 0.35992455 -0.057435855 -0.06637702 -0.054552782
0.5330302 0.4177206 0.45287684 -0.100131586 0.25407 -0.48115152 0.36778387 -0.2455806
-0.38908875 0.116977446 -0.19576128 0.23159748 -0.032671396 -0.06807197 0.25181246 -0.39529374
-0.6166276 -0.29982942 -0.2545194 0.3758127 0.48294535 -0.21884365 -0.12076876 0.49313846
0.0050208317 0.08210012 0.34174576 0.17047568 -0.24295403 -0.15786308 0.41688052 0.330897
0.39791757 -0.23894455 -0.20822684 -0.24869315 0.43016016 -0.106201775 -0.4284625 -0.045792516
0.14181322 -0.10210053 -0.19822146 -0.23575918 0.17891628 -0.09925526 -0.2420165 -0.11397747
-0.20502378 -0.19146504 -0.03145095 0.08114589 0.047292802 -0.23918146 0.19501369 0.044316467
-0.15223016 0.036510304 0.15742917 -0.19863024 -0.059671942 -0.07139205 -0.15589754 -0.25363103
0.008296077 0.06408201 -0.2067589 -0.024745991 0.14043021 0.0713262 0.0938491 0.033192057
0.23629522 -0.20732732 0.0160948 0.14314105 0.0021796734 -0.2436196 -0.16555712 -0.21888551
-0.326227 0.01919101 -0.25245607 -0.29801735 -0.16767325 -0.17678945
00000000: c61f 083f 95ea e93c a384 6fbe 260e f13d
00000010: a138 cdbe 9f2f cfbe 2a04 a4be 5b34 f43d
00000020: f69b 8c3e 0a6d a23e 3232 01bf 3885 17be
00000030: 1e9f 003f ada1 35be 9dd8 4c3e 2893 cc3e
00000040: 2f57 163e 2e7e 423e b070 b53c 1461 80be
00000050: 44b5 e7be bf3c cabd ccef 00be 5f37 193e
00000060: 863d 103f 3b5f f3be 31ff b7bd a831 713e
00000070: 2d6f debd 729d 823e c721 943e ba98 a23d
00000080: cb5a 043c 4df4 823d e26a 273e cd39 653e
00000090: 0978 d23e 780e bfbd 630b d93e 5ae5 093f
000000a0: 1430 ac3e ed5b ffbd e132 063e 77b9 53be
000000b0: ec5d 58be aed5 e93e 6773 45be f6c6 453d
000000c0: f372 11be e672 aabe 6f97 0ebf a1b9 febe
000000d0: 8570 14be 3729 ed3e 5524 223f e111 dabe
000000e0: 2c1e 6dbd 5ea6 283f 7788 813e c4da 25be
000000f0: 0848 b83e dc41 6bbd adf0 87bd bd72 5fbd
00000100: ab74 083f 79df d53e 79df e73e ca11 cdbd
00000110: 7715 823e 7e59 f6be 2b4e bc3e 7b79 7bbe
00000120: a436 c7be df91 ef3d a575 48be e427 6d3e
00000130: 71d2 05bd 5169 8bbd 90ed 803e f163 cabe
00000140: 4edb 1dbf 3e83 99be 5e50 82be 866a c03e
00000150: 9d44 f73e 8d18 60be 9d55 f7bd a57c fc3e
00000160: ca85 a43b 1c24 a83d 4df9 ae3e 2d91 2e3e
00000170: f1c8 78be dca6 21be 5d71 d53e 556b a93e
00000180: dabb cb3e e1ad 74be 6b39 55be 6ba9 7ebe
00000190: f43d dc3e 5180 d9bd 705f dbbe ef90 3bbd
000001a0: 7c37 113e 151a d1bd 91fa 4abe db6a 71be
000001b0: d435 373e 5746 cbbd 2cd3 77be 056d e9bd
000001c0: c1f1 51be 690f 44be b6d2 00bd d12f a63d
000001d0: 19b6 413d fceb 74be abb1 473e 2f85 353d
000001e0: 39e2 1bbe d48b 153d 1d35 213e ba65 4bbe
000001f0: 916a 74bd ff35 92bd 9ba3 1fbe eddb 81be
00000200: 45ec 073c 6e3d 833d 9bb8 53be 1bb8 cabc
00000210: f0cc 0f3e 7913 923d f533 c03d 65f4 073d
00000220: 60f7 713e 9d4d 54be 3ed9 833c 9193 123e
00000230: dad8 0e3b 6b77 79be ce87 29be 8623 60be
00000240: 3a07 a7be 7736 9d3c ec41 81be bb95 98be
00000250: 89b2 2bbe 4b08 35be

fc3.bias f4 [10]
0.30053893 0.02700871 0.33277377 0.3062878 0.47455356 -0.11228626 0.27252018 -0.17702197
0.16529477 -0.040774357
00000000: 3de0 993e 5f41 dd3c 5361 aa3e c1d1 9c3e
00000010: aff8 f23e 57f6 e5bd c487 8b3e 3f45 35be
00000020: 0843 293e 0303 27bd

fc4.weight f4 [5, 10]
-0.28369662 0.15628873 -0.12134265 0.26754758 -0.09623194 -0.06939709 0.16579849 -0.15147136
0.13995335 0.025342384 -0.50471807 -0.36756235 0.39846557 -0.73945755 0.39276844 -0.7826788
0.3926507 0.18140243 -0.21167156 0.002655204 -0.63061696 -0.6322591 0.009013195 -0.3621204
0.47814924 -0.73914754 0.2627402 -0.21367282 -0.029529415 -0.02586985 0.29136726 0.0796183
-0.25080425 0.054683473 -0.09491588 -0.16781902 0.0903754 -0.2187702 -0.0864071 0.036620013
0.5383697 0.34827694 0.37651858 0.5846456 0.07692261 0.20941876 -0.098116904 0.027631018
-0.14051643 -0.33332798
00000000: af40 91be 270a 203e 7f82 f8bd fffb 883e
00000010: 4015 c5bd 1020 8ebd 14c7 293e 4f1b 1bbe
00000020: ee4f 0f3e d59a cf3c 3435 01bf 2231 bcbe
00000030: ae03 cc3e 174d 3dbf f218 c93e a35d 48bf
00000040: 8309 c93e 8fc1 393e 6ec0 58be ee02 2e3b
00000050: 1d70 21bf bbdb 21bf 14ac 133c d867 b9be
00000060: facf f43e c638 3dbf e285 863e 0ccd 5abe
00000070: ace7 f1bc 02ed d3bc 172e 953e eb0e a33d
00000080: 6a69 80be c7fb 5f3d 4263 c2bd c0d8 2bbe
00000090: bd16 b93d 4c05 60be 35f6 b0bd defe 153d
000000a0: 99d2 093f 5b51 b23e 0bc7 c03e 56ab 153f
000000b0: 9a89 9d3d df71 563e 84f1 c8bd 725a e23c
000000c0: 8ae3 0fbe f7a9 aabe

fc4.bias f4 [5]
-0.29571286 0.32304522 -0.055295967 -0.26600885 0.38337713
00000000: ad67 97be 2f66 a53e 067e 62bd 5032 88be
00000010: 024a c43e

fc5.weight f4 [4, 5]
-0.30077082 0.16733743 -0.59110236 0.35605517 0.4161386 -0.22960062 0.6919965 0.6805528
-0.26542884 -0.36906755 0.29038465 -0.10689322 0.11750035 -0.12154167 -0.184526 -0.17595725
-0.018547645 -0.08858447 -0.4149448 -0.38599265
00000000: a2fe 99be 815a 2b3e 7c52 17bf dd4c b63e
00000010: 1e10 d53e 6d1c 6bbe af26 313f b538 2e3f
00000020: 4ae6 87be 6cf6 bcbe 4cad 943e d5ea dabd
00000030: 06a4 f03d d7ea f8bd 62f4 3cbe 232e 34be
00000040: 3bf1 97bc c66b b5bd a573 d4be d4a0 c5be

fc5.bias f4 [4]
0.06733977 0.13843098 0.11452703 -0.5519805
00000000: 6fe9 893d dac0 0d3e 268d ea3d 984e 0dbf
