Laboratorios/Lab1/checkpoints/modelo_epoch_880.pth (torch, 7862 bytes, 10 tensors)

fc1.weight f4 [20, 24]
00000000: 570f e53e ddad bc3e 222a ce3e dc14 bf3e
00000010: 70ab d83e 49bd d33e 67ff bc3e a1fb db3e
00000020: a7f0 c63e 37bd cd3e c23f b93e 896b 7c3e
00000030: 52ea 623e b5da 473e c53b ec3d bedd f53d
00000040: e946 ba3e 4115 ad3d a85c 693e a4aa 813e
00000050: 1a37 44bc c2f0 d53e df6e cb3e 640b e73e
00000060: 93e7 f63e 79c4 c63e c310 d53e d8ac c23e
00000070: 6875 f93e 4d9f db3e 9949 c43e 9740 f73e
00000080: d119 c23e e821 c83e b35f b33e bc1c 883e
00000090: b1ac 8e3e e2eb 8d3e 4c23 093f 64b3 903e
000000a0: ce55 c43e 54be 663e febd b53e eea3 8a3e
000000b0: f69d 96be 3ff3 d23e dcc2 f73e 7113 023f
000000c0: d88d e13d c897 563e fa3a 383e 13f3 433e
000000d0: 1349 7c3d c258 1a3e 50ad 153e 6104 0f3e
000000e0: eb9a 923d 3bbe 3d3e aea3 843d 5899 423d
000000f0: 78aa 803d ac9c d63d 1dbb 54bf 608a 4f3d
00000100: 940e c43d 6424 c33d efd7 bfbd caac 8b3d
00000110: aa0a 613f 64a6 da3d 0490 de3d bd48 dc3d
00000120: cb46 ef3d 7e04 6a3e 881b 2d3e dd17 793e
00000130: 8616 d63d 3703 2c3e ca32 5b3e a2f7 ed3d
00000140: 21e4 6a3e 019d 863e 424a 823e 13f3 8d3e
00000150: 310e 763e 1415 e33d d116 5dbf 65f8 403e
00000160: 8fca 573e ed3d 523e 14df abbb 0060 92b6
00000170: a931 693f 793e 273e 362a d23d d846 9d3d
00000180: 01ad 3a3d c5e7 283e 015c fb3d d0e8 f93d
00000190: 2f73 263c 4a25 153e b832 cc3d 496e 033e
000001a0: 98a6 ce3c 73d8 323e f660 d53d a508 1b3e
000001b0: 3f81 513e 523a 0b3e f5be 62bf 5045 1a3d
000001c0: 430c 903d adc9 103e 3938 36bd 31b4 be3d
000001d0: 7ca2 6d3f 45f3 513d 2403 6f3d 2b3f 7c3d
000001e0: aabe 49bb 3c02 8dba 4760 7abc 0d67 983b
000001f0: 66dc e5bb 8990 44bc 3bce 4dbc 1b81 bbbb
00000200: f2e2 f8bc 7746 16bc 6e52 71bc 2a19 8abc
00000210: 0987 383b 6634 86bb be2c 1b3c 4fc1 193c
00000220: 827a 65bc 6297 1c3c 1642 cebc 0032 3cbc
00000230: a590 223c e8c7 a1bc 453e 8ebc c48a 06bb
00000240: e580 833e f632 9d3e 3f6d 8a3e 5bf9 ab3e
00000250: 7023 613e 71aa 883e 06ba 9b3e ae29 5e3e
00000260: 2930 923e 1e39 9d3e 52a3 9d3e 6b72 d53e
00000270: 4121 853e 664a 443e 2634 35bf c259 703e
00000280: cad1 8c3e 0d39 783e a584 a23d 44a6 9c3d
00000290: e685 393f db5d ae3e d2ff 893e 01ec 5c3e
000002a0: 5987 6f3d 94b1 0d3e 9fc5 233e e9f8 e63d
000002b0: 6b74 423d 86aa 0c3e 1e09 ae3d f8e2 103e
000002c0: 12cb 8f3c 1faf 183e 1359 903d 857f 5f3d
000002d0: 12cf 2c3d 8c5d 383d 6a76 3dbf 80e4 663c
000002e0: 9e74 c63d 527e 573d 4a7d 03be 394b 373d
000002f0: 9be4 4e3f 7f53 083d 92a9 e33d 6cb0 003e
00000300: 028f c53d edbc 8b3e 3302 543e 3ca7 913e
00000310: 2ebb 023e 4a63 e53d 8840 893e 582b f1bd
00000320: 7053 943e a987 6a3e 8e8c 103e 3827 3a3e
00000330: 2b7e 153e a721 253e 659e 3b3f 4b5c 623e
00000340: 1300 683e d5b5 353e f938 c53e 6283 363e
00000350: 20db 5abf 2b29 413e 6ee2 5e3d c110 14bd
00000360: 2a67 243b 4b7d ecbb b9b5 8fbb e353 1cbc
00000370: e3fb 573b d39b e83a 9513 67bc b4cf 28bb
00000380: a507 47bb 01d6 b1bc c6b1 09bc 3447 66bb
00000390: 10ff 25bb b9c3 f9ba 6ee1 53bb 055c 9ebc
000003a0: bb21 8c3b 328d 413b c066 babb 8fdf e2bb
000003b0: a11c efbc fc13 88bb 38b3 c4bb 6f66 48bc
000003c0: 002d bc3d 3bd2 1d3e 1313 1f3e 83db ec3d
000003d0: c028 da3c 9a9b 003e 2360 df3d 67bf e63d
000003e0: 38df d63c 8b29 273e b924 5e3d d6bd 27bd
000003f0: df03 683c 262c 8b3d 637c 3ebf 245d a93d
0.44738266 0.36851397 0.4026652 0.37320602 0.42318296 0.4135535 0.36913607 0.42965415
0.38855478 0.40183422 0.36181456 0.24650396 0.22159699 0.19517024 0.11534838 0.120051846
0.36382225 0.084513195 0.22789252 0.253255 -0.011976028 0.41785246 0.39733025 0.45125878
0.48223552 0.38821772 0.4161435 0.38022494 0.48722386 0.42894974 0.383374 0.48291466
0.3791032 0.39088368 0.3503395 0.26584423 0.27866128 0.27719027 0.53569484 0.28261864
0.38346714 0.22533542 0.35496515 0.27078193 -0.2941739 0.41201207 0.48390853 0.50810915
0.11013383 0.20956337 0.17991248 0.19135694 0.061593127 0.15072921 0.14616895 0.13966514
0.071584545 0.18529598 0.06476532 0.04750952 0.06282514 0.104791015 -0.8309801 0.050669074
0.09573093 0.09528425 -0.09367358 0.06820066 0.879069 0.10676268 0.108673126 0.10756061
0.116834246 0.22853276 0.16905034 0.2432551 0.10453515 0.16798101 0.21406093 0.11619498
0.22938587 0.2629166 0.2544728 0.27724513 0.24028851 0.11088005 -0.8636294 0.18844755
0.21073364 0.20531435 -0.005245099 -4.362315e-06 0.910914 0.16332425 0.10261957 0.07679528
0.045575146 0.16494663 0.12273408 0.122026086 0.010159298 0.14565006 0.09970611 0.12835039
0.025225922 0.17465381 0.104188845 0.15140016 0.2045946 0.13596466 -0.8857263 0.037663758
0.07033589 0.14139433 -0.04448721 0.093117125 0.92826056 0.05125739 0.058352605 0.06158368
-0.003078381 -0.0010758112 -0.015281743 0.0046509565 -0.007014799 -0.0119973505 -0.012561376 -0.0057221777
-0.030381653 -0.009172074 -0.014729125 -0.016857702 0.002815666 -0.004095602 0.009471117 0.009384467
-0.014006259 0.009557577 -0.025177997 -0.01148653 0.009922181 -0.019748643 -0.017363677 -0.0020529488
0.25684276 0.30702943 0.27036473 0.3358868 0.21986175 0.26692536 0.30415362 0.21695587
0.28552368 0.3070764 0.30788666 0.41688856 0.26001933 0.19169006 -0.707827 0.2347174
0.27503806 0.24240513 0.07935456 0.076489 0.7246994 0.3405598 0.26952988 0.21574403
0.058478687 0.13837272 0.15993355 0.112779446 0.047474306 0.13736925 0.08497833 0.14149082
0.017552886 0.14910553 0.070482396 0.05456497 0.042189665 0.04501109 -0.7400881 0.014092565
0.09690212 0.052610703 -0.12840763 0.044749472 0.80817574 0.033282753 0.11116327 0.125673
0.09646417 0.27292576 0.20703964 0.28447902 0.12766716 0.112005785 0.26807046 -0.11775845
0.28969908 0.22903313 0.14116117 0.18179023 0.1459891 0.16126119 0.73288566 0.2210552
0.22656278 0.17745145 0.3852003 0.17823556 -0.8549061 0.1886336 0.05441516 -0.03614879
0.0025085905 -0.0072170845 -0.0043856767 -0.0095414845 0.0032956533 0.0017746635 -0.01410379 -0.0025758566
-0.0030369547 -0.02170849 -0.008404201 -0.0035137655 -0.002532903 -0.0019055522 -0.0032330411 -0.019330988
0.004276482 0.0029533622 -0.0056885183 -0.006923623 -0.029188456 -0.004152773 -0.00600281 -0.012231453
0.091882706 0.15412228 0.1553462 0.11565306 0.02663076 0.12559357 0.109070085 0.11266976
0.026229486 0.16324441 0.05423424 -0.040952526 0.014161079 0.0679553 -0.7440855 0.08269718

fc1.bias f4 [20]
00000000: 9345 c43e c562 b93e 5f80 a93e debe a63e
00000010: d305 aa3e 9013 24bc 0c43 ab3e 74f3 973e
00000020: 6389 813d e299 adbb 91dd 943e d4ad 8dbb
00000030: c3e5 a43e 6ff7 913e c61e 3d3e 35cd a43e
00000040: 0000 0000 9bd5 853e f1e9 f8bb 97c0 26bc
0.3833433 0.36208168 0.33105752 0.32567495 0.3320757 -0.01001443 0.3344959 0.29677927
0.063250326 -0.0052978853 0.29075292 -0.0043237004 0.32206544 0.2850909 0.1846877 0.3218781
0.0 0.2613953 -0.0075962474 -0.010177753

fc2.weight f4 [15, 20]
00000000: dbcb 183f 6a43 293f ac7b 863e 0cc6 873d
00000010: 23b8 24bd a163 233e 0db4 b03e bab1 d8bd
00000020: 556b ba3e f85c d9bd 2ab2 1a3e 242d 0e3e
00000030: 7d7e e03d d0f5 143e 01f8 f13e 6b48 ef3e
00000040: 4af1 163e 4d63 d3bd 5bd9 d43d b2c6 70bd
00000050: 00fb d73d b769 9cbc ea25 55be d789 813d
00000060: 35e0 f4bd ad15 4a3e dd7c 15be 1369 163e
00000070: 5c2a cebc 7d8d 11be 81f1 cc3d 90e9 59bd
00000080: f594 0dbd e97c 2a3e dbbe 9cbc 1812 8eba
00000090: 85fa ebbd 7ea2 bf3c 94f3 9a3d 3b4e 3c3e
000000a0: 3ae4 2c3d 1a78 64bd 4189 debd bc90 f7bd
000000b0: c59d 52be 9c3f 283e 610d 423d 14f5 2bbd
000000c0: 7db9 64be 33ab 3b3e 6c88 e2bd 72ee 643d
000000d0: 35cf 06be 9833 be3d 1112 6b3d b7bc 423d
000000e0: a7ac 093e f38f 413e 2f4a c03d a269 213e
000000f0: 4101 eabd 1682 8a3d 8aba bdbd 7d92 323e
00000100: d506 28be 47ec 29be 68e3 363e fbc0 9c3c
00000110: a4f8 84bd 895d bebb 69db 87bc d7d4 61bd
00000120: 3598 4ebd 93bd dc3d ab79 20be 2e71 d9bc
00000130: 7902 a7bd b2b9 27be 414d 27bd 3da0 b5bd
00000140: cfe1 e93d 7a31 863b 0af5 ed3e 15e5 fc3e
00000150: a9ea e13e 85bb 243e 36f0 ad3e 4633 2d3f
00000160: c015 24bf 3dd4 44be 9db4 223f bcc7 60bd
00000170: 2133 c23e 83de 253f 3e86 0bbf 76b6 eb3d
00000180: e419 24be 6f45 ce3e 046a 3cbe 8c95 3bbe
00000190: fc71 0a3e d506 22be 7ce4 a83e 2a59 133f
000001a0: 88c7 0d3f 0ffd 3d3e 121d e13e aee6 293f
000001b0: fa01 18bf 2bbf 35bd cd2d 293f 7286 03be
000001c0: 7882 393f fdc3 093f 44fd bebe 0b45 96be
000001d0: 70ec 0a3c eee7 323f ab52 1cbe de74 4fbc
000001e0: 2820 5b3e 8b5d 3b3e b869 d83e 6dd0 b13e
000001f0: 426f f43e 9ac3 a9bd 28d8 023f 93dd 163f
00000200: 1572 26bf 2fc6 bebd 5d62 c43e 0d2b b3bd
00000210: ac73 dd3e 3aea 983e a4b5 c9be 3a30 2bbe
00000220: 03c4 86bc ab9f e83e 4f1c 433d 5d58 603e
00000230: 5559 57be 2be7 38be de6f cbbd 47b9 9cbd
00000240: c9d1 213d aae2 14be f877 efbd 51a9 51bd
00000250: 00b1 b1bb 9017 55bb 8251 58be d9d6 4dbe
00000260: 088c 173e 3409 213e cfa9 533e 9859 db3c
00000270: 9665 1fbe 8fad 3b3e 872f 14be f926 063e
00000280: 9ab3 b93e c389 123f 1aac 92be 88f1 213d
00000290: 6a85 51be f00f f03d d5d1 c83d b1a4 c73c
000002a0: 9fc3 1b3f e014 4abe cb25 993b 3119 643e
000002b0: 3f81 d9bd fe28 ffbe d305 083f 1a87 2e3f
000002c0: f50e e83b 1ec5 c0be 41fb 2dbe 5459 60bd
000002d0: 40dd 113f 3c97 1e3f a6d1 16bf d2fd 41be
000002e0: 0894 cdbe 9189 e0bd 6fd0 f2bd c0e4 19bf
000002f0: fd1d c23e b066 483e 5bc0 00bf 09e5 f33d
00000300: 4ca5 dbbe 3885 37bf 5332 143f dcb9 3b3f
00000310: 1dcb bd3d 0cdd 21bf e261 21bd 4e8b 5bbe
00000320: 4d2c c93e 838a 983e e38b 063f 607d 213f
00000330: 9f0a fa3e 31ec 80bd f8a3 f83e 5cbc f83e
00000340: 8d86 36bf 9363 e63d 4ad3 cf3e ab95 843c
00000350: 1adc 1b3f 0ac4 f33e a450 3ebf 6be3 6e3d
00000360: cd3c 873d 9fde 1f3f 2e79 8fbd af7d 28be
00000370: ef51 b4bd 1157 a0bd ff39 983d 184c 1fbd
00000380: c3f2 bbbd 31bc 3dbe df7b 11be 8607 05be
00000390: efcc 88bd ad16 3b3d 3d1b 14be 83c9 3ebe
000003a0: 5f10 3a3e db1b 133c cb11 4bbe e9ca 213c
000003b0: 936e e53c aecf c93d a1b3 7e3d f1b9 0dbe
000003c0: 27d4 4e3e c57c 293f 8275 02bf cf4b 2cbf
000003d0: 5594 2cbf f89d 143e 34e6 163d 3cff 22bf
000003e0: 77c4 f93e 1a75 83bd 5500 2fbf b38a 3f3e
000003f0: 40bf f6be c1c8 09bf d8de 0a3f 953c 283f
0.5968606 0.6611849 0.2626623 0.06629571 -0.04021467 0.15955974 0.34512368 -0.10580774
0.36410013 -0.106134355 0.15107027 0.13884407 0.10961626 0.14546895 0.47259524 0.46734938
0.14740482 -0.103216745 0.1039302 -0.05878324 0.10545921 -0.019093378 -0.20815244 0.06325119
-0.119568266 0.19734831 -0.14598413 0.1468852 -0.025166683 -0.1421413 0.10007001 -0.05320126
-0.034565885 0.16649212 -0.019133976 -0.0010839133 -0.11522392 0.023392912 0.0756599 0.18389218
0.04220984 -0.0557786 -0.10866023 -0.12088153 -0.20567997 0.16430515 0.04737604 -0.04198177
-0.22336383 0.18327026 -0.11061177 0.05589146 -0.1316498 0.092871845 0.057390276 0.047543254
0.13444768 0.18902569 0.093891494 0.15762952 -0.114260204 0.06763093 -0.09264095 0.17438693
-0.16408856 -0.16594039 0.17860186 0.019134989 -0.06492737 -0.00580949 -0.016584115 -0.05513462
-0.050438125 0.10778346 -0.15671413 -0.026543226 -0.081547685 -0.16379431 -0.04084516 -0.08868454
0.11420023 0.0040952535 0.46476012 0.49393526 0.44124344 0.16087158 0.3397233 0.6765636
-0.6409569 -0.19221587 0.63556844 -0.05487798 0.37929633 0.6479265 -0.5450171 0.11509411
-0.16025501 0.4028735 -0.18399817 -0.18318766 0.13520044 -0.15822919 0.3298682 0.5755793
0.55382586 0.18553565 0.4396749 0.66367614 -0.59378016 -0.044371765 0.6608551 -0.12844256
0.72464705 0.5381468 -0.373026 -0.2934955 0.008479223 0.69885147 -0.1526591 -0.012662141
0.21398985 0.18297403 0.42268157 0.3472933 0.47741133 -0.08289261 0.5111108 0.58931845
-0.65017825 -0.09315144 0.38356295 -0.08748446 0.43252313 0.298662 -0.39396393 -0.16717616
-0.016450888 0.45434317 0.04763442 0.21908708 -0.21030171 -0.18056934 -0.09933446 -0.07652526
0.039506707 -0.1453959 -0.11692804 -0.051186863 -0.0054227114 -0.0032515265 -0.21124843 -0.20101489
0.14799511 0.15726167 0.20670246 0.02677612 -0.15566096 0.18327926 -0.14471255 0.13100804
0.36269838 0.5724146 -0.28646928 0.039536983 -0.2046105 0.1172179 0.09805647 0.024370523
0.6084537 -0.19734526 0.0046736947 0.22275235 -0.10620355 -0.49835962 0.5313389 0.681749
0.007081861 -0.37650388 -0.16990377 -0.05477269 0.56978226 0.61949515 -0.5891365 -0.18944481
-0.40152 -0.10963739 -0.11856162 -0.6011467 0.37913504 0.19570422 -0.5029351 0.11908919
-0.4289955 -0.7168765 0.5788929 0.73330474 0.092672564 -0.63227916 -0.03939999 -0.2143986
0.3929161 0.29793176 0.525572 0.6308193 0.48836228 -0.0629505 0.48562598 0.48581207
-0.7129906 0.11249461 0.40590888 0.016184648 0.60882723 0.47610503 -0.743418 0.05832235
0.06603394 0.6244907 -0.07005535 -0.16454194 -0.0880469 -0.078291066 0.07432937 -0.038890928
-0.091771625 -0.1852882 -0.1420741 -0.12991151 -0.06679713 0.045675922 -0.14463516 -0.18631558
0.18170308 0.008978809 -0.19831006 0.009875038 0.028006827 0.09854065 0.062183026 -0.13840462
0.20198117 0.6620601 -0.5096055 -0.67303175 -0.67413837 0.14513385 0.036840633 -0.63670707
0.48782703 -0.0641882 -0.6835988 0.18705253 -0.48192787 -0.5382195 0.5424628 0.6571744

fc2.bias f4 [15]
00000000: 9c67 fc3d e2d1 47be 3fe6 b0bd 1417 efbd
00000010: 597c 8c3e 0e04 2c3e 9698 443e a355 04be
00000020: c9b7 013f b67d c33e 5698 f43e 377f 6abd
00000030: 846e a73e 2e2e dbbd 4d94 fd3c
0.123244494 -0.19513658 -0.08637666 -0.11674324 0.2743862 0.16798422 0.19198832 -0.12923293
0.5067106 0.38181847 0.47772473 -0.057250228 0.32701504 -0.107021675 0.030954504

fc3.weight f4 [10, 15]
00000000: 3e2a 0d3f 95ea e93c a384 6fbe 260e f13d
00000010: 28bf fbbe 89e5 02bf c986 cebe 5b34 f43d
00000020: c10f a23e 7a7e c43e 097b 12bf 3885 17be
00000030: 6876 143f ada1 35be 9dd8 4c3e 8a6a d63e
00000040: 2f57 163e 2e7e 423e b070 b53c b8e4 b5be
00000050: 77fa 15bf 9733 47be ccef 00be 6b20 513e
00000060: eb05 2d3f ecce 0cbf 31ff b7bd 7369 c63e
00000070: 2d6f debd 729d 823e e4c9 a33e ba98 a23d
00000080: cb5a 043c 4df4 823d f41d 373e f866 723e
00000090: 81d2 db3e 780e bfbd d8da e93e bca6 103f
000000a0: a3e6 b33e ed5b ffbd 3cfd 1b3e 77b9 53be
000000b0: ec5d 58be 2ed2 f13e 6773 45be f6c6 453d
000000c0: f372 11be 6e36 d9be 063c 29bf bbd9 14bf
000000d0: 8570 14be f3fe ff3e a371 313f dada fdbe
000000e0: 2c1e 6dbd 4577 3a3f 7788 813e c4da 25be
000000f0: 663b bc3e dc41 6bbd adf0 87bd bd72 5fbd
00000100: f47d 123f 0c31 ed3e 486f fc3e ca11 cdbd
00000110: 8cc5 703e 0d3d 12bf e9c9 cb3e 7b79 7bbe
00000120: aef1 fdbe df91 ef3d a575 48be 9592 763e
00000130: 71d2 05bd 5169 8bbd 90ed 803e 472d ffbe
00000140: 8dc2 3dbf 0f4f cabe 5e50 82be 7add d53e
00000150: cae4 123f d9ce 97be 9d55 f7bd 3ac9 1c3f
00000160: ca85 a43b 1c24 a83d 6c0e af3e 2d91 2e3e
00000170: f1c8 78be dca6 21be 4183 e93e 0a50 c13e
00000180: 9a40 e03e e1ad 74be ef5a 74be 12a1 a9be
00000190: 6690 ea3e 5180 d9bd 1710 06bf ef90 3bbd
000001a0: 7c37 113e 151a d1bd 91fa 4abe db6a 71be
000001b0: d435 373e 5746 cbbd 2cd3 77be 056d e9bd
000001c0: c1f1 51be 690f 44be b6d2 00bd d12f a63d
000001d0: 19b6 413d fceb 74be abb1 473e 2f85 353d
000001e0: 07e3 1bbe d48b 153d 1d35 213e ba65 4bbe
000001f0: 916a 74bd ff35 92bd 9ba3 1fbe eddb 81be
00000200: 26e0 073c fe3b 833d 9bb8 53be 1bb8 cabc
00000210: 1acc 0f3e 7913 923d f533 c03d 65f4 073d
00000220: 60f7 713e 9d4d 54be 3ed9 833c 9193 123e
00000230: dad8 0e3b 6b77 79be ce87 29be 8623 60be
00000240: 3a07 a7be 7736 9d3c ec41 81be bb95 98be
00000250: 89b2 2bbe 4b08 35be
0.5514258 0.02855424 -0.2339044 0.11770277 -0.49169278 -0.5113149 -0.40337208 0.119240485
0.31652644 0.38377744 -0.57218987 -0.14796913 0.57993174 -0.17737456 0.20004506 0.41878158
0.14681695 0.18993446 0.02214846 -0.3552606 -0.58585304 -0.19453274 -0.12591475 0.20422523
0.67587155 -0.5500324 -0.08984221 0.38752326 -0.10861049 0.25510746 0.31989968 0.079392865
0.008078287 0.06394253 0.1788252 0.23672092 0.4293404 -0.093289316 0.45674777 0.56504416
0.351369 -0.12468705 0.1523332 -0.20676218 -0.21129578 0.47230667 -0.19282304 0.048285447
-0.14204006 -0.4242434 -0.66107213 -0.5814473 -0.14496048 0.49999198 0.6931402 -0.49581033
-0.057890102 0.7283824 0.25299427 -0.16196734 0.36764067 -0.057435855 -0.06637702 -0.054552782
0.5722344 0.46326482 0.4930365 -0.100131586 0.23512858 -0.57124406 0.39802483 -0.2455806
-0.4959845 0.116977446 -0.19576128 0.24079354 -0.032671396 -0.06807197 0.25181246 -0.4983923
-0.74124986 -0.39513442 -0.2545194 0.41770536 0.57380354 -0.2965 -0.12076876 0.6124455
0.0050208317 0.08210012 0.3419069 0.17047568 -0.24295403 -0.15786308 0.4560795 0.37756377
0.43799287 -0.23894455 -0.23862813 -0.331307 0.45813292 -0.106201775 -0.523683 -0.045792516
0.14181322 -0.10210053 -0.19822146 -0.23575918 0.17891628 -0.09925526 -0.2420165 -0.11397747
-0.20502378 -0.19146504 -0.03145095 0.08114589 0.047292802 -0.23918146 0.19501369 0.044316467
-0.15223323 0.036510304 0.15742917 -0.19863024 -0.059671942 -0.07139205 -0.15589754 -0.25363103
0.008293187 0.06407927 -0.2067589 -0.024745991 0.14042702 0.0713262 0.0938491 0.033192057
0.23629522 -0.20732732 0.0160948 0.14314105 0.0021796734 -0.2436196 -0.16555712 -0.21888551
-0.326227 0.01919101 -0.25245607 -0.29801735 -0.16767325 -0.17678945

fc3.bias f4 [10]
00000000: f747 a03e c94d 313d 619c af3e 49f9 a03e
00000010: 7548 f53e 0405 d9bd a133 8c3e 3f45 35be
00000020: 0843 293e 0303 27bd
0.31304905 0.043287072 0.34298995 0.3144019 0.47906843 -0.1059666 0.2738314 -0.17702197
0.16529477 -0.040774357

fc4.weight f4 [5, 10]
00000000: 4871 91be 8ae8 1d3e 8aca f8bd 8dda 883e
00000010: 4015 c5bd 031a 8fbd 14c7 293e 4f1b 1bbe
00000020: 1948 0f3e d59a cf3c b16c 38bf b724 2bbf
00000030: fe4a d43e f00d 64bf c1e5 d53e 7097 81bf
00000040: c0f1 d43e 8fc1 393e 6ec0 58be ee02 2e3b
00000050: 6166 48bf e3c9 5fbf fb7a bc3b bb4a f5be
00000060: 1f8f 083f c4f3 67bf e528 a53e 0ccd 5abe
00000070: ace7 f1bc 02ed d3bc 1c53 a93e 409e fb3d
00000080: 9a01 65be a1e4 c33d deb7 dfbd 931f 00be
00000090: 39fd a03d 4c05 60be 7a51 b0bd defe 153d
000000a0: cd76 193f c1b6 f13e d910 ce3e 0a62 213f
000000b0: 90de 703d 310b 923e 4c1b 09be 725a e23c
000000c0: 8ae3 0fbe f7a9 aabe
-0.2840674 0.15420738 -0.12148006 0.2672924 -0.09623194 -0.06987383 0.16579849 -0.15147136
0.13992347 0.025342384 -0.7204085 -0.668529 0.41463464 -0.89083767 0.4177685 -1.012434
0.4159069 0.18140243 -0.21167156 0.002655204 -0.7828122 -0.8741743 0.005751965 -0.47908577
0.53343385 -0.9060633 0.32257763 -0.21367282 -0.029529415 -0.02586985 0.3307122 0.12286043
-0.22363892 0.09565092 -0.10923742 -0.12512045 0.078607984 -0.2187702 -0.086092904 0.036620013
0.599469 0.47209743 0.4024723 0.6304022 0.058806002 0.28524163 -0.13389319 0.027631018
-0.14051643 -0.33332798

fc4.bias f4 [5]
00000000: b66d 97be 42b1 a63e 1314 77bd 548c 85be
00000010: b353 c93e
-0.2957589 0.32557112 -0.06032188 -0.26083624 0.3932167

fc5.weight f4 [4, 5]
00000000: c7f9 99be 5b35 303d d840 3dbf a1a7 be3e
00000010: 80b9 ec3e 6d1c 6bbe af8b 433f 8f2b 533f
00000020: 610f 88be d398 d8be 35a6 943e fe67 f3bd
00000030: 2ab6 443d ac40 15be e07a 61be 232e 34be
00000040: 44ac b2bc af5f ddbd 6d84 d4be e12e d0be
-0.30073377 0.043019634 -0.7392707 0.37237266 0.46235275 -0.22960062 0.76385015 0.8248834
-0.26574233 -0.42304096 0.29033056 -0.11885069 0.048025288 -0.14575452 -0.2201953 -0.17595725
-0.021810658 -0.10809266 -0.41507283 -0.40660766

fc5.bias f4 [4]
00000000: 8ee3 8f3d 7e22 0e3e f4a7 e63d 6480 0dbf
0.070258245 0.13880345 0.11262503 -0.55274034
