Laboratorios/Lab1/checkpoints/modelo_epoch_120.pth (torch, 7862 bytes, 10 tensors)

fc1.weight f4 [20, 24]
0.1878291 0.15747638 0.16692394 0.16949128 0.16442938 0.16720401 0.15504465 0.16038345
0.15628688 0.18025188 0.18418354 0.11279922 0.07038289 0.032183573 -0.13520968 0.027998453
0.13846096 -0.029911192 -0.029400842 0.012471457 0.1830665 0.18119958 0.15676844 0.17355753
0.17486289 0.17409632 0.16340737 0.16763514 0.17658854 0.16012946 0.16876642 0.18309498
0.14234895 0.16034332 0.15820341 0.1216596 0.12036876 0.07975029 0.007400863 0.16729705
0.18242672 0.13226296 0.07506138 0.05460678 0.17280398 0.15117258 0.19938889 0.20235479
0.15464583 0.1488995 0.15163317 0.16774425 0.16783641 0.16337617 0.113046 0.17770204
0.09175967 0.15182582 0.069067836 0.0022732166 -0.027507758 0.04525757 -0.16328749 -0.05546794
0.0002812217 -0.116041735 -0.10717122 -0.034131292 0.15659796 0.14754638 0.15945047 0.16757566
0.12497366 0.12350516 0.123988144 0.13446079 0.15990582 0.14033893 0.1133428 0.1679471
0.1462699 0.1561742 0.15794782 0.072481595 0.017587833 0.0112986695 -0.139162 0.009598404
0.07866722 -0.111866355 -0.08256133 -0.06691836 0.17521676 0.12147454 0.1287852 0.1479284
0.10775438 0.107148364 0.104277916 0.104697175 0.14592615 0.16287449 0.07332856 0.17498176
0.05882343 0.14634328 0.11350083 0.10761914 0.1096425 0.07627231 -0.18040645 -0.07186955
-0.025402738 -0.07167404 -0.05514077 -0.0029775086 0.15764378 0.0932455 0.1315035 0.14248879
-0.0030783138 -0.0010757424 -0.015281683 0.0046510263 -0.0070147337 -0.011997291 -0.012561316 -0.005722119
-0.030381598 -0.00917201 -0.014729061 -0.01685768 0.0028157376 -0.004095602 0.009471071 0.00938443
-0.014006198 0.009557612 -0.025177935 -0.011486473 0.009922253 -0.019748572 -0.01736362 -0.0020528815
0.18167849 0.16661973 0.1620736 0.1868553 0.15021499 0.15454772 0.15208729 0.15963401
0.1333063 0.15783747 0.12605792 0.09048165 0.056819804 0.061223395 -0.15246771 0.06105359
0.13375992 -0.0387874 -0.05374219 -0.014121429 0.17571127 0.16642581 0.19248529 0.17194347
0.09564534 0.10340496 0.13280025 0.122202836 0.15264234 0.15686285 0.103845894 0.16168106
0.08585795 0.16004914 0.12126172 0.06372817 0.017037775 0.045151096 -0.15752046 -0.024453081
0.02337928 -0.08462484 -0.08594993 -0.059257545 0.12838012 0.09505731 0.14181547 0.15186441
-0.0060447287 0.02298056 0.01648086 -0.00036565145 -0.08823323 -0.06801555 0.05167338 -0.12986413
0.040987883 -0.08015747 -0.045918524 0.03733236 0.045496006 0.050204 0.17031354 0.12935331
0.10359936 0.13769977 0.1598605 0.1539142 -0.11078695 -0.046827056 -0.011772757 -0.07266665
0.0025086182 -0.007217059 -0.00438566 -0.009541459 0.0032956642 0.0017746913 -0.014103758 -0.0025758336
-0.0030369195 -0.02170847 -0.008404176 -0.0035137343 -0.0025328747 -0.0019055222 -0.0032330048 -0.019330967
0.0042764903 0.0029533743 -0.005688488 -0.0069235926 -0.029188436 -0.0041527394 -0.006002782 -0.012231428
0.12153952 0.09056996 0.109755546 0.103279635 0.12251537 0.1293953 0.08289903 0.12515073
0.05751197 0.12862673 0.078650355 -0.06389538 -0.06025943 0.019745944 -0.12016319 0.0041403095
00000000: 4656 403e 7d41 213e 1cee 2a3e 1f8f 2d3e
00000010: 2d60 283e 8737 2b3e 06c4 1e3e 8f3b 243e
00000020: ab09 203e f393 383e 9c9a 3c3e 4703 e73d
00000030: e824 903d ecd2 033d 6874 0abe 035d e53c
00000040: b6c8 0d3e 5108 f5bc 09da f0bc 1555 4c3c
00000050: c975 3b3e 628c 393e e887 203e 11b9 313e
00000060: 420f 333e 4e46 323e 4354 273e 8ca8 2b3e
00000070: a0d3 343e faf8 233e 1bd1 2c3e 407d 3b3e
00000080: ecc3 113e 0a31 243e 1300 223e ab28 f93d
00000090: e583 f63d 1f54 a33d f082 f23b eb4f 2b3e
000000a0: 12ce 3a3e f16f 073e c8b9 993d 5cab 5f3d
000000b0: 87f3 303e fccc 1a3e 9a2c 4c3e 1836 4f3e
000000c0: 7a5b 1e3e 1c79 183e ba45 1b3e 26c5 2b3e
000000d0: 4fdd 2b3e 154c 273e a984 e73d 86f7 353e
000000e0: 7eec bb3d 3a78 1b3e 7073 8d3d 3ffa 143b
000000f0: f357 e1bc 0060 393d d634 27be 5a32 63bd
00000100: f070 9339 4aa7 edbd 967c dbbd 41cd 0bbd
00000110: 375b 203e 6616 173e fc46 233e f498 2b3e
00000120: 31f2 ff3d 46f0 fc3d 7fed fd3d 17b0 093e
00000130: 5abe 233e 02b5 0f3e 4520 e83d 53fa 2b3e
00000140: c7c7 153e 21ec 1f3e 13bd 213e 3b71 943d
00000150: 5c14 903c 0e1e 393c 7c80 0ebe a042 1d3c
00000160: 481c a13d 301a e5bd ea15 a9bd 7e0c 89bd
00000170: 066c 333e a5c7 f83d 44e0 033e 8b7a 173e
00000180: 54ae dc3d 9a70 db3d a98f d53d 796b d63d
00000190: aa6d 153e 92c8 263e 492d 963d 6b2e 333e
000001a0: d6f0 703d 03db 153e 2073 e83d 6c67 dc3d
000001b0: 3f8c e03d a834 9c3d 78bc 38be 5830 93bd
000001c0: 6719 d0bc d7c9 92bd 4adb 61bd 4e22 43bb
000001d0: 5f6d 213e 7ff7 be3d daa8 063e 95e8 113e
000001e0: 89bd 49bb edff 8cba 0660 7abc a367 983b
000001f0: dadb e5bb 4990 44bc facd 4dbc 9d80 bbbb
00000200: d4e2 f8bc 3346 16bc 2952 71bc 1e19 8abc
00000210: 3d88 383b 6634 86bb 8d2c 1b3c 27c1 193c
00000220: 417a 65bc 8897 1c3c f541 cebc c231 3cbc
00000230: f290 223c c2c7 a1bc 273e 8ebc a389 06bb
00000240: ed09 3a3e 5d9e 2a3e 9ff6 253e ff56 3f3e
00000250: f5d1 193e c241 1e3e c5bc 1b3e 1977 233e
00000260: 7281 083e 25a0 213e 5415 013e 714e b93d
00000270: e2bb 683d 62c5 7a3d 7f20 1cbe 5413 7a3d
00000280: 5cf8 083e 89df 1ebd c520 5cbd 915d 67bc
00000290: a8ed 333e 876b 2a3e dd1a 453e f311 303e
000002a0: b4e1 c33d fbc5 d33d cafc 073e 7b45 fa3d
000002b0: 464e 1c3e a8a0 203e 28ad d43d b88f 253e
000002c0: 4bd6 af3d ece3 233e 1158 f83d ea83 823d
000002d0: ce92 8b3c 5bf0 383d 0b4d 21be d451 c8bc
000002e0: e785 bf3c ca4f adbd 8406 b0bd 0ab8 72bd
000002f0: 1476 033e 68ad c23d 1338 113e 5882 1b3e
00000300: dc12 c6bb ba41 bc3c de02 873c e8b4 bfb9
00000310: a0b3 b4bd bd4b 8bbd 77a7 533d 1afb 04be
00000320: e9e2 273d 9a29 a4bd 1015 3cbd d1e9 183d
00000330: 055a 3a3d b6a2 4d3d ac66 2e3e 3275 043e
00000340: e72b d43d 2b01 0d3e 79b2 233e af9b 1d3e
00000350: 45e4 e2bd bacd 3fbd 86e2 40bc 41d2 94bd
00000360: a167 243b 147d ecbb 95b5 8fbb c853 1cbc
00000370: 12fc 573b c29c e83a 7313 67bc 51cf 28bb
00000380: 0e07 47bb f6d5 b1bc abb1 09bc ae46 66bb
00000390: 96fe 25bb b7c2 f9ba d2e0 53bb fa5b 9ebc
000003a0: cd21 8c3b 668d 413b 7f66 babb 4edf e2bb
000003b0: 961c efbc b413 88bb fcb2 c4bb 5466 48bc
000003c0: b6e9 f83d be7c b93d 84c7 e03d 4684 d33d
000003d0: 57e9 fa3d 3480 043e f7c6 a93d 8327 003e
000003e0: ac91 6b3d bab6 033e 7013 a13d 95db 82bd
000003f0: 98d2 76bd 3fc2 a13c 1e18 f6bd 6fab 873b

fc1.bias f4 [20]
0.17237322 0.165962 0.16096313 0.14527646 0.14026345 -0.010014363 0.16184632 0.14085701
0.0108323805 -0.005297855 0.11005228 -0.0043236883 0.15261494 0.11400687 0.03482735 0.11232419
0.0 0.10956047 -0.007596199 -0.010177684
00000000: 9b82 303e f1f1 293e 85d3 243e 5ac3 143e
00000010: 39a1 0f3e 4813 24bc 0bbb 253e d23c 103e
00000020: 4c7a 313c a199 adbb 1763 e13d baad 8dbb
00000030: 1747 1c3e 6f7c e93d 20a7 0e3d 3a0a e63d
00000040: 0000 0000 3d61 e03d 89e9 f8bb 4dc0 26bc

fc2.weight f4 [15, 20]
0.32912853 0.3443891 0.27155516 0.0070580747 0.007621261 0.15955974 0.19776247 -0.06865409
-0.026097592 -0.106134355 0.21131106 0.13884407 0.08047687 0.30852717 0.09873401 0.11909698
0.14740482 0.0322146 0.1039302 -0.05878324 0.10545921 -0.019093378 -0.20815244 0.06325119
-0.119568266 0.19734831 -0.14598413 0.1468852 -0.025166683 -0.1421413 0.10007001 -0.05320126
-0.034565885 0.16649212 -0.019133976 -0.0010839133 -0.11522392 0.023392912 0.0756599 0.18389218
0.04220984 -0.0557786 -0.10866023 -0.12088153 -0.20567997 0.16430515 0.04737604 -0.04198177
-0.22336383 0.18327026 -0.11061177 0.05589146 -0.1316498 0.092871845 0.057390276 0.047543254
0.13444768 0.18902569 0.093891494 0.15762952 -0.114260204 0.06763093 -0.09264095 0.17438693
-0.16408856 -0.16594039 0.17860186 0.019134989 -0.06492737 -0.00580949 -0.016584115 -0.05513462
-0.050438125 0.10778346 -0.15671413 -0.026543226 -0.081547685 -0.16379431 -0.04084516 -0.08868454
0.02848276 0.10355162 0.14739446 0.17293468 0.07524517 0.16087158 0.09692981 0.34951067
-0.21859348 -0.19221587 0.29263666 -0.05487798 0.061360996 0.26597893 -0.15852936 0.31996447
-0.16025501 0.03245211 -0.18399817 -0.18318766 0.124578 0.067422576 -0.047198772 0.1858116
0.11858417 0.18553565 0.16134368 0.2742954 -0.18008715 -0.044371765 0.26312935 -0.12844256
0.3406533 0.10484684 0.011556314 -0.0064527825 0.008479223 0.26490512 -0.1526591 -0.012662141
0.097687535 0.17813876 0.14307977 0.06471622 0.15915857 -0.08289261 0.28696385 0.30453816
-0.2126706 -0.09315144 0.07707535 -0.08748446 0.15367399 -0.04288812 -0.00052061374 -0.098800994
-0.016450888 0.13292503 0.04763442 0.21908708 -0.21030171 -0.18056934 -0.09933446 -0.07652526
0.039506707 -0.1453959 -0.11692804 -0.051186863 -0.0054227114 -0.0032515265 -0.21124843 -0.20101489
0.14799511 0.15726167 0.20670246 0.02677612 -0.15566096 0.18327926 -0.14471255 0.13100804
0.035652556 0.20498975 -0.17021309 0.009473401 -0.02874713 0.1172179 -0.07307302 0.19086437
0.2142193 -0.19734526 0.205077 0.22275235 -0.07705474 -0.19932255 0.1531132 0.2908298
0.007081861 -0.07117412 -0.16990377 -0.05477272 0.20801763 0.22772707 -0.19002868 0.14406802
0.030648658 -0.10963737 -0.17239009 -0.23595934 -0.011274274 0.19570422 -0.11472556 0.11908919
-0.017424993 -0.2666941 0.20788777 0.3235217 0.092672564 -0.20862992 -0.03939995 -0.2143986
0.3201858 0.39699534 0.22401805 0.3291414 0.13956745 -0.06295052 0.2609008 0.17479019
-0.29503354 0.11249461 0.07658867 0.016184648 0.30868918 0.10703764 -0.35885093 0.25462374
0.06603394 0.2697607 -0.07005538 -0.16454194 -0.0880469 -0.078291066 0.07432937 -0.038890928
-0.091771625 -0.1852882 -0.1420741 -0.12991151 -0.06679713 0.045675922 -0.14463516 -0.18631558
0.18170308 0.008978809 -0.19831006 0.009875038 0.028006827 0.09854065 0.062183026 -0.13840462
-0.14552596 0.2714819 -0.04536169 -0.12711172 -0.15169013 0.14513385 0.19569239 -0.18856074
0.099694155 -0.0641882 -0.2356967 0.18705253 0.016170217 -0.07358691 0.175507 0.24797732
00000000: 8983 a83e c553 b03e 4709 8b3e 6c47 e73b
00000010: c5bb f93b a163 233e 3f82 4a3e 849a 8cbd
00000020: 9eca d5bc f85c d9bd ed61 583e 242d 0e3e
00000030: 0fd1 a43d 46f7 9d3e 0e35 ca3d 1ee9 f33d
00000040: 4af1 163e 75f3 033d 5bd9 d43d b2c6 70bd
00000050: 00fb d73d b769 9cbc ea25 55be d789 813d
00000060: 35e0 f4bd ad15 4a3e dd7c 15be 1369 163e
00000070: 5c2a cebc 7d8d 11be 81f1 cc3d 90e9 59bd
00000080: f594 0dbd e97c 2a3e dbbe 9cbc 1812 8eba
00000090: 85fa ebbd 7ea2 bf3c 94f3 9a3d 3b4e 3c3e
000000a0: 3ae4 2c3d 1a78 64bd 4189 debd bc90 f7bd
000000b0: c59d 52be 9c3f 283e 610d 423d 14f5 2bbd
000000c0: 7db9 64be 33ab 3b3e 6c88 e2bd 72ee 643d
000000d0: 35cf 06be 9833 be3d 1112 6b3d b7bc 423d
000000e0: a7ac 093e f38f 413e 2f4a c03d a269 213e
000000f0: 4101 eabd 1682 8a3d 8aba bdbd 7d92 323e
00000100: d506 28be 47ec 29be 68e3 363e fbc0 9c3c
00000110: a4f8 84bd 895d bebb 69db 87bc d7d4 61bd
00000120: 3598 4ebd 93bd dc3d ab79 20be 2e71 d9bc
00000130: 7902 a7bd b2b9 27be 414d 27bd 3da0 b5bd
00000140: ad54 e93c df12 d43d 93ee 163e ca15 313e
00000150: 241a 9a3d 85bb 243e 2383 c63d 10f3 b23e
00000160: f8d6 5fbe 3dd4 44be 79d4 953e bcc7 60bd
00000170: ab55 7b3d 642e 883e 8555 22be 62d2 a33e
00000180: e419 24be 81ec 043d 046a 3cbe 8c95 3bbe
00000190: c022 ff3d d914 8a3d 8053 41bd 6545 3e3e
000001a0: 42dc f23d 0ffd 3d3e 4737 253e 7270 8c3e
000001b0: c468 38be 2bbf 35bd e4b8 863e 7286 03be
000001c0: 1c6a ae3e f1b9 d63d b256 3d3c dd71 d3bb
000001d0: 70ec 0a3c a5a1 873e ab52 1cbe de74 4fbc
000001e0: 6710 c83d 026a 363e 8183 123e f089 843d
000001f0: 77fa 223e 9ac3 a9bd edec 923e 6dec 9b3e
00000200: 52c6 59be 2fc6 bebd aed9 9d3d 0d2b b3bd
00000210: b75c 1d3e 74ab 2fbd cc79 08ba 2d58 cabd
00000220: 03c4 86bc 801d 083e 4f1c 433d 5d58 603e
00000230: 5559 57be 2be7 38be de6f cbbd 47b9 9cbd
00000240: c9d1 213d aae2 14be f877 efbd 51a9 51bd
00000250: 00b1 b1bb 9017 55bb 8251 58be d9d6 4dbe
00000260: 088c 173e 3409 213e cfa9 533e 9859 db3c
00000270: 9665 1fbe 8fad 3b3e 872f 14be f926 063e
00000280: 6a08 123d d5e8 513e 574c 2ebe 5336 1b3c
00000290: 1a7f ebbc f00f f03d 4fa7 95bd f371 433e
000002a0: 4e5c 5b3e e014 4abe b5ff 513e 3119 643e
000002b0: e0ce 9dbd 361b 4cbe b5c9 1c3e a5e7 943e
000002c0: f50e e83b bdc3 91bd 41fb 2dbe 5c59 60bd
000002d0: 9302 553e 4931 693e e196 42be 9186 133e
000002e0: e512 fb3c 8f89 e0bd 0787 30be 539f 71be
000002f0: bcb7 38bc b066 483e 3cf5 eabd 09e5 f33d
00000300: dcbe 8ebc 218c 88be 88e0 543e a3a4 a53e
00000310: 1dcb bd3d 15a3 55be d861 21bd 4e8b 5bbe
00000320: 65ef a33e f942 cb3e fd64 653e 3985 a83e
00000330: c5ea 0e3e 34ec 80bd ca94 853e 33fc 323e
00000340: a30e 97be 9363 e63d 85da 9c3d ab95 843c
00000350: 820c 9e3e 8d36 db3d 4fbb b7be 0b5e 823e
00000360: cd3c 873d 131e 8a3e 3279 8fbd af7d 28be
00000370: ef51 b4bd 1157 a0bd ff39 983d 184c 1fbd
00000380: c3f2 bbbd 31bc 3dbe df7b 11be 8607 05be
00000390: efcc 88bd ad16 3b3d 3d1b 14be 83c9 3ebe
000003a0: 5f10 3a3e db1b 133c cb11 4bbe e9ca 213c
000003b0: 936e e53c aecf c93d a1b3 7e3d f1b9 0dbe
000003c0: c204 15be adff 8a3e 2ecd 39bd 9329 02be
000003d0: a854 1bbe f89d 143e 9663 483e 1116 41be
000003e0: 732c cc3d 1a75 83bd 7a5a 71be b38a 3f3e
000003f0: 6777 843c bcb4 96bd 1bb8 333e c4ed 7d3e

fc2.bias f4 [15]
-0.06391212 -0.19513658 -0.08637666 -0.11674324 0.14566362 0.051294185 0.06491909 -0.12923293
0.27400947 0.17873503 0.36937085 -0.057250228 0.17593604 -0.094960146 0.030997813
00000000: 5ce4 82bd e2d1 47be 3fe6 b0bd 1417 efbd
00000010: d828 153e da19 523d 4df4 843d a355 04be
00000020: f84a 8c3e 5106 373e 2d1e bd3e 377f 6abd
00000030: 9428 343e 777a c2bd 20ef fd3c

fc3.weight f4 [10, 15]
0.22920547 0.02855424 -0.2339044 0.11770277 -0.028037064 -1.43339275e-05 0.07011972 0.119240485
-0.059267964 -0.046378672 -0.17861918 -0.14796913 0.13138446 -0.1848384 0.20002027 0.21115762
0.14681695 0.18993446 0.02214846 0.04672166 -0.11352708 0.20848936 -0.12591475 -0.120467275
0.24274614 -0.21658167 -0.08984221 -0.10424729 -0.11115149 0.25510746 0.08336761 0.079392865
0.008078287 0.06394253 0.021705892 0.096413225 0.2652322 -0.093289316 0.1661763 0.25393414
0.19940662 -0.12468705 -0.16995764 -0.21310237 -0.21128513 0.18940286 -0.19282304 0.048285447
-0.14204006 0.035641316 -0.16004357 -0.11462368 -0.14496048 0.14748815 0.28425097 -0.102092326
-0.057890102 0.3006922 0.24498494 -0.16200276 0.19045196 -0.057435855 -0.06637702 -0.054552782
0.31500304 0.18531233 0.22855048 -0.100131586 0.13910797 -0.22710115 0.17715736 -0.2455806
-0.010217251 0.11596478 -0.19572407 0.0068604196 -0.032671396 -0.06807197 0.25181246 -0.02852813
-0.21212405 0.07794211 -0.2545194 0.029626312 0.07291499 0.108555265 -0.12076876 0.06679143
0.0061761327 0.082030214 0.23776855 0.17047568 -0.24295403 -0.15786308 0.23522545 0.13079503
0.20963913 -0.23894455 -0.19364408 -0.027665704 0.27750576 -0.106201775 -0.06913713 -0.041060057
0.14184771 -0.10210053 -0.19822146 -0.23575918 0.17891628 -0.09925526 -0.2420165 -0.11397747
-0.20502378 -0.19146504 -0.03145095 0.08114589 0.047292802 -0.23918146 0.19501369 0.044316467
-0.0726483 0.036510304 0.15742917 -0.19863024 -0.020701801 -0.03631915 -0.09620045 -0.25363103
0.08982595 0.14675412 -0.18630068 -0.024745991 0.22031195 0.074372835 0.09387082 0.03841671
0.23629522 -0.20732732 0.0160948 0.14767995 0.0066520427 -0.23853762 -0.16555712 -0.21609533
-0.32516798 0.02257892 -0.25245607 -0.29767555 -0.16767325 -0.1767899
00000000: d7b4 6a3e 95ea e93c a384 6fbe 260e f13d
00000010: fcad e5bc c07b 70b7 ee9a 8f3d 5b34 f43d
00000020: f7c2 72bd 90f7 3dbd f2e7 36be 3885 17be
00000030: a689 063e 4746 3dbe 1dd2 4c3e b439 583e
00000040: 2f57 163e 2e7e 423e b070 b53c 365f 3f3d
00000050: e380 e8bd 3c7e 553e ccef 00be 8cb7 f6bd
00000060: 7292 783e 96c7 5dbe 31ff b7bd 9a7f d5bd
00000070: 64a3 e3bd 729d 823e a3bc aa3d ba98 a23d
00000080: cb5a 043c 4df4 823d 8ed0 b13c 4c74 c53d
00000090: 84cc 873e 780e bfbd 1f2a 2a3e a803 823e
000000a0: 4031 4c3e ed5b ffbd 6009 2ebe 8237 5abe
000000b0: 215b 58be d3f2 413e 6773 45be f6c6 453d
000000c0: f372 11be a1fc 113d 76e2 23be d2bf eabd
000000d0: 8570 14be 2207 173e 5889 913e c815 d1bd
000000e0: 2c1e 6dbd 54f4 993e 55dd 7a3e 0de4 25be
000000f0: d705 433e dc41 6bbd adf0 87bd bd72 5fbd
00000100: 1448 a13e 84c2 3d3e 2309 6a3e ca11 cdbd
00000110: 5272 0e3e 348d 68be bd68 353e 7b79 7bbe
00000120: 4266 27bc f17e ed3d e46b 48be 5fcd e03b
00000130: 71d2 05bd 5169 8bbd 90ed 803e d3b3 e9bc
00000140: 0c37 59be 1da0 9f3d 5e50 82be e1b2 f23c
00000150: 7454 953d 3952 de3d 9d55 f7bd f2c9 883d
00000160: 2861 ca3b 75ff a73d 9979 733e 2d91 2e3e
00000170: f1c8 78be dca6 21be f1de 703e 22ef 053e
00000180: a4ab 563e e1ad 74be a24a 46be 30a3 e2bc
00000190: 3c15 8e3e 5180 d9bd c597 8dbd 972e 28bd
000001a0: 8740 113e 151a d1bd 91fa 4abe db6a 71be
000001b0: d435 373e 5746 cbbd 2cd3 77be 056d e9bd
000001c0: c1f1 51be 690f 44be b6d2 00bd d12f a63d
000001d0: 19b6 413d fceb 74be abb1 473e 2f85 353d
000001e0: a2c8 94bd d48b 153d 1d35 213e ba65 4bbe
000001f0: d396 a9bc 64c3 14bd be04 c5bd eddb 81be
00000200: abf6 b73d b646 163e 9bc5 3ebe 1bb8 cabc
00000210: 7599 613e c950 983d 583f c03d d75a 1d3d
00000220: 60f7 713e 9d4d 54be 3ed9 833c 6a39 173e
00000230: 61f9 d93b 3543 74be ce87 29be 1848 5dbe
00000240: 6b7c a6be 6df7 b83c ec41 81be ee68 98be
00000250: 89b2 2bbe 6908 35be

fc3.bias f4 [10]
0.16257028 -0.020782635 0.21719068 0.19256404 0.3650053 -0.15734601 0.19711955 -0.17702197
0.17321254 -0.038997117
00000000: d378 263e 5840 aabc 3c67 5e3e 822f 453e
00000010: fae1 ba3e 501f 21be b5d9 493e 3f45 35be
00000020: a15e 313e 71bb 1fbd

fc4.weight f4 [5, 10]
-0.25373736 0.18535827 -0.085570686 0.29712105 -0.06653893 -0.03717012 0.19410224 -0.15147136
0.15899411 0.028180711 -0.07221762 0.09977228 0.25879622 -0.36620408 0.24602816 -0.28542867
0.2484894 0.18140243 -0.21290307 5.0500064e-05 -0.1816759 -0.16191746 -0.110567234 0.046579286
0.16678627 -0.27079108 -0.056484874 -0.21367282 -0.029529415 -0.032239646 0.3098611 0.095614456
-0.2324083 0.075211555 -0.0883471 -0.14977486 0.0903754 -0.2187702 -0.085329466 0.036620013
0.20537399 0.017753398 0.1308309 0.25896484 -0.05071095 -0.1681122 -0.17200981 0.027631018
-0.15191764 -0.33316183
00000000: dde9 81be 8fce 3d3e af3f afbd 4020 983e
00000010: 9045 88bd b23f 18bd bdc2 463e 4f1b 1bbe
00000020: 5acf 223e 3cdb e63c d5e6 93bd 6955 cc3d
00000030: f080 843e 1a7f bbbe ceee 7b3e b523 92be
00000040: 0174 7e3e 8fc1 393e 4303 5abe 08d0 5338
00000050: 3f09 3abe b1cd 25be 1371 e2bd ecc9 3e3d
00000060: 05ca 2a3e 21a5 8abe af5c 67bd 0ccd 5abe
00000070: ace7 f1bc b80d 04bd 1da6 9e3e 83d1 c33d
00000080: 71fc 6dbe 8408 9a3d 53ef b4bd 955e 19be
00000090: bd16 b93d 4c05 60be 37c1 aebd defe 153d
000000a0: 8f4d 523e 936f 913c 89f8 053e 0a97 843e
000000b0: 49b6 4fbd 9b25 2cbe 5723 30be 725a e23c
000000c0: 4c90 1bbe 3094 aabe

fc4.bias f4 [5]
-0.2673967 0.2625249 -0.08788444 -0.26048142 0.25005132
00000000: 38e8 88be aa69 863e c2fc b3bd d25d 85be
00000010: ba06 803e

fc5.weight f4 [4, 5]
-0.30091336 0.25456098 -0.12972827 0.35603902 0.12828663 -0.22778863 0.48715088 0.2461089
-0.26543152 -0.08957669 0.2901842 0.01830761 0.35369414 -0.12151978 0.02989763 -0.17844939
0.09425363 0.069446325 -0.4149476 -0.20832792
00000000: 5111 9abe d155 823e 7dd7 04be bf4a b63e
00000010: 925d 033e 6c41 69be d76b f93e f903 7c3e
00000020: a4e6 87be fc73 b7bd 0693 943e d7f9 953c
00000030: 6617 b53e 5ddf f8bd e0eb f43c 70bb 36be
00000040: 0c08 c13d e039 8e3d 0374 d4be ea53 55be

fc5.bias f4 [4]
0.0013355764 0.1289575 0.1500569 -0.50593597
00000000: 820e af3a 6f0d 043e 84a8 193e 0585 01bf
