Laboratorios/Lab1/checkpoints/modelo_epoch_100.pth (torch, 7862 bytes, 10 tensors)

fc1.weight f4 [20, 24]
0.14289147 0.11243203 0.122211814 0.1247684 0.12025522 0.12284223 0.10979139 0.116128825
0.11105648 0.13558067 0.13934311 0.067600146 0.02498391 -0.013010839 -0.11884224 -0.01777416
0.09278248 -0.07505804 -0.072806574 -0.033501472 0.13894926 0.13625221 0.11209493 0.12926026
0.13127021 0.13025802 0.11973488 0.12403276 0.13301459 0.1164725 0.12465812 0.1392424
0.0981631 0.116296045 0.11405892 0.07672766 0.07525936 0.03479103 -0.026981568 0.123588555
0.139268 0.08770791 0.029957933 0.009800468 0.12896946 0.107400596 0.1557172 0.15876353
0.10876736 0.10272614 0.10574825 0.12186964 0.12264375 0.11802704 0.066888325 0.13239722
0.045586996 0.106123835 0.02327554 -0.043055218 -0.07251857 4.0740008e-05 -0.13106579 -0.0954731
-0.03627803 -0.13760047 -0.13015956 -0.071874395 0.111949176 0.10167174 0.11381299 0.12240301
0.079761334 0.07794023 0.07928335 0.089669116 0.11616563 0.09638429 0.06742876 0.123784125
0.10015266 0.11123917 0.11257321 0.026908688 -0.027909042 -0.03204398 -0.113345295 -0.03128637
0.037545998 -0.13580765 -0.101643674 -0.1011536 0.13056801 0.075935386 0.08380933 0.10370746
0.06216438 0.06086423 0.057977337 0.05820386 0.09951963 0.11652036 0.027202345 0.12879403
0.012333468 0.099973574 0.06727968 0.06146002 0.06330837 0.031163992 -0.14521763 -0.10482154
-0.050264355 -0.0865467 -0.07064464 -0.03207368 0.111461 0.046707593 0.08499326 0.09614311
-0.0030778663 -0.0010752889 -0.015281258 0.0046514883 -0.007014294 -0.011996878 -0.012560896 -0.0057217223
-0.03038117 -0.009171575 -0.014728622 -0.016857484 0.0028162159 -0.0040956 0.0094707515 0.009384162
-0.014005776 0.009557864 -0.025177492 -0.011486069 0.009922741 -0.019748075 -0.017363211 -0.002052434
0.13648617 0.121351615 0.11712509 0.14202717 0.10586636 0.109999396 0.106565006 0.115157865
0.0877972 0.113077246 0.081143625 0.045231834 0.011173321 0.015775973 -0.124770254 0.015498598
0.0879911 -0.08255648 -0.093264826 -0.05865507 0.13131596 0.12149337 0.14771493 0.12741253
0.050058205 0.05775651 0.08750389 0.07698945 0.10820598 0.112175 0.05796299 0.11709121
0.04000059 0.115018606 0.07623887 0.019146195 -0.027765706 0.002283499 -0.1263746 -0.062216572
-0.013070568 -0.10333146 -0.10318555 -0.09053645 0.08338339 0.049731683 0.096547745 0.10695915
-0.0115244435 0.014404528 0.0038532987 -0.015099229 -0.087714486 -0.07702781 0.036154766 -0.104722954
0.056109432 -0.055032566 -0.011275077 0.05835234 0.072738156 0.07164167 0.13594669 0.09522093
0.063003145 0.10230173 0.1343143 0.13726674 -0.07333212 -0.0139620155 -0.016834939 -0.074992314
0.0025088063 -0.0072168796 -0.00438554 -0.009541274 0.003295742 0.0017748766 -0.014103532 -0.0025756734
-0.0030366809 -0.021708282 -0.008403982 -0.0035135255 -0.0025326815 -0.0019053218 -0.0032327606 -0.019330783
0.004276558 0.002953462 -0.005688276 -0.006923386 -0.029188253 -0.004152511 -0.006002585 -0.012231243
0.07607302 0.044840645 0.06404063 0.057472963 0.0766991 0.083476275 0.037037462 0.07909959
0.011666765 0.08250466 0.032972053 -0.10758995 -0.103023104 -0.02108121 -0.08572015 -0.034550976
00000000: 2452 123e c442 e63d 304a fa3d 9386 ff3d
00000010: 5e48 f63d b594 fb3d 4fda e03d f3d4 ed3d
00000020: 9471 e33d a9d5 0a3e f6af 0e3e f271 8a3d
00000030: 0fab cc3c 6a2b 55bc 8f63 f3bd 1d9b 91bc
00000040: be04 be3d 08b8 99bd 9d1b 95bd d738 09bd
00000050: b748 0e3e b385 0b3e 0792 e53d cd5c 043e
00000060: b36b 063e 5c62 053e 9037 f53d e304 fe3d
00000070: fa34 083e 2289 ee3d c24c ff3d 8f95 0e3e
00000080: bc09 c93d 9f2c ee3d b997 e93d 6423 9d3d
00000090: 9421 9a3d 0a81 0e3d 7308 ddbc ff1b fd3d
000000a0: 459c 0e3e 34a0 b33d 576a f53c 2492 203c
000000b0: 9210 043e d8f4 db3d 5474 1f3e e892 223e
000000c0: 6cc1 de3d 1562 d23d 8a92 d83d ca96 f93d
000000d0: a52c fb3d 29b8 f13d bffc 883d 2393 073e
000000e0: 6eb9 3a3d 7457 d93d 58ac be3c ab5a 30bd
000000f0: 9e84 94bd 40e0 2a38 1c36 06be 6787 c3bd
00000100: 4698 14bd 23e7 0cbe 8c48 05be e232 93bd
00000110: 9c45 e53d 4639 d03d c916 e93d 6eae fa3d
00000120: e959 a33d 219f 9f3d 4f5f a23d 71a4 b73d
00000130: 3fe8 ed3d 2065 c53d 1718 8a3d 8882 fd3d
00000140: d61c cd3d 5dd1 e33d c88c e63d 9c6f dc3c
00000150: 81a1 e4bc 8c40 03bd 9421 e8bd 2326 00bd
00000160: d5c9 193d 2911 0bbe 8f2a d0bd 9e29 cfbd
00000170: 9fb3 053e 0384 9b3d 3aa4 ab3d 9464 d43d
00000180: 14a0 7e3d c54c 793d a579 6d3d 2c67 6e3d
00000190: f3d0 cb3d 3aa2 ee3d 74d7 de3c 95e2 033e
000001a0: 5012 4a3c f2be cc3d eec9 893d 80bd 7b3d
000001b0: d2a7 813d a14b ff3c eeb3 14be adac d6bd
000001c0: ffe1 4dbd 653f b1bd 23ae 90bd b15f 03bd
000001d0: aa45 e43d 7650 3f3d f210 ae3d aee6 c43d
000001e0: 07b6 49bb b5f0 8cba 3e5e 7abc 836b 983b
000001f0: 2ad8 e5bb 8e8e 44bc 37cc 4dbc 497d bbbb
00000200: eee1 f8bc 6044 16bc 5150 71bc b518 8abc
00000210: 4390 383b 6234 86bb 362b 1b3c 07c0 193c
00000220: 7b78 65bc 9698 1c3c 0741 cebc 1130 3cbc
00000230: fe92 223c b7c6 a1bc 4b3d 8ebc 2182 06bb
00000240: 08c3 0b3e 3287 f83d 47df ef3d 926f 113e
00000250: 76d0 d83d 5d47 e13d c13e da3d e3d7 eb3d
00000260: 05cf b33d 0b95 e73d a12e a63d 0445 393d
00000270: 4e10 373c 9d3c 813c 8c87 ffbd d5ed 7d3c
00000280: ae34 b43d 5f13 a9bd a101 bfbd 4c40 70bd
00000290: b177 063e 84d1 f83d 9542 173e 6e78 023e
000002a0: d509 4d3d 1792 6c3d 3d35 b33d a5ac 9d3d
000002b0: 199b dd3d 02bc e53d 9a6a 6d3d 84cd ef3d
000002c0: a9d7 233d e08e eb3d 2023 9c3d 7bd8 9c3c
000002d0: e874 e3bc c2a6 153b 5868 01be ced6 7ebd
000002e0: f025 56bc 729f d3bd f252 d3bd 2d6b b9bd
000002f0: e9c4 aa3d 73b3 4b3d d3ba c53d 660d db3d
00000300: 05d1 3cbc f800 6c3c a087 7c3b c262 77bc
00000310: a7a3 b3bd c2c0 9dbd 0517 143d fd78 d6bd
00000320: 01d3 653d d469 61bd 1abb 38bc dd02 6f3d
00000330: bef7 943d deb8 923d 9c35 0b3e 3103 c33d
00000340: cb07 813d 9283 d13d b089 093e a78f 0c3e
00000350: 272f 96bd f0c0 64bc 6de9 89bc 9295 99bd
00000360: c96a 243b 937b ecbb 93b4 8fbb 0153 1cbc
00000370: 60fd 573b faa2 e83a 8012 67bc a1cc 28bb
00000380: 0d03 47bb 91d5 b1bc dbb0 09bc 2d43 66bb
00000390: 58fb 25bb febb f9ba b9dc 53bb 975b 9ebc
000003a0: 5e22 8c3b df8e 413b b864 babb 92dd e2bb
000003b0: 341c efbc c911 88bb 55b1 c4bb 8d65 48bc
000003c0: 2ccc 9b3d d3aa 373d bc27 833d c568 6b3d
000003d0: 6b14 9d3d 9cf5 aa3d 98b4 173d f7fe a13d
000003e0: f625 3f3c 34f8 a83d b40d 073d 1f58 dcbd
000003f0: c7fd d2bd 80b2 acbc 0c8e afbd 5385 0dbd

fc1.bias f4 [20]
0.12745893 0.12192266 0.11503153 0.099795885 0.09377903 -0.010013905 0.11675605 0.09525629
0.01368215 -0.0052976473 0.064123034 -0.0043235966 0.10685995 0.06814701 0.037821136 0.067043565
0.0 0.06499228 -0.007595873 -0.010177212
00000000: 9884 023e 96b2 f93d a795 eb3d c961 cc3d
00000010: 380f c03d 5d11 24bc cc1d ef3d bb15 c33d
00000020: 192b 603c e397 adbb f052 833d f5ac 8dbb
00000030: 64d9 da3d a990 8b3d 56ea 1a3d 234e 893d
00000040: 0000 0000 ac1a 853d cde6 f8bb 52be 26bc

fc2.weight f4 [15, 20]
0.2836169 0.29899094 0.22571552 -0.038710948 -0.038406864 0.15955974 0.15216215 -0.11472337
-0.06729533 -0.106134355 0.16473904 0.13884407 0.03461242 0.26192358 0.057579707 0.07294015
0.14740482 -0.013774705 0.1039302 -0.05878324 0.10545921 -0.019093378 -0.20815244 0.06325119
-0.119568266 0.19734831 -0.14598413 0.1468852 -0.025166683 -0.1421413 0.10007001 -0.05320126
-0.034565885 0.16649212 -0.019133976 -0.0010839133 -0.11522392 0.023392912 0.0756599 0.18389218
0.04220984 -0.0557786 -0.10866023 -0.12088153 -0.20567997 0.16430515 0.04737604 -0.04198177
-0.22336383 0.18327026 -0.11061177 0.05589146 -0.1316498 0.092871845 0.057390276 0.047543254
0.13444768 0.18902569 0.093891494 0.15762952 -0.114260204 0.06763093 -0.09264095 0.17438693
-0.16408856 -0.16594039 0.17860186 0.019134989 -0.06492737 -0.00580949 -0.016584115 -0.05513462
-0.050438125 0.10778346 -0.15671413 -0.026543226 -0.081547685 -0.16379431 -0.04084516 -0.08868454
-0.017533585 0.057564788 0.10129174 0.12685531 0.028940037 0.16087139 0.050845157 0.30334672
-0.19396108 -0.19221587 0.2461709 -0.05487798 0.015261333 0.21964325 -0.13747235 0.27375802
-0.16025501 -0.013622252 -0.18399842 -0.18318802 0.07810087 0.021245623 -0.09378859 0.13930224
0.07195086 0.18553549 0.114818245 0.22773828 -0.14921367 -0.044371765 0.21641028 -0.12844256
0.29411703 0.058217775 0.039415784 -0.0523022 0.008479223 0.21840532 -0.15265921 -0.012662141
0.053029273 0.13351145 0.09797354 0.019842887 0.11394396 -0.08289261 0.24212874 0.25915214
-0.17497648 -0.09315144 0.030914994 -0.08748446 0.108543746 -0.08902353 0.029149797 -0.14441259
-0.016450888 0.08790052 0.04763442 0.21908708 -0.21030171 -0.18056934 -0.09933446 -0.07652526
0.039506707 -0.1453959 -0.11692804 -0.051186863 -0.0054227114 -0.0032515265 -0.21124843 -0.20101489
0.14799511 0.15726167 0.20670246 0.02677612 -0.15566096 0.18327926 -0.14471255 0.13100804
-0.008692065 0.1611989 -0.21540041 -0.03537259 -0.07437338 0.11721812 -0.11757719 0.14536427
0.17614962 -0.19734526 0.1591352 0.22275235 -0.122094005 -0.24413057 0.114791006 0.24614602
0.007081861 -0.1166239 -0.1699035 -0.05477301 0.17856854 0.19447747 -0.21300074 0.11920866
0.011967543 -0.10963707 -0.20160344 -0.2576402 -0.04688735 0.19570422 -0.13217482 0.11908919
-0.04283903 -0.26248288 0.17248888 0.28648102 0.092672564 -0.21460238 -0.0393996 -0.21439895
0.275618 0.35191748 0.17923854 0.2846729 0.094697 -0.06295087 0.21604556 0.1299835
-0.26605746 0.11249461 0.031072283 0.016184648 0.26393652 0.062218163 -0.333759 0.20863861
0.06603394 0.22566731 -0.07005574 -0.1645422 -0.0880469 -0.078291066 0.07432937 -0.038890928
-0.091771625 -0.1852882 -0.1420741 -0.12991151 -0.06679713 0.045675922 -0.14463516 -0.18631558
0.18170308 0.008978809 -0.19831006 0.009875038 0.028006827 0.09854065 0.062183026 -0.13840462
-0.17920479 0.23216915 -0.07430149 -0.15401217 -0.16466434 0.14513418 0.15968557 -0.20990375
0.065650776 -0.064188264 -0.25999707 0.18705253 -0.012790097 -0.08042083 0.14231333 0.20656969
00000000: 3c36 913e 5715 993e f821 673e 5f8f 1ebd
00000010: 8450 1dbd a163 233e 65d0 1b3e 16f4 eabd
00000020: 22d2 89bd f85c d9bd 5ab1 283e 242d 0e3e
00000030: c1c5 0d3d d91a 863e b3d8 6b3d a561 953d
00000040: 4af1 163e 4daf 61bc 5bd9 d43d b2c6 70bd
00000050: 00fb d73d b769 9cbc ea25 55be d789 813d
00000060: 35e0 f4bd ad15 4a3e dd7c 15be 1369 163e
00000070: 5c2a cebc 7d8d 11be 81f1 cc3d 90e9 59bd
00000080: f594 0dbd e97c 2a3e dbbe 9cbc 1812 8eba
00000090: 85fa ebbd 7ea2 bf3c 94f3 9a3d 3b4e 3c3e
000000a0: 3ae4 2c3d 1a78 64bd 4189 debd bc90 f7bd
000000b0: c59d 52be 9c3f 283e 610d 423d 14f5 2bbd
000000c0: 7db9 64be 33ab 3b3e 6c88 e2bd 72ee 643d
000000d0: 35cf 06be 9833 be3d 1112 6b3d b7bc 423d
000000e0: a7ac 093e f38f 413e 2f4a c03d a269 213e
000000f0: 4101 eabd 1682 8a3d 8aba bdbd 7d92 323e
00000100: d506 28be 47ec 29be 68e3 363e fbc0 9c3c
00000110: a4f8 84bd 895d bebb 69db 87bc d7d4 61bd
00000120: 3598 4ebd 93bd dc3d ab79 20be 2e71 d9bc
00000130: 7902 a7bd b2b9 27be 414d 27bd 3da0 b5bd
00000140: 98a2 8fbc 0ec9 6b3d 0b72 cf3d 5ce6 013e
00000150: a813 ed3c 78bb 243e 0343 503d 4350 9b3e
00000160: bc9d 46be 3dd4 44be 3914 7c3e bcc7 60bd
00000170: ac0a 7a3c 29ea 603e 8dc5 0cbe 032a 8c3e
00000180: e419 24be de2f 5fbc 156a 3cbe a495 3bbe
00000190: 59f3 9f3d 4d0b ae3c 3b14 c0bd 3fa5 0e3e
000001a0: f95a 933d 04fd 3d3e d425 eb3d 3934 693e
000001b0: 78cb 18be 2bbf 35bd a89a 5d3e 7286 03be
000001c0: 8296 963e c375 6e3d 7272 213d d53a 56bd
000001d0: 70ec 0a3c a5a5 5f3e b252 1cbe de74 4fbc
000001e0: 3935 593d 3ab7 083e 5aa6 c83d 8d8d a23c
000001f0: 735b e93d 9ac3 a9bd 99f0 773e 97af 843e
00000200: 092d 33be 2fc6 bebd 7141 fd3c 0d2b b3bd
00000210: 2f4c de3d f851 b6bd 8ecb ee3c e5e0 13be
00000220: 03c4 86bc 3005 b43d 4f1c 433d 5d58 603e
00000230: 5559 57be 2be7 38be de6f cbbd 47b9 9cbd
00000240: c9d1 213d aae2 14be f877 efbd 51a9 51bd
00000250: 00b1 b1bb 9017 55bb 8251 58be d9d6 4dbe
00000260: 088c 173e 3409 213e cfa9 533e 9859 db3c
00000270: 9665 1fbe 8fad 3b3e 872f 14be f926 063e
00000280: 2a69 0ebc 5311 253e ed91 5cbe d9e2 10bd
00000290: 1251 98bd 0e10 f03d 4fcc f0bd 5fda 143e
000002a0: 9160 343e e014 4abe 56f4 223e 3119 643e
000002b0: 6c0c fabd 5dfd 79be 8c17 eb3d b40d 7c3e
000002c0: f50e e83b 83d8 eebd 2ffb 2dbe aa59 60bd
000002d0: acda 363e 1a25 473e de1c 5abe ac23 f43d
000002e0: 8313 443c 6689 e0bd 2271 4ebe 6be9 83be
000002f0: f30c 40bd b066 483e d658 07be 09e5 f33d
00000300: fb77 2fbd 2864 86be eda0 303e a4ad 923e
00000310: 1dcb bd3d bac0 5bbe 7a61 21bd 668b 5bbe
00000320: cd1d 8d3e 872e b43e 4f8a 373e a5c0 913e
00000330: 80f0 c13d 63ec 80bd 0c3b 5d3e 651a 053e
00000340: af38 88be 9363 e63d 4d8b fe3c ab95 843c
00000350: b022 873e 79d8 7e3d 76e2 aabe 5ca5 553e
00000360: cd3c 873d 5515 673e 6279 8fbd c07d 28be
00000370: ef51 b4bd 1157 a0bd ff39 983d 184c 1fbd
00000380: c3f2 bbbd 31bc 3dbe df7b 11be 8607 05be
00000390: efcc 88bd ad16 3b3d 3d1b 14be 83c9 3ebe
000003a0: 5f10 3a3e db1b 133c cb11 4bbe e9ca 213c
000003b0: 936e e53c aecf c93d a1b3 7e3d f1b9 0dbe
000003c0: 7681 37be c0bd 6d3e 612b 98bd 5eb5 1dbe
000003d0: c59d 28be 0e9e 143e 9d84 233e 02f1 56be
000003e0: ea73 863d 2375 83bd 561e 85be b38a 3f3e
000003f0: 8e8d 51bc adb3 a4bd 96ba 113e 0187 533e

fc2.bias f4 [15]
-0.10702411 -0.19513658 -0.08637666 -0.11674324 0.10207539 0.008134471 0.023348738 -0.12923293
0.2334558 0.15143028 0.3284157 -0.057250228 0.14918667 -0.09492659 0.03128048
00000000: 752f dbbd e2d1 47be 3fe6 b0bd 1417 efbd
00000010: e70c d13d 7246 053c da45 bf3c a355 04be
00000020: 0a0f 6f3e 8a10 1b3e 1a26 a83e 377f 6abd
00000030: 64c4 183e df68 c2bd f61f 003d

fc3.weight f4 [10, 15]
0.20758893 0.02855424 -0.2339044 0.11770277 -0.021014182 0.009517757 0.083724715 0.119240485
-0.0916144 -0.08300229 -0.18363826 -0.14796913 0.10112117 -0.18483707 0.19985816 0.22472653
0.14681695 0.18993446 0.02214846 0.059971932 -0.10234713 0.220176 -0.12591475 -0.10815706
0.2552786 -0.20241179 -0.08984221 -0.091511115 -0.11115149 0.25510746 0.03707975 0.079392865
0.008078287 0.06394253 -0.02437796 0.05030721 0.21906275 -0.093289316 0.119582176 0.20788
0.15511219 -0.12468705 -0.19167677 -0.21310292 -0.21121526 0.16219419 -0.19282304 0.048285447
-0.14204006 0.017835591 -0.17089641 -0.13208972 -0.14496048 0.11643333 0.25135016 -0.1206777
-0.057890102 0.27020398 0.24498732 -0.16223453 0.1441034 -0.057435855 -0.06637702 -0.054552782
0.26894298 0.13931428 0.1823148 -0.100131586 0.10041749 -0.24134694 0.13274914 -0.2455806
0.016770594 0.115963705 -0.19548091 -0.0076320176 -0.032671396 -0.06807197 0.25181246 -0.044659812
-0.21515761 0.075344145 -0.2545194 0.052811433 0.0999104 0.10542461 -0.12076876 0.0778077
0.0061761327 0.08153863 0.19134508 0.17047568 -0.24295403 -0.15786308 0.18921421 0.08495723
0.16333969 -0.23894455 -0.21802491 -0.017407557 0.23305735 -0.106201775 -0.041248288 -0.041061547
0.1420732 -0.10210053 -0.19822146 -0.23575918 0.17891628 -0.09925526 -0.2420165 -0.11397747
-0.20502378 -0.19146504 -0.03145095 0.08114589 0.047292802 -0.23918146 0.19501369 0.044316467
-0.058026966 0.036510304 0.15742917 -0.19863024 -0.014699913 -0.030098971 -0.08328679 -0.25363103
0.107526325 0.16518381 -0.18034698 -0.024745991 0.23365003 0.07437387 0.09401283 0.063736565
0.23629522 -0.20732732 0.0160948 0.16965434 0.02822925 -0.21379054 -0.16555712 -0.20315246
-0.31905904 0.039924443 -0.25245607 -0.29544458 -0.16767325 -0.17679317
00000000: 3192 543e 95ea e93c a384 6fbe 260e f13d
00000010: ef25 acbc 5ef0 1b3c dd77 ab3d 5b34 f43d
00000020: 55a0 bbbd 1bfd a9bd ab0b 3cbe 3885 17be
00000030: 9e18 cf3d ee45 3dbe 9ea7 4c3e b61e 663e
00000040: 2f57 163e 2e7e 423e b070 b53c 21a5 753d
00000050: 5f9b d1bd d175 613e ccef 00be 7381 ddbd
00000060: e0b3 823e 0945 4fbe 31ff b7bd 2e6a bbbd
00000070: 64a3 e3bd 729d 823e f0e0 173d ba98 a23d
00000080: cb5a 043c 4df4 823d 4ab4 c7bc ef0e 4e3d
00000090: fc51 603e 780e bfbd 80e7 f43d 7fde 543e
000000a0: bbd5 1e3e ed5b ffbd ea46 44be a737 5abe
000000b0: d048 58be 3c16 263e 6773 45be f6c6 453d
000000c0: f372 11be f21b 923c 78ff 2ebe 8742 07be
000000d0: 8570 14be 9974 ee3d f8b0 803e df25 f7bd
000000e0: 2c1e 6dbd 2d58 8a3e f5dd 7a3e cf20 26be
000000f0: d78f 133e dc41 6bbd adf0 87bd bd72 5fbd
00000100: e5b2 893e 67a8 0e3e bbb0 3a3e ca11 cdbd
00000110: afa7 cd3d a723 77be 64ef 073e 7b79 7bbe
00000120: 7c62 893c 617e ed3d 262c 48be 0116 fabb
00000130: 71d2 05bd 5169 8bbd 90ed 803e 35ed 36bd
00000140: 4752 5cbe 084e 9a3d 5e50 82be cd50 583d
00000150: d39d cc3d dce8 d73d 9d55 f7bd a559 9f3d
00000160: 2861 ca3b bafd a63d f7ef 433e 2d91 2e3e
00000170: f1c8 78be dca6 21be 5fc1 413e 0efe ad3d
00000180: 8542 273e e1ad 74be ec41 5fbe 4b9a 8ebc
00000190: 96a6 6e3e 5180 d9bd f7f3 28bd 2730 28bd
000001a0: a37b 113e 151a d1bd 91fa 4abe db6a 71be
000001b0: d435 373e 5746 cbbd 2cd3 77be 056d e9bd
000001c0: c1f1 51be 690f 44be b6d2 00bd d12f a63d
000001d0: 19b6 413d fceb 74be abb1 473e 2f85 353d
000001e0: afad 6dbd d48b 153d 1d35 213e ba65 4bbe
000001f0: e7d7 70bc 1e92 f6bc 4492 aabd eddb 81be
00000200: c336 dc3d f225 293e e1ac 38be 1bb8 cabc
00000210: f441 6f3e 5451 983d cc89 c03d 5188 823d
00000220: 60f7 713e 9d4d 54be 3ed9 833c deb9 2d3e
00000230: 0741 e73c e8eb 5abe ce87 29be 3307 50be
00000240: b55b a3be d087 233d ec41 81be 8344 97be
00000250: 89b2 2bbe 4509 35be

fc3.bias f4 [10]
0.15280269 -0.00840218 0.17873482 0.17748435 0.3260878 -0.13835014 0.16012177 -0.17702197
0.17853314 -0.029110886
00000000: 4f78 1c3e 4ca9 09bc 4306 373e 75be 353e
00000010: fbf4 a63e a9ab 0dbe f6f6 233e 3f45 35be
00000020: 64d1 363e f479 eebc

fc4.weight f4 [5, 10]
-0.25373736 0.18535827 -0.07665751 0.29712105 -0.057573672 -0.036410227 0.20306371 -0.15147136
0.15899411 0.032316074 -0.074804835 0.09936354 0.21356623 -0.34490675 0.20167828 -0.24324122
0.20385347 0.18140243 -0.21179056 -0.015005485 -0.19745013 -0.16191746 -0.11008799 0.059410058
0.16483979 -0.25878856 -0.05839766 -0.21367282 -0.029529415 -0.047425862 0.3098611 0.095614456
-0.2324083 0.075211555 -0.0883471 -0.14977486 0.0903754 -0.2187702 -0.085329466 0.036620013
0.19736238 0.021742936 0.08782012 0.23043007 -0.09156429 -0.20899309 -0.21521084 0.027631018
-0.15878074 -0.33207816
00000000: dde9 81be 8fce 3d3e 9dfe 9cbd 4020 983e
00000010: 5fd2 6bbd e422 15bd efef 4f3e 4f1b 1bbe
00000020: 5acf 223e dc5d 043d 4733 99bd 1d7f cb3d
00000030: 1bb1 5a3e 9e97 b0be c084 4e3e 3a14 79be
00000040: f7be 503e 8fc1 393e a0df 58be 91d9 75bc
00000050: 5e30 4abe b1cd 25be d075 e1bd f657 733d
00000060: c3cb 283e ef7f 84be 6232 6fbd 0ccd 5abe
00000070: ace7 f1bc 9f41 42bd 1da6 9e3e 83d1 c33d
00000080: 71fc 6dbe 8408 9a3d 53ef b4bd 955e 19be
00000090: bd16 b93d 4c05 60be 37c1 aebd defe 153d
000000a0: 5d19 4a3e 3e1e b23c 09db b33d dcf5 6b3e
000000b0: 0f86 bbbd 4902 56be 3b60 5cbe 725a e23c
000000c0: 6b97 22be 2606 aabe

fc4.bias f4 [5]
-0.2586118 0.2284743 -0.08808325 -0.26048142 0.22580591
00000000: c468 84be 2bf5 693e fe64 b4bd d25d 85be
00000010: aa39 673e

fc5.weight f4 [4, 5]
-0.29847372 0.21480364 -0.10685551 0.35603902 0.113961495 -0.23186648 0.44504926 0.22367397
-0.26543152 -0.08234316 0.29221562 0.059203375 0.3754446 -0.12151978 0.033914562 -0.17717357
0.13760656 0.09154547 -0.4149476 -0.19830203
00000000: 8cd1 98be 7cf5 5b3e 10d7 dabd bf4a b63e
00000010: a564 e93d 686e 6dbe 7fdd e33e ca0a 653e
00000020: a4e6 87be 88a3 a8bd 499d 953e 3d7f 723d
00000030: 463a c03e 5ddf f8bd ffe9 0a3d fd6c 35be
00000040: bce8 0c3e 317c bb3d 0374 d4be b00f 4bbe

fc5.bias f4 [4]
-0.015784195 0.108452186 0.16801883 -0.48258772
00000000: db4d 81bc 2e1c de3d 210d 2c3e bd15 f7be
