Laboratorios/Lab1/checkpoints/modelo_epoch_900.pth (torch, 7862 bytes, 10 tensors)

fc1.weight f4 [20, 24]
0	0x3ee5e072	0.448978
1	0x3ebcf32b	0.36904272
2	0x3ece84df	0.40335748
3	0x3ebf6f36	0.37389535
4	0x3ed8f33c	0.42373073
5	0x3ed41353	0.41420993
6	0x3ebd7ea4	0.37010682
7	0x3edc2ee8	0.43004537
8	0x3ec7d6e3	0.39031133
9	0x3ecdda06	0.402054
10	0x3eb982fd	0.3623275
11	0x3e7db345	0.24775417
12	0x3e62e0d8	0.22156084
13	0x3e48df98	0.19616544
14	0x3df19b8a	0.11797245
15	0x3df8975d	0.12138245
16	0x3eba64d3	0.36405048
17	0x3daedcf4	0.08538237
18	0x3e6a79b1	0.22897984
19	0x3e81e53f	0.25370213
20	0xbc7d2c95	-0.015452524
21	0x3ed6af41	0.41930583
22	0x3ecbd12b	0.3980802
23	0x3ee783cd	0.45217744
24	0x3ef7ad3b	0.48374352
25	0x3ec6deab	0.38841757
26	0x3ed5495e	0.41657537
27	0x3ec2e30b	0.38063845
28	0x3ef992ca	0.48744804
29	0x3edbd18b	0.42933306
30	0x3ec4a7ff	0.3840942
31	0x3ef74afd	0.482994
32	0x3ec2ed40	0.38071632
33	0x3ec80967	0.39069673
34	0x3eb374e1	0.3505011
35	0x3e88b42d	0.26699963
36	0x3e8e7335	0.2782227
37	0x3e8e703c	0.27820003
38	0x3f09ecfc	0.53877234
39	0x3e913704	0.28362286
40	0x3ec439eb	0.38325438
41	0x3e674ac0	0.22587109
42	0x3eb62cb9	0.35580996
43	0x3e8aba15	0.27095094
44	0xbe98f88a	-0.2987712
45	0x3ed38fee	0.41320747
46	0x3ef807d4	0.48443472
47	0x3f0249f1	0.50894076
48	0x3ddec3d6	0.108771965
49	0x3e56a7c0	0.20962429
50	0x3e380957	0.17972313
51	0x3e43bd16	0.191151
52	0x3d7c7b73	0.061641168
53	0x3e1a376b	0.15060203
54	0x3e15255d	0.14565034
55	0x3e0f3247	0.13984023
56	0x3d8f7343	0.07004406
57	0x3e3e4496	0.18580851
58	0x3d84dd1f	0.06487488
59	0x3d3dba98	0.046320528
60	0x3d827803	0.06370547
61	0x3dd48dc2	0.10378601
62	0xbf561952	-0.83632386
63	0x3d4c190e	0.04982858
64	0x3dc5198f	0.096240155
65	0x3dc276e3	0.09495332
66	0xbdc12248	-0.09430367
67	0x3d8bb9c3	0.068225406
68	0x3f6265b6	0.8843645
69	0x3dd86f6b	0.10568126
70	0x3dddefcc	0.10836753
71	0x3ddadf8d	0.1068717
72	0x3dec968a	0.115521505
73	0x3e6a1d10	0.22862649
74	0x3e2cf388	0.16889775
75	0x3e78ea5a	0.24308148
76	0x3dd6419c	0.10461733
77	0x3e2beb8e	0.16789076
78	0x3e5ab70b	0.21358888
79	0x3dee634f	0.11640035
80	0x3e695e98	0.22789991
81	0x3e86e3fa	0.26345807
82	0x3e825da9	0.25462082
83	0x3e8d5a2e	0.27607864
84	0x3e770167	0.24121629
85	0x3de119a7	0.10991221
86	0xbf5ecab3	-0.87028044
87	0x3e402546	0.18764219
88	0x3e585756	0.21127066
89	0x3e51f04d	0.20501824
90	0xbbbee648	-0.0058257915
91	0x3840f7e6	4.600724e-05
92	0x3f6a9a20	0.91641426
93	0x3e2626be	0.16225716
94	0x3dd19c22	0.10234858
95	0x3d9be918	0.076128185
96	0x3d3503fc	0.044193253
97	0x3e28f59a	0.1649994
98	0x3dfaf3c2	0.12253524
99	0x3df977d7	0.12181061
100	0x3c271352	0.010197477
101	0x3e1500a0	0.1455102
102	0x3dcb1c19	0.099174686
103	0x3e039a66	0.12851867
104	0x3cc1e2a9	0.02366765
105	0x3e335d26	0.17516002
106	0x3dd595cc	0.10428962
107	0x3e19c9cb	0.15018384
108	0x3e526853	0.20547609
109	0x3e0a2e2a	0.13494173
110	0xbf643af5	-0.8915246
111	0x3d16c3b9	0.03680775
112	0x3d9113e8	0.07083875
113	0x3e107117	0.1410564
114	0xbd38d7cb	-0.04512767
115	0x3dbebeb2	0.09313716
116	0x3f6f078c	0.9337089
117	0x3d4d6df0	0.050153673
118	0x3d6db585	0.05803444
119	0x3d79555c	0.06087242
120	0xbb49beaa	-0.003078381
121	0xba8d023c	-0.0010758112
122	0xbc7a6047	-0.015281743
123	0x3b98670d	0.0046509565
124	0xbbe5dc66	-0.007014799
125	0xbc449089	-0.0119973505
126	0xbc4dce3b	-0.012561376
127	0xbbbb811b	-0.0057221777
128	0xbcf8e2f2	-0.030381653
129	0xbc164677	-0.009172074
130	0xbc71526e	-0.014729125
131	0xbc8a192a	-0.016857702
132	0x3b388709	0.002815666
133	0xbb863466	-0.004095602
134	0x3c1b2cbe	0.009471117
135	0x3c19c14f	0.009384467
136	0xbc657a82	-0.014006259
137	0x3c1c9762	0.009557577
138	0xbcce4216	-0.025177997
139	0xbc3c3200	-0.01148653
140	0x3c2290a5	0.009922181
141	0xbca1c7e8	-0.019748643
142	0xbc8e3e45	-0.017363677
143	0xbb068ac4	-0.0020529488
144	0x3e82eab5	0.25569692
145	0x3e9d4f7a	0.30724698
146	0x3e8a6aae	0.27034515
147	0x3eabf26d	0.33583394
148	0x3e615ae5	0.2200733
149	0x3e88b144	0.26697743
150	0x3e9b9136	0.30384225
151	0x3e5e7d44	0.21727473
152	0x3e91840f	0.28421065
153	0x3e9d8fef	0.30773875
154	0x3e9dc9ed	0.3081812
155	0x3ed4e80d	0.4158329
156	0x3e85ac3d	0.2610797
157	0x3e437692	0.190882
158	0xbf37055c	-0.7149255
159	0x3e6fa97b	0.23404495
160	0x3e8d2904	0.27570355
161	0x3e780996	0.24222407
162	0x3da1a881	0.07893468
163	0x3d9cf1ce	0.07663308
164	0x3f3aec93	0.73017234
165	0x3eade223	0.3396159
166	0x3e89ee1f	0.26939484
167	0x3e5c6190	0.21521592
168	0x3d6a0f51	0.057143513
169	0x3e0dc233	0.13843612
170	0x3e239562	0.15974954
171	0x3de6903d	0.1125798
172	0x3d42a8de	0.047524326
173	0x3e0c8ab4	0.13724786
174	0x3dacff82	0.08447172
175	0x3e111074	0.14166433
176	0x3c8364b3	0.016039228
177	0x3e1934dc	0.1496157
178	0x3d9091c9	0.07059056
179	0x3d5ad78a	0.05342821
180	0x3d3047e3	0.043037307
181	0x3d346798	0.044044107
182	0xbf3e8db2	-0.7443496
183	0x3c5981a4	0.013275538
184	0x3dc77e2a	0.09740861
185	0x3d562b3b	0.05228732
186	0xbe041f3b	-0.12902538
187	0x3d3767a0	0.04477656
188	0x3f502aaa	0.813151
189	0x3d040e9d	0.0322405
190	0x3de30fa2	0.11086966
191	0x3e000530	0.12501979
192	0x3dc856aa	0.09782155
193	0x3e8bb98a	0.27289993
194	0x3e543b97	0.20725857
195	0x3e91c51a	0.2847069
196	0x3e02b8cc	0.12765807
197	0x3de5b793	0.11216655
198	0x3e898676	0.26860398
199	0xbdf1723d	-0.11789367
200	0x3e951995	0.2912108
201	0x3e6a0e8e	0.22857115
202	0x3e107bcc	0.14109725
203	0x3e3b46d2	0.18288735
204	0x3e14b7f9	0.14523305
205	0x3e261cf4	0.16221982
206	0x3f3c8690	0.73642826
207	0x3e6334b5	0.22188075
208	0x3e678752	0.22610214
209	0x3e36101b	0.17779581
210	0x3ec58d2d	0.3858427
211	0x3e36829d	0.17823263
212	0xbf5c13f4	-0.85967946
213	0x3e4236d6	0.18966231
214	0x3d603851	0.054741208
215	0xbd114f6b	-0.03547613
216	0x3b24672a	0.0025085905
217	0xbbec7d4b	-0.0072170845
218	0xbb8fb5b9	-0.0043856767
219	0xbc1c53e3	-0.0095414845
220	0x3b57fbe3	0.0032956533
221	0x3ae89bd3	0.0017746635
222	0xbc671395	-0.01410379
223	0xbb28cfb4	-0.0025758566
224	0xbb4707a5	-0.0030369547
225	0xbcb1d601	-0.02170849
226	0xbc09b1c6	-0.008404201
227	0xbb664734	-0.0035137655
228	0xbb25ff10	-0.002532903
229	0xbaf9c3b9	-0.0019055522
230	0xbb53e16e	-0.0032330411
231	0xbc9e5c05	-0.019330988
232	0x3b8c21bb	0.004276482
233	0x3b418d32	0.0029533622
234	0xbbba66c0	-0.0056885183
235	0xbbe2df8f	-0.006923623
236	0xbcef1ca1	-0.029188456
237	0xbb8813fc	-0.004152773
238	0xbbc4b338	-0.00600281
239	0xbc48666f	-0.012231453
240	0x3db96e94	0.09054294
241	0x3e1de71c	0.15420192
242	0x3e1ee65b	0.15517561
243	0x3dec78ad	0.115464546
244	0x3cdab646	0.026698243
245	0x3e007fcd	0.12548752
246	0x3dde5b72	0.108572856
247	0x3de72370	0.11286056
248	0x3cca6bee	0.024709668
249	0x3e27b535	0.16377719
250	0x3d5eaab7	0.054362025
251	0xbd2c7a80	-0.042109013
252	0x3c76947a	0.015050048
253	0x3d892ce9	0.06698019
254	0xbf3fb452	-0.7488452
255	0x3da7b0da	0.08188029

fc1.bias f4 [20]
0	0x3ec44355	0.3833262
1	0x3eb91c6d	0.361545
2	0x3ea9fa30	0.3319869
3	0x3ea73c1b	0.32663044
4	0x3eaa7ef3	0.3329998
5	0xbc241390	-0.01001443
6	0x3eabcfc7	0.3355696
7	0x3e986c9f	0.2977037
8	0x3d7f8321	0.062380914
9	0xbbad99e2	-0.0052978853
10	0x3e955a61	0.29170516
11	0xbb8dadd4	-0.0043237004
12	0x3ea560aa	0.3230031
13	0x3e926ea9	0.28600052
14	0x3e3c4637	0.1838616
15	0x3ea474df	0.32120416
16	0x00000000	0.0
17	0x3e864bad	0.2622961
18	0xbbf8e9f1	-0.0075962474
19	0xbc26c097	-0.010177753

fc2.weight f4 [15, 20]
0	0x3f18fcfd	0.5976103
1	0x3f2984aa	0.66218054
2	0x3e85b6cd	0.26116028
3	0x3d85f65c	0.0654113
4	0xbd2c74e6	-0.04210367
5	0x3e2363a1	0.15955974
6	0x3eb09c58	0.3449428
7	0xbddc78f1	-0.10765255
8	0x3ebb5452	0.3658777
9	0xbdd95cf8	-0.106134355
10	0x3e18b62c	0.14913243
11	0x3e0e2d24	0.13884407
12	0x3dde1eb4	0.108457
13	0x3e117420	0.14204454
14	0x3ef2c64e	0.4741692
15	0x3eefdc50	0.46847773
16	0x3e16f14a	0.14740482
17	0xbdda15b0	-0.10648668
18	0x3dd4d95b	0.1039302
19	0xbd70c6b2	-0.05878324
20	0x3dd7fb00	0.10545921
21	0xbc9c69b7	-0.019093378
22	0xbe5525ea	-0.20815244
23	0x3d8189d7	0.06325119
24	0xbdf4e035	-0.119568266
25	0x3e4a15ad	0.19734831
26	0xbe157cdd	-0.14598413
27	0x3e166913	0.1468852
28	0xbcce2a5c	-0.025166683
29	0xbe118d7d	-0.1421413
30	0x3dccf181	0.10007001
31	0xbd59e990	-0.05320126
32	0xbd0d94f5	-0.034565885
33	0x3e2a7ce9	0.16649212
34	0xbc9cbedb	-0.019133976
35	0xba8e1218	-0.0010839133
36	0xbdebfa85	-0.11522392
37	0x3cbfa27e	0.023392912
38	0x3d9af394	0.0756599
39	0x3e3c4e3b	0.18389218
40	0x3d2ce43a	0.04220984
41	0xbd64781a	-0.0557786
42	0xbdde8941	-0.10866023
43	0xbdf790bc	-0.12088153
44	0xbe529dc5	-0.20567997
45	0x3e283f9c	0.16430515
46	0x3d420d61	0.04737604
47	0xbd2bf514	-0.04198177
48	0xbe64b97d	-0.22336383
49	0x3e3bab33	0.18327026
50	0xbde2886c	-0.11061177
51	0x3d64ee72	0.05589146
52	0xbe06cf35	-0.1316498
53	0x3dbe3398	0.092871845
54	0x3d6b1211	0.057390276
55	0x3d42bcb7	0.047543254
56	0x3e09aca7	0.13444768
57	0x3e418ff3	0.18902569
58	0x3dc04a2f	0.093891494
59	0x3e2169a2	0.15762952
60	0xbdea0141	-0.114260204
61	0x3d8a8216	0.06763093
62	0xbdbdba8a	-0.09264095
63	0x3e32927d	0.17438693
64	0xbe2806d5	-0.16408856
65	0xbe29ec47	-0.16594039
66	0x3e36e368	0.17860186
67	0x3c9cc0fb	0.019134989
68	0xbd84f8a4	-0.06492737
69	0xbbbe5d89	-0.00580949
70	0xbc87db69	-0.016584115
71	0xbd61d4d7	-0.05513462
72	0xbd4e9835	-0.050438125
73	0x3ddcbd93	0.10778346
74	0xbe2079ab	-0.15671413
75	0xbcd9712e	-0.026543226
76	0xbda70279	-0.081547685
77	0xbe27b9b2	-0.16379431
78	0xbd274d41	-0.04084516
79	0xbdb5a03d	-0.08868454
80	0x3de977d8	0.113998115
81	0x3b669443	0.0035183586
82	0x3eef0db6	0.46690148
83	0x3efdb265	0.49550167
84	0x3ee33a74	0.44380534
85	0x3e24bb85	0.16087158
86	0x3eae5b18	0.34053874
87	0x3f2dd6d6	0.6790594
88	0xbf249333	-0.6428711
89	0xbe44d43d	-0.19221587
90	0x3f235b17	0.6381087
91	0xbd60c7bc	-0.05487798
92	0x3ec32420	0.381135
93	0x3f26e1f7	0.65188545
94	0xbf0beba6	-0.54656446
95	0x3dea2d04	0.11434367
96	0xbe2419e4	-0.16025501
97	0x3ed0422f	0.40675494
98	0xbe3c6a04	-0.18399817
99	0xbe3b958c	-0.18318766
100	0x3e0a3252	0.13495758
101	0xbe22a853	-0.15884523
102	0x3eaa07b0	0.3320899
103	0x3f13c04f	0.57715315
104	0x3f0e75f7	0.5564875
105	0x3e3dfd0f	0.18553565
106	0x3ee1850b	0.44046816
107	0x3f2a9301	0.6663056
108	0xbf187d8b	-0.59566563
109	0xbd35bf2b	-0.044371765
110	0x3f29da45	0.6634868
111	0xbe038672	-0.12844256
112	0x3f39fd91	0.72652537
113	0x3f0ad887	0.54236645
114	0xbebfc732	-0.3745666
115	0xbe96abe9	-0.29428032
116	0x3c0aec70	0.008479223
117	0x3f33fead	0.7031048
118	0xbe1c52ab	-0.1526591
119	0xbc4f74de	-0.012662141
120	0x3e5b055a	0.2138876
121	0x3e3ae19b	0.18250124
122	0x3ed97bff	0.42477414
123	0x3eb2a192	0.34888893
124	0x3ef5b45a	0.4798916
125	0xbda9c39a	-0.08289261
126	0x3f031235	0.51199657
127	0x3f1779a5	0.5916999
128	0xbf26ec4f	-0.6520433
129	0xbdbec62f	-0.09315144
130	0x3ec5a8b6	0.3860528
131	0xbdb32b0d	-0.08748446
132	0x3ede6360	0.43435192
133	0x3e9ad415	0.3023993
134	0xbeca7781	-0.395443
135	0xbe2bdabc	-0.1678266
136	0xbc86c403	-0.016450888
137	0x3eea6f19	0.45787886
138	0x3d431c4f	0.04763442
139	0x3e60585d	0.21908708
140	0xbe575955	-0.21030171
141	0xbe38e72b	-0.18056934
142	0xbdcb6fde	-0.09933446
143	0xbd9cb947	-0.07652526
144	0x3d21d1c9	0.039506707
145	0xbe14e2aa	-0.1453959
146	0xbdef77f8	-0.11692804
147	0xbd51a951	-0.051186863
148	0xbbb1b100	-0.0054227114
149	0xbb551790	-0.0032515265
150	0xbe585182	-0.21124843
151	0xbe4dd6d9	-0.20101489
152	0x3e178c08	0.14799511
153	0x3e210934	0.15726167
154	0x3e53a9cf	0.20670246
155	0x3cdb5998	0.02677612
156	0xbe1f6596	-0.15566096
157	0x3e3bad8f	0.18327926
158	0xbe142f87	-0.14471255
159	0x3e0626f9	0.13100804
160	0x3eba0dea	0.3633874
161	0x3f12ca51	0.5733996
162	0xbe939ce9	-0.2883065
163	0x3d1d7a0b	0.038446467
164	0xbe53ddf1	-0.20690133
165	0x3df00ff0	0.1172179
166	0x3dc82d66	0.09774284
167	0x3cb4b9e7	0.022061301
168	0x3f1c4164	0.6103728
169	0xbe4a14e0	-0.19734526
170	0x3b1ac733	0.0023617267
171	0x3e641931	0.22275235
172	0xbddc6a9b	-0.10762521
173	0xbf00b5e4	-0.50277543
174	0x3f087364	0.5330107
175	0x3f2ed0e7	0.6828751
176	0x3be80ef5	0.007081861
177	0xbec30da2	-0.3809634
178	0xbe2dfb41	-0.16990377
179	0xbd605954	-0.05477269
180	0x3f11fbe6	0.5702499
181	0x3f1ecbf6	0.6202997
182	0xbf1759d2	-0.5912143
183	0xbe436175	-0.19080146
184	0xbecee092	-0.4040571
185	0xbde08991	-0.10963739
186	0xbdf3f738	-0.119123876
187	0xbf1a8aa1	-0.6036778
188	0x3ec30d52	0.380961
189	0x3e4866b0	0.19570422
190	0xbf0163f8	-0.50543165
191	0x3df3e509	0.11908919
192	0xbedc82ab	-0.43068442
193	0xbf389581	-0.72103125
194	0x3f149830	0.5804472
195	0x3f3bf865	0.73425895
196	0x3dbdcb1d	0.092672564
197	0xbf22f92d	-0.6366146
198	0xbd2161e2	-0.03939999
199	0xbe5b8b4e	-0.2143986
200	0x3ec90f9a	0.39269716
201	0x3e983db1	0.29734567
202	0x3f07131b	0.5276353
203	0x3f21e07e	0.6323317
204	0x3efb4f2e	0.49083847
205	0xbd80ec31	-0.0629505
206	0x3ef90a1f	0.48640534
207	0x3ef9f69c	0.4882096
208	0xbf37023b	-0.7148778
209	0x3de66393	0.11249461
210	0x3ed114eb	0.40836272
211	0x3c8495ab	0.016184648
212	0x3f1c5057	0.6106009
213	0x3ef5b51e	0.47989744
214	0xbf3eb501	-0.7449494
215	0x3d6bc9c0	0.05756545
216	0x3d873ccd	0.06603394
217	0x3f20d043	0.6281778
218	0xbd8f792e	-0.07005535
219	0xbe287daf	-0.16454194
220	0xbdb451ef	-0.0880469
221	0xbda05711	-0.078291066
222	0x3d9839ff	0.07432937
223	0xbd1f4c18	-0.038890928
224	0xbdbbf2c3	-0.091771625
225	0xbe3dbc31	-0.1852882
226	0xbe117bdf	-0.1420741
227	0xbe050786	-0.12991151
228	0xbd88ccef	-0.06679713
229	0x3d3b16ad	0.045675922
230	0xbe141b3d	-0.14463516
231	0xbe3ec983	-0.18631558
232	0x3e3a105f	0.18170308
233	0x3c131bdb	0.008978809
234	0xbe4b11cb	-0.19831006
235	0x3c21cae9	0.009875038
236	0x3ce56e93	0.028006827
237	0x3dc9cfae	0.09854065
238	0x3d7eb3a1	0.062183026
239	0xbe0db9f1	-0.13840462
240	0x3e4f321c	0.20233959
241	0x3f29ab74	0.6627724
242	0xbf03056a	-0.51180136
243	0xbf2cad4b	-0.67451924
244	0xbf2d4222	-0.67679036
245	0x3e149df8	0.14513385
246	0x3d1416b5	0.036154468
247	0xbf23ac37	-0.63934654
248	0x3efab090	0.48962831
249	0xbd83751a	-0.0641882
250	0xbf2fab32	-0.686206
251	0x3e3f8ab3	0.18705253
252	0xbef7ad71	-0.48374513
253	0xbf0adb41	-0.54240805
254	0x3f0b41e8	0.5439744
255	0x3f28758c	0.6580436

fc2.bias f4 [15]
0	0x3dfbfccb	0.12304076
1	0xbe47d1e2	-0.19513658
2	0xbdb0e63f	-0.08637666
3	0xbdef1714	-0.11674324
4	0x3e8cf4f9	0.2753065
5	0x3e2cf516	0.16890368
6	0x3e458f32	0.19292906
7	0xbe0455a3	-0.12923293
8	0x3f019ff7	0.5063471
9	0x3ec32829	0.38116577
10	0x3ef50a61	0.4785948
11	0xbd6a7f37	-0.057250228
12	0x3ea70604	0.32621777
13	0xbddb2e2e	-0.107021675
14	0x3cfd944d	0.030954504

fc3.weight f4 [10, 15]
0	0x3f0d5542	0.5520822
1	0x3ce9ea95	0.02855424
2	0xbe6f84a3	-0.2339044
3	0x3df10e26	0.11770277
4	0xbefd4d7d	-0.4947318
5	0xbf03df6d	-0.51512796
6	0xbecfe921	-0.4060755
7	0x3df4345b	0.119240485
8	0x3ea2caa7	0.31795236
9	0x3ec5d27d	0.38637152
10	0xbf130600	-0.5743103
11	0xbe178538	-0.14796913
12	0x3f154c58	0.58319616
13	0xbe35a1ad	-0.17737456
14	0x3e4cd89d	0.20004506
15	0x3ed6b7f1	0.4193721
16	0x3e16572f	0.14681695
17	0x3e427e2e	0.18993446
18	0x3cb570b0	0.02214846
19	0xbeb7aade	-0.3587255
20	0xbf172651	-0.5904284
21	0xbe4a5d05	-0.19762047
22	0xbe00efcc	-0.12591475
23	0x3e52c3fd	0.20582576
24	0x3f2dfb49	0.67961556
25	0xbf0d6bd0	-0.55242634
26	0xbdb7ff31	-0.08984221
27	0x3ec976df	0.39348504
28	0xbdde6f2d	-0.10861049
29	0x3e829d72	0.25510746
30	0x3ea47a03	0.32124338
31	0x3da298ba	0.079392865
32	0x3c045acb	0.008078287
33	0x3d82f44d	0.06394253
34	0x3e37d91d	0.17953916
35	0x3e730955	0.23734029
36	0x3edc424f	0.4301934
37	0xbdbf0e78	-0.093289316
38	0x3eea9480	0.45816422
39	0x3f10ef70	0.5661535
40	0x3eb4409b	0.3520554
41	0xbdff5bed	-0.12468705
42	0x3e1cdcc4	0.1531859
43	0xbe53b977	-0.20676218
44	0xbe585dec	-0.21129578
45	0x3ef223d1	0.4729295
46	0xbe457367	-0.19282304
47	0x3d45c6f6	0.048285447
48	0xbe1172f3	-0.14204006
49	0xbedabe00	-0.42723083
50	0xbf2a2d67	-0.6647553
51	0xbf158854	-0.58411145
52	0xbe147085	-0.14496048
53	0x3f0057cb	0.5013396
54	0x3f320eb3	0.6955368
55	0xbefeeee6	-0.4979164
56	0xbd6d1e2c	-0.057890102
57	0x3f3b3871	0.73133
58	0x3e818877	0.25299427
59	0xbe25dac4	-0.16196734
60	0x3ebc59a3	0.36787137
61	0xbd6b41dc	-0.057435855
62	0xbd87f0ad	-0.06637702
63	0xbd5f72bd	-0.054552782
64	0x3f12ebd3	0.5739109
65	0x3eee2e76	0.46519822
66	0x3efd4c9b	0.49472508
67	0xbdcd11ca	-0.100131586
68	0x3e702b7c	0.23454088
69	0xbf12f0b3	-0.5739853
70	0x3ecc722f	0.39930865
71	0xbe7b797b	-0.2455806
72	0xbf00043e	-0.50006473
73	0x3def91df	0.116977446
74	0xbe4875a5	-0.19576128
75	0x3e76cb82	0.2410107
76	0xbd05d271	-0.032671396
77	0xbd8b6951	-0.06807197
78	0x3e80ed90	0.25181246
79	0xbf007df3	-0.50192183
80	0xbf3ee4eb	-0.7456805
81	0xbecbf168	-0.39832616
82	0xbe82505e	-0.2545194
83	0x3ed67636	0.41887063
84	0x3f13ad21	0.5768605
85	0xbe99206c	-0.29907548
86	0xbdf7559d	-0.12076876
87	0x3f1dfd2e	0.61714447
88	0x3ba485ca	0.0050208317
89	0x3da8241c	0.08210012
90	0x3eaefd7d	0.3417777
91	0x3e2e912d	0.17047568
92	0xbe78c8f1	-0.24295403
93	0xbe21a6dc	-0.15786308
94	0x3eea5c03	0.45773324
95	0x3ec2522f	0.37953326
96	0x3ee118d4	0.43964255
97	0xbe74ade1	-0.23894455
98	0xbe756f59	-0.23968257
99	0xbeab1dbe	-0.3342113
100	0x3eeb28f4	0.45929682
101	0xbdd98051	-0.106201775
102	0xbf070dc0	-0.52755356
103	0xbd3b90ef	-0.045792516
104	0x3e11377c	0.14181322
105	0xbdd11a15	-0.10210053
106	0xbe4afa91	-0.19822146
107	0xbe716adb	-0.23575918
108	0x3e3735d4	0.17891628
109	0xbdcb4657	-0.09925526
110	0xbe77d32c	-0.2420165
111	0xbde96d05	-0.11397747
112	0xbe51f1c1	-0.20502378
113	0xbe440f69	-0.19146504
114	0xbd00d2b6	-0.03145095
115	0x3da62fd1	0.08114589
116	0x3d41b619	0.047292802
117	0xbe74ebfc	-0.23918146
118	0x3e47b1ab	0.19501369
119	0x3d35852f	0.044316467
120	0xbe1be307	-0.15223323
121	0x3d158bd4	0.036510304
122	0x3e21351d	0.15742917
123	0xbe4b65ba	-0.19863024
124	0xbd746a91	-0.059671942
125	0xbd9235ff	-0.07139205
126	0xbe1fa39b	-0.15589754
127	0xbe81dbed	-0.25363103
128	0x3c07e026	0.008293187
129	0x3d833bfe	0.06407927
130	0xbe53b89b	-0.2067589
131	0xbccab81b	-0.024745991
132	0x3e0fcc1a	0.14042702
133	0x3d921379	0.0713262
134	0x3dc033f5	0.0938491
135	0x3d07f465	0.033192057
136	0x3e71f760	0.23629522
137	0xbe544d9d	-0.20732732
138	0x3c83d93e	0.0160948
139	0x3e129391	0.14314105
140	0x3b0ed8da	0.0021796734
141	0xbe79776b	-0.2436196
142	0xbe2987ce	-0.16555712
143	0xbe602386	-0.21888551
144	0xbea7073a	-0.326227
145	0x3c9d3677	0.01919101
146	0xbe8141ec	-0.25245607
147	0xbe9895bb	-0.29801735
148	0xbe2bb289	-0.16767325
149	0xbe35084b	-0.17678945

fc3.bias f4 [10]
0	0x3ea012f6	0.31264466
1	0x3d2e923f	0.04261994
2	0x3eafd50f	0.34342238
3	0x3ea0c763	0.3140212
4	0x3ef58c85	0.4795877
5	0xbddb05a4	-0.10694435
6	0x3e8c6089	0.274174
7	0xbe35453f	-0.17702197
8	0x3e294308	0.16529477
9	0xbd270303	-0.040774357

fc4.weight f4 [5, 10]
0	0xbe917160	-0.2840681
1	0x3e1de74c	0.15420264
2	0xbdf8cab2	-0.12148036
3	0x3e88da79	0.2672918
4	0xbdc51540	-0.09623194
5	0xbd8f1a91	-0.06987489
6	0x3e29c714	0.16579849
7	0xbe1b1b4f	-0.15147136
8	0x3e0f4819	0.13992347
9	0x3ccf9ad5	0.025342384
10	0xbf3ad4c8	-0.7298093
11	0xbf2e6375	-0.6812051
12	0x3ed49c6b	0.41525587
13	0xbf65bd6e	-0.8974217
14	0x3ed67210	0.41883898
15	0xbf82e740	-1.0226822
16	0x3ed57634	0.41691744
17	0x3e39c18f	0.18140243
18	0xbe58c06e	-0.21167156
19	0x3b2e02ee	0.002655204
20	0xbf4a0d2e	-0.7892636
21	0xbf625fff	-0.8842773
22	0x3bbd70e0	0.005781278
23	0xbef7c53a	-0.4839266
24	0x3f09250e	0.53572166
25	0xbf69cc1f	-0.9132709
26	0x3ea675d0	0.3251176
27	0xbe5acd0c	-0.21367282
28	0xbcf1e7ac	-0.029529415
29	0xbcd3ed02	-0.02586985
30	0x3ea91b79	0.33028772
31	0x3dfaa6ec	0.12238869
32	0xbe65ad86	-0.22429475
33	0x3dc2ec5a	0.09517737
34	0xbde06334	-0.109564215
35	0xbe00925c	-0.12555832
36	0x3da0dcd1	0.078546174
37	0xbe60054c	-0.2187702
38	0xbdb0515d	-0.08609269
39	0x3d15fede	0.036620013
40	0x3f1a203e	0.6020545
41	0x3ef47ad2	0.47749954
42	0x3ecea9e1	0.40363982
43	0x3f21df02	0.6323091
44	0x3d6e57c1	0.058189157
45	0x3e93b2d5	0.28847376
46	0xbe0a7e83	-0.13524823
47	0x3ce25a72	0.027631018
48	0xbe0fe38a	-0.14051643
49	0xbeaaa9f7	-0.33332798

fc4.bias f4 [5]
0	0xbe976db6	-0.2957589
1	0x3ea6c3ef	0.3257136
2	0xbd74fb9f	-0.059810277
3	0xbe859a4c	-0.26094282
4	0x3ec97d69	0.39353493

fc5.weight f4 [4, 5]
0	0xbe99f9c7	-0.30073377
1	0x3d195aa3	0.037439954
2	0xbf3eec92	-0.7457973
3	0x3ebea682	0.3723641
4	0x3eedc0fc	0.46436298
5	0xbe6b1c6d	-0.22960062
6	0x3f44602b	0.7670924
7	0x3f54c9da	0.831205
8	0xbe880f7f	-0.26574323
9	0xbed9c506	-0.4253313
10	0x3e94a621	0.29032996
11	0xbdf46645	-0.11933569
12	0x3d39cc80	0.045361042
13	0xbe155b40	-0.1458559
14	0xbe631b86	-0.22178468
15	0xbe342e23	-0.17595725
16	0xbcb3da96	-0.021954816
17	0xbddf0326	-0.108892724
18	0xbed48481	-0.41507342
19	0xbed0b4fc	-0.4076308

fc5.bias f4 [4]
0	0x3d901674	0.070355326
1	0x3e0e2da1	0.13884594
2	0x3de67db0	0.11254442
3	0xbf0d82bc	-0.5527761
